trainer/results/football/11_vs_11_stochastic/mat/check/run1/models/transformer_1100.pt (torch, 467894 bytes, 73 tensors)

encoder.state_encoder.0.weight f4 [37]
0	0x3f800000	1.0
1	0x3f800000	1.0
2	0x3f800000	1.0
3	0x3f800000	1.0
4	0x3f800000	1.0
5	0x3f800000	1.0
6	0x3f800000	1.0
7	0x3f800000	1.0
8	0x3f800000	1.0
9	0x3f800000	1.0
10	0x3f800000	1.0
11	0x3f800000	1.0
12	0x3f800000	1.0
13	0x3f800000	1.0
14	0x3f800000	1.0
15	0x3f800000	1.0
16	0x3f800000	1.0
17	0x3f800000	1.0
18	0x3f800000	1.0
19	0x3f800000	1.0
20	0x3f800000	1.0
21	0x3f800000	1.0
22	0x3f800000	1.0
23	0x3f800000	1.0
24	0x3f800000	1.0
25	0x3f800000	1.0
26	0x3f800000	1.0
27	0x3f800000	1.0
28	0x3f800000	1.0
29	0x3f800000	1.0
30	0x3f800000	1.0
31	0x3f800000	1.0
32	0x3f800000	1.0
33	0x3f800000	1.0
34	0x3f800000	1.0
35	0x3f800000	1.0
36	0x3f800000	1.0

encoder.state_encoder.0.bias f4 [37]
0	0x00000000	0.0
1	0x00000000	0.0
2	0x00000000	0.0
3	0x00000000	0.0
4	0x00000000	0.0
5	0x00000000	0.0
6	0x00000000	0.0
7	0x00000000	0.0
8	0x00000000	0.0
9	0x00000000	0.0
10	0x00000000	0.0
11	0x00000000	0.0
12	0x00000000	0.0
13	0x00000000	0.0
14	0x00000000	0.0
15	0x00000000	0.0
16	0x00000000	0.0
17	0x00000000	0.0
18	0x00000000	0.0
19	0x00000000	0.0
20	0x00000000	0.0
21	0x00000000	0.0
22	0x00000000	0.0
23	0x00000000	0.0
24	0x00000000	0.0
25	0x00000000	0.0
26	0x00000000	0.0
27	0x00000000	0.0
28	0x00000000	0.0
29	0x00000000	0.0
30	0x00000000	0.0
31	0x00000000	0.0
32	0x00000000	0.0
33	0x00000000	0.0
34	0x00000000	0.0
35	0x00000000	0.0
36	0x00000000	0.0

encoder.state_encoder.1.weight f4 [64, 37]
0	0x3eea3253	0.4574152
1	0x3e4463b7	0.19178663
2	0x3def88ec	0.11696038
3	0xbd0ebc43	-0.03484751
4	0xbcca7e92	-0.024718557
5	0x3db73b08	0.08946806
6	0x3c99b2b4	0.01876197
7	0x3dbed0be	0.09317158
8	0x3e86bd51	0.26316312
9	0xbd8f8500	-0.070077896
10	0x3ead2fff	0.3382568
11	0xbd729ceb	-0.05923168
12	0xbe0441cd	-0.12915726
13	0xbe7bd527	-0.2459303
14	0xbcc9bf5b	-0.024627378
15	0x3e0b0fd3	0.13580255
16	0xbe2304b4	-0.15919763
17	0xbe357f7e	-0.17724416
18	0x3d299f5f	0.041411754
19	0x3cb5043b	0.022096744
20	0x3e38d0d0	0.18048406
21	0x3dfc5c2e	0.123222694
22	0xbd9c76f4	-0.07639876
23	0xbebc8b5d	-0.36825076
24	0xbe97f665	-0.29680172
25	0xbd0c02ed	-0.034182478
26	0x3d67e7d0	0.056617558
27	0x3e4df335	0.20112307
28	0x3d515823	0.051109444
29	0x3e4db43b	0.20088284
30	0x3e3c91fa	0.1841506
31	0xbd9f6b63	-0.07784154
32	0x3cb65284	0.022256143
33	0xbb022509	-0.00198585
34	0x3c921899	0.017833995
35	0x3e2bf260	0.16791677
36	0x3e12448a	0.14283958
37	0x3e8112f6	0.2520978
38	0xbb2f9f0b	-0.0026797678
39	0x3d15bafa	0.036555268
40	0xbeaf82c5	-0.34279457
41	0x3e56b06a	0.20965734
42	0x3ddf92a0	0.109166384
43	0x3d740ad4	0.05958064
44	0x3e3ab8a6	0.182345
45	0x3e458170	0.19287658
46	0x3d61f7ed	0.05516808
47	0x3c860f25	0.016364643
48	0xbe00a492	-0.12562779
49	0x3e91d3ce	0.28481907
50	0x3cc84edc	0.024451666
51	0x3eb34295	0.35011736
52	0xbe2b87bf	-0.16751002
53	0xbe8c83a0	-0.27444172
54	0x3dbdefe7	0.09274273
55	0x3c1a6e0c	0.009425651
56	0xbe102763	-0.14077525
57	0xbe60e71c	-0.21963161
58	0x3e35d172	0.17755678
59	0xbcb97c32	-0.022642229
60	0x3caa1afc	0.02076482
61	0x3d31b044	0.04338099
62	0xbeb5f0be	-0.35535234
63	0xbe32c4b4	-0.17457849
64	0x3dcd8324	0.10034779
65	0xbd8dd220	-0.06924844
66	0xbd7cc212	-0.061708517
67	0xbda61a35	-0.08110467
68	0x3e950f4c	0.29113233
69	0x3d963cca	0.07335813
70	0xbe4c8050	-0.19970822
71	0xbd0f2270	-0.03494495
72	0xbd842e07	-0.064540915
73	0x3e9ff8cb	0.312445
74	0x3d7fb785	0.062430877
75	0xbe330d8e	-0.1748564
76	0x3e20c7ef	0.15701269
77	0x3da887f8	0.08229059
78	0xbdae9e1d	-0.085262515
79	0xbe2ae3e6	-0.16688499
80	0x3d3489ab	0.044076603
81	0xbe6f10fb	-0.23346321
82	0x3c6b4537	0.014359764
83	0xbd4d532e	-0.050128154
84	0xbe8d637b	-0.2761496
85	0xbdb88d8b	-0.09011372
86	0x3e48eaa9	0.19620766
87	0x3ead9efc	0.33910358
88	0x3db3567a	0.087567285
89	0x3e4f6a52	0.20255402
90	0x3ba6c18d	0.005088991
91	0x3df311d4	0.11868635
92	0x3d5a49ad	0.05329292
93	0x3e30a9cb	0.17252271
94	0x3e634c59	0.22197093
95	0x3d6cca01	0.057809833
96	0xbd06d0e9	-0.032914076
97	0xbe1f38cd	-0.15549012
98	0xbe8eb27a	-0.27870542
99	0x3e9798b1	0.29608682
100	0xbe394f45	-0.18096645
101	0xbd5f8528	-0.054570347
102	0xbe8b3af6	-0.2719342
103	0xbd68baea	-0.05681888
104	0xbdb0bb52	-0.086294785
105	0x3e83a199	0.25709227
106	0x3dcdc8be	0.10048054
107	0x39638498	0.00021697802
108	0x3c67a18f	0.01413764
109	0x3e536661	0.20644523
110	0xbe33cab8	-0.175578
111	0x3d87c614	0.06629577
112	0xbf0efc04	-0.55853295
113	0xbd63d6eb	-0.055624884
114	0xbe3cf2e4	-0.1845203
115	0x3e8827de	0.26592916
116	0xbdb4726a	-0.08810885
117	0xbced7021	-0.028984131
118	0xbe9b4287	-0.30324194
119	0xbd6598a6	-0.05605378
120	0x3e82781a	0.25482255
121	0xbdbbd8e9	-0.09172232
122	0xbd97390b	-0.07383927
123	0xbe8aae05	-0.2708589
124	0x3e4308f2	0.19046381
125	0x3c999c91	0.018751414
126	0xbbcb6f07	-0.006208304
127	0xbe08c491	-0.13356234
128	0xbdff9eda	-0.124814704
129	0xbdc79830	-0.09745824
130	0x3d6c4474	0.05768247
131	0x3e82af48	0.25524354
132	0x3e0f9575	0.14021857
133	0xbe160bb1	-0.14652897
134	0xbd99eec5	-0.07516245
135	0x3e2af624	0.16695458
136	0xbe832ef5	-0.25621763
137	0x3cb86dae	0.022513237
138	0xbe40b9fd	-0.18820949
139	0xbd5f68d1	-0.05454332
140	0xbd5e2382	-0.05423308
141	0xbe4415b1	-0.191489
142	0xbd851690	-0.06498444
143	0x3e15dcc5	0.14634998
144	0x3e7ea779	0.24868573
145	0x3e8dc537	0.27689525
146	0xbeb7a183	-0.3586541
147	0xbe46e3f2	-0.19422892
148	0x3e52549a	0.20540085
149	0xbe82942d	-0.25503674
150	0x3ebbd84b	0.36688456
151	0xbd624a2b	-0.055246513
152	0xbd41bb96	-0.047298037
153	0x3e05be5e	0.130609
154	0xbd33b050	-0.043869317
155	0x3db09d03	0.086236976
156	0xbda74684	-0.08167747
157	0x3db4ba06	0.08824544
158	0xbc641ade	-0.013922421
159	0xba659301	-0.0008757562
160	0xbe9476e4	-0.28996956
161	0xbe8920ef	-0.2678294
162	0xbdfe4b75	-0.12416736
163	0xbb828742	-0.003983409
164	0xbdabf78f	-0.083968274
165	0xbe3dabab	-0.18522517
166	0xbe160e1a	-0.14653817
167	0xbc0b06e8	-0.008485533
168	0x3e49de97	0.19713818
169	0x3cc25018	0.023719832
170	0x3d183f72	0.03716988
171	0xbe1821ba	-0.14856616
172	0xbdf8cec6	-0.12148814
173	0x3c54650c	0.012963545
174	0xbd957dfa	-0.07299419
175	0xbc402b2b	-0.011729042
176	0xbd30c3bb	-0.043155413
177	0xbdc5cb60	-0.09657931
178	0xbdb9b4d4	-0.09067693
179	0xbebb955a	-0.36637384
180	0xbe90af99	-0.2825897
181	0xbebf5ec5	-0.3737699
182	0xbd85c36e	-0.06531416
183	0x3db6111f	0.08889984
184	0xbe4b8a61	-0.19877006
185	0x3d7f3876	0.062309705
186	0x3e32060e	0.17385122
187	0xbc12d39c	-0.008961584
188	0x3dc54b30	0.096334815
189	0x3e5d243a	0.2159585
190	0xbdf591d9	-0.11990709
191	0x3d8361c5	0.064151324
192	0xbe2fc1ea	-0.17163816
193	0xbe905ac9	-0.28194264
194	0x3c55daa7	0.013052619
195	0x3e255fe8	0.16149867
196	0x3e17e363	0.14832835
197	0xbd5334bb	-0.05156396
198	0xbe03c192	-0.1286681
199	0xbed550dd	-0.41663256
200	0x3dc47234	0.09592095
201	0xbdeb773d	-0.11497352
202	0x3d5cc94e	0.053902917
203	0xbd863b8c	-0.065543264
204	0x3e8bc7dd	0.2730092
205	0xbddc2166	-0.10748558
206	0xbf232aec	-0.6373737
207	0xbe46e88c	-0.19424647
208	0xbd841a97	-0.06450384
209	0x3da7a11f	0.08185028
210	0xbdf38642	-0.11890842
211	0x3d41fdd1	0.0473612
212	0xbe0f72d2	-0.14008644
213	0xbd9d8c58	-0.07692784
214	0xbe1451df	-0.14484356
215	0xbe3e8ab2	-0.18607596
216	0x3d3217c1	0.043479685
217	0x3ba5b2ab	0.0050566993
218	0xbe189029	-0.14898743
219	0x3dcba996	0.09944455
220	0xbd368ee1	-0.044569854
221	0x3dd23ee8	0.10265905
222	0xbd1b2188	-0.037873775
223	0x3e906655	0.28203073
224	0x3d8cfe49	0.068844385
225	0xbd0f74c3	-0.035023462
226	0xbeb6443e	-0.3559894
227	0x3e821fba	0.2541483
228	0xbb414235	-0.0029488925
229	0x3d924b50	0.07143271
230	0x3e157232	0.14594343
231	0x3e60a655	0.2193845
232	0xbdf664da	-0.12030955
233	0xbd2d2c56	-0.04227861
234	0xbdacf864	-0.08445814
235	0xbe843386	-0.2582056
236	0xbeca4649	-0.39506748
237	0x3e41a98e	0.18912336
238	0xbe0f43bb	-0.13990681
239	0x3cb7594a	0.022381444
240	0xbcfff123	-0.031242913
241	0x3cb2397f	0.021755932
242	0xbc646169	-0.01393924
243	0x3dba662c	0.09101519
244	0x3e0c6c46	0.13713178
245	0x3e0396c8	0.12850487
246	0xbda0e9ce	-0.07857095
247	0xbe8099ec	-0.25117433
248	0xbe5992e3	-0.21247439
249	0x3d2f5ff6	0.042816125
250	0xbdcd1602	-0.10013963
251	0x3c009639	0.007848316
252	0xbf04d966	-0.51894224
253	0x3db27505	0.08713726
254	0xbe17e75b	-0.14834349
255	0x3e3dec3e	0.1854715

encoder.state_encoder.1.bias f4 [64]
0	0x00000000	0.0
1	0x00000000	0.0
2	0x00000000	0.0
3	0x00000000	0.0
4	0x00000000	0.0
5	0x00000000	0.0
6	0x00000000	0.0
7	0x00000000	0.0
8	0x00000000	0.0
9	0x00000000	0.0
10	0x00000000	0.0
11	0x00000000	0.0
12	0x00000000	0.0
13	0x00000000	0.0
14	0x00000000	0.0
15	0x00000000	0.0
16	0x00000000	0.0
17	0x00000000	0.0
18	0x00000000	0.0
19	0x00000000	0.0
20	0x00000000	0.0
21	0x00000000	0.0
22	0x00000000	0.0
23	0x00000000	0.0
24	0x00000000	0.0
25	0x00000000	0.0
26	0x00000000	0.0
27	0x00000000	0.0
28	0x00000000	0.0
29	0x00000000	0.0
30	0x00000000	0.0
31	0x00000000	0.0
32	0x00000000	0.0
33	0x00000000	0.0
34	0x00000000	0.0
35	0x00000000	0.0
36	0x00000000	0.0
37	0x00000000	0.0
38	0x00000000	0.0
39	0x00000000	0.0
40	0x00000000	0.0
41	0x00000000	0.0
42	0x00000000	0.0
43	0x00000000	0.0
44	0x00000000	0.0
45	0x00000000	0.0
46	0x00000000	0.0
47	0x00000000	0.0
48	0x00000000	0.0
49	0x00000000	0.0
50	0x00000000	0.0
51	0x00000000	0.0
52	0x00000000	0.0
53	0x00000000	0.0
54	0x00000000	0.0
55	0x00000000	0.0
56	0x00000000	0.0
57	0x00000000	0.0
58	0x00000000	0.0
59	0x00000000	0.0
60	0x00000000	0.0
61	0x00000000	0.0
62	0x00000000	0.0
63	0x00000000	0.0

encoder.obs_encoder.0.weight f4 [217]
0	0x3f687480	0.90802765
1	0x3f7749a7	0.9659676
2	0x3f7ad321	0.9797841
3	0x3f75c20d	0.95999223
4	0x3f70508f	0.9387292
5	0x3f63d87f	0.8900222
6	0x3f75e09d	0.9604586
7	0x3f6bfb69	0.92180496
8	0x3f6c21f9	0.9223934
9	0x3f9a182d	1.2038628
10	0x3f8f70b5	1.120627
11	0x3f9e821d	1.2383457
12	0x3f911bc1	1.1336595
13	0x3f7227aa	0.9459177
14	0x3f2d34ac	0.67658496
15	0x3f07b19d	0.5300539
16	0x3f9119e6	1.1336029
17	0x3f918dae	1.1371362
18	0x3f81f6ff	1.0153502
19	0x3f8fef6e	1.1244943
20	0x3fc1d174	1.5142045
21	0x3f94961b	1.1608309
22	0x3f86e837	1.0539616
23	0x3f837323	1.0269512
24	0x3f9efc41	1.2420732
25	0x3f903d5c	1.1268725
26	0x3f8a2bdc	1.0794635
27	0x3fa03b23	1.2518047
28	0x3f9e2f86	1.2358253
29	0x3fa5d738	1.2956305
30	0x3fa582a7	1.2930497
31	0x3fab2599	1.3370849
32	0x3f024457	0.5088553
33	0x3fa349af	1.2756861
34	0x3f9e3a7b	1.2361597
35	0x3fa0e0fc	1.256866
36	0x3fb42a73	1.4075454
37	0x3f6d13e6	0.9260849
38	0x3f390269	0.722693
39	0x3ebc798c	0.36811483
40	0x3f05f37d	0.5232466
41	0x3f2621e1	0.64895445
42	0x3f7b4c5b	0.98163384
43	0x3f7de473	0.9917671
44	0x3f963443	1.1734699
45	0x4006718e	2.1006808
46	0x3f722a97	0.94596237
47	0x3fb6aa44	1.4270711
48	0x3f502a16	0.8131422
49	0x3f960616	1.1720607
50	0x3f591338	0.8479495
51	0x3f29b0b9	0.6628528
52	0x3f8a70f3	1.0815719
53	0x3e6efe3a	0.23339167
54	0x3f160c04	0.58612084
55	0x3f0d147a	0.5510937
56	0x3f5f0197	0.871118
57	0x3f7fcfe3	0.99926585
58	0x3f606065	0.87647086
59	0x3f5b1486	0.8557819
60	0x3e994e15	0.29942384
61	0x3ededa27	0.43525812
62	0x3ef57c02	0.47946173
63	0x3f46b870	0.7762518
64	0x3f6c0717	0.9219832
65	0x3f6eb5f6	0.932464
66	0x3f3c8fec	0.7365711
67	0x3e7064d9	0.2347597
68	0x3f01870a	0.5059668
69	0x3effd089	0.49963787
70	0x3f6d38ef	0.92665
71	0x3f6e7f4b	0.93162984
72	0x3f6ee87e	0.93323505
73	0x3f38847f	0.72077173
74	0x3ea62ca9	0.32455948
75	0x3f111ff8	0.56689405
76	0x3ee82765	0.45342556
77	0x3f630689	0.88681847
78	0x3f716570	0.94295406
79	0x3f4e0eb9	0.80491215
80	0x3f3a0dcf	0.7267732
81	0x3e88ebb3	0.26742324
82	0x3f026c8f	0.509469
83	0x3efb312b	0.4906095
84	0x3f888998	1.066699
85	0x3f7a86e5	0.9786208
86	0x3f636978	0.8883281
87	0x3f31ecca	0.69501936
88	0x3ea54184	0.32276547
89	0x3f039314	0.513963
90	0x3f0a29bd	0.5396994
91	0x3f5ac3ed	0.8545521
92	0x3f754a1c	0.95816207
93	0x3f47f875	0.7811349
94	0x3f63e433	0.8902008
95	0x3eb8907b	0.3604773
96	0x3ee64f1d	0.44982234
97	0x3f158cfc	0.5841825
98	0x3f619817	0.88122696
99	0x3f4e66b7	0.8062548
100	0x3f1985ab	0.59969586
101	0x3f4f25a9	0.8091684
102	0x3e63ba69	0.22239079
103	0x3edf650b	0.43631777
104	0x3f0681a0	0.5254154
105	0x3f41f823	0.7576925
106	0x3f6df2b2	0.9294845
107	0x3f23f299	0.6404205
108	0x3f0faa36	0.56119096
109	0x3e894b65	0.26815334
110	0x3f011add	0.50431615
111	0x3f0b72d2	0.54472077
112	0x3f544a2a	0.82925665
113	0x3f767c0f	0.9628305
114	0x3f746b2f	0.9547605
115	0x3f8da310	1.1065388
116	0x3f1ff55a	0.6248375
117	0x3f2dd46d	0.6790226
118	0x3f1d2855	0.61389667
119	0x3fab2416	1.3370388
120	0x3f58bc0a	0.84661925
121	0x3f7caa20	0.9869709
122	0x3f813966	1.0095642
123	0x3f8a23b8	1.079215
124	0x3f720659	0.94540936
125	0x3f6f6dd0	0.93526936
126	0x3f9c38ad	1.2204796
127	0x3f8b49c1	1.0881883
128	0x3f856823	1.0422405
129	0x3f8732c5	1.0562369
130	0x3f80eb2b	1.0071768
131	0x3f829559	1.0201827
132	0x3eec860c	0.4619602
133	0x3f60c7d6	0.87804925
134	0x3f44714b	0.7673537
135	0x3f20d9f7	0.6283259
136	0x3f5cb9ed	0.862212
137	0x3f2ed86e	0.68298995
138	0x3f821615	1.0162989
139	0x3f7db60c	0.99105906
140	0x3f811494	1.0084405
141	0x3f8ba63e	1.0910108
142	0x3f75d64c	0.96030116
143	0x3f791c08	0.973084
144	0x3f72c1d2	0.94826996
145	0x3f7416f6	0.95347536
146	0x3f93cd62	1.1547053
147	0x3f6b449c	0.91901565
148	0x3f49db60	0.78850365
149	0x3f3084b6	0.689525
150	0x3f2005ed	0.6250904
151	0x3f4710f7	0.7776026
152	0x3f6425eb	0.8912036
153	0x3f7b2ff7	0.98120064
154	0x3f7cc6b8	0.9874072
155	0x3f80701d	1.0034214
156	0x3f2aa3ca	0.6665617
157	0x3f18a69e	0.5962924
158	0x3f3be6d7	0.7339911
159	0x3f420a66	0.75797117
160	0x3f726353	0.94682807
161	0x3f5a1740	0.85191727
162	0x3f7cd3ed	0.98760873
163	0x3f07f07d	0.5310133
164	0x3f1894c3	0.5960199
165	0x3f1c24b3	0.609935
166	0x3f530975	0.82436305
167	0x3f714d3a	0.94258463
168	0x3f4a29c0	0.78969955
169	0x3f6fdd3e	0.93696964
170	0x3f063e95	0.5243924
171	0x3f2ef7f0	0.6834707
172	0x3f37e151	0.7182818
173	0x3f71b175	0.944114
174	0x3f73e0c8	0.95264864
175	0x3f5d34f8	0.8640895
176	0x3f89df8c	1.0771346
177	0x3ef17d1d	0.47165766
178	0x3f1ada7a	0.6048962
179	0x3f138a26	0.5763267
180	0x3f45e33a	0.77299845
181	0x3f79a141	0.9751168
182	0x3f67cbd2	0.9054538
183	0x3f6d74ec	0.92756534
184	0x3f1e9ca8	0.6195779
185	0x3f0a2384	0.5396044
186	0x3f171bc7	0.5902676
187	0x3f40887c	0.7520826
188	0x3f7abf6a	0.97948325
189	0x3f6c855a	0.9239098
190	0x3f8c9faf	1.0986232
191	0x3f59385b	0.84851617
192	0x3f62907f	0.88501734
193	0x3f3989b6	0.72475755
194	0x3f5b08e1	0.85560423
195	0x3f787a28	0.97061396
196	0x3f6eaa5b	0.9322869
197	0x3f892e6f	1.0717295
198	0x3f3c290e	0.73500144
199	0x3f7472b6	0.95487535
200	0x3f3969fa	0.7242733
201	0x3f724bfb	0.94647187
202	0x3f80d868	1.0066042
203	0x3f8141a6	1.0098159
204	0x3f8bec5c	1.0931506
205	0x3f659b66	0.89690244
206	0x3f5b6bb2	0.85711205
207	0x3f76a24c	0.96341395
208	0x3f5d14b4	0.86359715
209	0x3f710016	0.94140756
210	0x3f6fa870	0.9361639
211	0x3f58b914	0.84657407
212	0x3f4ba38b	0.7954642
213	0x3f77e406	0.9683231
214	0x3f3c3218	0.73513937
215	0x3f669354	0.90068555
216	0x3f82fa60	1.0232658

encoder.obs_encoder.0.bias f4 [217]
0	0xbe04ce92	-0.12969425
1	0xbdb49240	-0.088169575
2	0xbd2c7f14	-0.04211338
3	0xbd32cd27	-0.04365268
4	0xbdb66eff	-0.089078896
5	0xbdf0f15e	-0.11764787
6	0xbd9c051f	-0.07618164
7	0xbdc96542	-0.098337665
8	0xbdee2385	-0.116278686
9	0x3d864018	0.06555194
10	0x3d360ed0	0.04444772
11	0x3d9b9344	0.07596448
12	0x3d04f4bf	0.03245997
13	0xbd79e26f	-0.06100696
14	0xbe031f6e	-0.12804958
15	0xbdabd9bc	-0.08391139
16	0x3d4cd33f	0.050006147
17	0x3cb0f63a	0.021601785
18	0x3d56a271	0.05240101
19	0x3d1f2317	0.038851824
20	0xb911f48c	-0.00013919378
21	0x3d89e7a6	0.067336366
22	0xbd835866	-0.06413345
23	0xbc7086ff	-0.014680623
24	0x3dd8d248	0.10586983
25	0x3ae99df5	0.0017823564
26	0x3d530342	0.05151678
27	0x3d27acd9	0.040936325
28	0x3d2d6f5e	0.042342536
29	0x3d9c9902	0.076463714
30	0x3d042ca5	0.03226914
31	0x3cd3a862	0.025837127
32	0x3d025e52	0.031828232
33	0xbdab5873	-0.0836648
34	0xbda291ae	-0.079379424
35	0xbc99b5e8	-0.018763497
36	0x3cf08b53	0.02936331
37	0x3d38b998	0.04509887
38	0x3d494cdb	0.04914556
39	0x3d2cca28	0.04218498
40	0x3dbef67e	0.093243584
41	0xbddafd1b	-0.10692807
42	0xbd4ef134	-0.050522998
43	0xbbdba1d1	-0.0067026396
44	0x3a9f47bc	0.0012152116
45	0x3cce85ca	0.02521028
46	0x3d3b8dc3	0.04578949
47	0x3d4e5b80	0.05038023
48	0xbd8e8a74	-0.069600016
49	0xbc378676	-0.011201492
50	0xbd902377	-0.070380144
51	0x3d9bfa4a	0.07616098
52	0x3d005efc	0.031340584
53	0x3d4e4b8f	0.050365027
54	0x3da62df0	0.08114231
55	0xbe118ff3	-0.14215069
56	0xbd5b7bc2	-0.05358482
57	0xbcd5c93b	-0.02609693
58	0x3d027db3	0.031858157
59	0x3d41cb1b	0.047312837
60	0x3c21db2f	0.009878918
61	0x3d7aab49	0.061198507
62	0xbe1a5550	-0.15071607
63	0xbda6508c	-0.08120832
64	0xbd9d265a	-0.076733306
65	0x3daeea3f	0.08540773
66	0x3bc36497	0.005962919
67	0x3c6a7613	0.014310378
68	0x3d8da78d	0.069167234
69	0xbd896e3e	-0.0671048
70	0xbd8f6d70	-0.070032954
71	0xbd0ee56b	-0.03488676
72	0x3d8f8861	0.07008434
73	0x3c1d2002	0.009590151
74	0xbbf734d7	-0.007544141
75	0x3d3f9f52	0.0467828
76	0xbe117132	-0.14203337
77	0xbda53ff2	-0.08068837
78	0xbd9590fc	-0.07303044
79	0x3dedee6a	0.116177395
80	0x3cddafcc	0.027061366
81	0x3d6fe9fe	0.05857276
82	0x3da284b9	0.07935471
83	0xbe143922	-0.1447492
84	0xbd2f8a5c	-0.04285656
85	0xbdc80574	-0.09766665
86	0x3d814f57	0.06313961
87	0x3ca8bf72	0.0205991
88	0x3d221465	0.03957023
89	0x3d9ffc76	0.07811825
90	0xbe199f3e	-0.15002152
91	0xbd9ce248	-0.07660347
92	0xbd86fab6	-0.06590788
93	0x3deba203	0.11505511
94	0x3d48edc2	0.04905487
95	0x3d41ef8c	0.04734759
96	0x3d95cd4d	0.07314549
97	0xbe004633	-0.12526779
98	0xbdc34052	-0.095337525
99	0xbda34247	-0.07971626
100	0xbac6ed01	-0.0015176834
101	0x3d6dca95	0.058054525
102	0x3d3c4cdc	0.045971736
103	0x3dee4550	0.11634314
104	0xbe25e364	-0.16200024
105	0xbdbb7299	-0.09152717
106	0xbcea587d	-0.028606648
107	0x3d0e4d68	0.03474179
108	0xbabb3ae2	-0.0014284516
109	0x3d104f1d	0.0352317
110	0x3dc9d9c0	0.09855986
111	0xbdf2ada3	-0.11849525
112	0xbdb8434c	-0.08997211
113	0xbcf2fcea	-0.029661614
114	0x3ce67521	0.028132023
115	0xbbb72f35	-0.0055903443
116	0x3d40e1d7	0.047090378
117	0x3da746b4	0.081677824
118	0xbe0d9b77	-0.13828836
119	0xbbc5efe6	-0.006040561
120	0xbc95e0a4	-0.018295594
121	0x3a204724	0.00061141164
122	0xbbbc960e	-0.0057551926
123	0x3d681042	0.05665613
124	0xbce06246	-0.02739061
125	0x3d08dc74	0.033413365
126	0xbc234774	-0.009965766
127	0x3bc1ab5e	0.005910321
128	0x3bd8d1b4	0.0066167954
129	0xbd4f7d35	-0.050656516
130	0xbd9b04e6	-0.07569294
131	0xbc720794	-0.014772315
132	0xbe0b70cb	-0.13617246
133	0x3da10dd4	0.07863966
134	0x3dba2720	0.09089494
135	0x3de48843	0.11158802
136	0x3dcb8216	0.09936921
137	0xbe0fc085	-0.14038284
138	0xbd47348e	-0.048634104
139	0xbd895971	-0.06706513
140	0xbd392d3d	-0.04520916
141	0xbb81ab42	-0.003957183
142	0x3d42f908	0.047600776
143	0x3d8de1f7	0.06927865
144	0x3d2f4210	0.04278761
145	0xbd3eae60	-0.046553016
146	0x3b8133af	0.0039429287
147	0x3d9eb115	0.077486195
148	0xbd212bb2	-0.03934831
149	0x3db260cd	0.087098695
150	0x3c713abb	0.014723475
151	0xbd950f57	-0.072783165
152	0xbd69837e	-0.057010166
153	0xbd39f6a3	-0.045401227
154	0x3cd5431d	0.026032979
155	0xbbead7c1	-0.007166833
156	0x3d7ee164	0.062226668
157	0x3d0aa976	0.033853017
158	0xbdf09913	-0.117479466
159	0xbdeffbcf	-0.117179506
160	0xbd736a5e	-0.05942761
161	0x3d890f7d	0.06692407
162	0x3d793085	0.060837287
163	0x3df9bec2	0.12194587
164	0x3d7bcf4b	0.061476987
165	0xbe0790ab	-0.1323878
166	0xbdbf1a2b	-0.09331163
167	0xbd0a4be6	-0.03376379
168	0x3d71c59c	0.059026346
169	0x3de60e01	0.1123314
170	0x3d92f8ee	0.07176386
171	0x3d1ad88d	0.037804175
172	0xbd1d0379	-0.03833339
173	0xbd661bf6	-0.05617901
174	0xbdc68651	-0.096935876
175	0x3e16ef66	0.14739761
176	0x3cffa7e0	0.031207979
177	0x3e1a7a76	0.15085778
178	0x3cbe9bbc	0.02326762
179	0xbe341912	-0.17587689
180	0xbdd793fa	-0.10526271
181	0xbdc5709f	-0.096406214
182	0x3d8f5bf0	0.069999576
183	0x3d1130db	0.035446983
184	0x3db6699e	0.08906864
185	0x3d623946	0.0552304
186	0xbe0a0a57	-0.13480507
187	0xbd679819	-0.056541536
188	0xbbd0c1af	-0.006370745
189	0x3de83aae	0.11339317
190	0x3d119b91	0.03554875
191	0x3dce7754	0.10081354
192	0x3cfbe6ff	0.030749796
193	0xbe24a5ef	-0.16078924
194	0xbda08082	-0.07837011
195	0xbd05fb89	-0.032710586
196	0x3dffc24d	0.12488232
197	0xbd76beb2	-0.060240455
198	0x3e047de9	0.12938656
199	0x3d1a8af6	0.03773018
200	0xbdf07c0b	-0.11742409
201	0xbdf3d93f	-0.11906671
202	0xbd56065a	-0.05225215
203	0x3df4afa3	0.119475625
204	0x3bff463c	0.007790355
205	0x3de2286f	0.11042868
206	0x3ba98392	0.005173155
207	0xbd729cb2	-0.059231468
208	0xbe115452	-0.14192322
209	0xbd89c991	-0.06727899
210	0x3d905f3c	0.070494145
211	0x3d89abc8	0.06722218
212	0x3dd1b4a1	0.1023953
213	0x3cd0bf27	0.025481774
214	0xbe0ce9a7	-0.13761006
215	0xbd9c79f9	-0.07640452
216	0xbdb82f17	-0.08993357

encoder.obs_encoder.1.weight f4 [64, 217]
0	0x3e015077	0.12628351
1	0x3dc5f7d2	0.096664086
2	0xbbd0b807	-0.006369594
3	0x3dc633bd	0.09677837
4	0x3d8e70b7	0.069550924
5	0x3da56150	0.080752015
6	0x3e7a4c7e	0.24443242
7	0x3db1ef4f	0.086882226
8	0x3ce3a615	0.027789155
9	0x3e2c33ef	0.16816686
10	0x3d7b00c4	0.061280027
11	0x3bcc9315	0.0062431195
12	0x3ca8d69d	0.020610148
13	0x3de32dd5	0.11092726
14	0xbd04e543	-0.032445204
15	0xbb097d16	-0.0020979098
16	0x3e07d65c	0.13265365
17	0xbc9bcdd5	-0.019019047
18	0x3cc9401f	0.024566708
19	0xbdbe026a	-0.09277804
20	0xbd21ba2a	-0.03948418
21	0x3d9a2550	0.07526648
22	0x3df807bf	0.121108525
23	0x3d322a0c	0.04349713
24	0x3ca9869f	0.020694075
25	0x3d475fd8	0.048675388
26	0x3e1aeac9	0.15128626
27	0x3e8d43fb	0.27590927
28	0x3e0aede7	0.13567315
29	0x3c7a2151	0.015266732
30	0xbde6ca71	-0.112690814
31	0xbd04851b	-0.0323535
32	0x3dafc0ca	0.085816935
33	0x3d17a06e	0.037018232
34	0xbdff528a	-0.12466915
35	0x3d29c0a8	0.041443497
36	0xbe646acf	-0.22306369
37	0xbd30c52e	-0.043156795
38	0x3d864716	0.06556527
39	0xbd0195e0	-0.031637073
40	0x3d02ac46	0.031902574
41	0x3debddda	0.11516924
42	0xbcf93112	-0.030418906
43	0xbe182db8	-0.1486119
44	0xbd46273f	-0.04837727
45	0x3c8b026f	0.016968934
46	0x3d7c3037	0.06156942
47	0x3d986625	0.074413575
48	0x3e3e82e2	0.18604615
49	0x3b6ed917	0.0036445314
50	0x3dbccab2	0.092183486
51	0xbdbfb20e	-0.09360133
52	0xbae50b28	-0.0017474638
53	0xbd66b3c3	-0.056323778
54	0x3d3cac5c	0.046062812
55	0x3e0968a1	0.13418819
56	0xbb9af370	-0.004728727
57	0xbe139c97	-0.14415203
58	0xbe650f4f	-0.22369121
59	0x3e3a1768	0.18172991
60	0xbd45c777	-0.048285928
61	0xbd723d7c	-0.059140667
62	0x3e340b7a	0.17582503
63	0x3e032d26	0.12810192
64	0xbd04d235	-0.03242703
65	0xbdd63483	-0.104592346
66	0xbdf1b093	-0.11801257
67	0x3b9123fe	0.0044293394
68	0x3e5125ec	0.20424622
69	0x3da711fd	0.08157728
70	0xbd11148f	-0.035419997
71	0xbe48a0c5	-0.19592579
72	0xbe3918c6	-0.18075857
73	0x3cd9d6d6	0.0265917
74	0xbcb5da6f	-0.022198884
75	0xbb94f96d	-0.0045463354
76	0x3d462e02	0.04838372
77	0xbd809b06	-0.062795684
78	0xbe83a97b	-0.2571524
79	0x3d21b00f	0.039474543
80	0x3e561937	0.20908056
81	0x3bb18fde	0.0054187616
82	0x3da98623	0.08277538
83	0x3e1e64af	0.15468095
84	0x3e1c91c3	0.15289979
85	0xbe3c43af	-0.18385194
86	0x3d96e322	0.07367541
87	0x3dd4d08d	0.103913404
88	0x3e66782b	0.22506778
89	0x3d2ea7f9	0.04264066
90	0x3c523a3f	0.01283127
91	0x3d6c945c	0.057758674
92	0xbe29b2b1	-0.16572072
93	0xbca02a89	-0.019551532
94	0x3caf529c	0.021401696
95	0xbd7e50cb	-0.06208877
96	0xbd95557f	-0.07291698
97	0x3cdc74fd	0.026911253
98	0x3dd66492	0.10468401
99	0xb9d8fd08	-0.00041387253
100	0xbe27dc95	-0.16392739
101	0x3e39f21e	0.18158767
102	0x3ca5b245	0.020226607
103	0x3c96343a	0.01833545
104	0x3d36e03d	0.044647444
105	0xbe2fe77b	-0.17178147
106	0xbe0c88e3	-0.13724093
107	0x3e1a7d65	0.15086897
108	0xbdf3fa7f	-0.11913013
109	0x3cd6323e	0.026147004
110	0x3dc1723b	0.09445616
111	0x3df67ce7	0.12035542
112	0x3b948d04	0.004533412
113	0xbe0fb0b1	-0.14032246
114	0xbb84f7c9	-0.0040578586
115	0xbdb76dd4	-0.08956495
116	0x3c8d0ef4	0.017219044
117	0x3d0c68df	0.0342797
118	0x3b91420d	0.0044329227
119	0x3e87d8c2	0.2653256
120	0x3e6bf8da	0.23044148
121	0x3e8c2c93	0.27377757
122	0x3e2ec497	0.1706718
123	0x3ee24d1e	0.4419946
124	0x3e8efc13	0.27926692
125	0x3e75a5b5	0.23988993
126	0x3e579392	0.21052387
127	0x3dc985ff	0.09840011
128	0x3e401b1c	0.18760341
129	0x3ec78d5b	0.38975033
130	0xbdc4dfe0	-0.09613013
131	0x3cbbb00c	0.022911094
132	0x3dd120cc	0.10211334
133	0xbd66938b	-0.05629305
134	0x3cb0ca10	0.021580726
135	0x3d41f573	0.04735322
136	0x3d69abbc	0.057048544
137	0xbd481cfc	-0.048855767
138	0xbdda1784	-0.106490165
139	0xbd1dfc0f	-0.03857046
140	0x3df6b657	0.12046497
141	0x3e1df0be	0.15423867
142	0x3de3e1ca	0.1112705
143	0xbc8e4cac	-0.017370544
144	0xbacf06c6	-0.0015794865
145	0x3de0bf89	0.109740324
146	0x3df421f5	0.11920539
147	0xbe3055b9	-0.172202
148	0xbdb21ccb	-0.08696898
149	0xbd0db563	-0.034596812
150	0xbdb300e5	-0.08740405
151	0xbbeb3a86	-0.0071786074
152	0x3db0c4ac	0.08631262
153	0xbe1d064b	-0.15334432
154	0xbe67b2c4	-0.22626787
155	0xbdc966a6	-0.09834032
156	0xbe1c66b5	-0.15273555
157	0xbdd2999d	-0.10283206
158	0xbd3134df	-0.043263312
159	0x3cbbc1ee	0.022919621
160	0x39fe7647	0.0004853478
161	0xbe56b333	-0.20966797
162	0xbc4f235a	-0.012642706
163	0xbdb7fbf6	-0.089836046
164	0x3b43d8c2	0.0029883836
165	0x3de27270	0.110569835
166	0xbd73ea90	-0.059549868
167	0xbe1b1785	-0.1514569
168	0x3e807dd1	0.2509599
169	0xbd4fcf35	-0.050734717
170	0x3e2abfb7	0.16674696
171	0x3d30b810	0.043144286
172	0xbbbb4bce	-0.0057158237
173	0x3e1fbf0a	0.1560022
174	0xbd5e1bc5	-0.0542257
175	0xbe49d5b3	-0.19710426
176	0x3e34b1c5	0.17645939
177	0xbde62593	-0.112376355
178	0xbda0851b	-0.07837888
179	0xbe06c34f	-0.13160442
180	0x3db5c696	0.08875768
181	0xbbafe34f	-0.0053676735
182	0xbd43ba6b	-0.047785204
183	0xbc880542	-0.01660407
184	0x3c99e9b8	0.018788204
185	0xbe214484	-0.15748793
186	0x3e1aad32	0.15105131
187	0x37c6fd83	2.372149e-05
188	0x3d0b99c4	0.03408219
189	0x3e0e8600	0.13918304
190	0x3e3c0569	0.18361439
191	0x3caec8d6	0.021336
192	0x3dfc32f2	0.123144045
193	0xbcb14023	-0.021637028
194	0xbd604862	-0.05475653
195	0xbe40625b	-0.1878752
196	0xbd910ffe	-0.070831284
197	0xbe2df026	-0.1698614
198	0x3dd7d8d6	0.10539405
199	0xbe97c108	-0.2963946
200	0xbc85c0ea	-0.01632734
201	0x3cce6ff2	0.025199864
202	0xbd088317	-0.033328142
203	0xbe0918b6	-0.13388333
204	0x3db154dd	0.086587645
205	0x3e0853d3	0.13313226
206	0xbd14a6ad	-0.036291767
207	0xbc694a59	-0.014238917
208	0x3d1c253b	0.038121443
209	0xbe086e2f	-0.13323282
210	0xbd538d98	-0.051648706
211	0x3cd4a178	0.0259559
212	0xbe1ba176	-0.15198311
213	0x3d5460a4	0.051849976
214	0xbe393058	-0.18084848
215	0x3d43678b	0.04770617
216	0xbe61d68d	-0.22054501
217	0xbce62755	-0.028094927
218	0xbd50f697	-0.051016416
219	0xbdbc8131	-0.09204329
220	0x3d7c7424	0.061634198
221	0xbe05adac	-0.13054532
222	0x3dbdd17b	0.09268471
223	0x3ba68be1	0.005082593
224	0xbca31275	-0.019906262
225	0xbe1bdbf9	-0.15220632
226	0xbe3cb47e	-0.18428227
227	0xbe3b6911	-0.18301798
228	0x3d544571	0.051824037
229	0x3d85888b	0.06520184
230	0xbe40615a	-0.18787137
231	0xbd1ae6d0	-0.037817776
232	0xbda5a4ea	-0.080880955
233	0xbec91883	-0.39276513
234	0xbd6b0010	-0.057373106
235	0x3db34162	0.08752705
236	0xbdafa86a	-0.08577044
237	0x3b16d440	0.0023014694
238	0xbe86660d	-0.26249734
239	0x3df9257b	0.12165352
240	0x3cd54feb	0.026039084
241	0xbd9dcf70	-0.07705581
242	0x3c0485c7	0.008088536
243	0xbc85a208	-0.016312614
244	0xbe3358be	-0.17514321
245	0xbe57948d	-0.21052761
246	0x3e2f4668	0.17116702
247	0xbe0e76d9	-0.13912524
248	0x3e943aed	0.28951207
249	0x3d32fe2b	0.043699425
250	0x3ca1d085	0.01975275
251	0x3e0774f3	0.13228206
252	0x3daec6cf	0.085340135
253	0xbe7406f6	-0.2383078
254	0x3c030f8a	0.00799931
255	0x3cf82b19	0.030293988

encoder.obs_encoder.1.bias f4 [64]
0	0x3c9dcb6e	0.019262042
1	0xbca1728c	-0.01970794
2	0xbc2b17e9	-0.010442712
3	0x3c727821	0.014799149
4	0x3d6009ea	0.054696955
5	0xb86db762	-5.667599e-05
6	0xbb71203a	-0.003679289
7	0x3d187a15	0.0372258
8	0x3ce2beb2	0.027678821
9	0x3d3e566c	0.046469137
10	0x3dc18ce1	0.09450699
11	0x3adc0caf	0.0016788448
12	0xbd000343	-0.03125311
13	0xbc6f3f2a	-0.014602462
14	0x3d0e4323	0.034731995
15	0xbc937009	-0.017997758
16	0xba833c46	-0.001001247
17	0x3d63fbce	0.05566006
18	0x3cdc430d	0.026887441
19	0x3da91b41	0.082571514
20	0xb9966448	-0.00028684945
21	0x3c0a9f8e	0.008460892
22	0xbc052083	-0.008125427
23	0xbc744306	-0.014908558
24	0x3cd8211d	0.026382977
25	0xbd37b322	-0.04484857
26	0xb8c8af47	-9.569391e-05
27	0x3d44bb98	0.048030466
28	0x3a80ef47	0.0009836935
29	0x3b8a213d	0.004215388
30	0x3d4e4f42	0.050368555
31	0x3ce099c1	0.027417066
32	0x3d8c37b5	0.06846563
33	0x3d5cd6d6	0.05391582
34	0x3c01fa67	0.007933236
35	0x3d3f178f	0.046653327
36	0x3dcbbc25	0.09947995
37	0x3d482270	0.048860967
38	0x3b891a9a	0.0041840794
39	0x3d07c1fb	0.03314398
40	0x3d1dee33	0.038557243
41	0xbd0de640	-0.03464341
42	0x3d335368	0.043780714
43	0xbcc91265	-0.024544904
44	0x3c2e72ed	0.010647518
45	0x3cf1c920	0.02951485
46	0xbbfd6426	-0.007732886
47	0xbd39755c	-0.04527794
48	0xbd21204d	-0.039337445
49	0x3c1c5742	0.009542288
50	0x3c89f50c	0.01684048
51	0x3cd3d056	0.025856178
52	0x3cdac878	0.02670692
53	0x3d058504	0.032597557
54	0x3c716a7f	0.014734863
55	0x3b0d2001	0.0021533968
56	0x3be7f07f	0.00707823
57	0xbdfbb716	-0.1229078
58	0xbce62114	-0.028091945
59	0x3ca38ac4	0.01996363
60	0xbd5bb09d	-0.05363523
61	0x3d039e94	0.032133654
62	0xbc1ac951	-0.009447412
63	0xbd260d01	-0.040539745

encoder.ln.weight f4 [64]
0	0x3f6776f6	0.90415895
1	0x3f5b2ace	0.8561219
2	0x3f668c59	0.90057904
3	0x3f7f3441	0.9968911
4	0x3f66b97a	0.90126765
5	0x3f6806a0	0.9063511
6	0x3f893900	1.072052
7	0x3f86e163	1.0537533
8	0x3f77f80f	0.9686288
9	0x3f80621f	1.0029944
10	0x3f54fb2f	0.83195776
11	0x3f48cee3	0.78440684
12	0x3f74a8ea	0.9557024
13	0x3f838fc0	1.0278244
14	0x3f745ca2	0.95453846
15	0x3f6b23c6	0.9185146
16	0x3fa3599c	1.2761722
17	0x3f60c954	0.878072
18	0x3f8c49cd	1.0960022
19	0x3f6921f2	0.9106742
20	0x3f8815de	1.0631673
21	0x3f56db69	0.83928543
22	0x3f536e43	0.8259012
23	0x3f83b432	1.0289366
24	0x3f7adbcd	0.9799164
25	0x3f74c1b2	0.95608056
26	0x3f81ab63	1.0130428
27	0x3f7a85ab	0.9786021
28	0x3f788e58	0.970922
29	0x3f855585	1.0416723
30	0x3f702187	0.9380116
31	0x3f939840	1.1530838
32	0x3f6f35bb	0.9344136
33	0x3f829144	1.0200582
34	0x3f63b175	0.8894265
35	0x3f706ef7	0.9391932
36	0x3f777db8	0.96676207
37	0x3f729ae0	0.9476757
38	0x3f6eff66	0.9335846
39	0x3f8973f6	1.0738513
40	0x3f8869e5	1.0657316
41	0x3f85a448	1.044076
42	0x3f4bde96	0.79636514
43	0x3f82ed3c	1.0228648
44	0x3f809dc2	1.0048144
45	0x3f881a92	1.0633109
46	0x3f7cdda9	0.98775727
47	0x3f72be4b	0.94821614
48	0x3f8220a5	1.0166212
49	0x3f86c734	1.0529542
50	0x3f85be76	1.0448749
51	0x3f92b890	1.1462574
52	0x3f801bfe	1.0008543
53	0x3f6bafcd	0.92065126
54	0x3f777e55	0.9667714
55	0x3f7883ac	0.97075915
56	0x3f7b0496	0.9805387
57	0x3f74c0bc	0.9560659
58	0x3f6398ea	0.88905203
59	0x3f75b916	0.95985544
60	0x3f63de48	0.8901105
61	0x3f664c3c	0.89960074
62	0x3f865534	1.0494752
63	0x3f876537	1.0577763

encoder.ln.bias f4 [64]
0	0xbd8aff5f	-0.067869894
1	0xbc43085a	-0.011903847
2	0x3c2ddc01	0.010611535
3	0x3c2c9cba	0.010535413
4	0x3cece22c	0.02891644
5	0x3ce582ac	0.02801641
6	0xbd2cd521	-0.042195443
7	0x3b992b45	0.0046743476
8	0x3c649b57	0.0139530515
9	0x3ab07e22	0.0013465325
10	0x3d6b7f2d	0.05749433
11	0xbc36770b	-0.0111367805
12	0xbd48bf67	-0.04901066
13	0xbd0ee983	-0.034890663
14	0x3cbec12d	0.023285473
15	0xbcd497ab	-0.025951227
16	0xbcee3eda	-0.029082704
17	0xbd0a15e4	-0.033712283
18	0x3bec7db1	0.007217132
19	0x3db6471c	0.08900282
20	0xbca4fc56	-0.020139854
21	0x3cb05dcb	0.021529099
22	0x3cf2aabf	0.029622434
23	0xbc19fbda	-0.009398425
24	0xb9075ae0	-0.00012908457
25	0x3d6db25e	0.058031432
26	0xbd70f6cd	-0.058829118
27	0xbc3fc600	-0.011704922
28	0x3d2d78ca	0.04235152
29	0x3ca8b01a	0.020591784
30	0x3d32cd5a	0.04365287
31	0x3b10e5fb	0.0022109735
32	0x3dadd03b	0.084869824
33	0xbbf6a0bc	-0.0075264852
34	0xbd5b457b	-0.05353306
35	0x3d10de07	0.03536799
36	0x3da80e7b	0.08205887
37	0xbd056b9d	-0.03257333
38	0x3cd2e91c	0.02574592
39	0x3d4a38e7	0.049370673
40	0x3d2b01a8	0.041749626
41	0xbc1bae02	-0.009501936
42	0xbd9683ab	-0.073493324
43	0xbb577910	-0.0032878555
44	0xbd9556eb	-0.07291969
45	0x3d543ceb	0.05181591
46	0x3c9ea528	0.019365862
47	0x3cf733d3	0.030176079
48	0xbd84d398	-0.06485671
49	0x3c9e80cb	0.019348523
50	0x3c18a432	0.009316491
51	0x3b582ed9	0.0032986908
52	0xbc39b132	-0.011333751
53	0x3cb14e4f	0.021643786
54	0x3c4a1932	0.012335109
55	0x3c7a5c31	0.015280769
56	0x3d00fc46	0.031490587
57	0x3d400aba	0.04688523
58	0x3d560991	0.052255217
59	0x3d1508f4	0.03638549
60	0x3da853ee	0.08219133
61	0x3a5d09ce	0.0008431942
62	0x3b129555	0.002236684
63	0x3b2c88c0	0.0026326627

encoder.blocks.0.ln1.weight f4 [64]
0	0x3f7b3719	0.9813095
1	0x3f6f7992	0.93544877
2	0x3f76fcaf	0.96479315
3	0x3f69a6d1	0.91270167
4	0x3f60b35c	0.8777368
5	0x3f76befd	0.96385175
6	0x3f932a99	1.1497375
7	0x3f827edf	1.0194968
8	0x3f3cc720	0.7374134
9	0x3f878e39	1.0590278
10	0x3f8018dd	1.0007588
11	0x3f3d5cf8	0.73969984
12	0x3f83beca	1.0292599
13	0x3f8aa0b5	1.0830294
14	0x3f7fa188	0.9985585
15	0x3f719e92	0.94382584
16	0x3f7d06cc	0.98838496
17	0x3f82a285	1.0205847
18	0x3f8cfccf	1.1014651
19	0x3f627baa	0.88469946
20	0x3f6675a1	0.9002324
21	0x3f667129	0.9001642
22	0x3f565702	0.83726513
23	0x3f863d67	1.0487489
24	0x3f8542f4	1.0411057
25	0x3f783bec	0.96966434
26	0x3f885f7a	1.0654137
27	0x3f81f029	1.0151416
28	0x3f8a6edf	1.0815085
29	0x3f95b2d1	1.1695195
30	0x3f7e4b6f	0.9933385
31	0x3f927465	1.1441771
32	0x3f6bdd2d	0.9213436
33	0x3f840f50	1.0317173
34	0x3f725199	0.9465576
35	0x3f8889a6	1.0667007
36	0x3f874782	1.0568697
37	0x3f88bc4d	1.0682465
38	0x3f661b34	0.8988526
39	0x3f885f9c	1.0654178
40	0x3f77740d	0.96661454
41	0x3f845c38	1.0340643
42	0x3f67c588	0.90535784
43	0x3f881ec2	1.0634387
44	0x3f866156	1.0498455
45	0x3f86f063	1.054211
46	0x3f838f21	1.0278054
47	0x3f422a4e	0.758458
48	0x3f8cff28	1.1015368
49	0x3f8e611c	1.1123385
50	0x3f7fc359	0.9990745
51	0x3f89c205	1.0762335
52	0x3f87dcc2	1.0614245
53	0x3f4ef659	0.80844647
54	0x3f7de7aa	0.99181616
55	0x3f73f607	0.9529728
56	0x3f883b6f	1.0643138
57	0x3f734544	0.95027566
58	0x3f679275	0.9045785
59	0x3f44bd10	0.76850986
60	0x3f65a731	0.8970824
61	0x3f7762e0	0.96635246
62	0x3f7a8494	0.9785855
63	0x3f8076ff	1.0036315

encoder.blocks.0.ln1.bias f4 [64]
0	0xbd0e1c26	-0.034694813
1	0xbd2a4612	-0.04157073
2	0x3d8c8109	0.06860549
3	0xbd71b3a6	-0.059009217
4	0x3d664d58	0.056226104
5	0x3d501ced	0.050808836
6	0xbd215342	-0.03938604
7	0xbbc56af5	-0.006024713
8	0x3c4a2b0c	0.012339365
9	0x3c6e657f	0.014550566
10	0x3dc58dae	0.09646164
11	0x3da92b2f	0.0826019
12	0xbc8e9ffe	-0.017410275
13	0xbc07b41f	-0.00828269
14	0x3bcdce93	0.006280729
15	0x3ca9eef3	0.020743823
16	0xbd888f2c	-0.06667933
17	0x3cb0158a	0.021494646
18	0x3d1244ab	0.035710018
19	0x3d82b2cd	0.0638176
20	0xbd00fab6	-0.031489097
21	0x3ada940f	0.0016676205
22	0x3d338ead	0.043837238
23	0xbcf248bf	-0.029575704
24	0xbd9df1d2	-0.07712139
25	0x3ad712c8	0.0016408795
26	0xbcbbf495	-0.022943774
27	0x3d1baba1	0.038005475
28	0x39df50b1	0.00042593994
29	0x3d9aa0a4	0.07550171
30	0xbd4d3695	-0.05010088
31	0xbc5eeeba	-0.013606722
32	0x3d3a36a0	0.04546225
33	0x3cae6974	0.021290518
34	0x3afc92f0	0.0019269865
35	0x3d3230b0	0.043503463
36	0x3d6dda97	0.05806979
37	0xbcd5339a	-0.026025582
38	0x3cbd7668	0.02312775
39	0x3d4403f2	0.047855325
40	0x3d13c546	0.036076806
41	0xbd57b124	-0.05265917
42	0xbd93fbb0	-0.0722574
43	0x3c6feac4	0.014643375
44	0xbd8e042d	-0.0693439
45	0x3db06d96	0.08614652
46	0x3d9ac2b7	0.0755667
47	0x3dd220d4	0.10260168
48	0xbcfb0cf7	-0.03064583
49	0xbc04f21c	-0.008114364
50	0x3d2b4dde	0.041822307
51	0xbd1de025	-0.03854384
52	0x3b6fa501	0.0036566856
53	0x3d5de173	0.054170083
54	0x3dbee3a0	0.0932076
55	0xbc0ee9ec	-0.0087227635
56	0x3d887763	0.06663396
57	0x3d4a13e1	0.049335364
58	0x3b9e393e	0.004828601
59	0x3cabcbba	0.020971168
60	0x3d00882c	0.031379864
61	0xbc3f7ffb	-0.011688228
62	0x3c5a37ae	0.013318939
63	0xbbfaf49f	-0.0076585556

encoder.blocks.0.ln2.weight f4 [64]
0	0x3f77e575	0.968345
1	0x3f5fbf81	0.87401587
2	0x3f6e4cc2	0.93085873
3	0x3f84f2b4	1.0386567
4	0x3f6395ca	0.88900435
5	0x3f86d25c	1.0532947
6	0x3f8cc97e	1.099899
7	0x3f85616e	1.0420358
8	0x3f5e9eac	0.86960864
9	0x3f8eb034	1.1147523
10	0x3f82f3a0	1.0230598
11	0x3f76545b	0.96222466
12	0x3f783828	0.9696069
13	0x3f82157e	1.0162809
14	0x3f8508f8	1.0393362
15	0x3f819e5a	1.012645
16	0x3f7c00a7	0.98438495
17	0x3f80d522	1.0065043
18	0x3f89c1bf	1.0762252
19	0x3f4fa2be	0.811077
20	0x3f715c6b	0.94281644
21	0x3f75bf4f	0.9599504
22	0x3f61e3a5	0.88237983
23	0x3f83c09b	1.0293154
24	0x3f844e76	1.0336444
25	0x3f721938	0.9456973
26	0x3f83722f	1.0269221
27	0x3f6369bc	0.8883321
28	0x3f806bca	1.0032895
29	0x3f8b7cb7	1.0897435
30	0x3f765328	0.96220636
31	0x3f824407	1.017701
32	0x3f78275a	0.96935046
33	0x3f861cad	1.0477501
34	0x3f7333a8	0.95000696
35	0x3f9174d6	1.136378
36	0x3f8f9bdb	1.1219438
37	0x3f80371a	1.0016816
38	0x3f6cff88	0.9257741
39	0x3f8f88cf	1.1213626
40	0x3f83f34b	1.0308622
41	0x3f8d8179	1.1055137
42	0x3f84c6fe	1.0373228
43	0x3f8353ae	1.0259912
44	0x3f85cc22	1.0452921
45	0x3f89719a	1.0737793
46	0x3f8d5781	1.1042329
47	0x3f55f3dd	0.8357523
48	0x3f7103a1	0.9414616
49	0x3f868bbf	1.0511397
50	0x3f856380	1.042099
51	0x3f9756b4	1.1823335
52	0x3f7952d9	0.9739204
53	0x3f67c866	0.9054016
54	0x3f6bc25e	0.92093456
55	0x3f632ef8	0.88743544
56	0x3f7c1713	0.9847271
57	0x3f86f91f	1.0544776
58	0x3f6a608f	0.91553587
59	0x3f6f6fa5	0.9352973
60	0x3f676e60	0.90402794
61	0x3f86542b	1.0494436
62	0x3f95aa74	1.1692643
63	0x3f82fe10	1.0233784

encoder.blocks.0.ln2.bias f4 [64]
0	0xbcb00b8b	-0.02148988
1	0x3a667454	0.0008791138
2	0x3d8b4667	0.068005376
3	0xbd7cc31a	-0.0617095
4	0x3bc360db	0.005962474
5	0x3cf418b5	0.029796937
6	0xbd9722e4	-0.07379702
7	0x3ce4a509	0.027910726
8	0xbd0e1ba9	-0.034694348
9	0x3d827b05	0.0637112
10	0x3d4d8615	0.0501767
11	0x3ccd362e	0.025050249
12	0xbb9ba43d	-0.0047498033
13	0x3b890bb4	0.0041823033
14	0xbc6b4df8	-0.014361851
15	0x3d05dfea	0.032684244
16	0xbdbb6cc5	-0.091516055
17	0xbc3fbcc8	-0.011702724
18	0x3c5d28ed	0.013498527
19	0xbc4c81a8	-0.012482084
20	0xbd9ce6ed	-0.07661233
21	0x3cb61bfc	0.02223014
22	0xbc20ac8b	-0.009806762
23	0xbd31a139	-0.043366645
24	0xbd301d06	-0.04299643
25	0xbcb0c28b	-0.02157714
26	0xbce41e25	-0.027846405
27	0xbd2b7e20	-0.04186833
28	0x3ca210be	0.019783374
29	0x3d98b32e	0.07456051
30	0x3cb33b98	0.021879002
31	0x3b729eac	0.0037020845
32	0x3d13cbe2	0.03608311
33	0x3d4a63be	0.049411528
34	0x3c9d5969	0.019207673
35	0x3d98731d	0.07443831
36	0x3c769d1b	0.015052105
37	0xbd1b4fcf	-0.03791791
38	0xbcc25134	-0.023720361
39	0xbc394559	-0.011308038
40	0x3ca36f03	0.019950395
41	0xbd9c8ecb	-0.07644423
42	0x3c752389	0.0149620855
43	0xbacf6517	-0.0015822974
44	0xbd59d1fe	-0.05317878
45	0x3d241208	0.04005626
46	0x3d9ffee2	0.07812287
47	0x3cb701b1	0.022339674
48	0xbcfed323	-0.031106537
49	0xbcff8653	-0.03119198
50	0xbc713b84	-0.014723662
51	0xbd9920ed	-0.07476983
52	0xbc6e25a5	-0.014535342
53	0x3d575a9e	0.052576654
54	0x3bf8db51	0.007594504
55	0x3ca553ce	0.020181563
56	0x3d6dc529	0.058049355
57	0xbccfcd30	-0.025366396
58	0x3c1498ed	0.0090696635
59	0x3ce6be5b	0.02816694
60	0x3d182ce0	0.03715217
61	0x3d1887ae	0.03723877
62	0xbdec9b43	-0.11553051
63	0x3baf02f2	0.0053409273

encoder.blocks.0.attn.mask f4 [1, 1, 12, 12]
0	0x3f800000	1.0
1	0x00000000	0.0
2	0x00000000	0.0
3	0x00000000	0.0
4	0x00000000	0.0
5	0x00000000	0.0
6	0x00000000	0.0
7	0x00000000	0.0
8	0x00000000	0.0
9	0x00000000	0.0
10	0x00000000	0.0
11	0x00000000	0.0
12	0x3f800000	1.0
13	0x3f800000	1.0
14	0x00000000	0.0
15	0x00000000	0.0
16	0x00000000	0.0
17	0x00000000	0.0
18	0x00000000	0.0
19	0x00000000	0.0
20	0x00000000	0.0
21	0x00000000	0.0
22	0x00000000	0.0
23	0x00000000	0.0
24	0x3f800000	1.0
25	0x3f800000	1.0
26	0x3f800000	1.0
27	0x00000000	0.0
28	0x00000000	0.0
29	0x00000000	0.0
30	0x00000000	0.0
31	0x00000000	0.0
32	0x00000000	0.0
33	0x00000000	0.0
34	0x00000000	0.0
35	0x00000000	0.0
36	0x3f800000	1.0
37	0x3f800000	1.0
38	0x3f800000	1.0
39	0x3f800000	1.0
40	0x00000000	0.0
41	0x00000000	0.0
42	0x00000000	0.0
43	0x00000000	0.0
44	0x00000000	0.0
45	0x00000000	0.0
46	0x00000000	0.0
47	0x00000000	0.0
48	0x3f800000	1.0
49	0x3f800000	1.0
50	0x3f800000	1.0
51	0x3f800000	1.0
52	0x3f800000	1.0
53	0x00000000	0.0
54	0x00000000	0.0
55	0x00000000	0.0
56	0x00000000	0.0
57	0x00000000	0.0
58	0x00000000	0.0
59	0x00000000	0.0
60	0x3f800000	1.0
61	0x3f800000	1.0
62	0x3f800000	1.0
63	0x3f800000	1.0
64	0x3f800000	1.0
65	0x3f800000	1.0
66	0x00000000	0.0
67	0x00000000	0.0
68	0x00000000	0.0
69	0x00000000	0.0
70	0x00000000	0.0
71	0x00000000	0.0
72	0x3f800000	1.0
73	0x3f800000	1.0
74	0x3f800000	1.0
75	0x3f800000	1.0
76	0x3f800000	1.0
77	0x3f800000	1.0
78	0x3f800000	1.0
79	0x00000000	0.0
80	0x00000000	0.0
81	0x00000000	0.0
82	0x00000000	0.0
83	0x00000000	0.0
84	0x3f800000	1.0
85	0x3f800000	1.0
86	0x3f800000	1.0
87	0x3f800000	1.0
88	0x3f800000	1.0
89	0x3f800000	1.0
90	0x3f800000	1.0
91	0x3f800000	1.0
92	0x00000000	0.0
93	0x00000000	0.0
94	0x00000000	0.0
95	0x00000000	0.0
96	0x3f800000	1.0
97	0x3f800000	1.0
98	0x3f800000	1.0
99	0x3f800000	1.0
100	0x3f800000	1.0
101	0x3f800000	1.0
102	0x3f800000	1.0
103	0x3f800000	1.0
104	0x3f800000	1.0
105	0x00000000	0.0
106	0x00000000	0.0
107	0x00000000	0.0
108	0x3f800000	1.0
109	0x3f800000	1.0
110	0x3f800000	1.0
111	0x3f800000	1.0
112	0x3f800000	1.0
113	0x3f800000	1.0
114	0x3f800000	1.0
115	0x3f800000	1.0
116	0x3f800000	1.0
117	0x3f800000	1.0
118	0x00000000	0.0
119	0x00000000	0.0
120	0x3f800000	1.0
121	0x3f800000	1.0
122	0x3f800000	1.0
123	0x3f800000	1.0
124	0x3f800000	1.0
125	0x3f800000	1.0
126	0x3f800000	1.0
127	0x3f800000	1.0
128	0x3f800000	1.0
129	0x3f800000	1.0
130	0x3f800000	1.0
131	0x00000000	0.0
132	0x3f800000	1.0
133	0x3f800000	1.0
134	0x3f800000	1.0
135	0x3f800000	1.0
136	0x3f800000	1.0
137	0x3f800000	1.0
138	0x3f800000	1.0
139	0x3f800000	1.0
140	0x3f800000	1.0
141	0x3f800000	1.0
142	0x3f800000	1.0
143	0x3f800000	1.0

encoder.blocks.0.attn.key.weight f4 [64, 64]
0	0x3cefe18c	0.029282354
1	0xbc3e600e	-0.011619581
2	0xbd3f0077	-0.046631303
3	0x3b3b5b84	0.0028588483
4	0x3d98ca68	0.07460481
5	0x3d442151	0.047883336
6	0x3d0e1f52	0.034697838
7	0xbd51f381	-0.051257614
8	0xbe1e31a9	-0.15448631
9	0xbd906fa0	-0.07052541
10	0x3b73cc98	0.0037200805
11	0x3c22e136	0.00994139
12	0xbc48725f	-0.012234299
13	0xbd0c93f4	-0.034320787
14	0xbcbb593d	-0.0228697
15	0x3d9d882b	0.076919876
16	0xbe18536e	-0.14875576
17	0x3d835dda	0.06414385
18	0x3d897e8c	0.0671359
19	0x3c9dd0ae	0.019264545
20	0x3cfb5e98	0.030684754
21	0xbd3e3d27	-0.04644504
22	0x3cae5841	0.021282317
23	0x3a5977a3	0.00082957203
24	0x3d898c57	0.06716221
25	0x3ce5121a	0.027962733
26	0x3e0717f7	0.13192736
27	0xbdc25797	-0.09489363
28	0xbb7d9934	-0.0038696053
29	0xbdc889f7	-0.0979194
30	0x3d7e15b4	0.062032416
31	0xbdbef823	-0.09324672
32	0xbc982209	-0.018570917
33	0xbd95fa51	-0.07323135
34	0x3d223b86	0.039607547
35	0xbc59f516	-0.013303062
36	0xbd287271	-0.041124765
37	0x3ccba38c	0.024858259
38	0x3a132f37	0.00056146405
39	0x3d654c2f	0.055980857
40	0xbd8b816f	-0.06811797
41	0x3df3860b	0.11890801
42	0xbc3b9af9	-0.011450523
43	0x3de19899	0.11015434
44	0xbd38df49	-0.045134816
45	0xbd549f32	-0.051909633
46	0x3d859b6a	0.065237835
47	0x3e0fcb31	0.14042355
48	0x3c2a8cea	0.010409573
49	0xbc3e31b8	-0.011608534
50	0x3d05e254	0.032686546
51	0xbe725642	-0.23665717
52	0x3d615e79	0.055021737
53	0xbc017b96	-0.007903
54	0xbd508041	-0.050903562
55	0xbe2b12c0	-0.16706371
56	0xbcb69922	-0.022289816
57	0x3d0c9528	0.034321934
58	0x3d679071	0.056534234
59	0x3bc798b9	0.006091204
60	0x3dfbabc3	0.1228862
61	0xbcab5d0f	-0.020918397
62	0xbdda6d67	-0.10665398
63	0x3e434c96	0.19072184
64	0x3d322f38	0.043502063
65	0xbb7ffc2d	-0.003906022
66	0x3e307595	0.17232354
67	0x3b4a0cb4	0.0030830326
68	0x3c1a6ea7	0.009425796
69	0x3de0b40d	0.10971842
70	0x3c8eeddb	0.017447403
71	0xbd8a2a91	-0.067464
72	0x3da93630	0.082622886
73	0xbd318054	-0.043335274
74	0xbc3993c5	-0.011326735
75	0x3c9f3042	0.01943219
76	0x3d15e57b	0.036595803
77	0x3d62a22d	0.055330444
78	0x3d2052ed	0.039141584
79	0x3e20e474	0.15712148
80	0x3eab1b7f	0.33419415
81	0xbd2b5bb3	-0.041835498
82	0xbc65ef6a	-0.014034132
83	0xbd4e72f2	-0.05040259
84	0xbd99b777	-0.07505696
85	0xbd54ed62	-0.0519842
86	0xbceaf622	-0.028681818
87	0xbdb7eb35	-0.08980409
88	0xbcd50f0b	-0.02600815
89	0xbdcb467a	-0.09925552
90	0x3e0f2e89	0.13982596
91	0x3d58bc32	0.052913852
92	0x3a4c89f1	0.00078025373
93	0xbcb48d7f	-0.022040127
94	0x3ddfc525	0.10926274
95	0x3dda2842	0.1065221
96	0xbdeae7e0	-0.11470008
97	0x3bcfeacd	0.006345129
98	0xbcb75ec0	-0.022384048
99	0x3da6befb	0.081418954
100	0x3ccebff6	0.025238018
101	0xbd1080c5	-0.035279054
102	0xbd7fea64	-0.06247939
103	0xbd9a5e66	-0.07537536
104	0x3e30dfc7	0.17272864
105	0xbd99961e	-0.07499336
106	0xbcd7a458	-0.026323482
107	0x3dbb5aa4	0.09148148
108	0x3e2e79f0	0.17038703
109	0xbde44d7d	-0.11147592
110	0x3cfd651e	0.030932005
111	0xbdd0191b	-0.101610385
112	0xbd3eba93	-0.04656465
113	0x3d51843a	0.05115149
114	0xbd915343	-0.07095959
115	0x3e7d8d38	0.24760902
116	0xbdc20671	-0.09473885
117	0x3d015b15	0.031581003
118	0xbd871d1b	-0.06597348
119	0x3e6b7341	0.22993185
120	0xbdc39de0	-0.09551597
121	0xbd8aab6f	-0.067709796
122	0xbe1fbb79	-0.15598859
123	0xbd71c6c8	-0.059027463
124	0xbd8e40a8	-0.06945926
125	0xbddaba3a	-0.10680051
126	0x3e1a39d9	0.1506113
127	0xbe1c6cb4	-0.15275842
128	0xbddac786	-0.10682587
129	0xbd870840	-0.065933704
130	0xbe3dfe8e	-0.18554136
131	0xbcec9c51	-0.028883131
132	0xbd0cf992	-0.034417696
133	0xbd8aeb9f	-0.067832224
134	0xbd938942	-0.07203914
135	0x3ce180c2	0.027527217
136	0x3dfbc796	0.12293927
137	0x3e0bd199	0.13654174
138	0x3dcf8916	0.10133569
139	0xbd332c08	-0.043743163
140	0xbcb04068	-0.021515086
141	0xbe14c5cf	-0.14528583
142	0xbd644ed3	-0.055739235
143	0xbe69bd0d	-0.22826023
144	0xbe53e5db	-0.20693152
145	0x3df8eaac	0.12154135
146	0x3ccb8a5b	0.024846246
147	0x3d96b0a9	0.07357914
148	0x3dac4b16	0.08412759
149	0x3d73b7ba	0.059501387
150	0x3dd2d968	0.10295373
151	0x3e0865d6	0.13320097
152	0x3d0ba461	0.03409231
153	0x3e11307c	0.14178652
154	0xbe382b7c	-0.17985338
155	0xbc30073e	-0.010743914
156	0x3cff1b36	0.031140905
157	0x3c978176	0.018494349
158	0xbe3ba6fd	-0.1832542
159	0xbdca05c2	-0.098643795
160	0x3e262e2d	0.16228552
161	0x3d007afe	0.031367294
162	0xbc197a83	-0.009367588
163	0xbd82eaa0	-0.063924074
164	0xbcd0ad86	-0.025473367
165	0x3b793af1	0.0038029517
166	0x3dc7ff05	0.09765438
167	0x3d97b2c0	0.07407141
168	0xbe1d8b3a	-0.15385142
169	0x3dcae018	0.09906024
170	0x3d1e7e7b	0.03869484
171	0xbe65e5ca	-0.22450939
172	0xbe543d73	-0.20726566
173	0x3e4af346	0.19819364
174	0xbe114baf	-0.14189027
175	0xbcb88a23	-0.022526806
176	0x3d534f6d	0.05158942
177	0xbd7e4592	-0.062078066
178	0x3d80f4cf	0.062966935
179	0xbdd123b1	-0.10211886
180	0x3c83ffaa	0.016113121
181	0xbcac04f2	-0.020998452
182	0x3dd07457	0.1017844
183	0xbe36fad8	-0.17869127
184	0x3dee0090	0.11621201
185	0x3dd3b92f	0.10338055
186	0x3e66fdf8	0.22557819
187	0xbd5f167e	-0.05446481
188	0x3da754ba	0.08170457
189	0x3e23bf92	0.15991047
190	0xbdb2c4f7	-0.08728974
191	0x3e0a6993	0.13516836
192	0x3d9738a6	0.07383852
193	0xbd9e7ab3	-0.07738247
194	0x3d443a02	0.047906883
195	0xbe0d3980	-0.13791466
196	0xbdc913a4	-0.09818199
197	0x3c46a3d2	0.012124019
198	0x3c4e6b4c	0.012598824
199	0x3abe0e47	0.0014500105
200	0x3d8b80ec	0.06811699
201	0xbd47dbad	-0.048793484
202	0x3d8e1e98	0.06939429
203	0xbe0a5f22	-0.13512853
204	0xbcda0686	-0.026614439
205	0x3d7b9745	0.06142356
206	0x3cf85492	0.030313764
207	0xbe0a1549	-0.13484682
208	0x3dd602a4	0.104497224
209	0xbcc6febc	-0.024291389
210	0xbc7091bd	-0.014683184
211	0xbd41e123	-0.047333848
212	0xbd7dffb3	-0.062011432
213	0xbcccd6ef	-0.025004832
214	0x3baa2e21	0.0051934873
215	0xbc3594b2	-0.011082815
216	0x3dea60f2	0.11444272
217	0xbc3e4534	-0.011613179
218	0x3dd93b21	0.10606981
219	0x3db9d0c8	0.09073025
220	0xbdff188a	-0.12455852
221	0x3d651886	0.05593159
222	0x3bd3eabf	0.006467193
223	0x3dcfef9d	0.101531245
224	0xbd685ae5	-0.05672731
225	0xbc4a6dd2	-0.012355285
226	0xbd4a890d	-0.049447108
227	0x3d2d4f26	0.04231181
228	0x3d769cb5	0.06020804
229	0xbdea8806	-0.11451726
230	0xbd723b81	-0.05913878
231	0xbc94beac	-0.018157326
232	0x3da6d337	0.08145755
233	0x3cbccead	0.02304777
234	0x3cf119e1	0.029431285
235	0xbcaa896d	-0.020817483
236	0x3b09d1cc	0.002102959
237	0x3dc8aab8	0.09798187
238	0xbdd4b12d	-0.10385356
239	0xbd6c582d	-0.05770128
240	0x3da7ec66	0.08199386
241	0x3e1733c7	0.14765845
242	0x3e0426c8	0.12905419
243	0x3d2f2bf7	0.042766538
244	0xbd99fd0d	-0.07518969
245	0xbb9cfd05	-0.0047909045
246	0x3d0332d4	0.032030895
247	0x3c5ed559	0.013600671
248	0xbb30eb81	-0.002699584
249	0xbd18af59	-0.0372766
250	0xbd54ebc7	-0.051982667
251	0xbd4b5994	-0.049645975
252	0x3bb7ef28	0.0056132264
253	0x3d68aef7	0.056807484
254	0x3dffc9a2	0.1248963
255	0xbe18dcce	-0.1492798

encoder.blocks.0.attn.key.bias f4 [64]
0	0x343f1d06	1.779882e-07
1	0x33bb5823	8.723898e-08
2	0x33eddf37	1.1076775e-07
3	0xb232d663	-1.04097095e-08
4	0x345e294d	2.0690386e-07
5	0x335da7d6	5.1608218e-08
6	0x3390402e	6.717197e-08
7	0xb39ebde5	-7.39199e-08
8	0x33dd2f1b	1.0299683e-07
9	0xb37df925	-5.913275e-08
10	0x3398c95a	7.114677e-08
11	0x33a212fc	7.547166e-08
12	0xb4004616	-1.1946426e-07
13	0x3324f4bb	3.8406807e-08
14	0xb401c509	-1.2085742e-07
15	0xb28da65b	-1.649021e-08
16	0x3313cf2c	3.4414526e-08
17	0x33590315	5.0527053e-08
18	0xb429e2f5	-1.5821918e-07
19	0xb3ce3d09	-9.603725e-08
20	0xb29acf10	-1.802212e-08
21	0xb30f23e6	-3.332743e-08
22	0x34232911	1.5195498e-07
23	0x3432aecc	1.6641133e-07
24	0x346017cb	2.0870282e-07
25	0xb3f28026	-1.1292313e-07
26	0x32530ad5	1.2284279e-08
27	0x335035a0	4.8477546e-08
28	0xb3f69f61	-1.14842585e-07
29	0xb3ccbfd4	-9.5343836e-08
30	0xb4568236	-1.9977674e-07
31	0xb3dfd29e	-1.0422558e-07
32	0x33bbf38f	8.752169e-08
33	0xb3b268c8	-8.3078305e-08
34	0x34377b8c	1.7088149e-07
35	0xb2bc0536	-2.188845e-08
36	0x34095e65	1.279346e-07
37	0xb40a991f	-1.2907957e-07
38	0xb456f44a	-2.0019175e-07
39	0xb31e0d24	-3.6799193e-08
40	0x3464afc0	2.1298092e-07
41	0xb1f48625	-7.116585e-09
42	0xb4401674	-1.7889562e-07
43	0xb401f5b0	-1.2103442e-07
44	0x345cd110	2.0565153e-07
45	0xb44b7cfb	-1.8951316e-07
46	0x338844f2	6.3455346e-08
47	0x33830a6d	6.102059e-08
48	0x3458e7b2	2.0200858e-07
49	0xb38b08cb	-6.474291e-08
50	0xb2928b4c	-1.7059982e-08
51	0x341ba13e	1.449416e-07
52	0xb43b9d14	-1.7472877e-07
53	0x32d90ff2	2.5269376e-08
54	0xb40c3172	-1.3056504e-07
55	0xb3ac916b	-8.0358255e-08
56	0xb3498894	-4.6923176e-08
57	0x30f4e4e0	1.7818387e-09
58	0xb32908a4	-3.9356237e-08
59	0x34526197	1.9593277e-07
60	0xb3e73fc9	-1.0768378e-07
61	0x33972921	7.038967e-08
62	0x34591525	2.0217392e-07
63	0x33259826	3.8555434e-08
