trainer/results/football/11_vs_11_stochastic/mat/check/run1/models/transformer_900.pt (torch, 467816 bytes, 73 tensors)

encoder.state_encoder.0.weight f4 [37]
1.0 1.0 1.0 1.0 1.0 1.0 1.0 1.0
1.0 1.0 1.0 1.0 1.0 1.0 1.0 1.0
1.0 1.0 1.0 1.0 1.0 1.0 1.0 1.0
1.0 1.0 1.0 1.0 1.0 1.0 1.0 1.0
1.0 1.0 1.0 1.0 1.0
00000000: 0000 803f 0000 803f 0000 803f 0000 803f
00000010: 0000 803f 0000 803f 0000 803f 0000 803f
00000020: 0000 803f 0000 803f 0000 803f 0000 803f
00000030: 0000 803f 0000 803f 0000 803f 0000 803f
00000040: 0000 803f 0000 803f 0000 803f 0000 803f
00000050: 0000 803f 0000 803f 0000 803f 0000 803f
00000060: 0000 803f 0000 803f 0000 803f 0000 803f
00000070: 0000 803f 0000 803f 0000 803f 0000 803f
00000080: 0000 803f 0000 803f 0000 803f 0000 803f
00000090: 0000 803f

encoder.state_encoder.0.bias f4 [37]
0.0 0.0 0.0 0.0 0.0 0.0 0.0 0.0
0.0 0.0 0.0 0.0 0.0 0.0 0.0 0.0
0.0 0.0 0.0 0.0 0.0 0.0 0.0 0.0
0.0 0.0 0.0 0.0 0.0 0.0 0.0 0.0
0.0 0.0 0.0 0.0 0.0
00000000: 0000 0000 0000 0000 0000 0000 0000 0000
00000010: 0000 0000 0000 0000 0000 0000 0000 0000
00000020: 0000 0000 0000 0000 0000 0000 0000 0000
00000030: 0000 0000 0000 0000 0000 0000 0000 0000
00000040: 0000 0000 0000 0000 0000 0000 0000 0000
00000050: 0000 0000 0000 0000 0000 0000 0000 0000
00000060: 0000 0000 0000 0000 0000 0000 0000 0000
00000070: 0000 0000 0000 0000 0000 0000 0000 0000
00000080: 0000 0000 0000 0000 0000 0000 0000 0000
00000090: 0000 0000

encoder.state_encoder.1.weight f4 [64, 37]
0.4574152 0.19178663 0.11696038 -0.03484751 -0.024718557 0.08946806 0.01876197 0.09317158
0.26316312 -0.070077896 0.3382568 -0.05923168 -0.12915726 -0.2459303 -0.024627378 0.13580255
-0.15919763 -0.17724416 0.041411754 0.022096744 0.18048406 0.123222694 -0.07639876 -0.36825076
-0.29680172 -0.034182478 0.056617558 0.20112307 0.051109444 0.20088284 0.1841506 -0.07784154
0.022256143 -0.00198585 0.017833995 0.16791677 0.14283958 0.2520978 -0.0026797678 0.036555268
-0.34279457 0.20965734 0.109166384 0.05958064 0.182345 0.19287658 0.05516808 0.016364643
-0.12562779 0.28481907 0.024451666 0.35011736 -0.16751002 -0.27444172 0.09274273 0.009425651
-0.14077525 -0.21963161 0.17755678 -0.022642229 0.02076482 0.04338099 -0.35535234 -0.17457849
0.10034779 -0.06924844 -0.061708517 -0.08110467 0.29113233 0.07335813 -0.19970822 -0.03494495
-0.064540915 0.312445 0.062430877 -0.1748564 0.15701269 0.08229059 -0.085262515 -0.16688499
0.044076603 -0.23346321 0.014359764 -0.050128154 -0.2761496 -0.09011372 0.19620766 0.33910358
0.087567285 0.20255402 0.005088991 0.11868635 0.05329292 0.17252271 0.22197093 0.057809833
-0.032914076 -0.15549012 -0.27870542 0.29608682 -0.18096645 -0.054570347 -0.2719342 -0.05681888
-0.086294785 0.25709227 0.10048054 0.00021697802 0.01413764 0.20644523 -0.175578 0.06629577
-0.55853295 -0.055624884 -0.1845203 0.26592916 -0.08810885 -0.028984131 -0.30324194 -0.05605378
0.25482255 -0.09172232 -0.07383927 -0.2708589 0.19046381 0.018751414 -0.006208304 -0.13356234
-0.124814704 -0.09745824 0.05768247 0.25524354 0.14021857 -0.14652897 -0.07516245 0.16695458
-0.25621763 0.022513237 -0.18820949 -0.05454332 -0.05423308 -0.191489 -0.06498444 0.14634998
0.24868573 0.27689525 -0.3586541 -0.19422892 0.20540085 -0.25503674 0.36688456 -0.055246513
-0.047298037 0.130609 -0.043869317 0.086236976 -0.08167747 0.08824544 -0.013922421 -0.0008757562
-0.28996956 -0.2678294 -0.12416736 -0.003983409 -0.083968274 -0.18522517 -0.14653817 -0.008485533
0.19713818 0.023719832 0.03716988 -0.14856616 -0.12148814 0.012963545 -0.07299419 -0.011729042
-0.043155413 -0.09657931 -0.09067693 -0.36637384 -0.2825897 -0.3737699 -0.06531416 0.08889984
-0.19877006 0.062309705 0.17385122 -0.008961584 0.096334815 0.2159585 -0.11990709 0.064151324
-0.17163816 -0.28194264 0.013052619 0.16149867 0.14832835 -0.05156396 -0.1286681 -0.41663256
0.09592095 -0.11497352 0.053902917 -0.065543264 0.2730092 -0.10748558 -0.6373737 -0.19424647
-0.06450384 0.08185028 -0.11890842 0.0473612 -0.14008644 -0.07692784 -0.14484356 -0.18607596
0.043479685 0.0050566993 -0.14898743 0.09944455 -0.044569854 0.10265905 -0.037873775 0.28203073
0.068844385 -0.035023462 -0.3559894 0.2541483 -0.0029488925 0.07143271 0.14594343 0.2193845
-0.12030955 -0.04227861 -0.08445814 -0.2582056 -0.39506748 0.18912336 -0.13990681 0.022381444
-0.031242913 0.021755932 -0.01393924 0.09101519 0.13713178 0.12850487 -0.07857095 -0.25117433
-0.21247439 0.042816125 -0.10013963 0.007848316 -0.51894224 0.08713726 -0.14834349 0.1854715
00000000: 5332 ea3e b763 443e ec88 ef3d 43bc 0ebd
00000010: 927e cabc 083b b73d b4b2 993c bed0 be3d
00000020: 51bd 863e 0085 8fbd ff2f ad3e eb9c 72bd
00000030: cd41 04be 27d5 7bbe 5bbf c9bc d30f 0b3e
00000040: b404 23be 7e7f 35be 5f9f 293d 3b04 b53c
00000050: d0d0 383e 2e5c fc3d f476 9cbd 5d8b bcbe
00000060: 65f6 97be ed02 0cbd d0e7 673d 35f3 4d3e
00000070: 2358 513d 3bb4 4d3e fa91 3c3e 636b 9fbd
00000080: 8452 b63c 0925 02bb 9918 923c 60f2 2b3e
00000090: 8a44 123e f612 813e 0b9f 2fbb faba 153d
000000a0: c582 afbe 6ab0 563e a092 df3d d40a 743d
000000b0: a6b8 3a3e 7081 453e edf7 613d 250f 863c
000000c0: 92a4 00be ced3 913e dc4e c83c 9542 b33e
000000d0: bf87 2bbe a083 8cbe e7ef bd3d 0c6e 1a3c
000000e0: 6327 10be 1ce7 60be 72d1 353e 327c b9bc
000000f0: fc1a aa3c 44b0 313d bef0 b5be b4c4 32be
00000100: 2483 cd3d 20d2 8dbd 12c2 7cbd 351a a6bd
00000110: 4c0f 953e ca3c 963d 5080 4cbe 7022 0fbd
00000120: 072e 84bd cbf8 9f3e 85b7 7f3d 8e0d 33be
00000130: efc7 203e f887 a83d 1d9e aebd e6e3 2abe
00000140: ab89 343d fb10 6fbe 3745 6b3c 2e53 4dbd
00000150: 7b63 8dbe 8b8d b8bd a9ea 483e fc9e ad3e
00000160: 7a56 b33d 526a 4f3e 8dc1 a63b d411 f33d
00000170: ad49 5a3d cba9 303e 594c 633e 01ca 6c3d
00000180: e9d0 06bd cd38 1fbe 7ab2 8ebe b198 973e
00000190: 454f 39be 2885 5fbd f63a 8bbe eaba 68bd
000001a0: 52bb b0bd 99a1 833e bec8 cd3d 9884 6339
000001b0: 8fa1 673c 6166 533e b8ca 33be 14c6 873d
000001c0: 04fc 0ebf ebd6 63bd e4f2 3cbe de27 883e
000001d0: 6a72 b4bd 2170 edbc 8742 9bbe a698 65bd
000001e0: 1a78 823e e9d8 bbbd 0b39 97bd 05ae 8abe
000001f0: f208 433e 919c 993c 076f cbbb 91c4 08be
00000200: da9e ffbd 3098 c7bd 7444 6c3d 48af 823e
00000210: 7595 0f3e b10b 16be c5ee 99bd 24f6 2a3e
00000220: f52e 83be ae6d b83c fdb9 40be d168 5fbd
00000230: 8223 5ebd b115 44be 9016 85bd c5dc 153e
00000240: 79a7 7e3e 37c5 8d3e 83a1 b7be f2e3 46be
00000250: 9a54 523e 2d94 82be 4bd8 bb3e 2b4a 62bd
00000260: 96bb 41bd 5ebe 053e 50b0 33bd 039d b03d
00000270: 8446 a7bd 06ba b43d de1a 64bc 0193 65ba
00000280: e476 94be ef20 89be 754b febd 4287 82bb
00000290: 8ff7 abbd abab 3dbe 1a0e 16be e806 0bbc
000002a0: 97de 493e 1850 c23c 723f 183d ba21 18be
000002b0: c6ce f8bd 0c65 543c fa7d 95bd 2b2b 40bc
000002c0: bbc3 30bd 60cb c5bd d4b4 b9bd 5a95 bbbe
000002d0: 99af 90be c55e bfbe 6ec3 85bd 1f11 b63d
000002e0: 618a 4bbe 7638 7f3d 0e06 323e 9cd3 12bc
000002f0: 304b c53d 3a24 5d3e d991 f5bd c561 833d
00000300: eac1 2fbe c95a 90be a7da 553c e85f 253e
00000310: 63e3 173e bb34 53bd 92c1 03be dd50 d5be
00000320: 3472 c43d 3d77 ebbd 4ec9 5c3d 8c3b 86bd
00000330: ddc7 8b3e 6621 dcbd ec2a 23bf 8ce8 46be
00000340: 971a 84bd 1fa1 a73d 4286 f3bd d1fd 413d
00000350: d272 0fbe 588c 9dbd df51 14be b28a 3ebe
00000360: c117 323d abb2 a53b 2990 18be 96a9 cb3d
00000370: e18e 36bd e83e d23d 8821 1bbd 5566 903e
00000380: 49fe 8c3d c374 0fbd 3e44 b6be ba1f 823e
00000390: 3542 41bb 504b 923d 3272 153e 55a6 603e
000003a0: da64 f6bd 562c 2dbd 64f8 acbd 8633 84be
000003b0: 4946 cabe 8ea9 413e bb43 0fbe 4a59 b73c
000003c0: 23f1 ffbc 7f39 b23c 6961 64bc 2c66 ba3d
000003d0: 466c 0c3e c896 033e cee9 a0bd ec99 80be
000003e0: e392 59be f65f 2f3d 0216 cdbd 3996 003c
000003f0: 66d9 04bf 0575 b23d 5be7 17be 3eec 3d3e

encoder.state_encoder.1.bias f4 [64]
0.0 0.0 0.0 0.0 0.0 0.0 0.0 0.0
0.0 0.0 0.0 0.0 0.0 0.0 0.0 0.0
0.0 0.0 0.0 0.0 0.0 0.0 0.0 0.0
0.0 0.0 0.0 0.0 0.0 0.0 0.0 0.0
0.0 0.0 0.0 0.0 0.0 0.0 0.0 0.0
0.0 0.0 0.0 0.0 0.0 0.0 0.0 0.0
0.0 0.0 0.0 0.0 0.0 0.0 0.0 0.0
0.0 0.0 0.0 0.0 0.0 0.0 0.0 0.0
00000000: 0000 0000 0000 0000 0000 0000 0000 0000
00000010: 0000 0000 0000 0000 0000 0000 0000 0000
00000020: 0000 0000 0000 0000 0000 0000 0000 0000
00000030: 0000 0000 0000 0000 0000 0000 0000 0000
00000040: 0000 0000 0000 0000 0000 0000 0000 0000
00000050: 0000 0000 0000 0000 0000 0000 0000 0000
00000060: 0000 0000 0000 0000 0000 0000 0000 0000
00000070: 0000 0000 0000 0000 0000 0000 0000 0000
00000080: 0000 0000 0000 0000 0000 0000 0000 0000
00000090: 0000 0000 0000 0000 0000 0000 0000 0000
000000a0: 0000 0000 0000 0000 0000 0000 0000 0000
000000b0: 0000 0000 0000 0000 0000 0000 0000 0000
000000c0: 0000 0000 0000 0000 0000 0000 0000 0000
000000d0: 0000 0000 0000 0000 0000 0000 0000 0000
000000e0: 0000 0000 0000 0000 0000 0000 0000 0000
000000f0: 0000 0000 0000 0000 0000 0000 0000 0000

encoder.obs_encoder.0.weight f4 [217]
0.9142213 0.9786826 0.98918337 0.9739899 0.9492683 0.90470356 0.96255606 0.93144506
0.9433332 1.1856922 1.1052071 1.2198579 1.1255512 0.9552572 0.71935797 0.5995189
1.1072559 1.1266845 1.0216131 1.1100937 1.3405224 1.1811513 1.0663946 1.037047
1.2257491 1.1217562 1.0678322 1.2110503 1.215875 1.2159177 1.2631999 1.2633084
0.5612665 1.2575315 1.202001 1.2000536 1.37091 0.95427096 0.7651079 0.46483433
0.60732126 0.71828634 0.96210563 1.0018548 1.1546588 2.0345757 0.9514132 1.4655269
0.8708023 1.1464609 0.8695906 0.69619566 1.0996175 0.32416898 0.611749 0.6197602
0.9101809 1.0069841 0.91275036 0.8579448 0.36080468 0.45994407 0.55174035 0.8407769
0.95191646 0.9521839 0.83910435 0.34373268 0.5734604 0.57790434 0.9361269 0.9559988
0.9479769 0.8038043 0.37188733 0.5651721 0.57088006 0.90429735 0.9806455 0.82076913
0.76108575 0.37930492 0.55101365 0.5398224 1.0456965 0.9870118 0.92773265 0.7845952
0.42879102 0.56933624 0.60098904 0.8730998 0.9650171 0.8095637 0.9345033 0.37697002
0.51612204 0.63366616 0.93054926 0.82073885 0.6805574 0.8001468 0.2164045 0.46541116
0.6014811 0.82198197 0.9366344 0.68726903 0.6479486 0.34700352 0.5568856 0.65709114
0.86760575 0.9955608 0.9630654 1.1308011 0.6019803 0.69750935 0.6758615 1.3170218
0.8790952 0.9868911 1.0129799 1.0676641 0.95925766 0.975544 1.154391 1.0826426
1.0234948 1.0561585 1.0158758 1.0302899 0.53437746 0.9087585 0.8144452 0.6942705
0.8560476 0.76346606 1.0528309 1.0011424 1.0080647 1.0814328 0.9404549 0.9714068
0.9514321 0.9658188 1.1329169 0.9174065 0.86973953 0.7513884 0.7063287 0.8007972
0.90508413 1.0040307 1.0147603 1.0018413 0.69236636 0.620439 0.80469334 0.80704135
0.9672941 0.8761441 0.9768376 0.61776245 0.6770387 0.7058839 0.8738761 0.9657546
0.91098565 0.9752524 0.64007264 0.77631956 0.77343243 0.95468706 0.9717309 0.8525017
0.996343 0.5379238 0.7579804 0.6379373 0.7973346 1.0040492 0.9679528 0.9290913
0.70209086 0.6107835 0.68953806 0.7825415 0.98805755 0.9501108 1.0871685 0.8854042
0.89143115 0.76187074 0.8647993 0.97763586 0.92451274 1.088877 0.7908662 0.9421335
0.76805925 0.9232213 1.0125955 1.0168936 1.0598203 0.9260137 0.8589862 0.9694171
0.88194346 0.97585475 0.93511635 0.8782373 0.85091114 0.9610412 0.7801014 0.8961001
1.0354855
00000000: 680a 6a3f f18a 7a3f 1f3b 7d3f 6757 793f
00000010: 3f03 733f a79a 673f 136a 763f 2f73 6e3f
00000020: 497e 713f c3c4 973f 6d77 8d3f 4e24 9c3f
00000030: 1012 903f bc8b 743f d827 383f 127a 193f
00000040: 90ba 8d3f 3337 903f 38c4 823f 8d17 8e3f
00000050: 3d96 ab3f f72f 973f 9e7f 883f f5bd 843f
00000060: 59e5 9c3f b595 8f3f baae 883f b203 9b3f
00000070: cba1 9b3f 31a3 9b3f 89b0 a13f 17b4 a13f
00000080: 29af 0f3f cbf6 a03f 2bdb 993f 5b9b 993f
00000090: fb79 af3f 1a4b 743f 1dde 433f c4fe ed3e
000000a0: 6879 1b3f 9de1 373f 8e4c 763f c73c 803f
000000b0: dccb 933f 7d36 0240 d18f 733f 6396 bb3f
000000c0: e6ec 5e3f 3bbf 923f 7d9d 5e3f e139 323f
000000d0: 44c0 8c3f 7af9 a53e 959b 1c3f 9ba8 1e3f
000000e0: 9e01 693f dbe4 803f 02aa 693f 45a2 5b3f
000000f0: 64bb b83e ca7d eb3e db3e 0d3f 283d 573f
00000100: ccb0 733f 53c2 733f 8bcf 563f bbfd af3e
00000110: 4dce 123f 8af1 133f 03a6 6f3f 56bc 743f
00000120: 9dae 723f 1ec6 4d3f 0468 be3e 1eaf 103f
00000130: 3225 123f 0880 673f 950b 7b3f ed1d 523f
00000140: 84d6 423f 4134 c23e 3b0f 0d3f cd31 0a3f
00000150: 62d9 853f ceac 7c3f e37f 6d3f 3bdb 483f
00000160: 7f8a db3e 05c0 113f 6bda 193f 7883 5f3f
00000170: 5c0b 773f 913f 4f3f 9c3b 6f3f 3702 c13e
00000180: 9320 043f f237 223f 7a38 6e3f f11b 523f
00000190: 0339 2e3f 6cd6 4c3f 2499 5d3e 5f4a ee3e
000001a0: aafa 193f 696d 523f 46c7 6f3f ddf0 2f3f
000001b0: f6df 253f 72aa b13e 0e90 0e3f 2037 283f
000001c0: 691b 5e3f 13dd 7e3f 748b 763f 17be 903f
000001d0: 621b 1a3f f98f 323f 4205 2d3f 2c94 a83f
000001e0: 620c 613f e5a4 7c3f 53a9 813f 38a9 883f
000001f0: e991 753f 40bd 793f 16c3 933f 0894 8a3f
00000200: e101 833f 3430 873f 3808 823f 8ae0 833f
00000210: f6cc 083f 66a4 683f 7b7f 503f b6bb 313f
00000220: ef25 5b3f 8372 433f 2ac3 863f 6f25 803f
00000230: 4408 813f 646c 8a3f a7c1 703f 1eae 783f
00000240: 0e91 733f e73f 773f 6c03 913f 27db 6a3f
00000250: 40a7 5e3f fd5a 403f f5d1 343f 0c01 4d3f
00000260: 98b3 673f 1484 803f aae3 813f 563c 803f
00000270: ec3e 313f 17d5 1e3f 6200 4e3f 439a 4e3f
00000280: 96a0 773f fb4a 603f 0712 7a3f ae25 1e3f
00000290: 6952 2d3f cfb4 343f 58b6 5f3f b23b 773f
000002a0: 5b36 693f 24aa 793f cddb 233f e1bc 463f
000002b0: abff 453f 5f66 743f 5bc3 783f 8d3d 5a3f
000002c0: 5610 7f3f 60b5 093f 010b 423f dc4f 233f
000002d0: 1f1e 4c3f af84 803f c1cb 773f edd8 6d3f
000002e0: 3abc 333f 4f5c 1c3f 9185 303f a454 483f
000002f0: 57f1 7c3f 763a 733f 5628 8b3f daa9 623f
00000300: d534 643f f609 433f 7d63 5d3f 5846 7a3f
00000310: deac 6c3f 5260 8b3f 3576 4a3f a92f 713f
00000320: 889f 443f 3b58 6c3f bb9c 813f 9229 823f
00000330: 31a8 873f 3c0f 6d3f 85e6 5b3f b82b 783f
00000340: 0cc7 613f 9ed1 793f c963 6f3f 29d4 603f
00000350: 50d5 593f cc06 763f bab4 473f d166 653f
00000360: ca8a 843f

encoder.obs_encoder.0.bias f4 [217]
-0.12021096 -0.06768709 -0.029579503 -0.025842471 -0.07677978 -0.10524043 -0.06264139 -0.08308693
-0.089163944 0.058094963 0.029804667 0.06837355 0.024420701 -0.048448276 -0.107088536 -0.06193892
0.05028892 0.019288057 0.04852869 0.03679998 0.0029521836 0.0716415 -0.055458564 -0.010651
0.09257895 -0.0028715557 0.04736199 0.021159807 0.03865195 0.06960481 0.029686794 0.019923845
0.039814748 -0.07589267 -0.06680661 -0.01642296 0.029616391 0.021976944 0.039153717 0.05212746
0.06692481 -0.07847119 -0.04318993 0.002146422 -0.0013163623 0.020869045 0.026659032 0.038783714
-0.051489666 -0.010208401 -0.07062645 0.05031192 0.021902448 0.05257951 0.084298894 -0.11107634
-0.047149047 -0.0321089 0.016663495 0.03602985 0.016081631 0.06383549 -0.11476951 -0.07143439
-0.06703884 0.06430026 0.0036716347 0.010631503 0.037229527 -0.038014237 -0.06416761 -0.029321732
0.023284897 0.007554733 -0.018551664 0.03501661 -0.10429749 -0.07512919 -0.046088368 0.0844064
0.017085271 0.053077698 0.049611997 -0.12295491 -0.03955495 -0.08245028 0.03529075 0.009819728
0.02495308 0.071344085 -0.13310096 -0.06740725 -0.059468202 0.09811688 0.03337414 0.038755238
0.06647841 -0.104263365 -0.08801867 -0.06534715 -0.009537972 0.0526003 0.044861153 0.09160915
-0.12947541 -0.084283926 -0.024400696 0.019680334 -0.0026798453 0.041787315 0.0979035 -0.08685392
-0.07185479 -0.028236592 0.016746975 -0.0059559597 0.044624016 0.06100755 -0.10246642 -0.012257276
-0.0127083585 -0.0011761937 -0.0074472544 0.053681888 -0.022724716 0.03137174 -0.006686106 0.0018488646
0.0064213113 -0.041532498 -0.06755023 -0.01563225 -0.12800094 0.0648086 0.079670474 0.09850352
0.08851506 -0.11581575 -0.04399296 -0.05914409 -0.038708806 -0.009255025 0.02883237 0.06605444
0.03711714 -0.038677447 0.0013213643 0.069792815 -0.016146647 0.074688576 0.018787194 -0.05898769
-0.052241523 -0.036366258 0.022472648 -0.0077881836 0.04757477 0.034861244 -0.101304986 -0.0956061
-0.044244383 0.07018294 0.042574793 0.089753225 0.0551517 -0.10296647 -0.07790305 -0.024797192
0.047911488 0.07593712 0.05999655 0.040259372 -0.02892568 -0.05376832 -0.08673213 0.11315108
0.0303902 0.13547708 0.024151692 -0.15257396 -0.07122344 -0.08133901 0.053780407 0.022813627
0.06454197 0.05513325 -0.07390947 -0.039362233 0.0036875128 0.08535159 0.030884182 0.09406355
0.029182486 -0.13256846 -0.052774984 -0.031369507 0.105296984 -0.045762297 0.108264394 0.026171146
-0.099580355 -0.10892037 -0.04064113 0.10160435 0.0073214523 0.095307164 0.009924355 -0.05051777
-0.11077259 -0.03255233 0.057850275 0.05390921 0.08593119 0.025195347 -0.122180805 -0.054759104
-0.07684641
00000000: 2a31 f6bd 879f 8abd b750 f2bc 97b3 d3bc
00000010: b83e 9dbd 4b88 d7bd 214a 80bd 7b29 aabd
00000020: 969b b6bd fcf4 6d3d eb28 f43c 6f07 8c3d
00000030: ec0d c83c b371 46bd 3c51 dbbd aab3 7dbd
00000040: c1fb 4d3d fd01 9e3c 05c6 463d 93bb 163d
00000050: 6c79 413b c7b8 923d 8528 63bd 8881 2ebc
00000060: 089a bd3d b630 3cbb a5fe 413d 5557 ad3c
00000070: 8251 1e3d f78c 8e3d b831 f33c 5537 a33c
00000080: ca14 233d 9e6d 9bbd e7d1 88bd 7289 86bc
00000090: 139e f23c fe08 b43c a65f 203d 9a83 553d
000000a0: e00f 893d 81b5 a0bd ede7 30bd fcaa 0c3b
000000b0: ca89 acba 8ff5 aa3c 0b64 da3c acdb 1e3d
000000c0: d4e6 52bd 2341 27bc 9aa4 90bd df13 4e3d
000000d0: c36c b33c 9d5d 573d e6a4 ac3d fe7b e3bd
000000e0: 5c1f 41bd 9f84 03bd e281 883c 0994 133d
000000f0: a0bd 833c 2ebc 823d 470c ebbd 324c 92bd
00000100: a94b 89bd dbaf 833d cf9f 703b c12f 2e3c
00000110: fd7d 183d d1b4 1bbd 4f6a 83bd 2134 f0bc
00000120: f8bf be3c b28d f73b a9f9 97bc 946d 0f3d
00000130: ec99 d5bd 55dd 99bd 28c7 3cbd 43dd ac3d
00000140: 69f6 8b3c 0068 593d f335 4b3d c9cf fbbd
00000150: 5f04 22bd b1db a8bd 098d 103d ede2 203c
00000160: 676a cc3c d91c 923d 9e4b 08be d00c 8abd
00000170: ee94 73bd 81f1 c83d 52b3 083d d0bd 1e3d
00000180: d525 883d 0888 d5bd 2243 b4bd bad4 85bd
00000190: 2745 1cbc 6a73 573d 54c0 373d 949d bb3d
000001a0: 3495 04be 0d9d acbd f8e3 c7bc a738 a13c
000001b0: 58a0 2fbb 2d29 2b3d a181 c83d 78e0 b1bd
000001c0: 9b28 93bd 6d50 e7bc f430 893c 362a c3bb
000001d0: acc7 363d 0ee3 793d ead9 d1bd bed2 48bc
000001e0: b836 50bc 832a 9aba 1908 f4bb 8ae1 5b3d
000001f0: 2f29 babc a77f 003d 1f17 dbbb 9a55 f23a
00000200: dd69 d23b fb1d 2abd c657 8abd 340f 80bc
00000210: ae12 03be 5fba 843d 462a a33d 37bc c93d
00000220: 6247 b53d cf30 edbd f631 34bd 1341 72bd
00000230: 208d 1ebd 63a2 17bc dd31 ec3c 8d47 873d
00000240: 2408 183d 3e6c 1ebd a131 ad3a 89ef 8e3d
00000250: f945 84bc 53f6 983d 9ae7 993c 139d 71bd
00000260: 35fb 55bd c9f4 14bd 8f18 b83c 0534 ffbb
00000270: c3dd 423d aaca 0e3d fd78 cfbd 22cd c3bd
00000280: 9939 35bd 13bc 8f3d e862 2e3d 8ad0 b73d
00000290: c0e6 613d 16e0 d2bd a28b 9fbd 7b23 cbbc
000002a0: d63e 443d ec84 9b3d f1be 753d 03e7 243d
000002b0: 8cf5 ecbc 2b3c 5cbd 9da0 b1bd c1bb e73d
000002c0: def4 f83c 81ba 0a3e c5d9 c53c 593c 1cbe
000002d0: 98dd 91bd 1195 a6bd d848 5c3d a5e3 ba3c
000002e0: 952e 843d 67d3 613d d95d 97bd 4b3a 21bd
000002f0: 33aa 713b d0cc ae3d d300 fd3c 64a4 c03d
00000300: 1c10 ef3c 07c0 07be 952a 58bd 507d 00bd
00000310: f2a5 d73d 3f71 3bbd b9b9 dd3d df64 d63c
00000320: c9f0 cbbd a511 dfbd 5077 26bd f115 d03d
00000330: cbe8 ef3b 6730 c33d c399 223c b9eb 4ebd
00000340: bddc e2bd 9855 05bd 69f4 6c3d e7cf 5c3d
00000350: b1fc af3d 7966 ce3c ee39 fabd 154b 60bd
00000360: a761 9dbd

encoder.obs_encoder.1.weight f4 [64, 217]
0.118244395 0.08752366 -0.015845358 0.087184995 0.0600048 0.07132659 0.2350107 0.07714148
0.018730575 0.17069109 0.064426035 0.009064417 0.008557428 0.10132288 -0.042938143 -0.012855151
0.122949935 -0.021603303 0.03658058 -0.08826282 -0.035441447 0.081274286 0.05739301 0.09116894
0.0023129305 0.042019617 0.124169245 0.29613838 0.13343158 0.008706624 -0.12952378 -0.039993986
0.0805847 0.030481445 -0.14567752 0.0112798875 -0.17732856 -0.033711664 0.05734071 -0.037986863
0.023450632 0.11071139 0.017891936 -0.15114568 -0.03603374 0.032970503 0.015987864 0.1019477
0.15838872 0.005492483 0.087582186 -0.105447926 -0.019091794 -0.11106403 0.06031341 0.105182715
0.004086994 -0.15071265 -0.21619551 0.20893727 -0.07319962 -0.011986394 0.106123775 0.13154025
-0.035005797 -0.092987925 -0.10377246 -0.024151918 0.18861715 0.05909452 -0.033952493 -0.20223624
-0.15129353 0.032754228 0.042063963 -0.0076598697 0.043713477 -0.041958757 -0.2619877 0.06001621
0.20768997 -0.03799575 0.078261025 0.12671103 0.17034884 -0.1883647 0.072156206 0.11061477
0.20816305 0.03269915 0.01204165 0.063165 -0.16821797 -0.016324341 0.009804714 -0.0014178446
-0.015425312 -0.022871714 0.10344343 -0.012625083 -0.13365394 0.14005108 -0.026795072 -0.008393112
0.0046075443 -0.15823297 -0.14341651 0.17609288 -0.10138008 0.034669302 0.052876797 0.06046906
0.025286997 -0.14851394 0.0013988481 -0.0917215 0.00837294 0.03840217 -0.00066999864 0.28259563
0.2262971 0.2148277 0.13352165 0.4281785 0.25324386 0.22583634 0.19711678 0.08781071
0.15212186 0.37784052 -0.09981935 0.03471296 0.0936049 -0.052627392 0.025160654 0.051279534
0.01911088 -0.06436068 -0.09019221 -0.040734086 0.119861566 0.14459297 0.13384041 -0.019306943
-0.04842191 0.10447975 0.13096511 -0.12684831 -0.05773501 -0.047520254 -0.117359646 0.009086026
0.079608366 -0.15925288 -0.2454707 -0.14586739 -0.102941655 -0.10814952 -0.061779115 0.031947512
0.00075164816 -0.14297567 0.0035168827 -0.08961204 -0.030770887 0.11718722 -0.049211744 -0.15260528
0.19822977 -0.047901027 0.11911327 0.036775634 0.0065886634 0.15364657 -0.05696822 -0.1466898
0.117789745 -0.070374936 -0.13424517 -0.17076565 0.092179775 -0.0071409447 -0.070946366 -0.023882953
0.048348647 -0.14810842 0.121226706 0.006888082 0.036741078 0.14854148 0.19564265 0.022802414
0.16621745 -0.037354104 -0.057321917 -0.19356771 -0.04668332 -0.16263768 0.10336317 -0.29597953
-0.025000691 0.011376208 -0.034575514 -0.11168922 0.09078801 0.13536878 -0.07222135 0.018457318
0.01648157 -0.13808498 -0.020714521 0.00047312686 -0.11253119 -0.019428346 -0.21205144 0.016528971
-0.22256266 -0.024862966 -0.048058555 -0.089339726 0.064129055 -0.12755296 0.09587675 0.0077065197
-0.017148437 -0.14932878 -0.17154929 -0.17091924 0.064926095 0.07670408 -0.1853219 -0.038439848
-0.05217962 -0.3662716 -0.046863012 0.10456114 -0.07347716 -0.04969671 -0.24748503 0.117556304
0.0522776 -0.05668885 0.018675562 -0.0039207474 -0.1615739 -0.17103767 0.09965313 -0.12298458
0.25323024 0.019823425 0.0072938395 0.10600953 0.093369305 -0.23612338 -0.03023581 0.05472419
00000000: 1e2a f23d 9b3f b33d 20ce 81bc 0c8e b23d
00000010: 98c7 753d ad13 923d a5a6 703e 5afc 9d3d
00000020: dd70 993c a5c9 2e3e ccf1 833d ec82 143c
00000030: 7434 0c3c 5f82 cf3d e8df 2fbd 699e 52bc
00000040: 2dcd fb3d 69f9 b0bc 85d5 153d 23c3 b4bd
00000050: 0d2b 11bd 2273 a63d ef14 6b3d c8b6 ba3d
00000060: 8994 173b c31c 2c3d 724c fe3d 739f 973e
00000070: 4aa2 083e 3aa6 0e3c e2a1 04be bcd0 23bd
00000080: 9709 a53d 39b4 f93c 7d2c 15be 47cf 383c
00000090: 9e95 35be 3e15 0abd 18de 6a3d 1d98 1bbd
000000a0: 8a1b c03c a7bc e23d 1c92 923c efc5 1abe
000000b0: 1d98 13bd 140c 073d fbf8 823c f5c9 d03d
000000c0: a730 223e 49fa b33b 4a5e b33d 15f5 d7bd
000000d0: 6566 9cbc 8a75 e3bd 320b 773d 096a d73d
000000e0: 31ec 853b 6b54 1abe 5b62 5dbe a7f3 553e
000000f0: afe9 95bd 9562 44bc 6c57 d93d 7db2 063e
00000100: 3d62 0fbd 7470 bebd a886 d4bd 3eda c5bc
00000110: db24 413e 180d 723d c511 0bbd 0417 4fbe
00000120: b1ec 1abe 4c29 063d 434b 2c3d a5ff fabb
00000130: e70c 333d f2dc 2bbd 4023 86be 8fd3 753d
00000140: aeac 543e 6ea1 1bbd 5147 a03d 89c0 013e
00000150: ed6f 2e3e ade2 40be a2c6 933d ff89 e23d
00000160: b228 553e 8bef 053d 574a 453c a75c 813d
00000170: 5541 2cbe a0ba 85bc f3a3 203c f8d6 b9ba
00000180: 73ba 7cbc 765d bbbc 26da d33d 70d9 4ebc
00000190: 94dc 08be 8d69 0f3e 5781 dbbc 4383 09bc
000001a0: e2fa 963b d307 22be c7db 12be b151 343e
000001b0: 5ca0 cfbd 6601 0e3d 5795 583d 68ae 773d
000001c0: ad26 cf3c 0a14 18be 8e59 b73a 7bd8 bbbd
000001d0: a82e 093c 984b 1d3d d9a2 2fba 60b0 903e
000001e0: 6dba 673e cbfb 5b3e e6b9 083e 363a db3e
000001f0: 2ea9 813e a441 673e fbd8 493e 1ad6 b33d
00000200: d5c5 1b3e 5074 c13e 166e ccbd 2d2f 0e3d
00000210: edb3 bf3d d28f 57bd b71d ce3c 7d0a 523d
00000220: 6c8e 9c3c 88cf 83bd b2b6 b8bd c9d8 26bd
00000230: fb79 f53d 2e10 143e 760d 093e 9829 9ebc
00000240: 0d56 46bd 7bf9 d53d b81b 063e 86e4 01be
00000250: 8c7b 6cbd 99a4 42bd 415a f0bd 8edd 143c
00000260: b609 a33d 3013 23be ac5c 7bbe 435e 15be
00000270: 13d3 d2bd 7f7d ddbd 190c 7dbd 65db 023d
00000280: 410a 453a 3768 12be 807b 663b 8486 b7bd
00000290: 3a13 fcbc daff ef3d 4192 49bd 8f44 1cbe
000002a0: bffc 4a3e de33 44bd a8f1 f33d 0ca2 163d
000002b0: b7e5 d73b 8755 1d3e 8257 69bd da35 16be
000002c0: c03b f13d bc20 90bd 9177 09be 31dd 2ebe
000002d0: c0c8 bc3d 96fe e9bb 544c 91bd 2fa6 c3bc
000002e0: 3b09 463d bca9 17be b545 f83d 6bb5 e13b
000002f0: d07d 163d 421b 183e 8c56 483e 21cc ba3c
00000300: e834 2a3e 9e00 19bd 63ca 6abd 9d36 46be
00000310: 0237 3fbd 7e8a 26be 12b0 d33d a18a 97be
00000320: 40ce ccbc 4663 3a3c 0e9f 0dbd 51bd e4bd
00000330: 10ef b93d 1d9e 0a3e cae8 93bd cd33 973c
00000340: 5c04 873c 2666 0dbe 80b1 a9bc 030e f839
00000350: c176 e6bd 3228 9fbc 0324 59be c467 873c
00000360: 77e7 63be 6bad cbbc 0cd9 44bd bff7 b6bd
00000370: 1856 833d 3e9d 02be 085b c43d f986 fc3b
00000380: e17a 8cbc a5e9 18be 9eaa 2fbe 7405 2fbe
00000390: f9f7 843d 0717 9d3d 06c5 3dbe 1a73 1dbd
000003a0: 4cba 55bd f387 bbbe 6ef3 3fbd 2724 d63d
000003b0: 317b 96bd c78e 4bbd b76c 7dbe 5cc1 f03d
000003c0: 0921 563d 9132 68bd 7efd 983c 9d79 80bb
000003d0: a173 25be 8024 2fbe f116 cc3d 57df fbbd
000003e0: 65a7 813e bc64 a23c 2901 ef3b 861b d93d
000003f0: 6838 bf3d 54ca 71be 17b1 f7bc 7926 603d

encoder.obs_encoder.1.bias f4 [64]
0.009268369 -0.020102734 -0.013653129 0.020584203 0.055142738 0.0034625828 2.6091915e-05 0.035644103
0.027950445 0.043768417 0.07965163 -0.0088299485 -0.032636262 -0.023808397 0.029534062 -0.012789404
-0.003162498 0.037176404 0.024152596 0.044972893 0.0038971067 0.0060732276 -0.008867336 1.5308671e-05
0.029346693 -0.034435082 -0.0021711965 0.039741796 0.028959254 0.0069118757 0.050424878 0.027417557
0.047066778 0.053720023 0.012862367 0.047585502 0.10194527 0.049730487 0.027812585 0.036503404
0.020941379 -0.027753942 0.050052736 -0.031864423 0.0076019075 0.032455385 -0.005763137 -0.03620678
-0.041267794 0.004588863 0.01902985 0.030570181 0.011990805 0.030198961 0.031238241 -0.00012920554
0.0067231106 -0.12262791 -0.009893333 0.023147639 -0.047689617 0.042062137 -0.012509963 -0.02674279
00000000: 5bda 173c 7dae a4bc 60b1 5fbc 34a0 a83c
00000010: 5add 613d 80ec 623b f6df da37 8dff 113d
00000020: 55f8 e43c 8346 333d 6520 a33d 7dab 10bc
00000030: 9aad 05bd d409 c3bc 6bf1 f13c a68a 51bc
00000040: e941 4fbb 4946 183d aadb c53c 7f35 383d
00000050: 9a66 7f3b ed01 c73b 4e48 11bc 1f6b 8037
00000060: 7a68 f03c cd0b 0dbd a24a 0ebb 4bc8 223d
00000070: f53b ed3c 047d e23b 518a 4e3d c99a e03c
00000080: 18c9 403d 8709 5c3d adbc 523c 04e9 423d
00000090: afc8 d03d 32b2 4b3d 38d7 e33c 9884 153d
000000a0: 418d ab3c 3c5c e3bc 1904 4d3d 4584 02bd
000000b0: 6c19 f93b f0ef 043d b2d8 bcbb 8f4d 14bd
000000c0: 6b08 29bd 2c5e 963b 7de4 9b3c 516e fa3c
000000d0: 1575 443c d063 f73c 57e7 ff3c 597b 07b9
000000e0: 8a4d dc3b 5724 fbbd a517 22bc 1ea0 bd3c
000000f0: 3056 43bd 5949 2c3d 96f6 4cbc b213 dbbc

encoder.ln.weight f4 [64]
0.9138961 0.9107709 0.9192151 1.0107015 0.9598518 0.9149499 1.0846924 1.0372485
0.9676686 1.0048265 0.8669168 0.80110437 0.9971843 1.0181453 0.96702635 0.9313625
1.2549204 0.89526576 1.0772668 0.9287938 1.0471492 0.8749147 0.8089195 1.0409302
1.010761 0.9542563 1.0218811 0.9571742 0.9571387 1.0401678 0.9551539 1.1177107
0.9465758 1.030643 0.8643987 0.95909804 0.9837159 0.96352464 0.9670194 1.0642614
1.0579479 1.03777 0.8131509 1.0234338 1.0141498 1.0558038 1.0022029 0.9751253
1.0368383 1.0775225 1.0558681 1.1321837 0.9764105 0.91827327 0.9968032 0.99128336
0.97754526 0.9591182 0.894756 0.9709474 0.9010603 0.9340538 1.0583769 1.0601135
00000000: 18f5 693f 4828 693f ae51 6b3f ab5e 813f
00000010: d9b8 753f 283a 6a3f 33d7 8a3f 8fc4 843f
00000020: 21b9 773f 289e 803f 42ee 5d3f 2d15 4d3f
00000030: 7847 7f3f 9652 823f 0a8f 773f c66d 6e3f
00000040: 3ba1 a03f 2330 653f e1e3 893f 6ec5 6d3f
00000050: fc08 863f 69fa 5f3f 5915 4f3f 333d 853f
00000060: 9e60 813f 244a 743f 00cd 823f 5e09 753f
00000070: 0b07 753f 3824 853f f784 743f 2511 8f3f
00000080: cb52 723f 1cec 833f 3c49 5d3f 7387 753f
00000090: ced4 7b3f 8da9 763f 958e 773f b839 883f
000000a0: d66a 873f a6d5 843f a82a 503f e1ff 823f
000000b0: a9cf 813f 9424 873f 2f48 803f d0a1 793f
000000c0: 1eb7 843f 42ec 893f b026 873f 65eb 903f
000000d0: 0af6 793f f513 6b3f 7f2e 7f3f bfc4 7d3f
000000e0: 6840 7a3f c588 753f bb0e 653f 0290 783f
000000f0: e3ab 663f 261e 6f3f e578 873f cdb1 873f

encoder.ln.bias f4 [64]
-0.05001643 -0.016352985 0.002041325 0.0054574204 0.0378607 0.02348801 -0.04021861 0.008289214
0.016021913 0.0061305882 0.05824578 -0.016103476 -0.04762941 -0.027997645 0.016121581 -0.013299792
-0.025653481 -0.021320632 -6.806013e-05 0.07400706 -0.021030618 0.012014849 0.035989366 -0.028952172
-0.006187486 0.054152876 -0.03736135 -0.0034120672 0.037988663 0.030249322 0.03177928 -0.0026187229
0.066674046 -0.00150406 -0.042774502 0.028461592 0.06578817 -0.012232702 0.017382048 0.047158584
0.035751563 -0.016972871 -0.05541435 -0.0014677948 -0.05880687 0.0352528 0.015170726 0.019454481
-0.059764467 0.017354371 0.010923319 0.0017908097 -0.00851119 0.018229665 0.016125225 0.011367231
0.02707839 0.041841842 0.054675877 0.030273115 0.06285399 0.0042660916 -0.0049775154 -0.0030349784
00000000: 07de 4cbd b2f6 85bc c0c7 053b 29d4 b23b
00000010: d213 1b3d ed69 c03c 45bc 24bd 7ccf 073c
00000020: 6340 833c 1ae3 c83b 2193 6e3d 70eb 83bc
00000030: 0e17 43bd 515b e5bc 6811 843c 5fe7 59bc
00000040: 4027 d2bc 9ba8 aebc 81bb 8eb8 0391 973d
00000050: 6748 acbc eed9 443c 9669 133d 1b2d edbc
00000060: 65c0 cabb 68cf 5d3d 3708 19bd fd9c 5fbb
00000070: 009a 1b3d 6dcd f73c fe2a 023d e19e 2bbb
00000080: 678c 883d e123 c5ba 5134 2fbd 4928 e93c
00000090: f3bb 863d ac6b 48bc cc64 8e3c 5c29 413d
000000a0: 3b70 123d b10a 8bbc 28fa 62bd 0563 c0ba
000000b0: 79df 70bd 3d65 103d a38e 783c 015f 9f3c
000000c0: 96cb 74bd c12a 8e3c b8f7 323c 9ab9 ea3a
000000d0: 8572 0bbc 6156 953c 0c19 843c 9f3d 3a3c
000000e0: 80d3 dd3c 5a62 2b3d d0f3 5f3d 53ff f73c
000000f0: 98b9 803d 92ca 8b3b 6d1a a3bb 7de6 46bb

encoder.blocks.0.ln1.weight f4 [64]
0.9651141 0.99919224 0.97228116 0.9474013 0.92285466 0.94572085 1.1414859 1.0099299
0.73172355 1.0324764 0.9844933 0.75223297 1.0326414 1.0444406 1.0082902 0.9614382
1.0141256 1.013363 1.0686285 0.91400534 0.878069 0.9167674 0.84545046 1.0585002
1.078703 0.9789912 1.0578686 0.97900003 1.013049 1.1329995 0.99907863 1.097728
0.93198025 1.0493658 0.951696 1.0510763 1.0217606 1.0258046 0.9357672 1.0618852
0.98422134 1.030362 0.8975959 1.0400158 1.045028 1.0640184 1.0401 0.8239714
1.0628829 1.1427453 1.0182427 1.1026288 1.0231899 0.80319756 1.0062279 0.9763471
1.0475045 0.9777624 0.9107302 0.7860199 0.9150003 0.98355293 1.0022259 1.0196803
00000000: b811 773f 10cb 7f3f 6be7 783f e488 723f
00000010: 3440 6c3f c31a 723f 361c 923f 6245 813f
00000020: 3c52 3b3f 3028 843f c107 7c3f 5792 403f
00000030: 982d 843f 3bb0 853f a70f 813f d020 763f
00000040: dece 813f e1b5 813f d2c8 883f 41fc 693f
00000050: 21c9 603f 45b1 6a3f 716f 583f ef7c 873f
00000060: f112 8a3f 2b9f 7a3f 3d68 873f bf9f 7a3f
00000070: 97ab 813f 2106 913f 9ec3 7f3f 5a82 8c3f
00000080: 4296 6e3f 9e51 863f 59a2 733f ab89 863f
00000090: 0dc9 823f 914d 833f 708e 6f3f dbeb 873f
000000a0: eef5 7b3f e7e2 833f d8c8 653f 3d1f 853f
000000b0: 7ac3 853f c131 883f ff21 853f caef 523f
000000c0: 8c0c 883f 7a45 923f c755 823f f122 8d3f
000000d0: e3f7 823f 5b9e 4d3f 13cc 803f e2f1 793f
000000e0: a114 863f a34e 7a3f 9d25 693f 9a38 493f
000000f0: 763d 6a3f 20ca 7b3f f048 803f e284 823f

encoder.blocks.0.ln1.bias f4 [64]
-0.026482303 -0.035212174 0.043506756 -0.056905 0.069920585 0.03396149 -0.039705697 0.0009366446
0.030384744 0.009943304 0.08533831 0.06930715 -0.02345535 -0.008643945 -0.006724047 0.02299508
-0.055288143 0.016699754 0.017623257 0.047973223 -0.029658843 -0.006456064 0.054775264 -0.04844346
-0.061530177 0.0039562383 -0.014241284 0.032991666 0.003419065 0.07418367 -0.046498403 -0.021087648
0.035663486 0.020655675 -0.00052246643 0.026425969 0.04034879 -0.024835246 0.017704729 0.04338951
0.030335255 -0.055856287 -0.037458505 0.012897738 -0.052552547 0.051415972 0.060084797 0.08169143
-0.032666318 -0.007960667 0.034027267 -0.033853892 0.00045611366 0.022576233 0.08157517 -0.007000368
0.04891973 0.043822154 0.026042495 0.0045315004 0.02497356 -0.010114023 -0.0028547512 -0.00553867
00000000: 6af1 d8bc a43a 10bd 2434 323d 3815 69bd
00000010: 8632 8f3d 341b 0b3d 71a2 22bd 2889 753a
00000020: 6de9 f83c 3de9 223c dac5 ae3d e8f0 8d3d
00000030: 6f25 c0bc 559f 0dbc 6555 dcbb 2e60 bc3c
00000040: d275 62bd eccd 883c a65e 903c 927f 443d
00000050: 1af7 f2bc 648d d3bb 075c 603d a66c 46bd
00000060: 1107 7cbd 55a3 813b 4654 69bc 4522 073d
00000070: 6412 603b 9ced 973d 1c75 3ebd 01c0 acbc
00000080: e013 123d 1736 a93c 21f6 08ba 467b d83c
00000090: c644 253d 4973 cbbc 8209 913c 33b9 313d
000000a0: a481 f83c 90c9 64bd 176e 19bd 0951 533c
000000b0: 5741 57bd 8e99 523d 7a1b 763d d64d a73d
000000c0: 1ecd 05bd 756d 02bc 2d60 0b3d 61aa 0abd
000000d0: 8a22 ef39 cbf1 b83c e210 a73d 5863 e5bb
000000e0: 0e60 483d dc7e 333d 1257 d53c fb7c 943b
000000f0: 5a95 cc3c 4ab5 25bc c716 3bbb bb7d b5bb

encoder.blocks.0.ln2.weight f4 [64]
0.9681866 0.94199187 0.94666713 1.0318125 0.92654 1.0708739 1.0747774 0.9699009
0.85448605 1.0569402 1.0218847 0.95989525 0.9749224 1.0054101 0.98858726 0.9960046
0.98752105 0.99487704 1.052381 0.87491345 0.9288833 0.9921642 0.91494304 1.039421
1.027085 0.94095355 1.0267044 0.85341066 0.991022 1.1277714 0.9541381 1.0112648
0.9536213 1.0426753 0.90128833 1.1079301 1.0931598 0.9937444 0.92270267 1.1160432
1.0672609 1.1231254 1.0124362 1.0096308 1.0592024 1.0578241 1.0871307 0.89500827
0.98576987 1.076929 1.074399 1.1604161 0.95563424 0.8846139 0.9401231 0.8985209
0.99315464 1.0705359 0.92483443 0.946957 0.930435 1.0316104 1.1308923 1.0163229
00000000: 14db 773f 6126 713f c758 723f 6f12 843f
00000010: ba31 6d3f 6512 893f 4e92 893f 6d4b 783f
00000020: 99bf 5a3f d149 873f 1ecd 823f b2bb 753f
00000030: 8494 793f 47b1 803f 0e14 7d3f 28fa 7e3f
00000040: 2ece 7c3f 43b0 7e3f 6cb4 863f 54fa 5f3f
00000050: 4ccb 6d3f 79fe 7d3f b539 6a3f bf0b 853f
00000060: 8577 833f 55e2 703f 0d6b 833f 1f79 5a3f
00000070: 9eb3 7d3f d05a 903f 6542 743f 2071 813f
00000080: 8720 743f 6276 853f d5ba 663f a7d0 8d3f
00000090: a9ec 8b3f 0866 7e3f 3e36 6c3f 81da 8e3f
000000a0: 019c 883f 93c2 8f3f 8297 813f 953b 813f
000000b0: f293 873f c866 873f 1927 8b3f 431f 653f
000000c0: 6a5b 7c3f cfd8 893f e885 893f 8488 943f
000000d0: 72a4 743f 0e76 623f e8ab 703f 7705 663f
000000e0: 623f 7e3f 5207 893f f3c1 6c3f c66b 723f
000000f0: fd30 6e3f cf0b 843f 14c1 903f de16 823f

encoder.blocks.0.ln2.bias f4 [64]
-0.014246359 -0.004053071 0.049852595 -0.052113585 0.022678379 0.038301855 -0.06622951 0.008225018
-0.054407317 0.036307745 0.05031608 0.021133484 -0.009900161 0.00032136324 0.003381048 0.044420104
-0.073883586 -0.007880869 0.005476133 -0.0070528165 -0.07681643 0.028993268 -0.0017495254 -0.048545912
-0.029205129 -0.009853314 -0.0015004755 -0.0450243 -0.008311143 0.07195537 0.015348818 -0.006098907
0.018550755 0.04580166 0.014789662 0.04985972 0.0037410574 -0.023354512 -0.011427968 -0.0083762985
0.004044715 -0.084462255 0.024508452 0.0034158656 -0.03582785 0.030521749 0.06366699 0.03746489
-0.022695042 -0.028785778 -0.010386386 -0.06067056 -0.01693465 0.023631977 0.011708851 0.012753218
0.057821877 -0.013311109 0.006707524 0.017087322 0.022252582 0.024370508 -0.094918884 0.014936865
00000000: 8f69 69bc a0cf 84bb 3c32 4c3d 0e75 55bd
00000010: 02c8 b93c 68e2 1c3d 56a3 87bd 3ac2 063c
00000020: 35da 5ebd 6eb7 143d 3c18 4e3d 2120 ad3c
00000030: 4934 22bc a57c a839 9394 5d3b dbf1 353d
00000040: 4750 97bd c31e 01bc 2271 b33b 501b e7bb
00000050: ef51 9dbd 4a83 ed3c 5550 e5ba 14d8 46bd
00000060: 983f efbc cb6f 21bc 9aab c4ba 676b 38bd
00000070: 762b 08bc 565d 933d 9c79 7b3c 57d9 c7bb
00000080: c1f7 973c 859a 3b3d 5750 723c b539 4c3d
00000090: 872c 753b f651 bfbc 5f3c 3bbc be3c 09bc
000000a0: 8789 843b 8cfa acbd f3c5 c83c b7dc 5f3b
000000b0: 39c0 12bd bf08 fa3c d763 823d c974 193d
000000c0: f4ea b9bc 27d0 ebbc a92b 2abc b181 78bd
000000d0: 89ba 8abc d997 c13c 7bd6 3f3c e0f2 503c
000000e0: a2d6 6c3d d616 5abc caca db3b b6fa 8b3c
000000f0: 0c4b b63c a9a4 c73c d564 c2bd c1b9 743c

encoder.blocks.0.attn.mask f4 [1, 1, 12, 12]
1.0 0.0 0.0 0.0 0.0 0.0 0.0 0.0
0.0 0.0 0.0 0.0 1.0 1.0 0.0 0.0
0.0 0.0 0.0 0.0 0.0 0.0 0.0 0.0
1.0 1.0 1.0 0.0 0.0 0.0 0.0 0.0
0.0 0.0 0.0 0.0 1.0 1.0 1.0 1.0
0.0 0.0 0.0 0.0 0.0 0.0 0.0 0.0
1.0 1.0 1.0 1.0 1.0 0.0 0.0 0.0
0.0 0.0 0.0 0.0 1.0 1.0 1.0 1.0
1.0 1.0 0.0 0.0 0.0 0.0 0.0 0.0
1.0 1.0 1.0 1.0 1.0 1.0 1.0 0.0
0.0 0.0 0.0 0.0 1.0 1.0 1.0 1.0
1.0 1.0 1.0 1.0 0.0 0.0 0.0 0.0
1.0 1.0 1.0 1.0 1.0 1.0 1.0 1.0
1.0 0.0 0.0 0.0 1.0 1.0 1.0 1.0
1.0 1.0 1.0 1.0 1.0 1.0 0.0 0.0
1.0 1.0 1.0 1.0 1.0 1.0 1.0 1.0
1.0 1.0 1.0 0.0 1.0 1.0 1.0 1.0
1.0 1.0 1.0 1.0 1.0 1.0 1.0 1.0
00000000: 0000 803f 0000 0000 0000 0000 0000 0000
00000010: 0000 0000 0000 0000 0000 0000 0000 0000
00000020: 0000 0000 0000 0000 0000 0000 0000 0000
00000030: 0000 803f 0000 803f 0000 0000 0000 0000
00000040: 0000 0000 0000 0000 0000 0000 0000 0000
00000050: 0000 0000 0000 0000 0000 0000 0000 0000
00000060: 0000 803f 0000 803f 0000 803f 0000 0000
00000070: 0000 0000 0000 0000 0000 0000 0000 0000
00000080: 0000 0000 0000 0000 0000 0000 0000 0000
00000090: 0000 803f 0000 803f 0000 803f 0000 803f
000000a0: 0000 0000 0000 0000 0000 0000 0000 0000
000000b0: 0000 0000 0000 0000 0000 0000 0000 0000
000000c0: 0000 803f 0000 803f 0000 803f 0000 803f
000000d0: 0000 803f 0000 0000 0000 0000 0000 0000
000000e0: 0000 0000 0000 0000 0000 0000 0000 0000
000000f0: 0000 803f 0000 803f 0000 803f 0000 803f
00000100: 0000 803f 0000 803f 0000 0000 0000 0000
00000110: 0000 0000 0000 0000 0000 0000 0000 0000
00000120: 0000 803f 0000 803f 0000 803f 0000 803f
00000130: 0000 803f 0000 803f 0000 803f 0000 0000
00000140: 0000 0000 0000 0000 0000 0000 0000 0000
00000150: 0000 803f 0000 803f 0000 803f 0000 803f
00000160: 0000 803f 0000 803f 0000 803f 0000 803f
00000170: 0000 0000 0000 0000 0000 0000 0000 0000
00000180: 0000 803f 0000 803f 0000 803f 0000 803f
00000190: 0000 803f 0000 803f 0000 803f 0000 803f
000001a0: 0000 803f 0000 0000 0000 0000 0000 0000
000001b0: 0000 803f 0000 803f 0000 803f 0000 803f
000001c0: 0000 803f 0000 803f 0000 803f 0000 803f
000001d0: 0000 803f 0000 803f 0000 0000 0000 0000
000001e0: 0000 803f 0000 803f 0000 803f 0000 803f
000001f0: 0000 803f 0000 803f 0000 803f 0000 803f
00000200: 0000 803f 0000 803f 0000 803f 0000 0000
00000210: 0000 803f 0000 803f 0000 803f 0000 803f
00000220: 0000 803f 0000 803f 0000 803f 0000 803f
00000230: 0000 803f 0000 803f 0000 803f 0000 803f

encoder.blocks.0.attn.key.weight f4 [64, 64]
0.030788679 0.0069289766 -0.05813534 0.031199906 0.0649598 0.02289437 0.05556882 -0.05456768
-0.1564965 -0.06020037 0.025754137 0.026131386 0.019065317 -0.036780946 -0.027305622 0.0840992
-0.20348538 0.044708364 0.04612131 0.032044526 0.04440427 -0.091419496 0.0030328657 -7.1808868e-06
0.08811543 0.023881407 0.07310107 -0.10794479 -0.043615226 -0.054608013 0.056253906 -0.099235296
0.014667148 -0.05721561 0.043805942 -0.023843214 -0.015872994 0.08217392 0.028526355 0.057807975
-0.08613734 0.09026962 -0.008146029 0.123881616 -0.047590043 0.0074099232 0.05243147 0.16922148
-0.010255445 -0.064385146 0.016630456 -0.2030963 0.008561052 -0.006157699 -0.043008942 -0.11203595
-0.02221674 0.04087584 0.025253179 -0.0011378347 0.11582825 -0.015996443 -0.11743849 0.19786121
-0.018584264 -0.06336428 0.17023048 0.006159347 0.018683406 0.11930627 0.021593567 -0.04616312
0.11193037 -0.03199152 0.0034054639 -0.05313219 -0.04018303 0.05065009 0.03304903 0.12178918
0.3157199 -0.0123642115 0.0027834582 -0.051963165 -0.07601695 0.019748295 -0.008596241 -0.07243869
-0.035396587 -0.07143234 0.08762051 0.022794815 0.011541123 -0.012002865 0.074778415 0.08088146
-0.113153204 0.011554801 -0.013624239 0.10143245 0.01144309 -0.05876194 -0.044622872 -0.049558017
0.16269593 -0.038358282 -0.031720348 0.054038472 0.22954461 -0.07014282 0.050874017 -0.114767075
-0.052019805 0.03997102 -0.070255205 0.23883957 -0.053948887 0.018612174 -0.04771285 0.20548761
-0.08577478 -0.054059777 -0.117218636 -0.11901321 -0.06882228 -0.09813439 0.14155048 -0.14247563
-0.042247802 0.006719356 -0.19708179 -0.04621507 -0.05031331 -0.0831428 -0.07519349 -0.015886689
0.0827029 0.114710025 0.08742805 0.02918493 0.04875019 -0.14386538 -0.05882766 -0.20451467
-0.18423618 0.087410815 -0.0032598951 0.0807604 0.086628996 0.011766934 0.06397662 0.12146048
0.041165873 0.11739179 -0.10108036 0.029336795 0.043041136 0.0037915402 -0.13684845 -0.049296357
0.14827766 0.023876399 -0.010879036 -0.06755372 -0.0047664195 -0.0005305515 0.06543794 0.054483805
-0.138514 0.048837632 0.048158772 -0.19998659 -0.2759299 0.1378207 -0.16569687 -0.022366703
0.06500268 -0.0032013752 0.07067031 -0.12916611 -0.003768207 -0.0061197607 0.06423033 -0.14557377
0.11325926 0.09580685 0.19577882 0.029426398 0.095421225 0.15470028 -0.06684122 0.11277586
0.10669558 -0.06899746 0.055196866 -0.08677955 -0.10865583 -0.026365964 0.02769352 0.019127969
0.03424831 0.02891644 0.048569214 -0.1468171 0.018758962 0.09007376 0.053531934 -0.1190511
0.09320295 0.008109913 -0.048123628 -0.035402544 -0.06872643 -0.0061874515 -0.021282366 -0.011765075
0.03964828 -0.02079388 0.08490102 0.071109585 -0.1436485 0.14444569 -0.05017652 0.12878363
-0.008333965 -0.0046115583 -0.06843581 0.075757526 0.029179275 -0.059716836 -0.026509095 -0.040280245
0.0601301 -0.0063818954 0.029861981 0.0009255197 -0.0096714785 0.040961325 -0.099978454 -0.016300695
0.122769624 0.07239822 0.11191369 0.07422492 -0.06012587 -0.012465151 0.064881034 0.005367079
0.0075517134 -0.030570552 -0.05062365 -0.076794006 0.0034080916 -0.030745298 0.11401259 -0.15626086
00000000: 8a38 fc3c 780c e33b 531f 6ebd f296 ff3c
00000010: a509 853d f98c bb3c 229c 633d 5c82 5fbd
00000020: 9e40 20be aa94 76bd 57fa d23c 7d11 d63c
00000030: de2e 9c3c 9ea7 16bd 0ab0 dfbc 343c ac3d
00000040: 795e 50be 1e20 373d b3e9 3c3d 1f41 033d
00000050: 40e1 353d 253a bbbd 0bc3 463b 59f3 f0b6
00000060: dd75 b43d f1a2 c33c 04b6 953d 2812 ddbd
00000070: e1a5 32bd a7ac 5fbd 7f6a 663d e03b cbbd
00000080: 7a4e 703c ea5a 6abd dc6d 333d d852 c3bc
00000090: 1508 82bc cd4a a83d 1ab0 e93c 0ec8 6c3d
000000a0: c668 b0bd 47df b83d ec76 05bc a5b5 fd3d
000000b0: c7ed 42bd f1ce f23b 62c2 563d 6548 2d3e
000000c0: 7406 28bc 5cdc 83bd 983c 883c 7af8 4fbe
000000d0: a843 0c3c 86c6 c9bb 252a 30bd 1b73 e5bd
000000e0: e1ff b5bc 6d6d 273d c1df ce3c 6623 95ba
000000f0: 5d37 ed3d f90a 83bc 9783 f0bd 219c 4a3e
00000100: 073e 98bc 22c5 81bd e650 2e3e 59d4 c93b
00000110: f10d 993c d856 f43d fee4 b03c 8a15 3dbd
00000120: c03b e53d 8a09 03bd 342e 5f3b 24a1 59bd
00000130: f696 24bd 7876 4f3d 6b5e 073d 9b6c f93d
00000140: 0aa6 a13e 4393 4abc ae6a 363b 54d7 54bd
00000150: c6ae 9bbd 2dc7 a13c 3fd7 0cbc bc5a 94bd
00000160: 03fc 10bd 1e4b 92bd 6272 b33d 31bc ba3c
00000170: fa16 3d3c aaa7 44bc 6d25 993d 2ea5 a53d
00000180: debc e7bd 5950 3d3c 3338 5fbc d1bb cf3d
00000190: cc7b 3b3c 5cb0 70bd 79c6 36bd 59fd 4abd
000001a0: c399 263e 931d 1dbd 32ed 01bd 7257 5d3d
000001b0: be0d 6b3e 0aa7 8fbd 4661 503d 000b ebbd
000001c0: b812 55bd a7b8 233d f6e1 8fbd 5c92 743e
000001d0: 82f9 5cbd 8f78 983c 8d6e 43bd 586b 523e
000001e0: b0aa afbd c96d 5dbd 5310 f0bd 33bd f3bd
000001f0: b2f2 8cbd affa c8bd 9cf2 103e 22e5 11be
00000200: 080c 2dbd 0b2e dc3b cfcf 49be 034c 3dbd
00000210: 5415 4ebd c646 aabd 0bff 99bd cd24 82bc
00000220: 2360 a93d 17ed ea3d 7a0d b33d 3c15 ef3c
00000230: 47ae 473d 7251 13be 46f5 70bd 4b6c 51be
00000240: 69a8 3cbe 7104 b33d f7a3 55bb b565 a53d
00000250: 8b6a b13d 19ca 403c 2d06 833d 46c0 f83d
00000260: 8c9d 283d 1b6b f03d 3803 cfbd b853 f03c
00000270: e74b 303d 7d7b 783b 0022 0cbe faea 49bd
00000280: 19d6 173e 7098 c33c fc3d 32bc 9b59 8abd
00000290: a02f 9cbb b514 0bba 5404 863d 692a 5f3d
000002a0: 9dd6 0dbe f809 483d 2242 453d 49c9 4cbe
000002b0: af46 8dbe df20 0d3e 71ac 29be 603a b7bc
000002c0: 2020 853d 2ace 51bb 98bb 903d 1f44 04be
000002d0: 06f4 76bb 4688 c8bb 318b 833d 4a11 15be
000002e0: 79f4 e73d 6236 c43d 3e7a 483e a10f f13c
000002f0: 346c c33d c069 1e3e 0de4 88bd 08f7 e63d
00000300: 3683 da3d 8a4e 8dbd 1c16 623d 7ab9 b1bd
00000310: f386 debd 6ffd d7bc 85dd e23c 42b2 9c3c
00000320: f547 0c3d 2ce2 ec3c 83f0 463d 3957 16be
00000330: 65ac 993c 9778 b83d 4d44 5b3d 10d1 f3bd
00000340: 30e1 be3d 71df 043c 481d 45bd 4202 11bd
00000350: 71c0 8cbd 1bc0 cabb 5b58 aebc 4dc2 40bc
00000360: 3c66 223d ed57 aabc 96e0 ad3d e7a1 913d
00000370: 9818 13be 92e9 133e e585 4dbd dbdf 033e
00000380: 2f8b 08bc 8e1c 97bb 1328 8cbd c326 9b3d
00000390: 6009 ef3c a499 74bd 9a29 d9bc e6fc 24bd
000003a0: fb4a 763d 381f d1bb 1da1 f43c 939e 723a
000003b0: 1f75 1ebc 10c7 273d 81c1 ccbd 0989 85bc
000003c0: a46e fb3d 8545 943d 0133 e53d 3c03 983d
000003d0: 8b46 76bd a23a 4cbc 59e0 843d 52de af3b
000003e0: 5d74 f73b 186f fabc bf5a 4fbd 2d46 9dbd
000003f0: 4a5a 5f3b 90dd fbbc 6f7f e93d d902 20be

encoder.blocks.0.attn.key.bias f4 [64]
1.7604393e-07 3.3848924e-08 9.617064e-08 -1.5069896e-08 2.1972225e-07 1.2454024e-07 -2.5029968e-07 9.5959976e-08
3.753975e-08 -4.4068504e-08 8.222919e-08 7.2588385e-08 -5.460286e-08 1.9395259e-08 -6.4486784e-08 2.0517287e-08
-3.953422e-09 3.9516564e-08 -4.0845272e-08 -9.64087e-08 5.0492037e-09 2.6334108e-08 2.049529e-08 1.4897618e-07
6.460981e-08 -1.5550782e-07 -3.268329e-08 5.4563436e-08 -1.6712795e-07 -1.179039e-07 -8.502686e-08 -5.8920193e-09
9.2036515e-08 -1.3388878e-07 1.2015342e-07 2.4776744e-08 1.1988045e-07 -1.3139697e-07 -1.9519379e-07 -4.9370502e-08
8.7834174e-08 -1.6702625e-08 -1.7212459e-07 -1.6130117e-07 2.4365707e-07 -1.5529382e-07 1.3815124e-07 1.6627507e-07
1.705023e-07 -6.328078e-08 -4.8746035e-08 2.3102277e-07 -1.4028812e-07 -1.0887872e-07 -8.837291e-08 8.696623e-08
-7.5827835e-08 -4.9317322e-08 2.2775117e-08 1.9976028e-07 -8.5737206e-08 1.2384653e-07 2.0342321e-07 5.986875e-08
00000000: 9606 3d34 4961 1133 5e86 ce33 0d73 81b2
00000010: cbec 6b34 5cb9 0534 ed60 86b4 8e12 ce33
00000020: 643b 2133 d545 3db3 fa95 b033 e3e1 9b33
00000030: 7b84 6ab3 a09a a632 fc7b 8ab3 fe3d b032
00000040: abd6 87b1 ecb8 2933 da6d 2fb3 3e09 cfb3
00000050: 447d ad31 5135 e232 9f0d b032 43f6 1f34
00000060: 9ebf 8a33 aaf9 26b4 a85f 0cb3 2259 6a33
00000070: c873 33b4 5b32 fdb3 0398 b6b3 c072 cab1
00000080: 9ca5 c533 11c3 0fb4 8503 0134 a3d4 d432
00000090: 7db8 0034 2016 0db4 7696 51b4 710b 54b3
000000a0: 599f bc33 7679 8fb2 3fd1 38b4 2132 2db4
000000b0: f9cf 8234 d7be 26b4 b956 1434 5889 3234
000000c0: 5113 3734 fae4 87b3 d55c 51b3 0e0f 7834
000000d0: 1ba2 16b4 b6d0 e9b3 85c7 bdb3 31c2 ba33
000000e0: cbd6 a2b3 f8d0 53b3 03a3 c332 b07d 5634
000000f0: 871e b8b3 adfa 0434 8c6c 5a34 3291 8033
