trainer/results/football/11_vs_11_stochastic/mat/check/run1/models/transformer_1300.pt (torch, 467894 bytes, 73 tensors)

encoder.state_encoder.0.weight f4 [37]
000000 00 00 80 3f 00 00 80 3f 00 00 80 3f 00 00 80 3f
       1.0 1.0 1.0 1.0
000010 00 00 80 3f 00 00 80 3f 00 00 80 3f 00 00 80 3f
       1.0 1.0 1.0 1.0
000020 00 00 80 3f 00 00 80 3f 00 00 80 3f 00 00 80 3f
       1.0 1.0 1.0 1.0
000030 00 00 80 3f 00 00 80 3f 00 00 80 3f 00 00 80 3f
       1.0 1.0 1.0 1.0
000040 00 00 80 3f 00 00 80 3f 00 00 80 3f 00 00 80 3f
       1.0 1.0 1.0 1.0
000050 00 00 80 3f 00 00 80 3f 00 00 80 3f 00 00 80 3f
       1.0 1.0 1.0 1.0
000060 00 00 80 3f 00 00 80 3f 00 00 80 3f 00 00 80 3f
       1.0 1.0 1.0 1.0
000070 00 00 80 3f 00 00 80 3f 00 00 80 3f 00 00 80 3f
       1.0 1.0 1.0 1.0
000080 00 00 80 3f 00 00 80 3f 00 00 80 3f 00 00 80 3f
       1.0 1.0 1.0 1.0
000090 00 00 80 3f
       1.0

encoder.state_encoder.0.bias f4 [37]
000000 00 00 00 00 00 00 00 00 00 00 00 00 00 00 00 00
       0.0 0.0 0.0 0.0
000010 00 00 00 00 00 00 00 00 00 00 00 00 00 00 00 00
       0.0 0.0 0.0 0.0
000020 00 00 00 00 00 00 00 00 00 00 00 00 00 00 00 00
       0.0 0.0 0.0 0.0
000030 00 00 00 00 00 00 00 00 00 00 00 00 00 00 00 00
       0.0 0.0 0.0 0.0
000040 00 00 00 00 00 00 00 00 00 00 00 00 00 00 00 00
       0.0 0.0 0.0 0.0
000050 00 00 00 00 00 00 00 00 00 00 00 00 00 00 00 00
       0.0 0.0 0.0 0.0
000060 00 00 00 00 00 00 00 00 00 00 00 00 00 00 00 00
       0.0 0.0 0.0 0.0
000070 00 00 00 00 00 00 00 00 00 00 00 00 00 00 00 00
       0.0 0.0 0.0 0.0
000080 00 00 00 00 00 00 00 00 00 00 00 00 00 00 00 00
       0.0 0.0 0.0 0.0
000090 00 00 00 00
       0.0

encoder.state_encoder.1.weight f4 [64, 37]
000000 53 32 ea 3e b7 63 44 3e ec 88 ef 3d 43 bc 0e bd
       0.4574152 0.19178663 0.11696038 -0.03484751
000010 92 7e ca bc 08 3b b7 3d b4 b2 99 3c be d0 be 3d
       -0.024718557 0.08946806 0.01876197 0.09317158
000020 51 bd 86 3e 00 85 8f bd ff 2f ad 3e eb 9c 72 bd
       0.26316312 -0.070077896 0.3382568 -0.05923168
000030 cd 41 04 be 27 d5 7b be 5b bf c9 bc d3 0f 0b 3e
       -0.12915726 -0.2459303 -0.024627378 0.13580255
000040 b4 04 23 be 7e 7f 35 be 5f 9f 29 3d 3b 04 b5 3c
       -0.15919763 -0.17724416 0.041411754 0.022096744
000050 d0 d0 38 3e 2e 5c fc 3d f4 76 9c bd 5d 8b bc be
       0.18048406 0.123222694 -0.07639876 -0.36825076
000060 65 f6 97 be ed 02 0c bd d0 e7 67 3d 35 f3 4d 3e
       -0.29680172 -0.034182478 0.056617558 0.20112307
000070 23 58 51 3d 3b b4 4d 3e fa 91 3c 3e 63 6b 9f bd
       0.051109444 0.20088284 0.1841506 -0.07784154
000080 84 52 b6 3c 09 25 02 bb 99 18 92 3c 60 f2 2b 3e
       0.022256143 -0.00198585 0.017833995 0.16791677
000090 8a 44 12 3e f6 12 81 3e 0b 9f 2f bb fa ba 15 3d
       0.14283958 0.2520978 -0.0026797678 0.036555268
0000a0 c5 82 af be 6a b0 56 3e a0 92 df 3d d4 0a 74 3d
       -0.34279457 0.20965734 0.109166384 0.05958064
0000b0 a6 b8 3a 3e 70 81 45 3e ed f7 61 3d 25 0f 86 3c
       0.182345 0.19287658 0.05516808 0.016364643
0000c0 92 a4 00 be ce d3 91 3e dc 4e c8 3c 95 42 b3 3e
       -0.12562779 0.28481907 0.024451666 0.35011736
0000d0 bf 87 2b be a0 83 8c be e7 ef bd 3d 0c 6e 1a 3c
       -0.16751002 -0.27444172 0.09274273 0.009425651
0000e0 63 27 10 be 1c e7 60 be 72 d1 35 3e 32 7c b9 bc
       -0.14077525 -0.21963161 0.17755678 -0.022642229
0000f0 fc 1a aa 3c 44 b0 31 3d be f0 b5 be b4 c4 32 be
       0.02076482 0.04338099 -0.35535234 -0.17457849
000100 24 83 cd 3d 20 d2 8d bd 12 c2 7c bd 35 1a a6 bd
       0.10034779 -0.06924844 -0.061708517 -0.08110467
000110 4c 0f 95 3e ca 3c 96 3d 50 80 4c be 70 22 0f bd
       0.29113233 0.07335813 -0.19970822 -0.03494495
000120 07 2e 84 bd cb f8 9f 3e 85 b7 7f 3d 8e 0d 33 be
       -0.064540915 0.312445 0.062430877 -0.1748564
000130 ef c7 20 3e f8 87 a8 3d 1d 9e ae bd e6 e3 2a be
       0.15701269 0.08229059 -0.085262515 -0.16688499
000140 ab 89 34 3d fb 10 6f be 37 45 6b 3c 2e 53 4d bd
       0.044076603 -0.23346321 0.014359764 -0.050128154
000150 7b 63 8d be 8b 8d b8 bd a9 ea 48 3e fc 9e ad 3e
       -0.2761496 -0.09011372 0.19620766 0.33910358
000160 7a 56 b3 3d 52 6a 4f 3e 8d c1 a6 3b d4 11 f3 3d
       0.087567285 0.20255402 0.005088991 0.11868635
000170 ad 49 5a 3d cb a9 30 3e 59 4c 63 3e 01 ca 6c 3d
       0.05329292 0.17252271 0.22197093 0.057809833
000180 e9 d0 06 bd cd 38 1f be 7a b2 8e be b1 98 97 3e
       -0.032914076 -0.15549012 -0.27870542 0.29608682
000190 45 4f 39 be 28 85 5f bd f6 3a 8b be ea ba 68 bd
       -0.18096645 -0.054570347 -0.2719342 -0.05681888
0001a0 52 bb b0 bd 99 a1 83 3e be c8 cd 3d 98 84 63 39
       -0.086294785 0.25709227 0.10048054 0.00021697802
0001b0 8f a1 67 3c 61 66 53 3e b8 ca 33 be 14 c6 87 3d
       0.01413764 0.20644523 -0.175578 0.06629577
0001c0 04 fc 0e bf eb d6 63 bd e4 f2 3c be de 27 88 3e
       -0.55853295 -0.055624884 -0.1845203 0.26592916
0001d0 6a 72 b4 bd 21 70 ed bc 87 42 9b be a6 98 65 bd
       -0.08810885 -0.028984131 -0.30324194 -0.05605378
0001e0 1a 78 82 3e e9 d8 bb bd 0b 39 97 bd 05 ae 8a be
       0.25482255 -0.09172232 -0.07383927 -0.2708589
0001f0 f2 08 43 3e 91 9c 99 3c 07 6f cb bb 91 c4 08 be
       0.19046381 0.018751414 -0.006208304 -0.13356234
000200 da 9e ff bd 30 98 c7 bd 74 44 6c 3d 48 af 82 3e
       -0.124814704 -0.09745824 0.05768247 0.25524354
000210 75 95 0f 3e b1 0b 16 be c5 ee 99 bd 24 f6 2a 3e
       0.14021857 -0.14652897 -0.07516245 0.16695458
000220 f5 2e 83 be ae 6d b8 3c fd b9 40 be d1 68 5f bd
       -0.25621763 0.022513237 -0.18820949 -0.05454332
000230 82 23 5e bd b1 15 44 be 90 16 85 bd c5 dc 15 3e
       -0.05423308 -0.191489 -0.06498444 0.14634998
000240 79 a7 7e 3e 37 c5 8d 3e 83 a1 b7 be f2 e3 46 be
       0.24868573 0.27689525 -0.3586541 -0.19422892
000250 9a 54 52 3e 2d 94 82 be 4b d8 bb 3e 2b 4a 62 bd
       0.20540085 -0.25503674 0.36688456 -0.055246513
000260 96 bb 41 bd 5e be 05 3e 50 b0 33 bd 03 9d b0 3d
       -0.047298037 0.130609 -0.043869317 0.086236976
000270 84 46 a7 bd 06 ba b4 3d de 1a 64 bc 01 93 65 ba
       -0.08167747 0.08824544 -0.013922421 -0.0008757562
000280 e4 76 94 be ef 20 89 be 75 4b fe bd 42 87 82 bb
       -0.28996956 -0.2678294 -0.12416736 -0.003983409
000290 8f f7 ab bd ab ab 3d be 1a 0e 16 be e8 06 0b bc
       -0.083968274 -0.18522517 -0.14653817 -0.008485533
0002a0 97 de 49 3e 18 50 c2 3c 72 3f 18 3d ba 21 18 be
       0.19713818 0.023719832 0.03716988 -0.14856616
0002b0 c6 ce f8 bd 0c 65 54 3c fa 7d 95 bd 2b 2b 40 bc
       -0.12148814 0.012963545 -0.07299419 -0.011729042
0002c0 bb c3 30 bd 60 cb c5 bd d4 b4 b9 bd 5a 95 bb be
       -0.043155413 -0.09657931 -0.09067693 -0.36637384
0002d0 99 af 90 be c5 5e bf be 6e c3 85 bd 1f 11 b6 3d
       -0.2825897 -0.3737699 -0.06531416 0.08889984
0002e0 61 8a 4b be 76 38 7f 3d 0e 06 32 3e 9c d3 12 bc
       -0.19877006 0.062309705 0.17385122 -0.008961584
0002f0 30 4b c5 3d 3a 24 5d 3e d9 91 f5 bd c5 61 83 3d
       0.096334815 0.2159585 -0.11990709 0.064151324
000300 ea c1 2f be c9 5a 90 be a7 da 55 3c e8 5f 25 3e
       -0.17163816 -0.28194264 0.013052619 0.16149867
000310 63 e3 17 3e bb 34 53 bd 92 c1 03 be dd 50 d5 be
       0.14832835 -0.05156396 -0.1286681 -0.41663256
000320 34 72 c4 3d 3d 77 eb bd 4e c9 5c 3d 8c 3b 86 bd
       0.09592095 -0.11497352 0.053902917 -0.065543264
000330 dd c7 8b 3e 66 21 dc bd ec 2a 23 bf 8c e8 46 be
       0.2730092 -0.10748558 -0.6373737 -0.19424647
000340 97 1a 84 bd 1f a1 a7 3d 42 86 f3 bd d1 fd 41 3d
       -0.06450384 0.08185028 -0.11890842 0.0473612
000350 d2 72 0f be 58 8c 9d bd df 51 14 be b2 8a 3e be
       -0.14008644 -0.07692784 -0.14484356 -0.18607596
000360 c1 17 32 3d ab b2 a5 3b 29 90 18 be 96 a9 cb 3d
       0.043479685 0.0050566993 -0.14898743 0.09944455
000370 e1 8e 36 bd e8 3e d2 3d 88 21 1b bd 55 66 90 3e
       -0.044569854 0.10265905 -0.037873775 0.28203073
000380 49 fe 8c 3d c3 74 0f bd 3e 44 b6 be ba 1f 82 3e
       0.068844385 -0.035023462 -0.3559894 0.2541483
000390 35 42 41 bb 50 4b 92 3d 32 72 15 3e 55 a6 60 3e
       -0.0029488925 0.07143271 0.14594343 0.2193845
0003a0 da 64 f6 bd 56 2c 2d bd 64 f8 ac bd 86 33 84 be
       -0.12030955 -0.04227861 -0.08445814 -0.2582056
0003b0 49 46 ca be 8e a9 41 3e bb 43 0f be 4a 59 b7 3c
       -0.39506748 0.18912336 -0.13990681 0.022381444
0003c0 23 f1 ff bc 7f 39 b2 3c 69 61 64 bc 2c 66 ba 3d
       -0.031242913 0.021755932 -0.01393924 0.09101519
0003d0 46 6c 0c 3e c8 96 03 3e ce e9 a0 bd ec 99 80 be
       0.13713178 0.12850487 -0.07857095 -0.25117433
0003e0 e3 92 59 be f6 5f 2f 3d 02 16 cd bd 39 96 00 3c
       -0.21247439 0.042816125 -0.10013963 0.007848316
0003f0 66 d9 04 bf 05 75 b2 3d 5b e7 17 be 3e ec 3d 3e
       -0.51894224 0.08713726 -0.14834349 0.1854715

encoder.state_encoder.1.bias f4 [64]
000000 00 00 00 00 00 00 00 00 00 00 00 00 00 00 00 00
       0.0 0.0 0.0 0.0
000010 00 00 00 00 00 00 00 00 00 00 00 00 00 00 00 00
       0.0 0.0 0.0 0.0
000020 00 00 00 00 00 00 00 00 00 00 00 00 00 00 00 00
       0.0 0.0 0.0 0.0
000030 00 00 00 00 00 00 00 00 00 00 00 00 00 00 00 00
       0.0 0.0 0.0 0.0
000040 00 00 00 00 00 00 00 00 00 00 00 00 00 00 00 00
       0.0 0.0 0.0 0.0
000050 00 00 00 00 00 00 00 00 00 00 00 00 00 00 00 00
       0.0 0.0 0.0 0.0
000060 00 00 00 00 00 00 00 00 00 00 00 00 00 00 00 00
       0.0 0.0 0.0 0.0
000070 00 00 00 00 00 00 00 00 00 00 00 00 00 00 00 00
       0.0 0.0 0.0 0.0
000080 00 00 00 00 00 00 00 00 00 00 00 00 00 00 00 00
       0.0 0.0 0.0 0.0
000090 00 00 00 00 00 00 00 00 00 00 00 00 00 00 00 00
       0.0 0.0 0.0 0.0
0000a0 00 00 00 00 00 00 00 00 00 00 00 00 00 00 00 00
       0.0 0.0 0.0 0.0
0000b0 00 00 00 00 00 00 00 00 00 00 00 00 00 00 00 00
       0.0 0.0 0.0 0.0
0000c0 00 00 00 00 00 00 00 00 00 00 00 00 00 00 00 00
       0.0 0.0 0.0 0.0
0000d0 00 00 00 00 00 00 00 00 00 00 00 00 00 00 00 00
       0.0 0.0 0.0 0.0
0000e0 00 00 00 00 00 00 00 00 00 00 00 00 00 00 00 00
       0.0 0.0 0.0 0.0
0000f0 00 00 00 00 00 00 00 00 00 00 00 00 00 00 00 00
       0.0 0.0 0.0 0.0

encoder.obs_encoder.0.weight f4 [217]
000000 5e c1 61 3f f7 03 75 3f 98 12 78 3f 9b 75 72 3f
       0.8818568 0.95709175 0.9690337 0.947107
000010 a7 6f 6c 3f 70 95 5d 3f 2b fb 71 3f b4 b7 67 3f
       0.9235787 0.8655615 0.94523877 0.90514684
000020 87 c5 67 3f 62 46 99 3f a1 2c 8f 3f db 8f 9e 3f
       0.9053578 1.1974604 1.1185495 1.2387651
000030 25 c8 93 3f 19 4e 6c 3f a7 74 1d 3f 7f 19 f5 3e
       1.1545454 0.9230667 0.6150612 0.47871014
000040 05 6b 93 3f 2e e6 91 3f f2 fe 81 3f 65 df 91 3f
       1.1517035 1.139837 1.0155928 1.13963
000050 e2 7d df 3f 0d f4 8f 3f 47 17 86 3f 54 e6 84 3f
       1.7460291 1.1246353 1.0475854 1.038279
000060 f7 4b 9d 3f 26 9b 92 3f 92 6d 8b 3f 8c b8 a3 3f
       1.2288808 1.1453598 1.0892813 1.2790694
000070 8e ba a1 3f a8 ad ae 3f 53 e2 a7 3f 28 5e bc 3f
       1.2635057 1.3646746 1.3115944 1.4716234
000080 44 55 f1 3e c1 fd a6 3f 21 fe a2 3f 57 0f a5 3f
       0.47135365 1.304619 1.2733804 1.2895306
000090 ae db b5 3f 13 ae 6a 3f 51 23 36 3f d7 5d a1 3e
       1.4207666 0.91671866 0.7114764 0.31516907
0000a0 26 d1 f4 3e 12 37 20 3f 91 ea 81 3f 99 2a 7d 3f
       0.47815818 0.6258403 1.0149709 0.98893124
0000b0 fc 0c 98 3f 34 12 0b 40 bc 35 72 3f 15 3e b7 3f
       1.1878963 2.172986 0.9461324 1.4315821
0000c0 ca 4d 41 3f 83 25 98 3f ee bb 55 3f 43 a6 1a 3f
       0.7550932 1.1886448 0.8348988 0.60409945
0000d0 2c a6 87 3f 7a 0a 39 3e 68 9e 0d 3f 86 95 db 3e
       1.0597587 0.18070403 0.55319834 0.42887515
0000e0 10 35 57 3f 65 50 7e 3f d7 f8 59 3f ca 65 55 3f
       0.8406534 0.9934142 0.85145324 0.8335844
0000f0 cd a0 86 3e 38 12 bb 3e 79 a4 ef 3e 18 20 3d 3f
       0.26294556 0.36537337 0.4680517 0.73877096
000100 18 17 64 3f 9a bd 69 3f 1a d1 2e 3f d1 1f 20 3e
       0.8909774 0.91304934 0.68287814 0.15637137
000110 4d fe cc 3e 09 61 df 3e 5b 68 67 3f 6b 41 6d 3f
       0.40037766 0.4362872 0.9039361 0.92677945
000120 97 dc 67 3f 2c be 39 3f e7 e1 3d 3e d5 ae f9 3e
       0.9057097 0.72555804 0.18543206 0.487662
000130 d5 d2 c4 3e 2a 24 5f 3f b6 26 71 3f 34 5c 46 3f
       0.38442102 0.87164557 0.94199693 0.7748444
000140 af 3a 2a 3f 02 88 2f 3e 5a 16 f3 3e 16 ab dd 3e
       0.66495794 0.17141727 0.4747799 0.4329459
000150 10 19 84 3f a9 c3 71 3f 08 0d 5a 3f 1d 74 1c 3f
       1.0320148 0.9443918 0.85176134 0.61114675
000160 c3 1f 4c 3e 9f 3a f5 3e 0d c5 fc 3e 60 9a 54 3f
       0.19933991 0.47896287 0.49369088 0.8304806
000170 d4 00 6b 3f 12 6c 3a 3f 2b f7 5f 3f be c1 90 3e
       0.9179814 0.7282115 0.87486523 0.28272814
000180 81 49 d8 3e 99 25 0b 3f 86 54 56 3f 4b de 4a 3f
       0.4224358 0.54354244 0.8372272 0.7924544
000190 86 85 00 3f c2 75 3d 3f 7c 5c 5e 3e 9a 37 bf 3e
       0.5020374 0.7400781 0.21714967 0.37347108
0001a0 16 84 f6 3e 34 dd 2f 3f 12 c8 68 3f 43 8a 1a 3f
       0.4814765 0.68696904 0.90930283 0.6036722
0001b0 02 85 07 3f 19 33 8e 3e 4e 45 e4 3e a7 06 01 3f
       0.5293733 0.2777336 0.44584125 0.50400776
0001c0 5a 55 4e 3f 40 d3 6d 3f cf ab 70 3f 75 6f 8d 3f
       0.80598986 0.92900467 0.9401216 1.1049639
0001d0 8d 2a 17 3f f1 20 25 3f 4c 48 08 3f ce a6 b3 3f
       0.590493 0.6450339 0.53235316 1.403528
0001e0 35 48 55 3f 45 bc 7c 3f 65 f9 84 3f 0c ab 8b 3f
       0.83313304 0.98724777 1.0388609 1.0911574
0001f0 c6 b2 75 3f 41 a6 6e 3f 26 23 9a 3f d5 1f 8c 3f
       0.9597591 0.93222433 1.2041976 1.0947214
000200 97 6e 81 3f 14 02 87 3f f2 91 7d 3f 1d b2 81 3f
       1.0111874 1.0547509 0.9905082 1.0132481
000210 25 c7 e5 3e d5 83 59 3f 24 84 41 3f 6e eb 15 3f
       0.44878498 0.84966785 0.75592256 0.5856236
000220 b8 e4 5e 3f cf 49 1c 3f 60 d7 86 3f 41 c2 74 3f
       0.8706775 0.6105012 1.0534477 0.9560891
000230 47 93 80 3f 70 6c 8c 3f da 22 75 3f 3d 5b 79 3f
       1.0044945 1.0970592 0.95756304 0.97404844
000240 6e 99 77 3f d2 94 6c 3f e3 d2 96 3f 9b 0c 69 3f
       0.9671849 0.9241458 1.1783108 0.9103486
000250 6d b6 4f 3f d8 18 1f 3f e5 89 10 3f de 89 38 3f
       0.81137735 0.62147284 0.5646041 0.7208537
000260 91 5b 5b 3f d3 1e 78 3f d7 14 75 3f 74 8c 84 3f
       0.85686594 0.96922034 0.95734924 1.0355363
000270 85 27 11 3f 09 6f 15 3f b3 1b 2d 3f 64 01 3c 3f
       0.56700927 0.5837255 0.6762039 0.7343962
000280 a1 87 69 3f 55 9e 55 3f d0 b8 74 3f a7 31 e9 3e
       0.9122258 0.8344472 0.955945 0.45545694
000290 4d a2 0c 3f cd 98 0d 3f 62 70 4e 3f 40 16 70 3f
       0.5493515 0.5531128 0.8064023 0.9378395
0002a0 ff 59 3f 3f d8 68 70 3f d2 88 00 3f e4 b2 23 3f
       0.747467 0.9390998 0.5020877 0.6394484
0002b0 e0 56 2a 3f 2a 16 75 3f 56 d8 68 3f a0 74 4c 3f
       0.6653881 0.95736945 0.909551 0.79865456
0002c0 73 cd 80 3f 2a ac c4 3e 8a 3b 08 3f 4c ae 0c 3f
       1.0062698 0.384126 0.5321585 0.54953456
0002d0 12 83 38 3f 69 00 74 3f 8b 5d 65 3f 89 ef 68 3f
       0.72075 0.95313126 0.8959586 0.909905
0002e0 ab 7d 0e 3f 3f 75 08 3f 63 a6 05 3f ea 58 39 3f
       0.55660504 0.53303903 0.5220701 0.724013
0002f0 f5 d3 77 3f d8 d9 69 3f ca 08 8a 3f cf 4e 4c 3f
       0.96807796 0.9134803 1.0783932 0.7980775
000300 2c ba 5b 3f 23 eb 2c 3f bf de 50 3f 2c 94 75 3f
       0.8583095 0.6754629 0.81589884 0.9592922
000310 a9 23 67 3f 75 25 88 3f 76 83 2b 3f 34 91 76 3f
       0.9028879 1.0636431 0.6699747 0.9631531
000320 2c 9a 38 3f 01 e0 71 3f 30 c0 7e 3f 76 23 80 3f
       0.7211025 0.9448243 0.99512005 1.0010822
000330 c5 df 91 3f 22 73 6b 3f f5 96 5a 3f 0a fc 6b 3f
       1.1396414 0.91972554 0.8538659 0.92181456
000340 ab c9 54 3f 0c ed 69 3f 62 a8 6b 3f 06 e1 52 3f
       0.8312022 0.9137733 0.92053807 0.8237461
000350 f2 f9 4e 3f ef 87 60 3f e7 e0 34 3f 1f 1c 60 3f
       0.80850136 0.8770742 0.70655674 0.8754291
000360 7f c2 81 3f
       1.013748

encoder.obs_encoder.0.bias f4 [217]
000000 2e 8b 23 be 52 2b dd bd 04 78 56 bd 75 97 72 bd
       -0.15971062 -0.10799278 -0.05236055 -0.059226472
000010 23 4d de bd 4a 89 13 be c4 49 d2 bd 05 e4 fd bd
       -0.108545564 -0.1440784 -0.10267976 -0.12397007
000020 0d 5b 0b be ca 00 a5 3d 55 5a 4c 3d 45 ff a1 3d
       -0.13608952 0.08056791 0.049890835 0.07910017
000030 3f 25 06 3d 6f 27 b0 bd 94 8a 36 be 70 6d f3 bd
       0.032750364 -0.08601271 -0.17826301 -0.11886108
000040 79 bc 63 3d f4 2f f4 3c 51 c8 74 3d c0 a2 31 3d
       0.055599663 0.029808022 0.05976135 0.0433681
000050 5d 89 07 3b 26 43 a2 3d b7 cf 9c bd 21 93 a8 bc
       0.002068124 0.07922964 -0.07656806 -0.020577969
000060 1a 7e 01 3e 00 38 68 ba 55 8e 69 3d d7 e5 27 3d
       0.1264576 -0.00088584423 0.057020504 0.040990677
000070 91 ea 3b 3d e7 8e a1 3d 31 28 15 3d 32 a1 eb 3c
       0.045877997 0.078885846 0.036415283 0.028763387
000080 ab e2 30 3d 18 fd be bd d4 cb e8 bd 86 50 b6 bc
       0.043184917 -0.093256176 -0.11367002 -0.022255193
000090 ba a3 01 3d db 84 5c 3d 0a 08 53 3d be 42 19 3d
       0.031650282 0.05383764 0.05152134 0.037417166
0000a0 72 72 dd 3d 8a 6a fb bd ee 8e 81 bd 69 ba 48 bc
       0.10812844 -0.1227618 -0.0632609 -0.012251475
0000b0 ff ab eb 3b 89 a0 07 3d c1 37 2e 3d 95 b1 65 3d
       0.0071921344 0.033112083 0.04253364 0.05607756
0000c0 8d 19 a9 bd fe 3b 92 bc be b8 95 bd 92 9f d7 3d
       -0.082568265 -0.017850872 -0.073106274 0.105284825
0000d0 d2 af 16 3d b0 a2 4c 3d 19 de b7 3d fb 7e 13 be
       0.03678877 0.04995984 0.08977909 -0.14403908
0000e0 ea ca 8d bd 93 de 9f bc b4 59 4b 3d cb 9a 58 3d
       -0.069234684 -0.019515311 0.049646094 0.052881997
0000f0 58 58 d6 3c d9 8c 77 3d c9 c8 12 be ea d1 d4 bd
       0.026165172 0.060437057 -0.14334406 -0.103916004
000100 8e ac 9d bd 76 d2 e1 3d 61 c9 da 3b af 8a a5 3c
       -0.07698928 0.1102647 0.0066768383 0.020207731
000110 a1 86 87 3d a0 06 80 bd e8 21 9e bd a4 09 4f bd
       0.06617475 -0.062512636 -0.07721311 -0.050546303
000120 11 b2 c4 3d f1 be 85 3c d5 31 89 bb 7d e1 77 3d
       0.09604276 0.0163264 -0.0041868486 0.060517777
000130 09 81 1c be 88 50 bd bd 9b 73 7c bd 11 1a 0d 3e
       -0.15283598 -0.09243876 -0.061633687 0.13779475
000140 d5 5b 03 3d 88 14 50 3d 7b 1b aa 3d 4e 24 1d be
       0.03207 0.05080083 0.08306023 -0.1534588
000150 93 5c 3f bd c2 8c ae bd a9 0f a1 3d e4 90 e3 3c
       -0.046719145 -0.08522941 0.07864315 0.02777905
000160 99 31 32 3d bf 6e b7 3d 59 d9 1d be d1 f8 b3 bd
       0.04350433 0.0895667 -0.15414943 -0.08787692
000170 d4 fb 8b bd 9d e9 01 3e e5 ce 6b 3d 61 82 50 3d
       -0.06835142 0.12686773 0.057570357 0.05090559
000180 9f 41 a5 3d f8 2f ff bd e6 44 0c be b4 66 91 bd
       0.08069157 -0.12460321 -0.13698158 -0.07099667
000190 0c d1 27 bc bb b3 90 3d fe d7 47 3d e4 a6 e6 3d
       -0.010242712 0.07065531 0.04878997 0.112623006
0001a0 d4 21 1c be b8 6d 0f be 83 f3 11 bd 8b 32 2d 3d
       -0.1524728 -0.14006698 -0.03563262 0.04228453
0001b0 ad 6d 03 bb 71 a4 0f 3d 9e 0f f4 3d d6 79 0b be
       -0.0020054386 0.035068933 0.11917041 -0.13620695
0001c0 4a 97 e6 bd f7 01 9e bc 39 19 2a 3d 32 cb b3 bb
       -0.11259325 -0.019288046 0.04152796 -0.0054868693
0001d0 4c a0 7b 3d f7 6d b5 3d 10 79 20 be 84 5e a0 bb
       0.061432168 0.08858865 -0.15671182 -0.0048940796
0001e0 b9 ef a3 bc eb a1 2a 3b 51 3e 7d bb 85 d7 76 3d
       -0.02001177 0.0026036452 -0.003864188 0.06026413
0001f0 a4 82 ed bc 7c 16 24 3d c8 b0 06 bc 80 4e 11 3c
       -0.028992958 0.040060505 -0.008220859 0.0088688135
000200 91 e3 0c 3b 13 ab 70 bd cc 77 aa bd bd 33 a1 bb
       0.0021497945 -0.0587569 -0.08323631 -0.0049194978
000210 06 d5 2f be 7a 32 e5 3d 58 62 d3 3d dd 33 f8 3d
       -0.17171106 0.11191268 0.10321492 0.12119267
000220 37 b5 f5 3d 7d ae 42 be 07 5d 60 bd 47 46 a5 bd
       0.119974546 -0.19011874 -0.054776218 -0.08070045
000230 d4 6c 6f bd 80 4c 15 3b d3 39 84 3d 4c 82 9d 3d
       -0.058453396 0.0022781193 0.064563416 0.07690868
000240 99 9c 2e 3d a5 1c b1 bd b4 60 e8 3b 49 78 cd 3d
       0.042629812 -0.08648042 0.007091606 0.10032708
000250 7f 4d 34 bd 1e 2f d5 3d cd 69 f6 3c a7 23 a4 bd
       -0.04401922 0.104093775 0.030079747 -0.08014613
000260 94 2f 98 bd 1a 76 71 bd 8d b2 18 3d 9b f7 92 3b
       -0.0743095 -0.05895052 0.037279654 0.0044850833
000270 b6 23 94 3d 30 d8 11 3d 6c ee f7 bd 08 38 0d be
       0.07233374 0.035606563 -0.12106022 -0.13790905
000280 71 a1 8e bd 45 4c b2 3d a0 7c 95 3d 6c 46 f1 3d
       -0.06964386 0.087059535 0.07299161 0.1178101
000290 e3 8d 90 3d 8b d7 15 be ab 5c ec bd 95 a2 4b bd
       0.07058313 -0.14633004 -0.115411125 -0.049715597
0002a0 3d 06 6e 3d 9c 7a 02 3e b2 e6 af 3d 97 52 54 3d
       0.058111418 0.12742084 0.085889235 0.051836576
0002b0 c1 d1 2a bd aa f2 96 bd 7e 55 f6 bd 3a d4 38 3e
       -0.041703943 -0.07370503 -0.12028025 0.18049708
0002c0 0b c5 e8 3c 16 31 3a 3e af 20 2c 3d cd ba 40 be
       0.02841427 0.18182787 0.042023357 -0.18821259
0002d0 70 9d fb bd 07 49 d0 bd 01 76 bc 3d 19 6a 4d 3d
       -0.12285888 -0.10170179 0.09202195 0.05015001
0002e0 78 5f dc 3d 98 c7 6f 3d 84 82 13 be 4d e9 90 bd
       0.10760397 0.058539957 -0.14405257 -0.070757486
0002f0 18 83 75 bc 92 ce 08 3e e2 97 35 3d 8b a1 04 3e
       -0.0149848685 0.1336005 0.0443343 0.12952249
000300 af f8 20 3d 44 88 44 be e5 50 ba bd 63 8f 13 bd
       0.039299663 -0.19192606 -0.09097461 -0.036025416
000310 e8 69 08 3e 7b e3 90 bd aa c5 1b 3e 35 88 3c 3d
       0.1332165 -0.070746385 0.15212122 0.046028335
000320 6e 33 fa bd ba 62 f8 bd 06 2c 89 bd a4 a0 09 3e
       -0.12216841 -0.121282056 -0.0669785 0.13440186
000330 4d 98 cd 3b 5e 03 05 3e 6b 2d ef 3a 99 ef a4 bd
       0.006274259 0.12989566 0.0018247789 -0.08053512
000340 21 38 22 be 63 85 91 bd de 7c b2 3d fe c5 91 3d
       -0.15841724 -0.071055196 0.08715223 0.07117842
000350 eb 4b f8 3d 33 a2 e0 3c db cc 22 be 06 f2 99 bd
       0.12123855 0.027421093 -0.15898459 -0.075168654
000360 57 be cc bd
       -0.09997242

encoder.obs_encoder.1.weight f4 [64, 217]
000000 69 56 ef 3d 56 85 bd 3d a3 e0 2b bc 46 b4 bd 3d
       0.11686403 0.092539474 -0.010490569 0.092629
000010 ce 9f 86 3d cb 9a 9e 3d d0 0f 76 3e 15 62 aa 3d
       0.06573449 0.07744368 0.2402947 0.08319489
000020 63 1c c4 3c 46 86 32 3e ff 96 8b 3d cd d6 42 3c
       0.023939317 0.17434034 0.068159096 0.011892033
000030 59 77 11 3d 4a eb da 3d ee d3 b0 bc 5e 3f 98 bb
       0.03551421 0.10689409 -0.021585431 -0.004646226
000040 ed b3 11 3e 73 1b 42 3c ee cc b4 3c 62 45 9e bd
       0.14228792 0.011847365 0.022070374 -0.077280775
000050 66 98 f0 bc b0 7c 4f 3d 7f 12 fc 3d 9b 2f 59 3d
       -0.029369544 0.05065602 0.12308215 0.053023916
000060 f9 46 11 3d 09 83 6f 3d 5f d7 1f 3e b9 65 87 3e
       0.035468075 0.058474574 0.15609501 0.26444796
000070 9c 36 29 3e 33 9e 41 3d f0 c7 98 bd fb d0 79 bc
       0.16524738 0.04727001 -0.0746001 -0.015247579
000080 b1 62 db 3d 0c c3 94 bb c2 5a 2e be 15 dc d5 3d
       0.10712183 -0.004539853 -0.17026809 0.10442368
000090 8a 55 4e be 5d e2 2d bd 9f 32 5e 3d 47 31 29 bd
       -0.20149818 -0.042452205 0.054247495 -0.04130676
0000a0 ba 8a 2c 3d bf 93 e3 3d ab 73 df bd fd db 0e be
       0.042124487 0.11112165 -0.10910734 -0.13951106
0000b0 74 db 11 bd 08 fd 24 3d 5e 35 e6 3c 11 4f 5d 3d
       -0.035609677 0.040280372 0.02810162 0.05403048
0000c0 b5 33 51 3e 14 60 c8 bc 08 ed cf 3d 99 d6 1d be
       0.20429881 -0.024459876 0.10152632 -0.15413894
0000d0 0f f0 d9 3b 58 35 ae bd ce dd 66 3d 2d 26 f0 3d
       0.0066509317 -0.08506268 0.056363873 0.117260315
0000e0 ae a9 35 bd fa 01 07 be dd 39 80 be c1 ed 34 3e
       -0.044351272 -0.13184348 -0.25044146 0.17668821
0000f0 dc 7b 12 be 77 a4 5f 3d 9d 96 08 3e d5 f6 db 3d
       -0.14305061 0.054600205 0.13338704 0.10740439
000100 f3 a9 57 bc 72 ad c8 bd e0 91 fa bd 4a 42 aa bc
       -0.013163078 -0.09798707 -0.12234855 -0.020783562
000110 96 b7 57 3e bf a6 7b 3d 89 6d 43 bd 62 32 3d be
       0.21066126 0.06143832 -0.047711883 -0.18476251
000120 e7 77 36 be da 34 85 bd bc ef 0a bd 5c 68 9f ba
       -0.17819177 -0.06504221 -0.033920035 -0.0012161839
000130 e4 59 96 3d 6a 17 5d bd ac 9e 73 be ed 3c 33 3c
       0.07341364 -0.053977408 -0.23790997 0.010939819
000140 ec ca 2b 3e 47 70 87 3c 83 03 f6 3d db 04 e5 3c
       0.16776627 0.01653303 0.120123886 0.027956417
000150 03 63 05 3e 0f 2c 29 be 31 d7 8a 3d ea f2 e4 3d
       0.13026051 -0.16520713 0.06779326 0.11179145
000160 39 46 14 3e 38 e1 1a bb 9b e4 81 3c c1 76 9b 3d
       0.14479913 -0.0023632776 0.015856078 0.0759101
000170 b3 20 17 be 26 49 92 bc 07 1f 81 3d 86 3b cd bd
       -0.14758568 -0.017857146 0.06304746 -0.10021119
000180 6d 45 9f bd af 20 c9 3c ca d1 e9 3d 70 a8 97 3c
       -0.07776914 0.024551718 0.11416967 0.018512934
000190 91 71 3d be 54 67 e4 3d 6d 31 da ba f9 d8 4e 3d
       -0.18500353 0.11152521 -0.001664681 0.05049989
0001a0 75 00 3b bd 6c bd 44 be 00 2d fd bd 5e 5c 3a 3e
       -0.045654733 -0.19212884 -0.12362099 0.18199298
0001b0 3f 55 04 be f9 04 cb 3d 1a e6 84 3d 38 c6 da 3d
       -0.12923144 0.09913058 0.06489201 0.106823385
0001c0 20 03 28 3c ad e1 04 be db 70 af bb 51 f4 bb bd
       0.010254651 -0.12976713 -0.0053540296 -0.09177459
0001d0 b1 20 78 3c 00 bb 20 3d a6 71 b5 bc a2 ff 91 3e
       0.015144513 0.039240837 -0.022148918 0.28515345
0001e0 2b 9a 85 3e 2c 44 98 3e 81 d4 2e 3e 62 da e9 3e
       0.26094183 0.2973951 0.17073251 0.45674425
0001f0 6a cb 8c 3e 09 dd 8f 3e 95 cf 66 3e 03 b1 e6 3d
       0.27498943 0.28098324 0.22540124 0.11264231
000200 65 25 39 3e 05 3e c1 3e 61 82 ac bd b3 02 bc 3c
       0.18080671 0.3774263 -0.08423305 0.022950506
000210 dc 00 c0 3d 08 05 66 bd 9b 53 4f bc 61 76 2d 3d
       0.09375164 -0.056157142 -0.01265421 0.042349223
000220 fc f4 d1 3d aa 03 e4 bc 61 18 00 be be 36 18 bd
       0.10251805 -0.027833778 -0.125093 -0.03716158
000230 15 ec da 3d a8 32 29 3e 48 16 c0 3d d7 48 a4 bc
       0.1068956 0.1652323 0.0937925 -0.020054264
000240 3b 34 0c 3d 9b 77 d3 3d 8a f6 1f 3e 90 d3 33 be
       0.0342295 0.10325547 0.15621391 -0.17561173
000250 18 6a 8b bd 3c c7 26 bd 5f f5 04 be 00 9e 88 3b
       -0.06807345 -0.04071735 -0.12984227 0.0041692257
000260 47 84 e4 3d cc d2 1c be 9b b6 79 be bb f7 ba bd
       0.111580424 -0.15314788 -0.24386065 -0.09129282
000270 19 b5 08 be 24 02 5b bd 1b 7f 48 bd 37 57 7c 3c
       -0.13350333 -0.05346884 -0.048949342 0.015401653
000280 fb 67 31 3c 81 f9 1f be 9c c8 05 bd a1 23 d7 bd
       0.0108280135 -0.15622522 -0.03266202 -0.105048425
000290 52 0c 01 3d 1f e3 c2 3d a6 b1 3f bd 4d 5c 1c be
       0.03150589 0.09515976 -0.046800278 -0.15269585
0002a0 58 88 95 3e bd e1 12 bd 30 08 54 3e 45 cd 8a 3d
       0.29205585 -0.035859812 0.20706248 0.06777433
0002b0 8a 5e 04 bc 10 34 29 3e 0e 4b 36 bd 1c 79 1b be
       -0.0080791805 0.16523767 -0.04450517 -0.15182918
0002c0 f3 36 44 3e 6d 40 c7 bd d6 af 61 bd 86 c6 1c be
       0.19161586 -0.09729085 -0.05509933 -0.15310106
0002d0 22 e2 e7 3d 8b 96 03 3a 9c 53 d3 bd 2a 11 dd 3b
       0.11322428 0.0005019686 -0.103186816 0.006746431
0002e0 b3 9e ee bb 28 b5 94 bd fd fd 48 3e 15 30 b2 bb
       -0.007282102 -0.07261115 0.19628139 -0.0054378607
0002f0 15 11 0c 3d 58 e8 15 3e c4 9d 2a 3e 0c 3f 8a 3c
       0.03419598 0.14639413 0.16661745 0.016875766
000300 c3 e3 67 3e c6 67 4b 3c c0 f6 95 bd 09 c5 37 be
       0.22645478 0.012414878 -0.073224545 -0.17946257
000310 92 58 66 bd 2e 47 15 be 9b 47 df 3d 70 fb a8 be
       -0.05623681 -0.14577934 0.109023295 -0.33004332
000320 4e 7a b4 bc d7 7c 81 3d 55 b3 17 bd 51 6d fb bd
       -0.022030976 0.063226394 -0.03703626 -0.1227671
000330 74 28 c8 3d 92 99 1e 3e ab 00 53 bd 97 be 0b bd
       0.09773341 0.1548827 -0.05151431 -0.034117308
000340 f7 eb 03 3d ff eb 09 be ae 66 1d bd 01 f7 41 3d
       0.032207455 -0.13468932 -0.038428 0.047354702
000350 1d 3f 1e be a1 d5 08 3d 9d 47 45 be 41 67 16 3d
       -0.15453763 0.033406857 -0.192656 0.036719564
000360 a0 5e 5c be b6 e7 ad bc cf d5 36 bd 28 59 af bd
       -0.21520472 -0.021228652 -0.044637498 -0.08561927
000370 87 17 8c 3d 40 bb fe bd 01 3b ca 3d b3 5b 44 3c
       0.06840425 -0.12438059 0.09874535 0.011984753
000380 09 fc 56 bc 7a 1b 15 be 58 8a 69 be 9f eb 64 be
       -0.013121613 -0.14561263 -0.2280668 -0.22355507
000390 f8 ad ed 3b b3 0b 3f 3d fa b4 39 be 31 56 12 bd
       0.0072534047 0.046642017 -0.18135443 -0.03572673
0003a0 60 bc 18 bc a7 29 d4 be 05 76 c3 bd 1a 39 86 3d
       -0.009322256 -0.41438028 -0.09543995 0.0655386
0003b0 57 b9 d0 bd 34 1e aa 3c ce da 86 be f2 37 03 3e
       -0.10191601 0.020766355 -0.2633881 0.1281431
0003c0 10 53 1c 3d 39 dd e7 bd 0d 95 14 bc b0 3e 18 bd
       0.038165152 -0.11321492 -0.00906874 -0.03716916
0003d0 f6 aa 54 be fd 11 76 be 37 e2 10 3e ad b2 2a be
       -0.20768341 -0.240303 0.14148794 -0.16669722
0003e0 94 b1 b5 3e 53 72 7d 3d 80 b8 53 3d 9a b2 1a 3e
       0.35487044 0.061876606 0.051689625 0.15107194
0003f0 a5 b8 91 3d 80 41 85 be 0e 9c ba 3c 23 61 94 3d
       0.07115296 -0.26026535 0.02277949 0.0724509

encoder.obs_encoder.1.bias f4 [64]
000000 d6 ab 0f 3c 53 dc 7a bc 0c 31 c4 bc 18 5a ce 3c
       0.008768996 -0.015311318 -0.023949169 0.025189444
000010 9f 85 83 3d b9 ee a2 3b 9d ce 76 3b 86 82 1c 3d
       0.064219706 0.0049723056 0.0037659772 0.038210414
000020 89 7f 12 3d c3 6a 5d 3d 68 91 00 3e c1 9b ef bb
       0.03576616 0.054056894 0.12555468 -0.0073122685
000030 59 8b 30 bd 78 3d 98 bc 0d 57 c8 3c df 51 09 bc
       -0.043101642 -0.018583998 0.024455572 -0.008381336
000040 30 56 be 3b 64 e8 60 3d 52 4c 8c 3c 1b 0f 5e 3d
       0.005808614 0.054909125 0.017126236 0.054213624
000050 23 31 92 3b b0 17 32 3b e5 c1 35 bc 29 42 f0 bc
       0.004461424 0.0027174763 -0.011093591 -0.029328423
000060 51 93 12 3d 74 d8 8f bd 82 9e 86 3c 75 74 85 3d
       0.035785023 -0.07023707 0.016433004 0.06516353
000070 2c 03 19 3c f3 5c 74 b9 cb 0f 0d 3d 61 18 3c 3d
       0.009339135 -0.0002330428 0.03443889 0.045921687
000080 38 95 b5 3d 2b 1d 82 3d 82 42 b6 3b 82 12 4e 3d
       0.08866352 0.063532196 0.0055621276 0.05031062
000090 97 77 db 3d 51 eb fb 3c 58 74 c7 bc e6 ed 83 3d
       0.10716169 0.030751856 -0.02434747 0.0644186
0000a0 d0 e5 15 3d 3d 91 30 bd 3c 52 1a 3d 15 6f 3f bd
       0.03659612 -0.04310726 0.03767608 -0.046736795
0000b0 d4 80 26 3c 25 7f 02 3d f8 b6 79 bc f2 63 34 bd
       0.010162551 0.031859536 -0.015241377 -0.044040628
0000c0 e1 75 33 bd 03 04 0c 3c e3 f5 64 3c 8f 15 0c 3d
       -0.04381359 0.008545878 0.01397464 0.034200247
0000d0 e4 16 fa 3c b4 fe ee 3c a2 01 80 3c 63 5a 80 ba
       0.030528493 0.029174186 0.015625779 -0.0009792562
0000e0 d2 d3 58 bb 48 1d 01 be 6f f9 0f bd 46 8e cb 3c
       -0.003308524 -0.12608826 -0.035149988 0.024848115
0000f0 2f 6c 7c bd b5 16 0a 3d 77 de f4 ba da 39 08 bd
       -0.06162661 0.03371306 -0.0018682022 -0.033258297

encoder.ln.weight f4 [64]
000000 4a 00 60 3f ee 2b 60 3f ee 80 5d 3f 5f 27 7c 3f
       0.8750044 0.8756703 0.86524856 0.98497576
000010 96 13 60 3f 99 ca 5f 3f cf 49 8b 3f e1 87 85 3f
       0.87529886 0.87418514 1.08819 1.0432092
000020 50 4c 77 3f eb 1f 81 3f e5 b1 49 3f db 95 3d 3f
       0.9660082 1.0087866 0.7878707 0.74056786
000030 d8 4a 6f 3f 11 cf 85 3f 1c 80 69 3f 7a 2f 62 3f
       0.9347358 1.0453817 0.91211104 0.88353693
000040 6d f3 a4 3f aa 28 5c 3f 41 b2 8b 3f 27 1f 58 3f
       1.2886788 0.8599955 1.0913774 0.84422535
000050 cb de 86 3f 80 c6 5e 3f 4b a4 4b 3f ee 28 83 3f
       1.0536741 0.87021637 0.79547566 1.0246866
000060 3f 82 79 3f 7e 50 78 3f 45 ed 7f 3f 03 cd 73 3f
       0.97464365 0.9699782 0.9997142 0.952347
000070 89 c8 82 3f cc 9c 8a 3f e3 67 6a 3f ee c6 95 3f
       1.0217448 1.0829101 0.9156477 1.1701334
000080 95 8d 6d 3f d4 d3 83 3f c1 9f 5e 3f cb e8 6b 3f
       0.9279416 1.029902 0.86962515 0.9215209
000090 66 b3 78 3f 61 db 79 3f a6 d1 66 3f f0 bc 8c 3f
       0.9714874 0.9760037 0.9016365 1.0995159
0000a0 7b dc 89 3f 2d 49 85 3f 81 ad 45 3f 92 5f 82 3f
       1.077041 1.0412956 0.7721787 1.0185416
0000b0 6d 93 7e 3f 43 70 8b 3f e6 47 7c 3f 80 eb 6f 3f
       0.99443704 1.0893635 0.9854721 0.9371872
0000c0 ae e4 80 3f 11 7e 89 3f 00 cd 7f 3f ce 03 99 3f
       1.0069788 1.0741597 0.9992218 1.1954286
0000d0 a2 d3 76 3f aa d5 68 3f 4f 9c 71 3f eb 93 71 3f
       0.96416676 0.90951025 0.94379133 0.9436633
0000e0 7b e9 7e 3f 45 03 74 3f b0 ef 60 3f 2b 69 7a 3f
       0.9957501 0.9531749 0.87865734 0.97816724
0000f0 b7 8c 63 3f ea 1e 56 3f b3 ac 86 3f 2b de 84 3f
       0.8888659 0.8364092 1.0521454 1.03803

encoder.ln.bias f4 [64]
000000 b6 9f b9 bd c0 10 3f bb 43 56 29 bb 45 3c 35 3c
       -0.090636656 -0.002915427 -0.002583877 0.011061733
000010 35 10 3a 3d c5 86 10 3d 82 bc 2c bd 92 af 88 3b
       0.045425612 0.035284776 -0.042171963 0.0041713202
000020 91 70 81 3c 37 72 4e 3b 92 e8 81 3d 61 0d 2d bb
       0.015800746 0.0031501183 0.063431874 -0.002640568
000030 d4 b4 4d bd 35 31 3c bd d3 8e 97 3c 24 b9 08 bd
       -0.05022128 -0.045945365 0.018500721 -0.03337969
000040 3d da ed bc 9b aa 54 bd c8 5e 6e 3b a7 e2 fd 3d
       -0.029034728 -0.051920515 0.0036372412 0.12396746
000050 58 b2 a8 bc f1 81 a8 3c 60 62 0f 3d a7 dc e9 ba
       -0.020592853 0.020569773 0.035005927 -0.0017842249
000060 8d 6e da 3b d6 04 51 3d 31 47 9c bd bc aa a2 bb
       0.0066660107 0.051030003 -0.07630766 -0.004964201
000070 bb 20 82 3d ec 1e 3b 3c 92 79 29 3d 3d 26 08 3c
       0.06353899 0.011420947 0.041375704 0.008309898
000080 01 ab e7 3d 96 96 34 bc 4c aa 62 bd 5d 4b 23 3d
       0.11311913 -0.011022231 -0.05533819 0.039866794
000090 b5 b1 bb 3d e7 07 78 bd 15 72 61 3d fe af 51 3d
       0.09164754 -0.06055441 0.055040438 0.05119323
0000a0 d9 10 3f 3d 5d 42 0e bc b1 54 ba bd fe b9 d3 bc
       0.046646927 -0.008682814 -0.09098185 -0.025845524
0000b0 be 3d a7 bd ef 32 6f 3d 8b 97 98 3c 8a c5 13 3d
       -0.08166073 0.058398183 0.018626949 0.03607706
0000c0 6e a2 90 bd 49 93 f4 3c 1c eb 4c 3c 71 1e d5 3b
       -0.07062231 0.029855387 0.012507226 0.006503873
0000d0 09 ca 56 3a ed d8 c5 3c 1e d2 ca 3c 4c 64 c3 3c
       0.0008193558 0.02415129 0.024758395 0.023851536
0000e0 3b 2e f5 3c 65 3d 60 3d 4b cf 85 3d 8a d6 2a 3d
       0.029929271 0.05474605 0.065336786 0.041708507
0000f0 ae 82 a8 3d e9 49 cf 3c cb 7a 98 3a e5 be 00 3c
       0.0822805 0.025303798 0.0011633275 0.007858013

encoder.blocks.0.ln1.weight f4 [64]
000000 b3 82 76 3f d8 ff 76 3f 42 eb 77 3f 7b ec 68 3f
       0.9629318 0.96484137 0.9684335 0.9098584
000010 9c bd 5f 3f 97 b8 70 3f 3e 32 92 3f 9b db 82 3f
       0.87398696 0.9403166 1.1421583 1.0223268
000020 3c 01 40 3f a3 5b 89 3f f4 70 7b 3f df 0a 38 3f
       0.75001884 1.073109 0.9821923 0.7189159
000030 9d 6a 81 3f ad ed 8d 3f 96 63 79 3f fb 01 68 3f
       1.0110661 1.1088158 0.9741758 0.9062802
000040 8b 2b 7e 3f 14 04 82 3f f2 09 8e 3f 76 0a 55 3f
       0.9928519 1.0157495 1.1096785 0.8321909
000050 ac 37 62 3f d3 4d 63 3f e1 b5 55 3f b0 26 85 3f
       0.883662 0.88790625 0.8348065 1.0402431
000060 12 36 87 3f 95 81 7e 3f e9 9c 87 3f de a5 80 3f
       1.0563376 0.99416476 1.059476 1.0050619
000070 94 55 92 3f 8b 6b 9c 3f 5a 12 82 3f 66 fa 94 3f
       1.1432366 1.222032 1.016185 1.1638916
000080 34 7b 6a 3f 0d 17 89 3f aa 7e 74 3f 05 39 8b 3f
       0.91594243 1.071016 0.95505774 1.0876776
000090 53 1a 85 3f df 81 8c 3f b5 ec 5c 3f fb c5 89 3f
       1.0398659 1.0977134 0.86298686 1.0763544
0000a0 44 90 6a 3f 35 a2 81 3f 2b 2f 5d 3f 94 b3 84 3f
       0.9162638 1.0127627 0.864001 1.0367303
0000b0 5f 39 84 3f 81 e6 8b 3f a8 77 83 3f 24 c0 40 3f
       1.0330008 1.0929719 1.0270891 0.75293183
0000c0 f6 8f 8b 3f a9 4a 8d 3f 20 a5 79 3f 57 96 8d 3f
       1.0903308 1.103841 0.97517586 1.1061505
0000d0 2e c2 83 3f 6b 64 50 3f 17 63 80 3f ff a9 6c 3f
       1.0293634 0.81403226 1.003024 0.92446893
0000e0 91 6c 8a 3f 51 82 75 3f fa e7 68 3f 71 0e 3f 3f
       1.0814382 0.9590197 0.9097897 0.7463141
0000f0 7e 65 6a 3f c8 e3 69 3f e8 b3 76 3f 76 32 7f 3f
       0.91561115 0.9136319 0.96368265 0.9968637

encoder.blocks.0.ln1.bias f4 [64]
000000 d0 0e 39 bd b3 cf f7 bc 56 8a 7e 3d c2 cf e9 bd
       -0.045180142 -0.030250406 0.062143646 -0.1141658
000010 e5 31 c6 3d 9f 8d 45 3d 72 12 19 bd 22 7c 94 3b
       0.096774854 0.048230764 -0.037371106 0.0045313993
000020 ff be c2 3b 74 a1 92 3c 30 9f ce 3d 68 3d a7 3d
       0.0059431787 0.017899252 0.10088956 0.08166009
000030 78 d9 a2 bc 00 2a 8d bc 55 fd 66 bc ed a4 05 3d
       -0.019879088 -0.017231941 -0.014098485 0.03262799
000040 b5 b3 9f bd 2f 24 59 3c d2 4e d8 3c 26 03 aa 3d
       -0.07797948 0.013253256 0.026404772 0.08301382
000050 1c 06 0c bd f3 fb 1a bb de f9 51 3d 0c fc f2 bc
       -0.034185514 -0.0023648709 0.051263683 -0.029661201
000060 59 05 a3 bd 9d 61 49 bc 9f 18 91 bc 27 89 a1 3d
       -0.07960004 -0.012291339 -0.017711936 0.07887488
000070 be 05 66 3a f0 8f a8 3d c3 e7 ac bd 95 f7 2e bc
       0.00087746594 0.08230579 -0.084426425 -0.010679145
000080 2b 5e 67 3d 43 ea 5e 3c 1b d6 95 3b 31 1a 4b 3d
       0.05648629 0.013605657 0.0045726425 0.049585525
000090 65 47 80 3d df fb 7f bd cd 81 6f 3d c0 08 38 3d
       0.062636174 -0.062496062 0.058473397 0.04493022
0000a0 60 8b be 3c 31 47 51 bd 3d 92 c3 bd 69 62 34 3b
       0.023259819 -0.051093284 -0.09549377 0.0027524477
0000b0 72 6f 9b bd 68 85 cc 3d cd 3c 9e 3d 2b 93 d9 3d
       -0.07589616 0.09986383 0.077264406 0.10623773
0000c0 3c c2 59 bc 4b f3 4a bb 86 aa 76 3d f5 e1 20 bd
       -0.013290938 -0.0030967768 0.060221218 -0.03927799
0000d0 28 c5 4a 3c a9 86 86 3d 3b ab 14 3e be f3 fa bb
       0.012376107 0.06568653 0.14518444 -0.007658451
0000e0 bc 88 8d 3d 53 69 40 3d 56 2b 8d b8 10 7d c0 3c
       0.06910846 0.046975445 -6.731476e-05 0.023497134
0000f0 72 7b 42 3c aa 6d b9 3c 36 52 8d ba 51 21 27 3b
       0.011870252 0.0226353 -0.0010781947 0.0025502036

encoder.blocks.0.ln2.weight f4 [64]
000000 86 16 7c 3f 32 77 61 3f 77 07 71 3f f4 b5 87 3f
       0.9847187 0.880725 0.94152015 1.0602403
000010 10 82 6a 3f 23 8b 80 3f 2b 3a 8a 3f ee 5b 83 3f
       0.9160471 1.0042461 1.0799001 1.026243
000020 60 cf 5d 3f 9c 4b 91 3f 6e 8e 83 3f 26 0b 73 3f
       0.86644554 1.1351199 1.0277841 0.94938886
000030 f5 41 77 3f 8e ad 85 3f fc 31 85 3f b6 0e 7e 3f
       0.9658502 1.044359 1.0405879 0.992412
000040 03 62 78 3f c1 6c 81 3f eb 4f 8d 3f 4a 45 4e 3f
       0.97024554 1.0111314 1.1040014 0.80574477
000050 c0 cf 7e 3f 01 66 6e 3f 36 3d 6f 3f 02 93 82 3f
       0.9953575 0.93124396 0.93452775 1.0201113
000060 f5 b3 87 3f 46 6e 75 3f 48 79 80 3f da 04 57 3f
       1.0601794 0.9587139 1.0037012 0.8399178
000070 2b db 88 3f 0f 0f 8d 3f 13 2b 71 3f 60 c1 83 3f
       1.0691885 1.102022 0.9420635 1.0293388
000080 07 f0 82 3f f0 cf 8a 3f 67 67 7e 3f 1a c3 93 3f
       1.02295 1.0844707 0.9937653 1.1543915
000090 00 e3 8b 3f a6 04 83 3f 76 19 63 3f 71 ab 91 3f
       1.092865 1.0235794 0.88710725 1.1380445
0000a0 e2 f1 79 3f d1 43 90 3f 61 41 86 3f 94 01 81 3f
       0.9763471 1.1270696 1.0488702 1.0078607
0000b0 f0 0d 86 3f 2e 2d 8c 3f 22 ed 8d 3f 63 b9 58 3f
       1.0473003 1.0951288 1.1087992 0.8465788
0000c0 ad 89 6b 3f 99 6a 88 3f 65 f0 84 3f 8d 62 98 3f
       0.9200695 1.0657531 1.0385863 1.1905075
0000d0 2a 49 75 3f 71 c8 62 3f 48 58 6e 3f 13 38 5d 3f
       0.95814764 0.885871 0.93103456 0.8641369
0000e0 ae 27 78 3f 1e 94 8a 3f 77 54 6a 3f d7 10 73 3f
       0.96935546 1.0826452 0.91535133 0.9494757
0000f0 77 25 6a 3f f5 52 84 3f 80 60 97 3f 85 b7 82 3f
       0.91463417 1.0337816 1.1826324 1.0212256

encoder.blocks.0.ln2.bias f4 [64]
000000 97 64 cb bc 7e 34 0f 3c b4 ec 3f 3d 64 03 92 bd
       -0.024828238 0.008740542 0.046856597 -0.07129553
000010 c8 b6 08 3c 5e d4 0b 3d 5d 6e a2 bd 0b 73 dc 3c
       0.00834436 0.034138076 -0.079312064 0.026910326
000020 13 aa 52 bd 5a ad a4 3d 9c ee 88 3d 58 ac b7 3c
       -0.051431727 0.08040877 0.06686136 0.022421047
000030 26 4a 78 bb e2 1f 8b bb 25 e7 65 bc ba 61 a3 3c
       -0.0037885993 -0.004245744 -0.01403216 0.01994406
000040 b7 c9 d8 bd 23 e4 2b bc aa d1 78 3c d2 bc 94 bc
       -0.10585349 -0.010491404 0.015186707 -0.018156443
000050 9b eb d3 bd 00 5e ed 3c cb 14 1c bc 0f 3b 28 bd
       -0.103476726 0.028975487 -0.009526442 -0.041071948
000060 66 cf 55 bd c5 f0 85 bc 3b 17 81 bc f2 68 03 bd
       -0.052199744 -0.01635016 -0.015758147 -0.032082506
000070 70 e9 ef 3c aa 2b 91 3d 98 76 4f 3d e9 0d 2a 3c
       0.029286116 0.070884064 0.05065021 0.010379293
000080 0d 3e 34 3d 73 42 59 3d 6f 5e 27 3c 19 4f b1 3d
       0.04400449 0.053041887 0.010215386 0.08657665
000090 d6 4b 30 3d e9 cd 23 bd 84 c9 cf ba 55 9d 66 bc
       0.043041073 -0.039991293 -0.0015852903 -0.014075597
0000a0 ca e8 1a 3d 4a 74 89 bd 6b 8c 28 3d 94 37 42 b9
       0.03781966 -0.067116335 0.041149538 -0.00018521986
0000b0 29 36 57 bd 4a 30 41 3d f7 f0 a2 3d a4 c6 c3 3c
       -0.052541886 0.047165193 0.07956117 0.02389843
0000c0 75 6e 60 bc 89 d0 bf bc 61 58 0a bc 90 74 93 bd
       -0.01369821 -0.023414867 -0.008443923 -0.07199967
0000d0 ce 65 8c bc b0 8f 23 3d 95 35 86 3c 2e c2 d5 3c
       -0.017138388 0.039931953 0.016382972 0.026093569
0000e0 80 c4 49 3d fb 63 18 bd 5c df 1f 3c 95 f1 08 3d
       0.049259663 -0.037204724 0.009757843 0.033433516
0000f0 c7 24 18 3d cb 9b 71 3d c2 4d 0b be 4c af 7e 3c
       0.03714445 0.058986466 -0.13603881 0.015544724

encoder.blocks.0.attn.mask f4 [1, 1, 12, 12]
000000 00 00 80 3f 00 00 00 00 00 00 00 00 00 00 00 00
       1.0 0.0 0.0 0.0
000010 00 00 00 00 00 00 00 00 00 00 00 00 00 00 00 00
       0.0 0.0 0.0 0.0
000020 00 00 00 00 00 00 00 00 00 00 00 00 00 00 00 00
       0.0 0.0 0.0 0.0
000030 00 00 80 3f 00 00 80 3f 00 00 00 00 00 00 00 00
       1.0 1.0 0.0 0.0
000040 00 00 00 00 00 00 00 00 00 00 00 00 00 00 00 00
       0.0 0.0 0.0 0.0
000050 00 00 00 00 00 00 00 00 00 00 00 00 00 00 00 00
       0.0 0.0 0.0 0.0
000060 00 00 80 3f 00 00 80 3f 00 00 80 3f 00 00 00 00
       1.0 1.0 1.0 0.0
000070 00 00 00 00 00 00 00 00 00 00 00 00 00 00 00 00
       0.0 0.0 0.0 0.0
000080 00 00 00 00 00 00 00 00 00 00 00 00 00 00 00 00
       0.0 0.0 0.0 0.0
000090 00 00 80 3f 00 00 80 3f 00 00 80 3f 00 00 80 3f
       1.0 1.0 1.0 1.0
0000a0 00 00 00 00 00 00 00 00 00 00 00 00 00 00 00 00
       0.0 0.0 0.0 0.0
0000b0 00 00 00 00 00 00 00 00 00 00 00 00 00 00 00 00
       0.0 0.0 0.0 0.0
0000c0 00 00 80 3f 00 00 80 3f 00 00 80 3f 00 00 80 3f
       1.0 1.0 1.0 1.0
0000d0 00 00 80 3f 00 00 00 00 00 00 00 00 00 00 00 00
       1.0 0.0 0.0 0.0
0000e0 00 00 00 00 00 00 00 00 00 00 00 00 00 00 00 00
       0.0 0.0 0.0 0.0
0000f0 00 00 80 3f 00 00 80 3f 00 00 80 3f 00 00 80 3f
       1.0 1.0 1.0 1.0
000100 00 00 80 3f 00 00 80 3f 00 00 00 00 00 00 00 00
       1.0 1.0 0.0 0.0
000110 00 00 00 00 00 00 00 00 00 00 00 00 00 00 00 00
       0.0 0.0 0.0 0.0
000120 00 00 80 3f 00 00 80 3f 00 00 80 3f 00 00 80 3f
       1.0 1.0 1.0 1.0
000130 00 00 80 3f 00 00 80 3f 00 00 80 3f 00 00 00 00
       1.0 1.0 1.0 0.0
000140 00 00 00 00 00 00 00 00 00 00 00 00 00 00 00 00
       0.0 0.0 0.0 0.0
000150 00 00 80 3f 00 00 80 3f 00 00 80 3f 00 00 80 3f
       1.0 1.0 1.0 1.0
000160 00 00 80 3f 00 00 80 3f 00 00 80 3f 00 00 80 3f
       1.0 1.0 1.0 1.0
000170 00 00 00 00 00 00 00 00 00 00 00 00 00 00 00 00
       0.0 0.0 0.0 0.0
000180 00 00 80 3f 00 00 80 3f 00 00 80 3f 00 00 80 3f
       1.0 1.0 1.0 1.0
000190 00 00 80 3f 00 00 80 3f 00 00 80 3f 00 00 80 3f
       1.0 1.0 1.0 1.0
0001a0 00 00 80 3f 00 00 00 00 00 00 00 00 00 00 00 00
       1.0 0.0 0.0 0.0
0001b0 00 00 80 3f 00 00 80 3f 00 00 80 3f 00 00 80 3f
       1.0 1.0 1.0 1.0
0001c0 00 00 80 3f 00 00 80 3f 00 00 80 3f 00 00 80 3f
       1.0 1.0 1.0 1.0
0001d0 00 00 80 3f 00 00 80 3f 00 00 00 00 00 00 00 00
       1.0 1.0 0.0 0.0
0001e0 00 00 80 3f 00 00 80 3f 00 00 80 3f 00 00 80 3f
       1.0 1.0 1.0 1.0
0001f0 00 00 80 3f 00 00 80 3f 00 00 80 3f 00 00 80 3f
       1.0 1.0 1.0 1.0
000200 00 00 80 3f 00 00 80 3f 00 00 80 3f 00 00 00 00
       1.0 1.0 1.0 0.0
000210 00 00 80 3f 00 00 80 3f 00 00 80 3f 00 00 80 3f
       1.0 1.0 1.0 1.0
000220 00 00 80 3f 00 00 80 3f 00 00 80 3f 00 00 80 3f
       1.0 1.0 1.0 1.0
000230 00 00 80 3f 00 00 80 3f 00 00 80 3f 00 00 80 3f
       1.0 1.0 1.0 1.0
