trainer/results/football/11_vs_11_stochastic/mat/check/run1/models/transformer_500.pt (torch, 467816 bytes, 73 tensors)

encoder.state_encoder.0.weight f4 [37]
000000 00 00 80 3f 00 00 80 3f 00 00 80 3f 00 00 80 3f
       1.0 1.0 1.0 1.0
000010 00 00 80 3f 00 00 80 3f 00 00 80 3f 00 00 80 3f
       1.0 1.0 1.0 1.0
000020 00 00 80 3f 00 00 80 3f 00 00 80 3f 00 00 80 3f
       1.0 1.0 1.0 1.0
000030 00 00 80 3f 00 00 80 3f 00 00 80 3f 00 00 80 3f
       1.0 1.0 1.0 1.0
000040 00 00 80 3f 00 00 80 3f 00 00 80 3f 00 00 80 3f
       1.0 1.0 1.0 1.0
000050 00 00 80 3f 00 00 80 3f 00 00 80 3f 00 00 80 3f
       1.0 1.0 1.0 1.0
000060 00 00 80 3f 00 00 80 3f 00 00 80 3f 00 00 80 3f
       1.0 1.0 1.0 1.0
000070 00 00 80 3f 00 00 80 3f 00 00 80 3f 00 00 80 3f
       1.0 1.0 1.0 1.0
000080 00 00 80 3f 00 00 80 3f 00 00 80 3f 00 00 80 3f
       1.0 1.0 1.0 1.0
000090 00 00 80 3f
       1.0

encoder.state_encoder.0.bias f4 [37]
000000 00 00 00 00 00 00 00 00 00 00 00 00 00 00 00 00
       0.0 0.0 0.0 0.0
000010 00 00 00 00 00 00 00 00 00 00 00 00 00 00 00 00
       0.0 0.0 0.0 0.0
000020 00 00 00 00 00 00 00 00 00 00 00 00 00 00 00 00
       0.0 0.0 0.0 0.0
000030 00 00 00 00 00 00 00 00 00 00 00 00 00 00 00 00
       0.0 0.0 0.0 0.0
000040 00 00 00 00 00 00 00 00 00 00 00 00 00 00 00 00
       0.0 0.0 0.0 0.0
000050 00 00 00 00 00 00 00 00 00 00 00 00 00 00 00 00
       0.0 0.0 0.0 0.0
000060 00 00 00 00 00 00 00 00 00 00 00 00 00 00 00 00
       0.0 0.0 0.0 0.0
000070 00 00 00 00 00 00 00 00 00 00 00 00 00 00 00 00
       0.0 0.0 0.0 0.0
000080 00 00 00 00 00 00 00 00 00 00 00 00 00 00 00 00
       0.0 0.0 0.0 0.0
000090 00 00 00 00
       0.0

encoder.state_encoder.1.weight f4 [64, 37]
000000 53 32 ea 3e b7 63 44 3e ec 88 ef 3d 43 bc 0e bd
       0.4574152 0.19178663 0.11696038 -0.03484751
000010 92 7e ca bc 08 3b b7 3d b4 b2 99 3c be d0 be 3d
       -0.024718557 0.08946806 0.01876197 0.09317158
000020 51 bd 86 3e 00 85 8f bd ff 2f ad 3e eb 9c 72 bd
       0.26316312 -0.070077896 0.3382568 -0.05923168
000030 cd 41 04 be 27 d5 7b be 5b bf c9 bc d3 0f 0b 3e
       -0.12915726 -0.2459303 -0.024627378 0.13580255
000040 b4 04 23 be 7e 7f 35 be 5f 9f 29 3d 3b 04 b5 3c
       -0.15919763 -0.17724416 0.041411754 0.022096744
000050 d0 d0 38 3e 2e 5c fc 3d f4 76 9c bd 5d 8b bc be
       0.18048406 0.123222694 -0.07639876 -0.36825076
000060 65 f6 97 be ed 02 0c bd d0 e7 67 3d 35 f3 4d 3e
       -0.29680172 -0.034182478 0.056617558 0.20112307
000070 23 58 51 3d 3b b4 4d 3e fa 91 3c 3e 63 6b 9f bd
       0.051109444 0.20088284 0.1841506 -0.07784154
000080 84 52 b6 3c 09 25 02 bb 99 18 92 3c 60 f2 2b 3e
       0.022256143 -0.00198585 0.017833995 0.16791677
000090 8a 44 12 3e f6 12 81 3e 0b 9f 2f bb fa ba 15 3d
       0.14283958 0.2520978 -0.0026797678 0.036555268
0000a0 c5 82 af be 6a b0 56 3e a0 92 df 3d d4 0a 74 3d
       -0.34279457 0.20965734 0.109166384 0.05958064
0000b0 a6 b8 3a 3e 70 81 45 3e ed f7 61 3d 25 0f 86 3c
       0.182345 0.19287658 0.05516808 0.016364643
0000c0 92 a4 00 be ce d3 91 3e dc 4e c8 3c 95 42 b3 3e
       -0.12562779 0.28481907 0.024451666 0.35011736
0000d0 bf 87 2b be a0 83 8c be e7 ef bd 3d 0c 6e 1a 3c
       -0.16751002 -0.27444172 0.09274273 0.009425651
0000e0 63 27 10 be 1c e7 60 be 72 d1 35 3e 32 7c b9 bc
       -0.14077525 -0.21963161 0.17755678 -0.022642229
0000f0 fc 1a aa 3c 44 b0 31 3d be f0 b5 be b4 c4 32 be
       0.02076482 0.04338099 -0.35535234 -0.17457849
000100 24 83 cd 3d 20 d2 8d bd 12 c2 7c bd 35 1a a6 bd
       0.10034779 -0.06924844 -0.061708517 -0.08110467
000110 4c 0f 95 3e ca 3c 96 3d 50 80 4c be 70 22 0f bd
       0.29113233 0.07335813 -0.19970822 -0.03494495
000120 07 2e 84 bd cb f8 9f 3e 85 b7 7f 3d 8e 0d 33 be
       -0.064540915 0.312445 0.062430877 -0.1748564
000130 ef c7 20 3e f8 87 a8 3d 1d 9e ae bd e6 e3 2a be
       0.15701269 0.08229059 -0.085262515 -0.16688499
000140 ab 89 34 3d fb 10 6f be 37 45 6b 3c 2e 53 4d bd
       0.044076603 -0.23346321 0.014359764 -0.050128154
000150 7b 63 8d be 8b 8d b8 bd a9 ea 48 3e fc 9e ad 3e
       -0.2761496 -0.09011372 0.19620766 0.33910358
000160 7a 56 b3 3d 52 6a 4f 3e 8d c1 a6 3b d4 11 f3 3d
       0.087567285 0.20255402 0.005088991 0.11868635
000170 ad 49 5a 3d cb a9 30 3e 59 4c 63 3e 01 ca 6c 3d
       0.05329292 0.17252271 0.22197093 0.057809833
000180 e9 d0 06 bd cd 38 1f be 7a b2 8e be b1 98 97 3e
       -0.032914076 -0.15549012 -0.27870542 0.29608682
000190 45 4f 39 be 28 85 5f bd f6 3a 8b be ea ba 68 bd
       -0.18096645 -0.054570347 -0.2719342 -0.05681888
0001a0 52 bb b0 bd 99 a1 83 3e be c8 cd 3d 98 84 63 39
       -0.086294785 0.25709227 0.10048054 0.00021697802
0001b0 8f a1 67 3c 61 66 53 3e b8 ca 33 be 14 c6 87 3d
       0.01413764 0.20644523 -0.175578 0.06629577
0001c0 04 fc 0e bf eb d6 63 bd e4 f2 3c be de 27 88 3e
       -0.55853295 -0.055624884 -0.1845203 0.26592916
0001d0 6a 72 b4 bd 21 70 ed bc 87 42 9b be a6 98 65 bd
       -0.08810885 -0.028984131 -0.30324194 -0.05605378
0001e0 1a 78 82 3e e9 d8 bb bd 0b 39 97 bd 05 ae 8a be
       0.25482255 -0.09172232 -0.07383927 -0.2708589
0001f0 f2 08 43 3e 91 9c 99 3c 07 6f cb bb 91 c4 08 be
       0.19046381 0.018751414 -0.006208304 -0.13356234
000200 da 9e ff bd 30 98 c7 bd 74 44 6c 3d 48 af 82 3e
       -0.124814704 -0.09745824 0.05768247 0.25524354
000210 75 95 0f 3e b1 0b 16 be c5 ee 99 bd 24 f6 2a 3e
       0.14021857 -0.14652897 -0.07516245 0.16695458
000220 f5 2e 83 be ae 6d b8 3c fd b9 40 be d1 68 5f bd
       -0.25621763 0.022513237 -0.18820949 -0.05454332
000230 82 23 5e bd b1 15 44 be 90 16 85 bd c5 dc 15 3e
       -0.05423308 -0.191489 -0.06498444 0.14634998
000240 79 a7 7e 3e 37 c5 8d 3e 83 a1 b7 be f2 e3 46 be
       0.24868573 0.27689525 -0.3586541 -0.19422892
000250 9a 54 52 3e 2d 94 82 be 4b d8 bb 3e 2b 4a 62 bd
       0.20540085 -0.25503674 0.36688456 -0.055246513
000260 96 bb 41 bd 5e be 05 3e 50 b0 33 bd 03 9d b0 3d
       -0.047298037 0.130609 -0.043869317 0.086236976
000270 84 46 a7 bd 06 ba b4 3d de 1a 64 bc 01 93 65 ba
       -0.08167747 0.08824544 -0.013922421 -0.0008757562
000280 e4 76 94 be ef 20 89 be 75 4b fe bd 42 87 82 bb
       -0.28996956 -0.2678294 -0.12416736 -0.003983409
000290 8f f7 ab bd ab ab 3d be 1a 0e 16 be e8 06 0b bc
       -0.083968274 -0.18522517 -0.14653817 -0.008485533
0002a0 97 de 49 3e 18 50 c2 3c 72 3f 18 3d ba 21 18 be
       0.19713818 0.023719832 0.03716988 -0.14856616
0002b0 c6 ce f8 bd 0c 65 54 3c fa 7d 95 bd 2b 2b 40 bc
       -0.12148814 0.012963545 -0.07299419 -0.011729042
0002c0 bb c3 30 bd 60 cb c5 bd d4 b4 b9 bd 5a 95 bb be
       -0.043155413 -0.09657931 -0.09067693 -0.36637384
0002d0 99 af 90 be c5 5e bf be 6e c3 85 bd 1f 11 b6 3d
       -0.2825897 -0.3737699 -0.06531416 0.08889984
0002e0 61 8a 4b be 76 38 7f 3d 0e 06 32 3e 9c d3 12 bc
       -0.19877006 0.062309705 0.17385122 -0.008961584
0002f0 30 4b c5 3d 3a 24 5d 3e d9 91 f5 bd c5 61 83 3d
       0.096334815 0.2159585 -0.11990709 0.064151324
000300 ea c1 2f be c9 5a 90 be a7 da 55 3c e8 5f 25 3e
       -0.17163816 -0.28194264 0.013052619 0.16149867
000310 63 e3 17 3e bb 34 53 bd 92 c1 03 be dd 50 d5 be
       0.14832835 -0.05156396 -0.1286681 -0.41663256
000320 34 72 c4 3d 3d 77 eb bd 4e c9 5c 3d 8c 3b 86 bd
       0.09592095 -0.11497352 0.053902917 -0.065543264
000330 dd c7 8b 3e 66 21 dc bd ec 2a 23 bf 8c e8 46 be
       0.2730092 -0.10748558 -0.6373737 -0.19424647
000340 97 1a 84 bd 1f a1 a7 3d 42 86 f3 bd d1 fd 41 3d
       -0.06450384 0.08185028 -0.11890842 0.0473612
000350 d2 72 0f be 58 8c 9d bd df 51 14 be b2 8a 3e be
       -0.14008644 -0.07692784 -0.14484356 -0.18607596
000360 c1 17 32 3d ab b2 a5 3b 29 90 18 be 96 a9 cb 3d
       0.043479685 0.0050566993 -0.14898743 0.09944455
000370 e1 8e 36 bd e8 3e d2 3d 88 21 1b bd 55 66 90 3e
       -0.044569854 0.10265905 -0.037873775 0.28203073
000380 49 fe 8c 3d c3 74 0f bd 3e 44 b6 be ba 1f 82 3e
       0.068844385 -0.035023462 -0.3559894 0.2541483
000390 35 42 41 bb 50 4b 92 3d 32 72 15 3e 55 a6 60 3e
       -0.0029488925 0.07143271 0.14594343 0.2193845
0003a0 da 64 f6 bd 56 2c 2d bd 64 f8 ac bd 86 33 84 be
       -0.12030955 -0.04227861 -0.08445814 -0.2582056
0003b0 49 46 ca be 8e a9 41 3e bb 43 0f be 4a 59 b7 3c
       -0.39506748 0.18912336 -0.13990681 0.022381444
0003c0 23 f1 ff bc 7f 39 b2 3c 69 61 64 bc 2c 66 ba 3d
       -0.031242913 0.021755932 -0.01393924 0.09101519
0003d0 46 6c 0c 3e c8 96 03 3e ce e9 a0 bd ec 99 80 be
       0.13713178 0.12850487 -0.07857095 -0.25117433
0003e0 e3 92 59 be f6 5f 2f 3d 02 16 cd bd 39 96 00 3c
       -0.21247439 0.042816125 -0.10013963 0.007848316
0003f0 66 d9 04 bf 05 75 b2 3d 5b e7 17 be 3e ec 3d 3e
       -0.51894224 0.08713726 -0.14834349 0.1854715

encoder.state_encoder.1.bias f4 [64]
000000 00 00 00 00 00 00 00 00 00 00 00 00 00 00 00 00
       0.0 0.0 0.0 0.0
000010 00 00 00 00 00 00 00 00 00 00 00 00 00 00 00 00
       0.0 0.0 0.0 0.0
000020 00 00 00 00 00 00 00 00 00 00 00 00 00 00 00 00
       0.0 0.0 0.0 0.0
000030 00 00 00 00 00 00 00 00 00 00 00 00 00 00 00 00
       0.0 0.0 0.0 0.0
000040 00 00 00 00 00 00 00 00 00 00 00 00 00 00 00 00
       0.0 0.0 0.0 0.0
000050 00 00 00 00 00 00 00 00 00 00 00 00 00 00 00 00
       0.0 0.0 0.0 0.0
000060 00 00 00 00 00 00 00 00 00 00 00 00 00 00 00 00
       0.0 0.0 0.0 0.0
000070 00 00 00 00 00 00 00 00 00 00 00 00 00 00 00 00
       0.0 0.0 0.0 0.0
000080 00 00 00 00 00 00 00 00 00 00 00 00 00 00 00 00
       0.0 0.0 0.0 0.0
000090 00 00 00 00 00 00 00 00 00 00 00 00 00 00 00 00
       0.0 0.0 0.0 0.0
0000a0 00 00 00 00 00 00 00 00 00 00 00 00 00 00 00 00
       0.0 0.0 0.0 0.0
0000b0 00 00 00 00 00 00 00 00 00 00 00 00 00 00 00 00
       0.0 0.0 0.0 0.0
0000c0 00 00 00 00 00 00 00 00 00 00 00 00 00 00 00 00
       0.0 0.0 0.0 0.0
0000d0 00 00 00 00 00 00 00 00 00 00 00 00 00 00 00 00
       0.0 0.0 0.0 0.0
0000e0 00 00 00 00 00 00 00 00 00 00 00 00 00 00 00 00
       0.0 0.0 0.0 0.0
0000f0 00 00 00 00 00 00 00 00 00 00 00 00 00 00 00 00
       0.0 0.0 0.0 0.0

encoder.obs_encoder.0.weight f4 [217]
000000 d5 f3 6b 3f d1 16 7f 3f 91 b8 7f 3f 2c a0 7b 3f
       0.92168933 0.9964419 0.99891 0.9829128
000010 53 1e 75 3f c8 a1 70 3f 45 6c 77 3f 5a 53 73 3f
       0.95749396 0.9399686 0.9664958 0.9504906
000020 a3 63 74 3f e5 88 8d 3f 82 8d 82 3f 05 a8 90 3f
       0.95464534 1.1057402 1.0199435 1.1301275
000030 2a 5b 8a 3f 2b 78 76 3f 50 49 4a 3f 50 4b 4c 3f
       1.0809071 0.9627711 0.79018116 0.7980242
000040 fa 0d 88 3f a8 86 88 3f 8e 21 81 3f 69 c1 88 3f
       1.0629265 1.0666094 1.0088365 1.0684024
000050 3f e9 9d 3f ee 89 96 3f ed 6c 8a 3f c0 d2 81 3f
       1.2336806 1.1760843 1.0814492 1.0142441
000060 29 f9 9e 3f c8 a3 8b 3f a9 e2 84 3f e9 86 87 3f
       1.2419788 1.0909357 1.0381671 1.0588046
000070 e5 29 92 3f fb c6 96 3f 6d a0 9b 3f 2a 1b 8f 3f
       1.1419035 1.1779474 1.2158333 1.1180165
000080 85 7c 2c 3f 91 f6 93 3f 62 4b 92 3f 7b cf 93 3f
       0.673775 1.1559621 1.1429255 1.1547693
000090 3d 50 a8 3f b5 6f 7a 3f e5 35 49 3f 93 f0 0e 3f
       1.3149487 0.978267 0.7859786 0.5583584
0000a0 94 96 35 3f 4c d0 4a 3f fd 44 72 3f 26 d3 81 3f
       0.7093289 0.79224086 0.9463652 1.0142562
0000b0 20 1a 8d 3f f2 1f f4 3f 20 cb 4b 3f b5 c0 a2 3f
       1.1023598 1.9072249 0.7960682 1.271506
0000c0 56 a7 61 3f 6e 15 89 3f f2 b3 67 3f 14 58 5b 3f
       0.8814596 1.0709665 0.9050895 0.8568127
0000d0 2f c9 8b 3f fd 2e 09 3f 60 7e 3d 3f 67 52 42 3f
       1.0920771 0.53587323 0.7402096 0.75906986
0000e0 80 b5 73 3f c2 16 82 3f 3c 80 75 3f 46 7b 71 3f
       0.9519882 1.0163195 0.95898795 0.94328725
0000f0 95 b1 1a 3f bc b4 31 3f 4e 85 33 3f 5d 55 6b 3f
       0.6042722 0.69416404 0.7012528 0.9192713
000100 5e 79 7c 3f c3 73 7a 3f 6e 31 6b 3f fa d2 15 3f
       0.9862269 0.9783289 0.918723 0.5852505
000110 2e b8 3c 3f 71 60 48 3f 51 7d 71 3f 85 75 7a 3f
       0.73718536 0.7827216 0.9433184 0.9783557
000120 69 d8 80 3f a4 07 66 3f b4 e3 04 3f 21 e7 39 3f
       1.0066043 0.8985541 0.5190995 0.726183
000130 d0 62 38 3f 5e 3d 68 3f 2b 56 80 3f e3 54 6b 3f
       0.72025776 0.9071864 1.0026296 0.919264
000140 a1 b4 4d 3f 53 36 1a 3f d7 4b 31 3f 76 77 34 3f
       0.8035374 0.6023914 0.6925635 0.7049478
000150 e4 09 88 3f 64 14 80 3f 64 ff 7a 3f d9 2f 67 3f
       1.0628018 1.0006223 0.98045945 0.90307385
000160 a2 be 23 3f c8 ff 25 3f da 36 3d 3f 0a c8 72 3f
       0.6396276 0.64843416 0.7391182 0.94836485
000170 50 eb 80 3f 1c 9a 6a 3f 63 88 7a 3f fc c8 22 3f
       1.0071812 0.916414 0.9786436 0.6358793
000180 18 41 26 3f 8a 58 43 3f b7 24 7f 3f 98 cc 58 3f
       0.64943075 0.76306975 0.996654 0.84687185
000190 8b 7d 4c 3f f6 b6 63 3f 98 19 08 3f 8e 4f 28 3f
       0.79879063 0.8895105 0.5316405 0.6574639
0001a0 6f d9 3d 3f d6 0c 5b 3f 47 63 73 3f 23 97 4d 3f
       0.741599 0.8556646 0.9507336 0.8030874
0001b0 70 fb 3f 3f 64 50 f1 3e fa 9d 3b 3f e6 3f 41 3f
       0.7499304 0.47131646 0.7328793 0.75488126
0001c0 d1 ac 6b 3f 1b ea 82 3f db 57 7c 3f 0c 00 94 3f
       0.9206057 1.0227693 0.98571557 1.1562514
0001d0 37 3c 15 3f 34 42 3b 3f 91 01 3a 3f bf 55 9c 3f
       0.58295006 0.7314789 0.7265864 1.2213668
0001e0 78 66 6d 3f e5 4b 85 3f a0 31 88 3f c2 1c 85 3f
       0.9273448 1.0413786 1.0640144 1.0399401
0001f0 6b 17 7b 3f b5 c5 78 3f d9 13 8e 3f 4c 65 89 3f
       0.9808261 0.97176677 1.1099807 1.0734038
000200 8c 00 86 3f 13 08 86 3f 78 5f 81 3f 80 1b 84 3f
       1.0468917 1.0471214 1.010726 1.0320892
000210 f2 b2 38 3f 64 ff 76 3f 51 11 5b 3f d5 bc 49 3f
       0.7214805 0.96483445 0.855733 0.7880376
000220 e7 bc 52 3f 3d 47 54 3f 10 7a 86 3f ef 95 81 3f
       0.8231949 0.829212 1.0506 1.0123881
000230 a9 a2 81 3f 7c 9d 8a 3f d9 01 74 3f 7b 20 77 3f
       1.0127765 1.082931 0.9531532 0.96533936
000240 82 0a 71 3f 8f d5 79 3f e3 83 8c 3f 41 1e 77 3f
       0.9415666 0.9759149 1.0977749 0.9653054
000250 fa 6d 79 3f 91 cd 5d 3f 0b 43 51 3f f7 81 5f 3f
       0.97433436 0.86641794 0.81742924 0.87307686
000260 ee 3c 6e 3f f8 e8 80 3f 76 f8 87 3f 2e fe 8a 3f
       0.9306172 1.0071096 1.0622699 1.085882
000270 4c 11 5d 3f 7c 4e 2c 3f 10 b4 5a 3f 83 c8 5a 3f
       0.8635452 0.6730726 0.85431004 0.85462207
000280 7f e4 7a 3f f4 d9 84 3f d4 4a 7b 3f 48 dc 44 3f
       0.9800491 1.0379014 0.98161054 0.7689862
000290 8b 15 4d 3f f6 34 49 3f 33 e9 68 3f 00 d5 7a 3f
       0.80110997 0.78596437 0.90980834 0.9798126
0002a0 bf f7 71 3f c1 1c 80 3f 82 b1 3e 3f 0b 13 5f 3f
       0.94518656 1.0008775 0.74489605 0.8713843
0002b0 b9 c7 52 3f ac 7b 7c 3f c8 9d 7f 3f 54 08 79 3f
       0.82336 0.9862621 0.9985013 0.9727833
0002c0 e7 c1 89 3f ef b8 3e 3f 13 15 6e 3f c1 31 43 3f
       1.0762299 0.74500936 0.93000907 0.76247793
0002d0 cf 1f 68 3f 47 e3 82 3f 44 74 82 3f 4b eb 76 3f
       0.90673536 1.022561 1.0191731 0.9645278
0002e0 2c 9f 50 3f c8 15 4c 3f 4f 21 55 3f 83 a4 5e 3f
       0.81492877 0.79720736 0.8325395 0.86969775
0002f0 0a ec 82 3f 3b 95 7c 3f c1 b7 8b 3f 43 61 76 3f
       1.0228283 0.9866521 1.0915452 0.9624216
000300 de 7f 7b 3f e7 82 5d 3f 67 49 67 3f a4 f4 7a 3f
       0.98241985 0.86527866 0.9034638 0.9802954
000310 bb b8 75 3f 3d 4f 8b 3f 3e 9f 68 3f d7 33 7b 3f
       0.95985 1.0883557 0.90867984 0.98125976
000320 ac d0 59 3f c1 b6 6d 3f 47 34 82 3f 97 e4 83 3f
       0.85084033 0.92856985 1.0172204 1.0304135
000330 78 ea 8e 3f 34 04 6e 3f 58 60 53 3f a3 9a 80 3f
       1.1165304 0.92975163 0.82568884 1.0047191
000340 a9 3d 6b 3f 97 3e 81 3f 3e 32 79 3f bb 58 62 3f
       0.9189096 1.0097226 0.9734229 0.8841664
000350 1f 09 63 3f ef 72 76 3f 85 f6 57 3f 9f 41 6e 3f
       0.8868579 0.96269125 0.84360534 0.9306888
000360 7b 06 84 3f
       1.0314478

encoder.obs_encoder.0.bias f4 [217]
000000 7a a8 c0 bd 2e f0 30 bd 2a 06 c0 bb 14 4f 2b bc
       -0.09407134 -0.043197803 -0.00586011 -0.010455865
000010 c6 97 52 bd bf 47 7b bd cf eb 2a bd 81 da 49 bd
       -0.051414274 -0.06134772 -0.04172879 -0.049280647
000020 85 c7 93 bd 12 a7 41 3d 35 7c 84 3c 5e ff 47 3d
       -0.0721579 0.04727847 0.016172508 0.04882752
000030 c6 c4 46 3c d1 b0 d6 bc 39 1e 81 bd a9 ac c0 bc
       0.012131875 -0.02620736 -0.06304593 -0.02351983
000040 64 a4 fd 3c 00 41 63 3c a6 73 f5 3c fc 9e f3 3c
       0.030962177 0.013870478 0.029962372 0.029738896
000050 d1 87 4e ba 25 b0 5c 3d f0 ec 1f bd 2c 0a 0e bc
       -0.00078785146 0.053878922 -0.03904432 -0.008669417
000060 6e b9 15 3d 6f 7e 58 bc 90 f8 d8 3c f2 a2 d1 bb
       0.036553793 -0.013213738 0.026485711 -0.0063975984
000070 e4 88 ca 3c fe 72 7f 3d fe 13 cf 3c ad 8e 6f 3c
       0.024723478 0.062365524 0.025278088 0.014621419
000080 97 fd 14 3d ae cd 28 bd 76 3f df bc 2a b3 8f bc
       0.036374655 -0.041211776 -0.02725194 -0.017541487
000090 bf b9 e2 3c 92 11 85 3c e3 1b d6 3b ff 48 18 3d
       0.027676461 0.01624373 0.006534086 0.03717899
0000a0 68 2e 1a 3d 11 79 3b bd 3a f5 f8 bc 1d 71 b6 3c
       0.037641913 -0.045769755 -0.03039037 0.022270733
0000b0 33 1d 39 bc 50 50 95 3c ba 28 2c 3d f2 4f 98 3c
       -0.011298466 0.018226773 0.042031027 0.018592808
0000c0 a5 b9 20 bd c4 7c 21 b9 2c 83 3c bd 43 ca 87 3c
       -0.039239544 -0.00015400635 -0.046023533 0.016575938
0000d0 bd 37 5c 3c df b7 1f 3d 56 c8 6a 3d 03 e0 8d bd
       0.013441023 0.038993713 0.05731996 -0.069274925
0000e0 fe d3 26 bd 83 82 51 bc c5 75 ba 3b a6 3f aa 3c
       -0.040729515 -0.012787464 0.0056903088 0.020782303
0000f0 1b 22 c4 3b 2a 07 26 3d 03 c3 38 bd e0 27 31 bd
       0.005985511 0.040534176 -0.045107853 -0.04325092
000100 46 db 03 bd 5c 10 17 3d 5e 4e 3a 3c 94 3f 08 3c
       -0.032191537 0.036880836 0.011371223 0.008315939
000110 8a 45 be 3c 1b ac bd bb de 27 7e bd 10 5c e2 bb
       0.023226518 -0.005788339 -0.06204974 -0.0069079474
000120 0a 9b 06 bc ed 23 93 bb 24 35 12 bd a9 65 76 3c
       -0.008215675 -0.0044903667 -0.03569521 0.015038886
000130 97 42 88 bd 16 6e 8c bd 3b 87 2d bc 9c bc 4c 3d
       -0.06653326 -0.06856935 -0.0105913235 0.04998456
000140 ef fe 14 3b 29 0d 17 3d 31 d4 5a 3c e4 65 a1 bd
       0.002273496 0.036877785 0.013356254 -0.07880762
000150 5d 97 0e bd c7 10 68 bd d4 9b 1e 3b fc a4 b5 3c
       -0.03481232 -0.056656625 0.0024201768 0.022173397
000160 c4 4a a1 3c ca 54 54 3d 53 66 ae bd 52 3b 42 bd
       0.019688971 0.051838674 -0.085156105 -0.047419854
000170 50 d7 17 bd 36 cf 96 3d 6b 46 a1 3c 03 cc 8a 3c
       -0.037070572 0.07363741 0.019686898 0.016942983
000180 bd 2f 14 3d 09 6e cf bc bf cf 75 bd 9d c6 21 bd
       0.03617834 -0.025321024 -0.060012575 -0.039496053
000190 a7 e9 d5 3b 74 8f 09 3d 9e c5 ff 3c 5a 83 6e 3d
       0.0065280977 0.033584073 0.03122216 0.058230735
0001a0 0f a1 9c bd e6 23 34 bd 9b 43 18 bc be 70 bd 3c
       -0.07647907 -0.043979548 -0.009293462 0.023125049
0001b0 c5 82 8e bb 19 0f 18 3d ba b5 70 3d b9 96 38 bd
       -0.004349085 0.037123773 0.058767058 -0.045065615
0001c0 e2 42 5b bd 17 2f 3e 3b b1 e0 56 bb b4 fd 28 bc
       -0.05353058 0.0029019767 -0.0032787735 -0.010314394
0001d0 15 e4 c2 3c a9 dd 21 3d d2 f2 80 bd 93 79 ad bc
       0.023790399 0.039518032 -0.06296314 -0.021176135
0001e0 ea 66 50 bc f6 e5 88 bc 91 ee 79 bc e9 0d 17 3d
       -0.012719849 -0.016711216 -0.015254633 0.0368785
0001f0 15 c9 be bc f9 f5 68 3c 92 a8 4e bc 11 68 6a bc
       -0.023289243 0.014218801 -0.0126134325 -0.014307038
000200 11 46 bd 3a 46 ee 1b bd f8 d6 4d bd 20 ba f8 bc
       0.0014440437 -0.038069032 -0.05025384 -0.030362189
000210 3a d8 9b bd 53 9e 23 3d ab 86 48 3d 27 15 49 3d
       -0.07609601 0.03994591 0.048956554 0.049092438
000220 2a dd 7b 3d 5d d7 9e bd 02 53 19 bd 93 34 b6 bc
       0.061490215 -0.07755921 -0.037432678 -0.022241866
000230 de 10 3e bc 8e 92 da bc 41 a4 93 3b 7d df 1a 3d
       -0.011600701 -0.02668121 0.0045056646 0.03781079
000240 32 60 dd 3c bb b9 65 bc a4 f1 ca bb f1 cb 55 3d
       0.027023409 -0.014021332 -0.0061933566 0.052196447
000250 1c 13 6a bc 9a 02 54 3d 27 c1 43 3b e4 66 ec bc
       -0.014286783 0.051760294 0.0029869766 -0.028857656
000260 0a b7 0a bd 0a cc c1 bb e7 00 9f 3c cc 2f 79 bc
       -0.033865966 -0.005914216 0.01940961 -0.01520915
000270 ab 64 03 3d 3c 9e 1c 3d e7 17 aa bd 88 8a 35 bd
       0.032078426 0.03823684 -0.0830534 -0.044321567
000280 66 27 95 bc ae 00 35 3d ad 2d cd 3c 39 e8 88 3d
       -0.018207263 0.0441901 0.025046194 0.06684918
000290 84 0f 19 3d eb 01 97 bd 09 54 51 bd 58 13 09 bc
       0.037368312 -0.07373413 -0.051105533 -0.008366428
0002a0 ab 43 ec 3c 8e 16 75 3d 4b 00 dc 3c a6 71 b6 3c
       0.02884086 0.059835963 0.026855608 0.022270989
0002b0 8e 2d d9 bb 23 46 41 bd 5e b5 50 bd 88 e7 4c 3d
       -0.006627745 -0.04718603 -0.050954215 0.050025493
0002c0 8b 69 f7 3c 9b 51 b1 3d 8e 18 3d 3c 1a 0b d8 bd
       0.030201694 0.08658143 0.011541499 -0.105489925
0002d0 70 d6 2e bd bb 5b d8 bc 53 4b 3d 3d b6 5d 3c 39
       -0.042684972 -0.026410928 0.046214413 0.00017963987
0002e0 c6 0f e7 3c b7 aa 2e 3d 06 54 03 bd 35 cb 07 3a
       0.028205764 0.042643275 -0.032062553 0.00051801215
0002f0 4d 3e 99 3c fa 5c 2d 3d ee ed 44 3b c4 58 4a 3d
       0.018706465 0.042324997 0.0030049044 0.04940106
000300 5f 1f c3 bb c5 24 b6 bd 66 b8 31 bd 2d 10 2b bc
       -0.0059546675 -0.08893732 -0.043388747 -0.010440868
000310 01 b0 86 3d 8a b8 cf bb 6a 69 93 3d bc 23 d8 3c
       0.06576539 -0.0063391374 0.071978405 0.026384227
000320 9d 64 6b bd cd 5d a7 bd 75 d6 9a bc 6e 4c 20 3d
       -0.057469 -0.08172188 -0.01890109 0.03913539
000330 40 3d 4f bb 8e 75 52 3d d1 94 b0 3b 17 91 31 bc
       -0.0031622201 0.05138164 0.005388834 -0.010837815
000340 35 c3 7d bd 87 25 3f bb a2 88 32 3d 93 2a 09 3d
       -0.061953742 -0.0029166655 0.043587334 0.033487868
000350 3d 61 3c 3d 3c 39 e7 bb a5 8c 83 bd 15 a8 44 bd
       0.04599117 -0.0070563834 -0.0642331 -0.048011858
000360 6f 9f 1d bd
       -0.038482126

encoder.obs_encoder.1.weight f4 [64, 217]
000000 51 96 f3 3d 00 2e a8 3d 81 39 b3 bc 07 4e a6 3d
       0.11893905 0.08211899 -0.021878006 0.08120351
000010 1e b0 5d 3d 7b 50 86 3d 31 e0 6a 3e e0 a8 91 3d
       0.054123037 0.06558319 0.22937085 0.071122885
000020 ec 06 5d 3c 83 96 27 3e c9 b7 70 3d d1 01 15 3b
       0.01349042 0.1636601 0.05876902 0.0022736678
000030 87 b4 c0 bc 6e 42 c3 3d 4c ea 45 bd 54 f4 4c 3c
       -0.023523582 0.09534155 -0.048319146 0.012509424
000040 30 96 e2 3d c6 8c 58 bd 8c be d3 3c 63 7b ca bd
       0.11063802 -0.052868627 0.025847696 -0.098868154
000050 4b 21 9c bc 29 b9 f1 3d 68 bc 03 3e 1f 92 b8 3c
       -0.019058844 0.118028946 0.1286484 0.022530613
000060 b9 13 40 bd ee e3 b8 3c c0 9e 6a 3d 67 5e 79 3e
       -0.04689381 0.022569623 0.057280302 0.24352418
000070 55 4f ee 3d 6f 56 d3 3c cf 77 20 be d7 d9 8b 3c
       0.11636225 0.02579805 -0.15670703 0.017071648
000080 03 5f cf 3d 47 ec 82 3c af dc 1c be 7f e9 fa bb
       0.10125544 0.015981806 -0.15318559 -0.0076572294
000090 37 72 1a be 07 56 5d bd 2b b9 66 3b e9 db 4b bd
       -0.15082632 -0.05403712 0.0035205584 -0.04977027
0000a0 40 03 b2 3c 75 f9 b5 3d 61 16 08 3e 83 45 04 be
       0.021730065 0.08885471 0.13289787 -0.12917142
0000b0 52 be 28 bd 2f 70 e8 3c 9e 0c 45 3d e7 e5 5f 3d
       -0.04119713 0.028373806 0.048107736 0.05466261
0000c0 bf 5b d7 3d 7d 8c 65 3c ef 8a e9 3d 0d 96 cb bd
       0.10515546 0.014010546 0.114034526 -0.09940729
0000d0 86 4d 74 bc 18 91 da bd 2a 99 d6 3c a8 dc 55 3d
       -0.014911061 -0.10672206 0.026196081 0.052212387
0000e0 c3 c8 b5 3c 99 da 05 be b8 98 4f be 49 5e 63 3e
       0.022190457 -0.1307167 -0.20273101 0.22203936
0000f0 2f 35 a3 bd 38 31 4c bd b2 dc 09 3e 23 b8 09 3e
       -0.07969128 -0.049851626 0.13463095 0.13449149
000100 2d 4a 87 bc e1 25 95 bd c2 cb 60 bc a4 09 18 bc
       -0.016514862 -0.072826155 -0.013720455 -0.009279642
000110 18 8d 35 3e c8 b3 79 3d 22 48 58 bd b2 3e 39 be
       0.17729604 0.06096247 -0.052803166 -0.18090323
000120 b5 1f 1e be fe 4e 0c 3d b1 60 78 3d 19 ff 90 3c
       -0.15441783 0.03425502 0.060639087 0.017699765
000130 38 e4 db 3c fc b1 3f bd 32 60 7b be d9 5f 69 3d
       0.026842222 -0.0468006 -0.24548414 0.056976173
000140 41 d0 14 3e e8 8c ef bb 10 5a 8d 3d 6e a1 d5 3d
       0.14532568 -0.0073104985 0.06901944 0.10431181
000150 0e 26 21 3e c8 f1 29 be 69 af 58 3d 44 e2 f7 3d
       0.15737173 -0.16596138 0.05290166 0.121037036
000160 ed c1 3f 3e ae e7 ac bc 72 79 6d 3d 92 56 91 3d
       0.1872632 -0.021106567 0.057977147 0.0709659
000170 a8 ce 17 be 38 77 81 3c de 4f 4b bc c9 ef 84 bd
       -0.14824927 0.015803918 -0.012409179 -0.06491048
000180 b9 0a e4 bd 95 82 8b bb c6 13 0b 3e 5b 61 90 3c
       -0.11134858 -0.00425751 0.13581762 0.017624548
000190 88 8c 3d be a5 d6 55 3d 82 cd c5 bd 7f c0 1a bd
       -0.1851064 0.052206654 -0.09658338 -0.037781235
0001a0 5d 33 ba 3c 50 cd 21 be ca 41 06 be 39 d0 02 3e
       0.02272957 -0.15800977 -0.13111034 0.12774743
0001b0 c9 15 31 bd 1f 90 84 3d 3a 05 46 3c b5 2e 6a 3d
       -0.043233667 0.064728014 0.012086207 0.05717345
0001c0 ac 0b 5b 3d b3 e1 ff bd 21 c1 1c bc e1 ce ea bd
       0.053477928 -0.124942206 -0.00956753 -0.1146524
0001d0 fe 8c 3f bc a7 75 02 3c 46 fd cd 3c 59 8d 80 3e
       -0.01169133 0.007962621 0.025145184 0.2510784
0001e0 fb be 1e 3e ed 94 1b 3e c9 e3 a6 3d f5 2c c9 3e
       0.15502541 0.1519353 0.08148915 0.39292112
0001f0 a0 02 3f 3e 6d 51 39 3e 8d 7a 8e 3e e5 7c 6f 3d
       0.18653345 0.18097468 0.27827874 0.058468718
000200 94 f3 f0 3d 1d c4 be 3e 08 ef 96 bd dc a7 dd 3c
       0.11765209 0.37258998 -0.0736981 0.02705758
000210 59 c2 05 3e 59 85 97 bd da 52 1a 3d ff 2b 12 3c
       0.13062419 -0.07398481 0.03767667 0.008921622
000220 cb be 98 3c 9d bf 26 bd b6 1f c9 3c dd 14 8c bc
       0.018645665 -0.04071008 0.024551254 -0.017099792
000230 dd b5 0b 3e f4 7d f9 3d 54 54 0a 3e b4 da bf bc
       0.13643594 0.12182227 0.13508731 -0.023419715
000240 83 58 c3 bd 5b 65 ef 3d 96 ef f5 3d 45 fc fd bd
       -0.09538367 0.11689254 0.12008588 -0.12401632
000250 2a f4 ae bd 92 b8 07 bd 64 e8 00 be 0e a4 07 3c
       -0.08542664 -0.033135004 -0.1258865 0.00827886
000260 39 1b 75 3d 19 59 09 be b6 ad 5d be cb 80 23 be
       0.059840415 -0.13412894 -0.21648297 -0.159671
000270 db 7d 10 be 0c 00 2c bd 06 5b 6c bd 24 2d 5c 3d
       -0.1411051 -0.041992232 -0.057703994 0.053753987
000280 fa a8 cf 3c b5 c6 4a be 5b 96 64 b9 96 d9 a3 bd
       0.025349129 -0.19802363 -0.00021799786 -0.080004856
000290 75 c9 3b bb ba 7f 99 3d 3e 5d 88 bd 74 49 f3 bd
       -0.0028654013 0.07495065 -0.066584095 -0.118792444
0002a0 9f 97 41 3e 61 8c 4d bd 9d 0b 10 3e b4 2a d4 3c
       0.18905495 -0.050182704 0.1406693 0.025899269
0002b0 32 f2 f7 ba ce fa 20 3e 88 ac dd bc 5d ad df bd
       -0.0018916784 0.15720674 -0.027059808 -0.10921738
0002c0 3e 7e 00 3e 30 e0 cb bd 59 72 63 bd fe cc 0b be
       0.12548158 -0.0995487 -0.055528972 -0.13652417
0002d0 7b 8c 54 3d e2 1c 27 3c f2 5a db bb 54 85 07 bd
       0.051891785 0.010199757 -0.006694191 -0.033086136
0002e0 54 d3 7d 3d a8 ce 22 be d5 9e f7 3d 77 f6 d4 3c
       0.061969116 -0.15899146 0.12090842 0.02599643
0002f0 79 a0 60 3d 54 22 19 3e b6 b7 2b 3e bb b8 9c 3b
       0.05484054 0.14954501 0.16769299 0.004782764
000300 b1 cc 12 3e 20 d0 cd bc da 16 9f bd b7 cf 2e be
       0.14335896 -0.025123656 -0.077680305 -0.17071424
000310 89 4d 47 bd 3c 29 ac bd 07 da bd 3d 96 5e 7e be
       -0.048657928 -0.08406302 0.09270101 -0.24840769
000320 ae 0f c0 3b ea 46 3d bc 6e e6 de bb 3b ee a7 bd
       0.005861244 -0.011552552 -0.0068023717 -0.08199736
000330 42 63 a1 3d 3e 5a 19 3e 73 bf c2 bd b4 77 fc 3c
       0.0788026 0.14975831 -0.09509172 0.030818798
000340 b0 95 80 3b 69 93 f1 bd de c9 1e bc 10 ea dc bc
       0.003924094 -0.117956944 -0.009691684 -0.026967078
000350 5a 4c 2a be 35 39 c5 3b 87 32 31 be 64 64 01 bd
       -0.16630688 0.0060187825 -0.17304431 -0.03158988
000360 b7 d6 49 be ad ed 39 bc dd 04 0f bd b9 f1 9b bd
       -0.19710813 -0.01134817 -0.034916747 -0.07614464
000370 fb 87 9d 3d 4a a7 e9 bd fe f6 df 3d 2b c7 a7 3c
       0.07691952 -0.11408861 0.10935782 0.020480713
000380 52 96 8f bb e3 97 0b be 74 a6 20 be 1c f9 22 be
       -0.0043819332 -0.13632159 -0.15688497 -0.1591534
000390 11 dc a3 3d 8f 69 a2 3d f3 69 30 be c9 81 b1 bc
       0.08000959 0.0793029 -0.17227916 -0.021668332
0003a0 13 34 84 bd 27 22 b3 be c5 71 1a bd 28 02 df 3d
       -0.06455245 -0.34986994 -0.037706155 0.10889083
0003b0 54 14 72 bd 29 b6 f5 bd 46 32 3c be a9 e8 07 3e
       -0.059101418 -0.11997635 -0.18378553 0.13272347
0003c0 78 30 bf 3d d7 de 2e bd 76 4d a4 3c bc 9d 3d ba
       0.093354166 -0.042692985 0.020056468 -0.0007233282
0003d0 fe b4 60 be d1 52 16 be e0 20 92 3d 1a df 02 be
       -0.21944043 -0.1468003 0.07135177 -0.12780419
0003e0 0e 83 1a 3e 6a 58 2d 3d a1 3c ee 3c 91 de d0 3d
       0.15089056 0.042320646 0.029081644 0.10198701
0003f0 78 2c b9 3d b2 c2 60 be de 88 29 bd 47 9f 56 3c
       0.09041685 -0.2194927 -0.041390292 0.013099498

encoder.obs_encoder.1.bias f4 [64]
000000 ef 3e ad 3a 19 52 d5 bb 42 30 a2 ba 77 3d 98 3c
       0.0013217608 -0.006510031 -0.0012374001 0.018583996
000010 97 00 1c 3d 1a 53 82 3c c0 2e 1c ba dd 51 1c 3d
       0.0380865 0.015908767 -0.0005957894 0.03816401
000020 74 23 d1 3c e1 b3 2b 3d d7 39 83 3d 12 06 db 3a
       0.0255296 0.041919593 0.064075164 0.0016710183
000030 d4 53 ea bc 97 91 96 bc 49 f7 0b 3d a4 64 6b bb
       -0.028604425 -0.01837997 0.034171376 -0.003591814
000040 fa 68 50 ba 60 4d 79 3c 99 6b 0d 3d 7a 42 ce bb
       -0.0007950213 0.015216202 0.03452644 -0.0062945457
000050 fc 42 b5 bb 1a 6f 3c 3c b5 32 68 ba a7 9b 23 bc
       -0.005531667 0.011501098 -0.00088576536 -0.009985841
000060 78 a1 77 3c d9 aa 31 bd 7d 53 09 bc 80 d8 35 3d
       0.015114181 -0.043375824 -0.008381722 0.044395924
000070 7b be be 3c 96 81 af 3c 87 c1 7b 3c c2 58 13 3c
       0.023284188 0.021424096 0.015365965 0.0089933295
000080 42 5e c8 3c 01 c0 0a 3d 3b f7 54 3c d1 ad 26 3d
       0.024459008 0.033874515 0.012998397 0.040693108
000090 01 5a 91 3d 19 14 97 3c da b4 f7 bc 98 e8 97 3c
       0.07097245 0.0184422 -0.030237604 0.018543527
0000a0 31 0f 93 3c 31 93 8d bc 4d 74 f7 3c da df eb bc
       0.01795158 -0.0172821 0.030206824 -0.028793264
0000b0 f8 28 47 bb d0 8f 6c 3c ed c0 9c 3b 2c 39 da bc
       -0.003038941 0.014438584 0.0047837407 -0.02663859
0000c0 4c e1 07 bd bb 10 05 3d d4 9e c1 3c a0 e8 8a 3c
       -0.033173844 0.03248666 0.023635305 0.016956627
0000d0 a7 39 ec 3c d8 97 ef 3c b5 b2 0d 3d ee 29 9d bb
       0.028836085 0.02924721 0.034594256 -0.004796258
0000e0 6f f2 92 3c aa e4 74 bd 7f 62 c3 bc 92 41 01 3d
       0.017937867 -0.059788384 -0.023850678 0.031556673
0000f0 bd 0a 3b bd 3f c3 63 3c 7a bd 0f bc 93 ed f6 bc
       -0.045664538 0.013901531 -0.008773202 -0.030142581

encoder.ln.weight f4 [64]
000000 46 35 75 3f db 05 7a 3f 4c d8 71 3f bb f3 82 3f
       0.95784414 0.97665185 0.9447067 1.0230631
000010 f4 a7 80 3f 30 b1 71 3f 37 b9 85 3f 54 58 87 3f
       1.0051255 0.9441099 1.0447148 1.0573831
000020 bb df 83 3f 70 21 7f 3f bd 91 6a 3f eb 67 5d 3f
       1.0302652 0.99660397 0.9162863 0.8648669
000030 6b 53 7e 3f 45 fe 82 3f 20 1c 80 3f e6 81 72 3f
       0.99346036 1.0233847 1.0008583 0.9472946
000040 29 22 9e 3f 6a 4f 6d 3f 76 af 85 3f db 5e 74 3f
       1.2354175 0.926993 1.0444171 0.9545724
000050 d1 e8 82 3f 72 12 6c 3f 1b a1 64 3f 8c 7e 86 3f
       1.02273 0.92215645 0.8930833 1.0507369
000060 a3 97 82 3f 02 23 7c 3f 4c 1b 83 3f 6e 31 7b 3f
       1.0202526 0.9849092 1.0242705 0.981223
000070 b4 d1 76 3f c0 fd 8a 3f f2 c9 75 3f 43 f9 8c 3f
       0.9641373 1.0858688 0.9601127 1.1013569
000080 ce ae 78 3f bf 0a 84 3f 9c 71 71 3f b2 6a 80 3f
       0.9714173 1.031578 0.9431398 1.0032561
000090 39 f6 75 3f 6f 23 67 3f 1c f2 7a 3f 86 c6 84 3f
       0.9607883 0.9028844 0.9802568 1.0373085
0000a0 82 e9 87 3f d1 02 89 3f a8 f7 51 3f 92 06 84 3f
       1.0618136 1.0703984 0.8201852 1.0314505
0000b0 a7 ac 81 3f 20 00 83 3f 24 9f 85 3f 9a 5c 7e 3f
       1.0130814 1.0234413 1.0439191 0.9936005
0000c0 52 ea 81 3f 22 6b 88 3f ce 4a 87 3f 66 0e 87 3f
       1.0149634 1.0657694 1.0569704 1.0551269
0000d0 52 00 81 3f 35 7f 6f 3f cc bf 82 3f 8c 13 79 3f
       1.0078223 0.9355348 1.0214782 0.9729545
0000e0 d8 0f 81 3f dc f8 77 3f 3e 3e 78 3f 3e 72 80 3f
       1.008296 0.96864104 0.96969974 1.0034864
0000f0 61 8f 67 3f d7 33 73 3f 00 6e 85 3f cd 49 83 3f
       0.90453154 0.95000976 1.0424194 1.0256897

encoder.ln.bias f4 [64]
000000 24 5b b8 bc 73 1d 8a bc 28 73 c3 3b da 64 75 39
       -0.022504397 -0.016859746 0.0059646554 0.00023402591
000010 ce 3f ab 3c 65 67 75 3c c4 bf f9 bc 19 74 31 3c
       0.020904448 0.014978264 -0.030486949 0.0108309025
000020 6b 8f 51 3c d0 82 51 3c d0 c6 e0 3c b7 fb 9b 3b
       0.012790541 0.012787536 0.027438551 0.0047602314
000030 4b f3 19 bd 36 de 82 bc 4f 98 87 3c 7b 0c a8 3b
       -0.037585538 -0.015975099 0.016552119 0.005128441
000040 77 c7 a3 bc 93 60 0e bc eb 15 25 bc 5f d7 3b 3d
       -0.019992573 -0.008690017 -0.010076026 0.04585969
000050 af f5 9a bc 55 d7 51 3c 08 92 c6 3c fb 23 2b bd
       -0.01891598 0.012807687 0.024239555 -0.04178236
000060 7d 2b c7 bc ca da b2 3c 37 fe c0 bc 0d b8 a9 3b
       -0.024312729 0.021832842 -0.02355872 0.0051794113
000070 10 7c b7 3c 01 b0 28 3d e2 60 7e 3c aa 55 2a bc
       0.022398025 0.041183475 0.015526028 -0.0103964005
000080 6a 62 09 3d 14 44 14 3c 41 56 f8 bc 43 b6 b6 3c
       0.03354112 0.009049434 -0.030314567 0.022303706
000090 d8 d5 81 3d 97 f6 04 bc 22 a3 7e 3b 64 2c 01 3d
       0.063396156 -0.008115432 0.003885456 0.031536475
0000a0 16 bb 80 3c ee b0 97 bc 94 ac db bc 62 71 b1 bb
       0.01571421 -0.018516984 -0.02681569 -0.0054151276
0000b0 be 6f 3f bd ec 9c 9e 3c 1e bc 6a 3c 7d e6 d5 bb
       -0.046737425 0.019361936 0.014327077 -0.0065277205
0000c0 2e 9e 04 bd d9 37 29 3c 69 42 16 3c a2 e0 8c b9
       -0.032377414 0.0103282565 0.009171107 -0.00026870245
0000d0 d4 7a 0b bc 27 95 9d 3c 98 fe 70 3c de 15 28 3c
       -0.008513171 0.01923616 0.014709137 0.01025912
0000e0 39 6c b1 3c bf 54 ec 3c 90 73 c8 3c 37 b9 9c 3c
       0.02165805 0.028849004 0.024469167 0.019131286
0000f0 dd ee 43 3d d8 24 e9 3b 39 7c 33 bc 57 55 0b bb
       0.04783522 0.007114988 -0.01095491 -0.0021260583

encoder.blocks.0.ln1.weight f4 [64]
000000 5b 0e 7e 3f ab 54 84 3f 5b 82 7b 3f 97 25 6e 3f
       0.99240655 1.0338339 0.9824578 0.9302611
000010 2c 63 7f 3f 17 1d 7f 3f 9b b5 88 3f 2d 2d 80 3f
       0.997607 0.9965376 1.0680422 1.0013787
000020 63 bd 56 3f 22 2f 83 3f c8 89 77 3f 89 ea 3a 3f
       0.8388273 1.0248759 0.9669461 0.7301412
000030 5b 76 82 3f c8 c3 86 3f 58 b4 80 3f 25 1c 77 3f
       1.0192369 1.0528498 1.0055037 0.9652732
000040 d6 39 84 3f da 23 81 3f 46 09 85 3f b2 76 74 3f
       1.033015 1.0089066 1.0393455 0.95493615
000050 8f 35 67 3f 48 ed 6c 3f 85 a7 67 3f b2 23 88 3f
       0.903161 0.9254956 0.9048999 1.0635893
000060 45 87 85 3f 83 d6 7f 3f bd 68 86 3f e7 c3 75 3f
       1.0431906 0.99936694 1.0500714 0.9600205
000070 e3 11 80 3f 90 9f 8e 3f 8a 1c 79 3f 0b bf 8a 3f
       1.0005459 1.1142445 0.9730917 1.0839552
000080 fb d0 73 3f 4b 0c 86 3f 90 73 7f 3f cd 44 83 3f
       0.95240754 1.0472502 0.9978571 1.0255371
000090 33 08 75 3f 8b 5a 74 3f fa 6c 77 3f 5f c7 82 3f
       0.95715636 0.9545066 0.9665066 1.0217093
0000a0 4c 09 86 3f 77 81 89 3f 31 11 66 3f 11 61 85 3f
       1.0471587 1.0742635 0.8986998 1.0420247
0000b0 4a 9c 83 3f 95 ea 83 3f 5d d7 84 3f e6 89 67 3f
       1.0282071 1.0305964 1.0378224 0.9044479
0000c0 0c 4b 86 3f a3 da 8f 3f 00 cd 82 3f d6 3a 86 3f
       1.0491652 1.1238598 1.0218811 1.0486705
0000d0 e3 6a 88 3f 85 74 5c 3f 71 60 7e 3f 78 9a 7a 3f
       1.0657619 0.86115295 0.9936591 0.9789195
0000e0 e6 fc 81 3f cf 21 76 3f 7b 01 79 3f 94 8b 6b 3f
       1.0155303 0.9614534 0.97267884 0.92009854
0000f0 a4 29 6d 3f b9 86 7f 3f 4c 15 80 3f 78 cc 7e 3f
       0.92641664 0.99814945 1.0006499 0.99530745

encoder.blocks.0.ln1.bias f4 [64]
000000 ad 2f 51 bc 21 4e a0 bc 7f 5d c2 3c 77 a2 c7 bc
       -0.012767714 -0.019568505 0.023726223 -0.024369461
000010 f4 63 fa 3c b0 f7 64 3c 3c a7 ff bc 0a 5d 7a 3b
       0.03056524 0.013975069 -0.031207673 0.0038202428
000020 95 f0 f1 3c 9d 77 a1 3b b7 de 15 3d f6 4c 7b 3d
       0.029533664 0.004927589 0.03658935 0.061352693
000030 3f 07 bc bc 53 40 6b bc 8f 68 d6 ba 0f d5 f9 3c
       -0.022952674 -0.014358598 -0.0016358065 0.030497102
000040 18 bd f8 bc 34 f0 50 3b 1e 54 8f bb fc e0 37 3d
       -0.030363604 0.0031881453 -0.004374041 0.044892296
000050 14 70 9c bc 0b cd 9b bb d3 59 00 3d b5 1f 3c bd
       -0.019096412 -0.0047546676 0.031335663 -0.045928676
000060 d8 be 4c bd 6d 5c 49 3b cd 50 3c bc 69 fe cd 3c
       -0.04998669 0.0030725256 -0.011493874 0.025145726
000070 a0 e8 75 3a d4 67 91 3d a7 61 2b bc b2 26 b7 bc
       0.0009380672 0.07099882 -0.010460294 -0.022357319
000080 12 5e bb 3c 6b 1d de 3c 29 41 39 bc 8e fa 87 3c
       0.022872005 0.027113637 -0.011307039 0.016598966
000090 f8 ea 62 3d 35 8c 76 bc 24 00 62 3b 8b ff 0d 3d
       0.055399865 -0.015048076 0.0034484947 0.034667533
0000a0 87 d7 0d 3c 71 be 34 bd 8e a9 9c bb f8 e5 bc 3b
       0.008657343 -0.04412693 -0.0047809547 0.005764719
0000b0 6a c1 32 bd 9f 25 c1 3c 3b 9b 31 3d ac e8 ed 3c
       -0.043641485 0.02357751 0.04336093 0.02904161
0000c0 0c cd 8a bc 44 93 bb bb 25 d5 48 3c 15 1a c9 bc
       -0.016943477 -0.0057243425 0.012257849 -0.02454857
0000d0 14 57 25 bc a6 6b c9 3c 49 0d 11 3d d3 c9 5a 3c
       -0.010091562 0.024587464 0.03541306 0.013353783
0000e0 73 4e e3 3c 76 1f 46 3d ba 25 d8 3c 8b bb 11 bb
       0.027747368 0.048369847 0.026385177 -0.0022237028
0000f0 32 e6 10 3d b3 71 d3 3a 2f 3f 01 bb 86 38 bc 3b
       0.03537578 0.0016131907 -0.0019721498 0.005744043

encoder.blocks.0.ln2.weight f4 [64]
000000 35 5e 7c 3f ce d5 75 3f 9b 59 76 3f 58 9f 81 3f
       0.9858125 0.96029365 0.9623048 1.0126753
000010 e7 14 72 3f 2b 8d 84 3f c9 2f 85 3f 69 ef 81 3f
       0.94563144 1.0355581 1.0405208 1.0151187
000020 4d e5 62 3f 32 cb 85 3f c6 77 7b 3f a0 dc 66 3f
       0.88631135 1.0452635 0.98229635 0.901804
000030 af 4d 7f 3f cc 5c 85 3f db e9 7c 3f 1c db 7f 3f
       0.9972791 1.0418944 0.98794335 0.9994371
000040 00 0f 7a 3f e4 cb 7d 3f a5 f8 82 3f 5e 44 71 3f
       0.9767914 0.9913924 1.023213 0.94244945
000050 30 f4 6d 3f f6 7b 7c 3f 54 4b 74 3f d6 dc 87 3f
       0.92950726 0.9862665 0.9542744 1.0614269
000060 a4 6b 81 3f c5 f2 79 3f ab ee 88 3f ad 30 6b 3f
       1.0110974 0.9763606 1.0697836 0.9187115
000070 b7 ec 7a 3f 20 e8 89 3f da 90 73 3f ae cd 83 3f
       0.9801745 1.0773964 0.951429 1.0297143
000080 5e 12 75 3f c4 be 85 3f 97 1d 65 3f b7 ed 87 3f
       0.9573115 1.0448842 0.89498276 1.061942
000090 f5 7d 82 3f b3 07 6f 3f 34 7a 74 3f 57 7f 8a 3f
       1.0194689 0.93371123 0.9549897 1.0820111
0000a0 a4 f0 8b 3f 3f c2 8a 3f 92 c1 73 3f 2e 98 81 3f
       1.0932813 1.0840529 0.9521724 1.0124567
0000b0 51 30 83 3f 9e 66 83 3f c1 23 87 3f e3 93 71 3f
       1.024912 1.0265691 1.0557786 0.9436628
0000c0 86 0e 82 3f 1f e6 86 3f b9 98 85 3f 1f d9 8f 3f
       1.0160682 1.0538977 1.0437232 1.1238135
0000d0 84 83 83 3f 1c 4c 5f 3f 8d 68 75 3f 88 e1 66 3f
       1.027451 0.8722551 0.95862657 0.90187883
0000e0 48 4c 7d 3f 51 3f 85 3f 56 86 78 3f f3 92 7b 3f
       0.9894452 1.0409948 0.9707998 0.982711
0000f0 88 4b 6a 3f 43 91 7e 3f 6b 1c 8a 3f 5e 4b 81 3f
       0.915215 0.994404 1.0789922 1.0101125

encoder.blocks.0.ln2.bias f4 [64]
000000 b8 a5 7d 3b a2 43 97 bb 49 15 e0 3c a7 2e ee bc
       0.0038703512 -0.0046162168 0.0273539 -0.02907498
000010 cd eb d9 3c 85 bb 81 bb c1 c5 20 bd 19 52 cf 3b
       0.026601696 -0.0039591216 -0.039251093 0.0063269255
000020 bb f0 04 bd c6 ea 06 3d dd 04 9c 3c 17 58 13 3c
       -0.03245614 0.03293874 0.019045288 0.00899317
000030 c6 f3 06 bc aa 02 5f 3a 51 c0 63 bb 7c b4 2a 3d
       -0.008236831 0.0008507172 -0.003475208 0.04167603
000040 28 ab 3d bd e5 30 6b bc 0d f5 f1 bb c2 1d 1d ba
       -0.046305805 -0.014354919 -0.0073839487 -0.0005993509
000050 b0 20 71 bd 91 a3 d0 3c d7 f8 01 bc 7e d6 77 bd
       -0.058869064 0.02546862 -0.007932863 -0.06050729
000060 89 01 f9 bc c8 a0 61 bb 8e fa 6b bb d5 a1 9c bc
       -0.03039624 -0.0034428108 -0.0036007497 -0.019120136
000070 01 69 f0 3b e9 c1 de 3c c9 d8 9d 3c 22 49 17 bc
       0.007336736 0.027192073 0.01926841 -0.009233745
000080 1c bd 2a 3c 1b 4d 37 3d c2 9f ff bb f1 6a 03 3d
       0.010421064 0.044751268 -0.007801027 0.03208441
000090 7c 0a 32 3c 62 bb 47 bc 7b b9 12 3c 75 eb a5 bb
       0.0108667575 -0.012190672 0.008955355 -0.005063469
0000a0 ad f6 06 3c 2d d7 65 bd 80 63 81 3c bf 89 8d 3b
       0.008237523 -0.05611341 0.015794516 0.004319399
0000b0 1d e5 fb bc e0 e2 a0 3c 4b 61 10 3d eb db 86 3b
       -0.030748898 0.019639432 0.035249036 0.0041155717
0000c0 f3 c7 67 bc 52 21 42 bc d1 50 71 bc ee 13 45 bd
       -0.014146793 -0.0118487645 -0.014728741 -0.04811471
0000d0 75 d4 31 bc 82 c4 ba 3c ca b8 9d 3b 11 ab 93 3c
       -0.010853876 0.02279878 0.0048132883 0.018025907
0000e0 42 31 22 3d ab 8a f7 bb a0 2b cc 3c 80 96 1f 3c
       0.039597757 -0.0075543723 0.024923146 0.009740472
0000f0 3a 96 29 3d 11 16 a0 3c 7d b9 3e bd b0 c0 99 3c
       0.041403033 0.019541772 -0.046563614 0.018768638

encoder.blocks.0.attn.mask f4 [1, 1, 12, 12]
000000 00 00 80 3f 00 00 00 00 00 00 00 00 00 00 00 00
       1.0 0.0 0.0 0.0
000010 00 00 00 00 00 00 00 00 00 00 00 00 00 00 00 00
       0.0 0.0 0.0 0.0
000020 00 00 00 00 00 00 00 00 00 00 00 00 00 00 00 00
       0.0 0.0 0.0 0.0
000030 00 00 80 3f 00 00 80 3f 00 00 00 00 00 00 00 00
       1.0 1.0 0.0 0.0
000040 00 00 00 00 00 00 00 00 00 00 00 00 00 00 00 00
       0.0 0.0 0.0 0.0
000050 00 00 00 00 00 00 00 00 00 00 00 00 00 00 00 00
       0.0 0.0 0.0 0.0
000060 00 00 80 3f 00 00 80 3f 00 00 80 3f 00 00 00 00
       1.0 1.0 1.0 0.0
000070 00 00 00 00 00 00 00 00 00 00 00 00 00 00 00 00
       0.0 0.0 0.0 0.0
000080 00 00 00 00 00 00 00 00 00 00 00 00 00 00 00 00
       0.0 0.0 0.0 0.0
000090 00 00 80 3f 00 00 80 3f 00 00 80 3f 00 00 80 3f
       1.0 1.0 1.0 1.0
0000a0 00 00 00 00 00 00 00 00 00 00 00 00 00 00 00 00
       0.0 0.0 0.0 0.0
0000b0 00 00 00 00 00 00 00 00 00 00 00 00 00 00 00 00
       0.0 0.0 0.0 0.0
0000c0 00 00 80 3f 00 00 80 3f 00 00 80 3f 00 00 80 3f
       1.0 1.0 1.0 1.0
0000d0 00 00 80 3f 00 00 00 00 00 00 00 00 00 00 00 00
       1.0 0.0 0.0 0.0
0000e0 00 00 00 00 00 00 00 00 00 00 00 00 00 00 00 00
       0.0 0.0 0.0 0.0
0000f0 00 00 80 3f 00 00 80 3f 00 00 80 3f 00 00 80 3f
       1.0 1.0 1.0 1.0
000100 00 00 80 3f 00 00 80 3f 00 00 00 00 00 00 00 00
       1.0 1.0 0.0 0.0
000110 00 00 00 00 00 00 00 00 00 00 00 00 00 00 00 00
       0.0 0.0 0.0 0.0
000120 00 00 80 3f 00 00 80 3f 00 00 80 3f 00 00 80 3f
       1.0 1.0 1.0 1.0
000130 00 00 80 3f 00 00 80 3f 00 00 80 3f 00 00 00 00
       1.0 1.0 1.0 0.0
000140 00 00 00 00 00 00 00 00 00 00 00 00 00 00 00 00
       0.0 0.0 0.0 0.0
000150 00 00 80 3f 00 00 80 3f 00 00 80 3f 00 00 80 3f
       1.0 1.0 1.0 1.0
000160 00 00 80 3f 00 00 80 3f 00 00 80 3f 00 00 80 3f
       1.0 1.0 1.0 1.0
000170 00 00 00 00 00 00 00 00 00 00 00 00 00 00 00 00
       0.0 0.0 0.0 0.0
000180 00 00 80 3f 00 00 80 3f 00 00 80 3f 00 00 80 3f
       1.0 1.0 1.0 1.0
000190 00 00 80 3f 00 00 80 3f 00 00 80 3f 00 00 80 3f
       1.0 1.0 1.0 1.0
0001a0 00 00 80 3f 00 00 00 00 00 00 00 00 00 00 00 00
       1.0 0.0 0.0 0.0
0001b0 00 00 80 3f 00 00 80 3f 00 00 80 3f 00 00 80 3f
       1.0 1.0 1.0 1.0
0001c0 00 00 80 3f 00 00 80 3f 00 00 80 3f 00 00 80 3f
       1.0 1.0 1.0 1.0
0001d0 00 00 80 3f 00 00 80 3f 00 00 00 00 00 00 00 00
       1.0 1.0 0.0 0.0
0001e0 00 00 80 3f 00 00 80 3f 00 00 80 3f 00 00 80 3f
       1.0 1.0 1.0 1.0
0001f0 00 00 80 3f 00 00 80 3f 00 00 80 3f 00 00 80 3f
       1.0 1.0 1.0 1.0
000200 00 00 80 3f 00 00 80 3f 00 00 80 3f 00 00 00 00
       1.0 1.0 1.0 0.0
000210 00 00 80 3f 00 00 80 3f 00 00 80 3f 00 00 80 3f
       1.0 1.0 1.0 1.0
000220 00 00 80 3f 00 00 80 3f 00 00 80 3f 00 00 80 3f
       1.0 1.0 1.0 1.0
000230 00 00 80 3f 00 00 80 3f 00 00 80 3f 00 00 80 3f
       1.0 1.0 1.0 1.0
