trainer/results/football/11_vs_11_stochastic/mat/check/run1/models/transformer_800.pt (torch, 467816 bytes, 73 tensors)

encoder.state_encoder.0.weight f4 [37]
1.0 1.0 1.0 1.0 1.0 1.0 1.0 1.0
1.0 1.0 1.0 1.0 1.0 1.0 1.0 1.0
1.0 1.0 1.0 1.0 1.0 1.0 1.0 1.0
1.0 1.0 1.0 1.0 1.0 1.0 1.0 1.0
1.0 1.0 1.0 1.0 1.0
00000000: 0000 803f 0000 803f 0000 803f 0000 803f
00000010: 0000 803f 0000 803f 0000 803f 0000 803f
00000020: 0000 803f 0000 803f 0000 803f 0000 803f
00000030: 0000 803f 0000 803f 0000 803f 0000 803f
00000040: 0000 803f 0000 803f 0000 803f 0000 803f
00000050: 0000 803f 0000 803f 0000 803f 0000 803f
00000060: 0000 803f 0000 803f 0000 803f 0000 803f
00000070: 0000 803f 0000 803f 0000 803f 0000 803f
00000080: 0000 803f 0000 803f 0000 803f 0000 803f
00000090: 0000 803f

encoder.state_encoder.0.bias f4 [37]
0.0 0.0 0.0 0.0 0.0 0.0 0.0 0.0
0.0 0.0 0.0 0.0 0.0 0.0 0.0 0.0
0.0 0.0 0.0 0.0 0.0 0.0 0.0 0.0
0.0 0.0 0.0 0.0 0.0 0.0 0.0 0.0
0.0 0.0 0.0 0.0 0.0
00000000: 0000 0000 0000 0000 0000 0000 0000 0000
00000010: 0000 0000 0000 0000 0000 0000 0000 0000
00000020: 0000 0000 0000 0000 0000 0000 0000 0000
00000030: 0000 0000 0000 0000 0000 0000 0000 0000
00000040: 0000 0000 0000 0000 0000 0000 0000 0000
00000050: 0000 0000 0000 0000 0000 0000 0000 0000
00000060: 0000 0000 0000 0000 0000 0000 0000 0000
00000070: 0000 0000 0000 0000 0000 0000 0000 0000
00000080: 0000 0000 0000 0000 0000 0000 0000 0000
00000090: 0000 0000

encoder.state_encoder.1.weight f4 [64, 37]
0.4574152 0.19178663 0.11696038 -0.03484751 -0.024718557 0.08946806 0.01876197 0.09317158
0.26316312 -0.070077896 0.3382568 -0.05923168 -0.12915726 -0.2459303 -0.024627378 0.13580255
-0.15919763 -0.17724416 0.041411754 0.022096744 0.18048406 0.123222694 -0.07639876 -0.36825076
-0.29680172 -0.034182478 0.056617558 0.20112307 0.051109444 0.20088284 0.1841506 -0.07784154
0.022256143 -0.00198585 0.017833995 0.16791677 0.14283958 0.2520978 -0.0026797678 0.036555268
-0.34279457 0.20965734 0.109166384 0.05958064 0.182345 0.19287658 0.05516808 0.016364643
-0.12562779 0.28481907 0.024451666 0.35011736 -0.16751002 -0.27444172 0.09274273 0.009425651
-0.14077525 -0.21963161 0.17755678 -0.022642229 0.02076482 0.04338099 -0.35535234 -0.17457849
0.10034779 -0.06924844 -0.061708517 -0.08110467 0.29113233 0.07335813 -0.19970822 -0.03494495
-0.064540915 0.312445 0.062430877 -0.1748564 0.15701269 0.08229059 -0.085262515 -0.16688499
0.044076603 -0.23346321 0.014359764 -0.050128154 -0.2761496 -0.09011372 0.19620766 0.33910358
0.087567285 0.20255402 0.005088991 0.11868635 0.05329292 0.17252271 0.22197093 0.057809833
-0.032914076 -0.15549012 -0.27870542 0.29608682 -0.18096645 -0.054570347 -0.2719342 -0.05681888
-0.086294785 0.25709227 0.10048054 0.00021697802 0.01413764 0.20644523 -0.175578 0.06629577
-0.55853295 -0.055624884 -0.1845203 0.26592916 -0.08810885 -0.028984131 -0.30324194 -0.05605378
0.25482255 -0.09172232 -0.07383927 -0.2708589 0.19046381 0.018751414 -0.006208304 -0.13356234
-0.124814704 -0.09745824 0.05768247 0.25524354 0.14021857 -0.14652897 -0.07516245 0.16695458
-0.25621763 0.022513237 -0.18820949 -0.05454332 -0.05423308 -0.191489 -0.06498444 0.14634998
0.24868573 0.27689525 -0.3586541 -0.19422892 0.20540085 -0.25503674 0.36688456 -0.055246513
-0.047298037 0.130609 -0.043869317 0.086236976 -0.08167747 0.08824544 -0.013922421 -0.0008757562
-0.28996956 -0.2678294 -0.12416736 -0.003983409 -0.083968274 -0.18522517 -0.14653817 -0.008485533
0.19713818 0.023719832 0.03716988 -0.14856616 -0.12148814 0.012963545 -0.07299419 -0.011729042
-0.043155413 -0.09657931 -0.09067693 -0.36637384 -0.2825897 -0.3737699 -0.06531416 0.08889984
-0.19877006 0.062309705 0.17385122 -0.008961584 0.096334815 0.2159585 -0.11990709 0.064151324
-0.17163816 -0.28194264 0.013052619 0.16149867 0.14832835 -0.05156396 -0.1286681 -0.41663256
0.09592095 -0.11497352 0.053902917 -0.065543264 0.2730092 -0.10748558 -0.6373737 -0.19424647
-0.06450384 0.08185028 -0.11890842 0.0473612 -0.14008644 -0.07692784 -0.14484356 -0.18607596
0.043479685 0.0050566993 -0.14898743 0.09944455 -0.044569854 0.10265905 -0.037873775 0.28203073
0.068844385 -0.035023462 -0.3559894 0.2541483 -0.0029488925 0.07143271 0.14594343 0.2193845
-0.12030955 -0.04227861 -0.08445814 -0.2582056 -0.39506748 0.18912336 -0.13990681 0.022381444
-0.031242913 0.021755932 -0.01393924 0.09101519 0.13713178 0.12850487 -0.07857095 -0.25117433
-0.21247439 0.042816125 -0.10013963 0.007848316 -0.51894224 0.08713726 -0.14834349 0.1854715
00000000: 5332 ea3e b763 443e ec88 ef3d 43bc 0ebd
00000010: 927e cabc 083b b73d b4b2 993c bed0 be3d
00000020: 51bd 863e 0085 8fbd ff2f ad3e eb9c 72bd
00000030: cd41 04be 27d5 7bbe 5bbf c9bc d30f 0b3e
00000040: b404 23be 7e7f 35be 5f9f 293d 3b04 b53c
00000050: d0d0 383e 2e5c fc3d f476 9cbd 5d8b bcbe
00000060: 65f6 97be ed02 0cbd d0e7 673d 35f3 4d3e
00000070: 2358 513d 3bb4 4d3e fa91 3c3e 636b 9fbd
00000080: 8452 b63c 0925 02bb 9918 923c 60f2 2b3e
00000090: 8a44 123e f612 813e 0b9f 2fbb faba 153d
000000a0: c582 afbe 6ab0 563e a092 df3d d40a 743d
000000b0: a6b8 3a3e 7081 453e edf7 613d 250f 863c
000000c0: 92a4 00be ced3 913e dc4e c83c 9542 b33e
000000d0: bf87 2bbe a083 8cbe e7ef bd3d 0c6e 1a3c
000000e0: 6327 10be 1ce7 60be 72d1 353e 327c b9bc
000000f0: fc1a aa3c 44b0 313d bef0 b5be b4c4 32be
00000100: 2483 cd3d 20d2 8dbd 12c2 7cbd 351a a6bd
00000110: 4c0f 953e ca3c 963d 5080 4cbe 7022 0fbd
00000120: 072e 84bd cbf8 9f3e 85b7 7f3d 8e0d 33be
00000130: efc7 203e f887 a83d 1d9e aebd e6e3 2abe
00000140: ab89 343d fb10 6fbe 3745 6b3c 2e53 4dbd
00000150: 7b63 8dbe 8b8d b8bd a9ea 483e fc9e ad3e
00000160: 7a56 b33d 526a 4f3e 8dc1 a63b d411 f33d
00000170: ad49 5a3d cba9 303e 594c 633e 01ca 6c3d
00000180: e9d0 06bd cd38 1fbe 7ab2 8ebe b198 973e
00000190: 454f 39be 2885 5fbd f63a 8bbe eaba 68bd
000001a0: 52bb b0bd 99a1 833e bec8 cd3d 9884 6339
000001b0: 8fa1 673c 6166 533e b8ca 33be 14c6 873d
000001c0: 04fc 0ebf ebd6 63bd e4f2 3cbe de27 883e
000001d0: 6a72 b4bd 2170 edbc 8742 9bbe a698 65bd
000001e0: 1a78 823e e9d8 bbbd 0b39 97bd 05ae 8abe
000001f0: f208 433e 919c 993c 076f cbbb 91c4 08be
00000200: da9e ffbd 3098 c7bd 7444 6c3d 48af 823e
00000210: 7595 0f3e b10b 16be c5ee 99bd 24f6 2a3e
00000220: f52e 83be ae6d b83c fdb9 40be d168 5fbd
00000230: 8223 5ebd b115 44be 9016 85bd c5dc 153e
00000240: 79a7 7e3e 37c5 8d3e 83a1 b7be f2e3 46be
00000250: 9a54 523e 2d94 82be 4bd8 bb3e 2b4a 62bd
00000260: 96bb 41bd 5ebe 053e 50b0 33bd 039d b03d
00000270: 8446 a7bd 06ba b43d de1a 64bc 0193 65ba
00000280: e476 94be ef20 89be 754b febd 4287 82bb
00000290: 8ff7 abbd abab 3dbe 1a0e 16be e806 0bbc
000002a0: 97de 493e 1850 c23c 723f 183d ba21 18be
000002b0: c6ce f8bd 0c65 543c fa7d 95bd 2b2b 40bc
000002c0: bbc3 30bd 60cb c5bd d4b4 b9bd 5a95 bbbe
000002d0: 99af 90be c55e bfbe 6ec3 85bd 1f11 b63d
000002e0: 618a 4bbe 7638 7f3d 0e06 323e 9cd3 12bc
000002f0: 304b c53d 3a24 5d3e d991 f5bd c561 833d
00000300: eac1 2fbe c95a 90be a7da 553c e85f 253e
00000310: 63e3 173e bb34 53bd 92c1 03be dd50 d5be
00000320: 3472 c43d 3d77 ebbd 4ec9 5c3d 8c3b 86bd
00000330: ddc7 8b3e 6621 dcbd ec2a 23bf 8ce8 46be
00000340: 971a 84bd 1fa1 a73d 4286 f3bd d1fd 413d
00000350: d272 0fbe 588c 9dbd df51 14be b28a 3ebe
00000360: c117 323d abb2 a53b 2990 18be 96a9 cb3d
00000370: e18e 36bd e83e d23d 8821 1bbd 5566 903e
00000380: 49fe 8c3d c374 0fbd 3e44 b6be ba1f 823e
00000390: 3542 41bb 504b 923d 3272 153e 55a6 603e
000003a0: da64 f6bd 562c 2dbd 64f8 acbd 8633 84be
000003b0: 4946 cabe 8ea9 413e bb43 0fbe 4a59 b73c
000003c0: 23f1 ffbc 7f39 b23c 6961 64bc 2c66 ba3d
000003d0: 466c 0c3e c896 033e cee9 a0bd ec99 80be
000003e0: e392 59be f65f 2f3d 0216 cdbd 3996 003c
000003f0: 66d9 04bf 0575 b23d 5be7 17be 3eec 3d3e

encoder.state_encoder.1.bias f4 [64]
0.0 0.0 0.0 0.0 0.0 0.0 0.0 0.0
0.0 0.0 0.0 0.0 0.0 0.0 0.0 0.0
0.0 0.0 0.0 0.0 0.0 0.0 0.0 0.0
0.0 0.0 0.0 0.0 0.0 0.0 0.0 0.0
0.0 0.0 0.0 0.0 0.0 0.0 0.0 0.0
0.0 0.0 0.0 0.0 0.0 0.0 0.0 0.0
0.0 0.0 0.0 0.0 0.0 0.0 0.0 0.0
0.0 0.0 0.0 0.0 0.0 0.0 0.0 0.0
00000000: 0000 0000 0000 0000 0000 0000 0000 0000
00000010: 0000 0000 0000 0000 0000 0000 0000 0000
00000020: 0000 0000 0000 0000 0000 0000 0000 0000
00000030: 0000 0000 0000 0000 0000 0000 0000 0000
00000040: 0000 0000 0000 0000 0000 0000 0000 0000
00000050: 0000 0000 0000 0000 0000 0000 0000 0000
00000060: 0000 0000 0000 0000 0000 0000 0000 0000
00000070: 0000 0000 0000 0000 0000 0000 0000 0000
00000080: 0000 0000 0000 0000 0000 0000 0000 0000
00000090: 0000 0000 0000 0000 0000 0000 0000 0000
000000a0: 0000 0000 0000 0000 0000 0000 0000 0000
000000b0: 0000 0000 0000 0000 0000 0000 0000 0000
000000c0: 0000 0000 0000 0000 0000 0000 0000 0000
000000d0: 0000 0000 0000 0000 0000 0000 0000 0000
000000e0: 0000 0000 0000 0000 0000 0000 0000 0000
000000f0: 0000 0000 0000 0000 0000 0000 0000 0000

encoder.obs_encoder.0.weight f4 [217]
0.90960866 0.98427904 0.9890406 0.9737138 0.9502493 0.90984374 0.96422076 0.93631697
0.9387205 1.1763437 1.0987945 1.2197586 1.1148754 0.9518727 0.72902113 0.65709156
1.0995222 1.1197239 1.0160283 1.101069 1.3256501 1.1710377 1.0650527 1.0291566
1.229835 1.1139872 1.0601993 1.1868576 1.2025409 1.2169082 1.2620504 1.2749702
0.5817412 1.249033 1.1735569 1.1831605 1.345416 0.9539969 0.7537398 0.4151457
0.6103867 0.74068767 0.95512843 1.0043246 1.1398264 2.024052 0.9430512 1.4428906
0.8824937 1.125371 0.8797149 0.7504389 1.1129894 0.3950641 0.65935147 0.6300632
0.91826415 1.0134028 0.9098599 0.9038876 0.38993594 0.52222127 0.5525627 0.8676593
0.970155 0.95770663 0.8572392 0.31252417 0.6191185 0.6402477 0.93591964 0.9657857
0.96551204 0.8035115 0.39094508 0.58686996 0.6113594 0.9137708 0.9933783 0.8560623
0.7056718 0.39031106 0.58456147 0.5736393 1.0644268 0.98864675 0.94383377 0.83277404
0.4675523 0.58264416 0.6289381 0.9029528 0.96089625 0.8193818 0.9483053 0.37460795
0.56052047 0.608043 0.9264404 0.81769055 0.7432446 0.81022656 0.26960278 0.53874135
0.6397136 0.8002646 0.9395565 0.73145324 0.64531285 0.28507173 0.5785054 0.6889141
0.88013655 0.99849576 0.967217 1.1514056 0.5877648 0.71875906 0.7286706 1.292686
0.8558301 0.99373496 1.0305696 1.0591483 0.9471231 0.95555454 1.1329732 1.076225
1.0482457 1.0507783 1.0147661 1.0295678 0.56833786 0.9094531 0.8094902 0.7197863
0.7949339 0.7977342 1.0536993 0.9995702 1.0103087 1.077941 0.93647146 0.9671304
0.9574223 0.9707415 1.1210994 0.9020648 0.9023758 0.7831913 0.70649445 0.82317096
0.9294084 1.0078422 1.00482 1.0408441 0.76594263 0.6243832 0.835062 0.81798273
0.97045124 0.9356391 0.94500744 0.6662151 0.67820317 0.7245514 0.8562221 0.96678996
0.9126229 0.9854226 0.64553195 0.76195866 0.8008367 0.95663786 0.98422194 0.87431735
1.0514936 0.58988684 0.7817552 0.657696 0.8292511 1.0238106 0.9709887 0.90058076
0.71084446 0.6531216 0.71031475 0.8009677 0.9991475 0.9625364 1.0834336 0.89139014
0.93935627 0.7777736 0.8744427 0.98260075 0.9337719 1.0951328 0.7993086 0.94510734
0.7936459 0.9384043 1.0176381 1.0253526 1.0877626 0.9069799 0.83783287 0.97657853
0.88174266 0.9787457 0.94307786 0.877387 0.8615422 1.0018504 0.7918169 0.9075198
1.0410308
00000000: 1ddc 683f b6f9 7b3f c431 7d3f 4f45 793f
00000010: 8a43 733f 85eb 683f 2cd7 763f 78b2 6f3f
00000020: fd4f 703f 6e92 963f 4ca5 8c3f 0d21 9c3f
00000030: 3db4 8e3f eead 733f 21a1 3a3f 2737 283f
00000040: 25bd 8c3f 1d53 8f3f 370d 823f d4ef 8c3f
00000050: e7ae a93f 90e4 953f a653 883f 67bb 833f
00000060: 3c6b 9d3f 2297 8e3f 9cb4 873f f3ea 973f
00000070: dcec 993f a6c3 9b3f de8a a13f 3932 a33f
00000080: feec 143f 50e0 9f3f 1d37 963f ce71 973f
00000090: 9736 ac3f 2439 743f 17f5 403f fa8d d43e
000000a0: 4e42 1c3f b59d 3d3f 4c83 743f b58d 803f
000000b0: d5e5 913f 118a 0140 ce6b 713f a4b0 b83f
000000c0: 1beb 613f 280c 903f ff34 613f c41c 403f
000000d0: 7076 8e3f d745 ca3e 42cb 283f d24b 213f
000000e0: 5c13 6b3f 2fb7 813f 94ec 683f 2e65 673f
000000f0: afa5 c73e 4bb0 053f c074 0d3f eb1e 5e3f
00000100: 145c 783f 432c 753f 0774 5b3f 2b03 a03e
00000110: 8d7e 1e3f 46e7 233f 6e98 6f3f bb3d 773f
00000120: cc2b 773f eeb2 4d3f f429 c83e 1c3d 163f
00000130: 0d82 1c3f e2ec 693f 0a4e 7e3f e626 5b3f
00000140: e8a6 343f dad6 c73e d2a5 153f 06da 123f
00000150: 233f 883f f417 7d3f 179f 713f ae30 553f
00000160: 0463 ef3e 2b28 153f 1602 213f ea27 673f
00000170: 4cfd 753f 01c3 513f 23c4 723f 9dcc bf3e
00000180: 457e 0f3f b5a8 1b3f 332b 6d3f 2b54 513f
00000190: 4745 3e3f 026b 4f3f 6009 8a3e f4ea 093f
000001a0: 45c4 233f 24de 4c3f c686 703f 8540 3b3f
000001b0: 3933 253f ecf4 913e ee18 143f ad5c 303f
000001c0: a150 613f 6b9d 7f3f 899b 773f 4261 933f
000001d0: c177 163f 9800 383f 288a 3a3f bc76 a53f
000001e0: ae17 5b3f 6a65 7e3f b4e9 833f 2c92 873f
000001f0: a976 723f 399f 743f 4405 913f bec1 893f
00000200: ea2c 863f e77f 863f dbe3 813f e1c8 833f
00000210: 977e 113f ebd1 683f c03a 4f3f ea43 383f
00000220: ca80 4b3f 4f38 4c3f 9edf 863f d5e3 7f3f
00000230: cc51 813f f8f9 893f 98bc 6f3f dc95 773f
00000240: a119 753f 8482 783f 2f80 8f3f b8ed 663f
00000250: 1a02 673f 3a7f 483f d2dc 343f 55bb 523f
00000260: b5ed 6d3f f900 813f f19d 803f 613a 853f
00000270: d114 443f 94d7 1f3f a0c6 553f 5167 513f
00000280: 7e6f 783f 0b86 6f3f 02ec 713f 138d 2a3f
00000290: b99e 2d3f 337c 393f 5f31 5b3f 8c7f 773f
000002a0: a8a1 693f a844 7c3f 9541 253f b90f 433f
000002b0: a203 4d3f 38e6 743f f8f5 7b3f 43d3 5f3f
000002c0: 5897 863f d302 173f 1c21 483f c45e 283f
000002d0: cd49 543f 3a0c 833f b792 783f 768c 663f
000002e0: e7f9 353f fa32 273f 30d7 353f 380c 4d3f
000002f0: 21c8 7f3f c968 763f f4ad 8a3f 2532 643f
00000300: a779 703f 2c1c 473f 7adb 5f3f b98b 7b3f
00000310: ad0b 6f3f 502d 8c3f 7d9f 4c3f 8ef2 713f
00000320: 612c 4b3f 443b 703f f741 823f c13e 833f
00000330: ce3b 8b3f d62f 683f 377c 563f 0d01 7a3f
00000340: e3b9 613f 148f 7a3f 8d6d 713f 6f9c 603f
00000350: 088e 5c3f a23c 803f 83b4 4a3f 3853 683f
00000360: 7f40 853f

encoder.obs_encoder.0.bias f4 [217]
-0.12313976 -0.05854394 -0.028378075 -0.02379502 -0.07014074 -0.09452194 -0.05835328 -0.07255132
-0.08899237 0.05759474 0.030539509 0.060904797 0.023257371 -0.048604578 -0.10223727 -0.055752702
0.04399125 0.020192465 0.04472105 0.032344252 0.00546875 0.061779108 -0.048854474 -0.014033701
0.07897418 -0.004590319 0.044301815 0.012627262 0.032686748 0.07604365 0.025040686 0.022054754
0.047328573 -0.066851914 -0.055693954 -0.01565719 0.02834452 0.023324462 0.036595464 0.04674449
0.061234865 -0.067931086 -0.03991344 0.007423029 -0.0010152461 0.020223577 0.02813243 0.027337098
-0.044041872 -0.011218758 -0.06644305 0.04292113 0.017783716 0.045655143 0.08035394 -0.10486457
-0.041530956 -0.025665611 0.015353503 0.033209432 0.016997812 0.052719243 -0.108978145 -0.06635383
-0.053145178 0.0554749 0.008372369 0.017472863 0.03466367 -0.03459326 -0.06185899 -0.020339293
0.015211306 0.006111196 -0.016997518 0.03913474 -0.098098755 -0.07334965 -0.030358344 0.06644398
0.016072122 0.05237094 0.054049086 -0.124485426 -0.036408853 -0.06908402 0.026568765 0.021310199
0.025720894 0.07045715 -0.12145329 -0.06006647 -0.04715585 0.08830334 0.026386954 0.036786284
0.05427528 -0.08741636 -0.080272466 -0.05644674 -0.0056787906 0.050887268 0.037751026 0.08306009
-0.11707892 -0.08130655 -0.02332173 0.01836964 -0.0013728399 0.032297157 0.08943932 -0.07748312
-0.06839814 -0.01753859 0.01359046 -0.006523757 0.035600085 0.059300825 -0.09714911 -0.012412293
-0.013296116 -0.007416896 -0.00912147 0.050192162 -0.020231118 0.027742146 -0.011090081 -0.0012698123
0.004779126 -0.039251734 -0.0638396 -0.01695077 -0.10404338 0.064920396 0.08344459 0.08145892
0.09075704 -0.10334939 -0.03845023 -0.048080277 -0.032074157 -0.012414475 0.025257556 0.06044515
0.032443233 -0.032314613 -2.570986e-05 0.06447854 -0.018266557 0.055569388 0.018974312 -0.049400195
-0.04652592 -0.032248836 0.025406929 -0.006815856 0.040877197 0.044377964 -0.09427954 -0.084841006
-0.04233465 0.05533931 0.046815317 0.081439674 0.06009026 -0.09891539 -0.07851485 -0.020815857
0.042018626 0.07288363 0.058448546 0.031381648 -0.019825667 -0.049971774 -0.076597236 0.09892161
0.029936912 0.12290185 0.03148592 -0.1353041 -0.06368118 -0.067583725 0.051988572 0.023949502
0.056403566 0.054709364 -0.06703905 -0.029567039 0.005668033 0.081138186 0.022509707 0.085342415
0.01730487 -0.12403627 -0.05246575 -0.02692965 0.09239626 -0.03375484 0.10004073 0.030989455
-0.085151784 -0.1017924 -0.03682464 0.08065136 0.007851661 0.08150384 0.010846474 -0.03774098
-0.09764564 -0.029860236 0.05555982 0.042023275 0.07605746 0.015648676 -0.1083058 -0.055197675
-0.06825578
00000000: b330 fcbd c5cb 6fbd 2379 e8bc c6ed c2bc
00000010: f3a5 8fbd b894 c1bd d903 6fbd c995 94bd
00000020: a241 b6bd 76e8 6b3d fe2d fa3c 4f77 793d
00000030: 3e86 be3c 9815 47bd c661 d1bd f25c 64bd
00000040: 2b30 343d ab6a a53c 6b2d 373d 687b 043d
00000050: 3333 b33b 170c 7d3d a11b 48bd 9ced 65bc
00000060: 37bd a13d 636a 96bb d275 353d 93e2 4e3c
00000070: 8ae2 053d c6bc 9b3d 2022 cd3c 2cac b43c
00000080: 9bdb 413d a8e9 88bd 581f 64bd 8243 80bc
00000090: c432 e83c f112 bf3c 20e5 153d 2677 3f3d
000000a0: 69d1 7a3d 741f 8bbd 467c 23bd e13c f33b
000000b0: 0212 85ba eaab a53c fb75 e63c 0df2 df3c
000000c0: 4065 34bd e2ce 37bc 4b13 88bd 11ce 2f3d
000000d0: 28af 913c e300 3b3d 9b90 a43d 3cc3 d6bd
000000e0: 5d1c 2abd b040 d2bc 428d 7b3c 9d06 083d
000000f0: ff3e 8b3c 22f0 573d ef2f dfbd 84e4 87bd
00000100: c2ae 59bd a639 633d 432c 093c 4023 8f3c
00000110: 7efb 0d3d aab1 0dbd da5f 7dbd 979e a6bc
00000120: d738 793c 6d40 c83b 613e 8bbc c04b 203d
00000130: 00e8 c8bd 5738 96bd 10b2 f8bc c813 883d
00000140: afa9 833c e982 563d 9362 5d3d 37f2 febd
00000150: 7321 15bd ec7b 8dbd bda6 d93c ba92 ae3c
00000160: a0b4 d23c d74b 903d 81bc f8bd 4208 76bd
00000170: 7e26 41bd 62d8 b43d 7429 d83c 37ad 163d
00000180: c24f 5e3d 5907 b3bd e465 a4bd b234 67bd
00000190: 2615 babb 2b6f 503d d2a0 1a3d 691b aa3d
000001a0: 13c7 efbd 0c84 a6bd 360d bfbc ed7b 963c
000001b0: ddf0 b3ba 064a 043d f62b b73d 78af 9ebd
000001c0: 5314 8cbd 17ad 8fbc 85aa 5e3c 3dc5 d5bb
000001d0: 65d1 113d 6ce5 723d 1df6 c6bd ee5c 4bbc
000001e0: f4d7 59bc 6f09 f3bb 3872 15bc 4c96 4d3d
000001f0: bbbb a5bc 7f43 e33c 2cb3 35bc d56f a6ba
00000200: 379a 9c3b 6dc6 20bd 56be 82bd 57dc 8abc
00000210: b214 d5bd fcf4 843d ffe4 aa3d efd3 a63d
00000220: d4de b93d d8a8 d3bd fd7d 1dbd d3ef 44bd
00000230: 3160 03bd 1566 4bbc efe8 ce3c 5595 773d
00000240: 32e3 043d 545c 04bd 81ab d7b7 530d 843d
00000250: bfa3 95bc ba9c 633d 0470 9b3c dc57 4abd
00000260: f791 3ebd 5b17 04bd 3122 d03c 8b57 dfbb
00000270: d96e 273d abc5 353d a215 c1bd 1fc1 adbd
00000280: 1967 2dbd 79ab 623d 6bc1 3f3d d8c9 a63d
00000290: 3421 763d 2794 cabd 65cc a0bd 0486 aabc
000002a0: b91b 2c3d 0344 953d be67 6f3d 0b8a 003d
000002b0: 7069 a2bc 34af 4cbd 03df 9cbd 6a97 ca3d
000002c0: 413e f53c f7b3 fb3d 61f7 003d 288d 0abe
000002d0: 476b 82bd 5669 8abd f8f1 543d bf31 c43c
000002e0: 6d07 673d ed16 603d c54b 89bd 9336 f2bc
000002f0: e8ba b93b c72b a63d 4766 b83c 01c8 ae3d
00000300: f1c2 8d3c ba06 febd 54e6 56bd 929b dcbc
00000310: 403a bd3d 8442 0abd 27e2 cc3d 99dd fd3c
00000320: 0f64 aebd 8978 d0bd 6fd5 16bd 8a2c a53d
00000330: 41a4 003c 7ceb a63d 69b5 313c 4996 1abd
00000340: 70fa c7bd 749d f4bc b292 633d 9920 2c3d
00000350: 03c4 9b3d a731 803c 6ecf ddbd f516 62bd
00000360: b0c9 8bbd

encoder.obs_encoder.1.weight f4 [64, 217]
0.11718813 0.08709708 -0.016508201 0.086560875 0.059393276 0.070848696 0.23447846 0.076547444
0.01838624 0.17267454 0.066526674 0.011096401 0.0032670258 0.10070546 -0.046595648 -0.0030343845
0.1256179 -0.017730907 0.035222095 -0.08629354 -0.029925682 0.09658842 0.060695563 0.065323
0.0072979676 0.040843822 0.11912645 0.30307373 0.14124066 0.02105572 -0.13966563 -0.05166749
0.07322322 0.013938982 -0.15930983 4.039715e-05 -0.16152786 -0.04045821 0.0348534 -0.049854893
0.027441144 0.09689859 0.03766966 -0.15098482 -0.03321214 0.028988635 0.04696535 0.07083176
0.11783328 0.0060429983 0.09069244 -0.11586205 -0.0021290223 -0.096723385 0.058076356 0.058002684
-0.011426272 -0.1532674 -0.2059217 0.18429689 -0.08349382 -0.011573027 0.13429692 0.14109273
-0.040632594 -0.09428819 -0.0752973 -0.0065589338 0.18706818 0.061934646 -0.029098155 -0.20106094
-0.15691873 0.044283353 0.059893657 0.03971271 0.030519035 -0.040710047 -0.26383305 0.055386525
0.18316877 -0.006422671 0.09448559 0.0747259 0.16749105 -0.18747261 0.07623357 0.13482657
0.20692337 0.046281148 0.03118482 0.05535967 -0.16932322 -0.034222633 0.01990937 -0.031485755
-0.061452314 -0.0065771556 0.084966354 -0.011063145 -0.20185938 0.11533062 -0.030197598 -0.03015714
0.0348695 -0.17416048 -0.14904818 0.13948752 -0.06889227 0.017739331 0.021507243 0.04021164
0.028521009 -0.14622013 -0.005293311 -0.10024187 0.009754023 0.061665088 0.003863111 0.2942746
0.18433955 0.20490572 0.12241013 0.42229098 0.2369273 0.21735957 0.23033941 0.08303448
0.14260575 0.37218952 -0.09951987 0.034054186 0.1046119 -0.069000386 0.03334474 0.04680592
0.026965577 -0.057965577 -0.09401243 -0.036228057 0.12296583 0.14221904 0.13372694 -0.01660108
-0.04553089 0.109431684 0.13428856 -0.09492757 -0.054610405 -0.029480735 -0.08028094 -0.016080506
0.09218197 -0.15911712 -0.21587244 -0.12739134 -0.14313269 -0.06652752 -0.037991613 0.036464386
0.0012966415 -0.1521587 0.01188235 -0.09506044 -0.024905516 0.13320468 -0.06372305 -0.14679573
0.18619643 -0.043792672 0.13927321 0.039551817 0.0018411153 0.15417066 -0.04852056 -0.13351093
0.12166062 -0.08150836 -0.11017888 -0.15951146 0.07288787 -0.0094886385 -0.012695844 -0.011251574
0.05938041 -0.15033495 0.107387856 0.010109171 0.035646882 0.15531068 0.20750709 0.013999287
0.18706599 -0.0129243815 -0.065423414 -0.19107942 -0.03362496 -0.15607496 0.104059406 -0.26265508
-0.010322567 -0.0050860643 -0.031091442 -0.10827423 0.09818763 0.143355 -0.07432764 0.004677244
0.0033260696 -0.13931718 -0.025471637 -0.0129647665 -0.14634354 -0.009742426 -0.17322694 -0.0022567164
-0.2215469 -0.01620464 -0.039503764 -0.08068325 0.07271405 -0.11893852 0.10445143 0.016225597
-0.008654293 -0.14084709 -0.17845768 -0.1780604 0.058063105 0.07003678 -0.17673987 -0.0330841
-0.068260565 -0.37264428 -0.054869663 0.09833599 -0.074565105 -0.07836342 -0.25510895 0.13492498
0.04707379 -0.059426587 0.011825777 -0.010142235 -0.20168069 -0.17449628 0.075955935 -0.13024218
0.24657199 0.024434734 0.015478656 0.11394312 0.10455841 -0.24116877 -0.025788952 0.029266164
00000000: 5500 f03d f45f b23d 353c 87bc d446 b13d
00000010: 5d46 733d 1f19 913d 1f1b 703e e8c4 9c3d
00000020: bd9e 963c 98d1 303e 233f 883d aecd 353c
00000030: 991b 563b aa3e ce3d 14db 3ebd 86dc 46bb
00000040: fba1 003e 6840 91bc 0b45 103d abba b0bd
00000050: b426 f5bc 26d0 c53d e99b 783d 11c8 853d
00000060: ca23 ef3b da4b 273d 91f8 f33d 7b2c 9b3e
00000070: 64a1 103e 0c7d ac3c 8204 0fbe 4aa1 53bd
00000080: 0ef6 953d 5460 643c 1e22 23be 1c70 2938
00000090: 8f67 25be 82b7 25bd 70c2 0e3d a534 4cbd
000000a0: 40cc e03c c572 c63d 804b 1a3d c49b 1abe
000000b0: 7409 08bd 9379 ed3c bd5e 403d 3e10 913d
000000c0: 9352 f13d 5804 c63b f5bc b93d 1549 edbd
000000d0: 1187 0bbb e916 c6bd 79e1 6d3d 3994 6d3d
000000e0: 4235 3bbc 21f2 1cbe 23dd 52be 53b8 3c3e
000000f0: cffe aabd cb9c 3dbc 2285 093e 9d7a 103e
00000100: 5d6e 26bd 2b1a c1bd 7935 9abd 53ec d6bb
00000110: cd8e 3f3e 2faf 7d3d 415f eebc ebe2 4dbe
00000120: 4eaf 20be 7662 353d 0d53 753d cba9 223d
00000130: 0e03 fa3c 94bf 26bd 2015 87be fbdc 623d
00000140: 9890 3b3e 4575 d2bb a981 c13d e509 993d
00000150: c682 2b3e d2f8 3fbe 5920 9c3d fa0f 0a3e
00000160: b8e3 533e 4d91 3d3d 4f77 ff3c d2c0 623d
00000170: 1163 2dbe 082d 0cbd fa18 a33c 35f7 00bd
00000180: 6cb5 7bbd 2e85 d7bb d702 ae3d 3142 35bc
00000190: 3ab4 4ebe 7632 ec3d f460 f7bc 1b0c f7bc
000001a0: 52d3 0e3d 2057 32be 16a0 18be d1d5 0e3e
000001b0: 6417 8dbd 1352 913c f52f b03c f6b4 243d
000001c0: e4a4 e93c bbba 15be 8373 adbb 9c4b cdbd
000001d0: 56cf 1f3c 8894 7c3d 3f2c 7d3b 29ab 963e
000001e0: 82c3 3c3e ced2 513e 2ab2 fa3d 8636 d83e
000001f0: 129d 723e 8293 5e3e 18de 6b3e fb0d aa3d
00000200: 3e07 123e a08f be3e 13d1 cbbd 677c 0b3d
00000210: c43e d63d 1350 8dbd 7e94 083d 90b7 3f3d
00000220: eae6 dc3c 506d 6dbd 9789 c0bd df63 14bd
00000230: 82d5 fb3d dea1 113e b7ef 083e fdfe 87bc
00000240: 997e 3abd b81d e03d f182 093e 6369 c2bd
00000250: 29af 5fbd 9581 f1bc 556a a4bd 44bb 83bc
00000260: e7c9 bc3d 99ef 22be aa0d 5dbe e072 02be
00000270: 6091 12be 953f 88bd 189d 1bbd ae5b 153d
00000280: 12f4 a93a 7ecf 1bbe 30ae 423c 0caf c2bd
00000290: a706 ccbc cf66 083e 3b81 82bd 9f51 16be
000002a0: 47aa 3e3e f25f 33bd a39d 0e3e 1601 223d
000002b0: 9451 f13a eade 1d3e 7fbd 46bd 17b7 08be
000002c0: 3429 f93d dbed a6bd 77a5 e1bd f956 23be
000002d0: 3c46 953d 3c76 1bbc 3b02 50bc 8658 38bc
000002e0: df38 733d 68f1 19be 2aee db3d f0a0 253c
000002f0: 7702 123d c309 1f3e bd7c 543e 445d 653c
00000300: 3a8e 3f3e c9c0 53bc b6fc 85bd 53aa 43be
00000310: 53ba 09bd 1dd2 1fbe 191d d53d ba7a 86be
00000320: fc1f 29bc 00a9 a6bb 7bb3 febc e1be ddbd
00000330: 9916 c93d a7cb 123e 1739 98bd 9143 993b
00000340: 30fa 593b 2aa9 0ebe e5a9 d0bc 2c6a 54bc
00000350: 15db 15be b29e 1fbc 6762 31be 6be5 13bb
00000360: 31dd 62be 98bf 84bc b3ce 21bd 433d a5bd
00000370: 1beb 943d 0a96 f3bd a2ea d53d 8beb 843c
00000380: bcca 0dbc 383a 10be 9cbd 36be 7755 36be
00000390: 94d3 6d3d 716f 8f3d 4cfb 34be 3183 07bd
000003a0: 32cc 8bbd 3bcb bebe 03bf 60bd 6164 c93d
000003b0: 97b5 98bd 007d a0bd a49d 82be c629 0a3e
000003c0: 72d0 403d 4b69 73bd e7c0 413c 9e2b 26bc
000003d0: 6285 4ebe 27af 32be c98e 9b3d 355e 05be
000003e0: 5e7d 7c3e 5a2b c83c 309a 7d3c 035b e93d
000003f0: b822 d63d f2f4 76be 5a43 d3bc 98bf ef3c

encoder.obs_encoder.1.bias f4 [64]
0.0069207 -0.010131266 -0.006953567 0.017896086 0.04462462 0.01778422 -0.001223921 0.03258504
0.02389749 0.040645458 0.06953036 -0.00019410659 -0.030775612 -0.025438406 0.024692865 -0.005682438
-0.0010978931 0.029519333 0.022290243 0.010206677 0.0027638583 0.0104836235 -0.006844404 -0.000107460546
0.0226244 -0.021623274 -0.009905227 0.04477793 0.007240593 0.016333507 0.06117026 0.022119012
0.042608567 0.0480337 0.012504816 0.046003625 0.09962369 0.023107644 -0.023998138 0.036166206
0.023672897 -0.02670028 0.041528396 -0.026966576 0.0063425526 0.023738006 0.000564733 -0.036499765
-0.035986822 0.0128284795 0.01711764 0.032016024 0.019657874 0.032602064 0.029933332 -0.007626681
0.013095529 -0.10870977 -0.017694553 0.029031612 -0.059169997 0.03357006 -0.0041153585 -0.023893995
00000000: 0ac7 e23b 9cfd 25bc bfda e3bb d09a 923c
00000010: 4ec8 363d 36b0 913c f96b a0ba e477 053d
00000020: abc4 c33c da7b 263d ef65 8e3d 1789 4bb9
00000030: 231d fcbc 3464 d0bc b148 ca3c bf33 babb
00000040: 2ee7 8fba 87d2 f13c 079a b63c e839 273c
00000050: d921 353b 81c3 2b3c 0647 e0bb 715c e1b8
00000060: ce56 b93c 4b23 b1bc 8949 22bc 1069 373d
00000070: 7f42 ed3b d9cd 853c ab8d 7a3d ee32 b53c
00000080: 5286 2e3d fcbe 443d 00e1 4c3c 4c6e 3c3d
00000090: 8107 cc3d 3e4c bd3c be97 c4bc 0423 143d
000000a0: aaed c13c 8cba dabc ae19 2a3d 02e9 dcbc
000000b0: 30d5 cf3b 3576 c23c 970a 143a c780 15bd
000000c0: eb66 13bd 8b2e 523c 4b3a 8c3c 3c23 033d
000000d0: 8d09 a13c be89 053d bf36 f53c 3de9 f9bb
000000e0: a18e 563c 3aa3 debd 2bf4 90bc b4d3 ed3c
000000f0: 3d5c 72bd c280 093d 21da 86bb 57bd c3bc

encoder.ln.weight f4 [64]
0.926527 0.93040013 0.91948915 0.9954737 0.9690316 0.8840361 1.0747201 1.05139
0.98864126 1.0086085 0.8839144 0.8186285 0.9939274 1.0262944 0.9790345 0.9359241
1.2757137 0.8941901 1.0280619 0.93317777 1.0558244 0.880122 0.8234689 1.0330335
0.99779576 0.95889086 1.0248665 0.9926881 0.92503947 1.0629046 0.96736073 1.1052307
0.9434538 1.0263479 0.88678145 0.9532738 0.9568687 0.9817834 0.97280145 1.0768328
1.05646 1.0297886 0.81031436 1.0186203 1.0125355 1.0327176 1.0232503 0.9730287
1.0105624 1.0763917 1.0828536 1.1202617 0.9925853 0.917061 0.9956658 0.9753944
0.99968743 0.9601586 0.91147536 0.9821138 0.8984066 0.912599 1.045726 1.0588665
00000000: e030 6d3f b42e 6e3f a463 6b3f 5dd7 7e3f
00000010: 7412 783f 3150 623f 6e90 893f f393 863f
00000020: 9817 7d3f 151a 813f 3748 623f a391 513f
00000030: 0772 7e3f 9d5d 833f 01a2 7a3f b998 6f3f
00000040: 964a a33f a4e9 643f 8897 833f bde4 6e3f
00000050: 4125 873f ad4f 613f dcce 523f 713a 843f
00000060: 8b6f 7f3f df79 753f d32e 833f cf20 7e3f
00000070: 63cf 6c3f 420d 883f f4a4 773f 3378 8d3f
00000080: 3086 713f 5e5f 833f 1c04 633f c009 743f
00000090: 59f5 743f 2856 7b3f 8409 793f a8d5 893f
000000a0: 153a 873f 1dd0 833f c370 4f3f 2662 823f
000000b0: c39a 813f 1730 843f def9 823f 6918 793f
000000c0: 1c5a 813f 34c7 893f f29a 8a3f bc64 8f3f
000000d0: 121a 7e3f 82c4 6a3f f4e3 7e3f 73b3 793f
000000e0: 84eb 7f3f f4cc 753f 7356 693f cf6b 7b3f
000000f0: fafd 653f 17a0 693f 59da 853f f088 873f

encoder.ln.bias f4 [64]
-0.04729398 -0.014580556 0.0072209896 0.010211628 0.029220881 0.024109637 -0.038302127 0.006858928
0.014993333 0.0048813666 0.053373627 -0.0112505695 -0.047543515 -0.031246707 0.01998763 -0.0071231546
-0.028404118 -0.021140173 -0.0018286129 0.0620585 -0.020040743 0.017680647 0.035604794 -0.023872348
-0.005852779 0.04819287 -0.035106935 -0.0012380218 0.034719337 0.031072875 0.026628707 -0.003236035
0.062392984 -0.00046818666 -0.040486164 0.02418159 0.073669605 -0.020877639 0.009910484 0.040100172
0.022438534 -0.01528757 -0.050074846 -0.0012166725 -0.055828597 0.034848787 0.020685872 0.015952405
-0.050098434 0.0120674465 0.009595368 0.00027671325 -0.010664431 0.020669453 0.01306483 0.007995685
0.025124954 0.037454564 0.042759273 0.027330166 0.0618679 0.0034998453 -0.008030502 0.00053060084
00000000: 55b7 41bd 49e3 6ebc 0d9e ec3b ac4e 273c
00000010: a160 ef3c 9381 c53c b1e2 1cbd dcc0 e03b
00000020: 99a6 753c dff3 9f3b 4e9e 5a3d 4f54 38bc
00000030: fdbc 42bd 18f9 ffbc 19bd a33c 5a69 e9bb
00000040: c1af e8bc 282e adbc 11ae efba 0e31 7e3d
00000050: 7c2c a4bc 01d7 903c 55d6 113d f18f c3bc
00000060: abc8 bfbb e365 453d 4acc 0fbd 1e45 a2ba
00000070: dd35 0e3d 8b8c fe3c 7224 da3c a813 54bb
00000080: c98f 7f3d f376 f5b9 d2d4 25bd 7818 c63c
00000090: 17e0 963d 9507 abbc 955f 223c 1440 243d
000000a0: 04d1 b73c b778 7abc 481b 4dbd c178 9fba
000000b0: 87ac 64bd 9abd 0e3d 6b75 a93c 9eae 823c
000000c0: 0434 4dbd 8ab6 453c e435 1d3c d313 9139
000000d0: deb9 2ebc fc52 a93c de0d 563c 5500 033c
000000e0: d9d2 cd3c f569 193d 5924 2f3d 83e3 df3c
000000f0: 3269 7d3d a95d 653b 5e92 03bc 0518 0b3a

encoder.blocks.0.ln1.weight f4 [64]
0.9617637 1.0052189 0.982608 0.94224936 0.96214646 0.9553632 1.1394905 1.0066522
0.7774512 1.0418302 0.9750742 0.75042766 1.0295067 1.0401472 1.0078046 0.96707916
1.0235634 1.0056746 1.0485638 0.93769044 0.89410305 0.92195606 0.8398182 1.0481358
1.0465925 0.9855594 1.0692265 0.981094 0.9740922 1.1526915 1.0134761 1.0844426
0.9184964 1.0479947 0.96791846 1.0450969 0.97517234 1.0398201 0.9592609 1.0593091
0.9976282 1.0331752 0.8914793 1.0405256 1.0432861 1.0551224 1.0411818 0.8481315
1.0525963 1.1522799 1.0360097 1.104031 1.042258 0.805891 0.9918714 0.98021644
1.0176861 0.96406513 0.9314122 0.82658637 0.92627364 0.98313683 0.9983846 1.0125246
00000000: 2536 763f 03ab 803f 338c 7b3f 4137 713f
00000010: 3b4f 763f af92 743f d3da 913f fbd9 803f
00000020: 0b07 473f b15a 853f 769e 793f 071c 403f
00000030: e0c6 833f 8b23 853f beff 803f 8092 773f
00000040: 2004 833f f2b9 803f 5737 863f 7b0c 703f
00000050: f0e3 643f 5005 6c3f 53fe 563f 5029 863f
00000060: bef6 853f 9f4d 7c3f 6adc 883f fa28 7b3f
00000070: 1b5e 793f 658b 933f 96b9 813f 04cf 8a3f
00000080: 9422 6b3f b124 863f 81c9 773f bcc5 853f
00000090: e5a4 793f d318 853f 1f92 753f 7197 873f
000000a0: 9064 7f3f 163f 843f fd37 643f f12f 853f
000000b0: 668a 853f 400e 873f 7245 853f 251f 593f
000000c0: 7abb 863f e87d 933f f79b 843f e350 8d3f
000000d0: b668 853f df4e 4e3f 49eb 7d3f 77ef 7a3f
000000e0: 8a43 823f f9cc 763f 0871 6e3f 2a9b 533f
000000f0: 4520 6d3f dbae 7b3f 2296 7f3f 689a 813f

encoder.blocks.0.ln1.bias f4 [64]
-0.025605567 -0.020195195 0.045306534 -0.03577956 0.053123847 0.033177707 -0.032462273 -0.0073544704
0.036309607 0.0025216835 0.0746435 0.07148076 -0.024292303 -0.016087756 0.008205394 0.026511827
-0.060713552 0.0073763947 0.012284637 0.038979415 -0.027466603 0.002034045 0.052582704 -0.033255074
-0.051822096 0.0029613525 -0.014474004 0.032690078 -4.5027296e-05 0.064669915 -0.036647543 -0.020429252
0.04415088 0.017646927 -0.0038311067 0.021192983 0.05942014 -0.033611212 0.008447526 0.03370683
0.005222774 -0.050327856 -0.032258585 0.012032756 -0.049552213 0.04739083 0.061025698 0.06908485
-0.026159333 -0.016314512 0.019205268 -0.03196592 -0.0042221793 0.025372 0.055455767 -0.0069532013
0.040338073 0.04505731 0.021322109 -0.0029858642 0.032791164 -0.010117977 -0.007837318 -0.0003346019
00000000: c4c2 d1bc 6570 a5bc 5893 393d 978d 12bd
00000010: 6498 593d 59e5 073d 29f7 04bd c5fd f0bb
00000020: 62b9 143d d442 253b b1de 983d 8164 923d
00000030: a700 c7bc 78ca 83bc eb6f 063c 552f d93c
00000040: c6ae 78bd afb5 f13b 8145 493c e1a8 1f3d
00000050: a401 e1bc 9d4d 053b f660 573d 7936 08bd
00000060: 6843 54bd 4013 423b 5f24 6dbc 08e6 053d
00000070: b1db 3cb8 a971 843d bc1b 16bd 3f5b a7bc
00000080: 8ed7 343d 4a90 903c 4e13 7bbb e89c ad3c
00000090: 8862 733d e9ab 09bd 7e67 0a3c 2c10 0a3d
000000a0: ce23 ab3b 9524 4ebd 9421 04bd 0925 453c
000000b0: 43f7 4abd e31c 423d 15f6 793d 5c7c 8d3d
000000c0: 194c d6bc 03a6 85bc 5e54 9d3c b2ee 02bd
000000d0: 355a 8abb f1d8 cf3c 9625 633d aed7 e3bb
000000e0: 8939 253d 048e 383d b4ab ae3c 7dae 43bb
000000f0: 0750 063d dfc5 25bc 1868 00bc 826d afb9

encoder.blocks.0.ln2.weight f4 [64]
0.9647566 0.93329275 0.95611244 1.0201992 0.9462503 1.0393186 1.0712589 1.014082
0.880837 1.0552529 1.0087012 0.9434794 0.98044646 1.0150521 0.9879863 0.9932337
0.98983234 0.9846075 1.0373379 0.8943392 0.9108481 1.0027264 0.8962969 1.0361788
1.0189228 0.94241136 1.064595 0.884519 0.9796811 1.1052176 0.95814604 1.0105236
0.93027294 1.0367982 0.90239567 1.099718 1.101946 1.0026262 0.94182926 1.1179088
1.073872 1.1070894 0.98833054 1.0176473 1.047152 1.0581934 1.0764928 0.8869671
1.0107734 1.0906985 1.0663136 1.1680647 0.9619812 0.87826055 0.93642116 0.8803535
0.96950805 1.0590627 0.9313253 0.9399337 0.93793005 1.0424321 1.126625 1.0216194
00000000: 4afa 763f 46ec 6e3f c9c3 743f e395 823f
00000010: 763d 723f 6408 853f 031f 893f 70cd 813f
00000020: 897e 613f 8712 873f 1f1d 813f de87 713f
00000030: 8afe 7a3f 3aed 813f acec 7c3f 9044 7e3f
00000040: a765 7d3f 3d0f 7c3f 7dc7 843f 6af3 643f
00000050: 572d 693f 5759 803f b773 653f 82a1 843f
00000060: 106c 823f df41 713f a644 883f d66f 623f
00000070: 61cc 7a3f c577 8d3f 0f49 753f d658 813f
00000080: 5e26 6e3f ceb5 843f 6703 673f 8fc3 8c3f
00000090: 910c 8d3f 0e56 803f b91b 713f a317 8f3f
000000a0: a374 893f 1bb5 8d3f 3b03 7d3f 4442 823f
000000b0: 1409 863f e272 873f 84ca 893f 4710 633f
000000c0: 0661 813f 029c 8b3f f77c 883f 2583 953f
000000d0: 6644 763f afd5 603f 4cb9 6f3f d95e 613f
000000e0: ae31 783f 5e8f 873f 566b 6e3f 7f9f 703f
000000f0: 2f1c 703f 6a6e 853f 3f35 903f 6dc4 823f

encoder.blocks.0.ln2.bias f4 [64]
-0.013569114 -0.00065815257 0.05472158 -0.037163977 0.02617728 0.037332203 -0.050689954 0.00191584
-0.02583021 0.03539875 0.043990463 0.029523335 -0.010003587 -0.00034116622 0.002896514 0.04213202
-0.076473944 -0.0146574555 0.00064253353 -0.006851577 -0.06511946 0.025455838 0.010948476 -0.04309701
-0.026429364 -0.007582681 -0.0019683365 -0.037160236 -0.0047685737 0.039379954 0.01624701 -0.0019110799
0.029660495 0.03943184 0.0058954675 0.04810807 0.023517905 -0.04339089 -0.0050472366 -0.010970254
-0.0067345467 -0.0597208 0.022373648 0.005653943 -0.034526464 0.03682811 0.057853863 0.034507893
-0.006533544 -0.036668234 -0.01996408 -0.05914713 -0.00854208 0.030484632 0.0022066643 0.016375357
0.03234207 -0.011989654 0.01483602 0.0052021765 0.03275755 0.020879362 -0.081234984 0.00690327
00000000: fd50 5ebc df87 2cba bc23 603d 4139 18bd
00000010: bc71 d63c a7e9 183d 45a0 4fbd ec1c fb3a
00000020: e099 d3bc 48fe 103d 582f 343d ecda f13c
00000030: 16e6 23bc 8ede b2b9 71d3 3d3b a092 2c3d
00000040: 5f9e 9cbd d325 70bc b26f 283a 3283 e0bb
00000050: 5a5d 85bd c388 d03c 3d61 333c 7e86 30bd
00000060: 6582 d8bc 2378 f8bb 35ff 00bb 5535 18bd
00000070: b241 9cbb e04c 213d 7318 853c 337d faba
00000080: 91fa f23c 4883 213d c42e c13b f80c 453d
00000090: 9fa8 c03c a5ba 31bd 4a63 a5bb 95bc 33bc
000000a0: 79ad dcbb cc9d 74bd f148 b73c b644 b93b
000000b0: 9f6b 0dbd 13d9 163d 2cf8 6c3d 2658 0d3d
000000c0: 5717 d6bb 6e31 16bd b68b a3bc 4344 72bd
000000d0: 15f4 0bbc e8ba f93c af9d 103b 9d25 863c
000000e0: 1e79 043d 4170 44bc c712 733c 0577 aa3b
000000f0: c82c 063d 320b ab3c 875e a6bd d334 e23b

encoder.blocks.0.attn.mask f4 [1, 1, 12, 12]
1.0 0.0 0.0 0.0 0.0 0.0 0.0 0.0
0.0 0.0 0.0 0.0 1.0 1.0 0.0 0.0
0.0 0.0 0.0 0.0 0.0 0.0 0.0 0.0
1.0 1.0 1.0 0.0 0.0 0.0 0.0 0.0
0.0 0.0 0.0 0.0 1.0 1.0 1.0 1.0
0.0 0.0 0.0 0.0 0.0 0.0 0.0 0.0
1.0 1.0 1.0 1.0 1.0 0.0 0.0 0.0
0.0 0.0 0.0 0.0 1.0 1.0 1.0 1.0
1.0 1.0 0.0 0.0 0.0 0.0 0.0 0.0
1.0 1.0 1.0 1.0 1.0 1.0 1.0 0.0
0.0 0.0 0.0 0.0 1.0 1.0 1.0 1.0
1.0 1.0 1.0 1.0 0.0 0.0 0.0 0.0
1.0 1.0 1.0 1.0 1.0 1.0 1.0 1.0
1.0 0.0 0.0 0.0 1.0 1.0 1.0 1.0
1.0 1.0 1.0 1.0 1.0 1.0 0.0 0.0
1.0 1.0 1.0 1.0 1.0 1.0 1.0 1.0
1.0 1.0 1.0 0.0 1.0 1.0 1.0 1.0
1.0 1.0 1.0 1.0 1.0 1.0 1.0 1.0
00000000: 0000 803f 0000 0000 0000 0000 0000 0000
00000010: 0000 0000 0000 0000 0000 0000 0000 0000
00000020: 0000 0000 0000 0000 0000 0000 0000 0000
00000030: 0000 803f 0000 803f 0000 0000 0000 0000
00000040: 0000 0000 0000 0000 0000 0000 0000 0000
00000050: 0000 0000 0000 0000 0000 0000 0000 0000
00000060: 0000 803f 0000 803f 0000 803f 0000 0000
00000070: 0000 0000 0000 0000 0000 0000 0000 0000
00000080: 0000 0000 0000 0000 0000 0000 0000 0000
00000090: 0000 803f 0000 803f 0000 803f 0000 803f
000000a0: 0000 0000 0000 0000 0000 0000 0000 0000
000000b0: 0000 0000 0000 0000 0000 0000 0000 0000
000000c0: 0000 803f 0000 803f 0000 803f 0000 803f
000000d0: 0000 803f 0000 0000 0000 0000 0000 0000
000000e0: 0000 0000 0000 0000 0000 0000 0000 0000
000000f0: 0000 803f 0000 803f 0000 803f 0000 803f
00000100: 0000 803f 0000 803f 0000 0000 0000 0000
00000110: 0000 0000 0000 0000 0000 0000 0000 0000
00000120: 0000 803f 0000 803f 0000 803f 0000 803f
00000130: 0000 803f 0000 803f 0000 803f 0000 0000
00000140: 0000 0000 0000 0000 0000 0000 0000 0000
00000150: 0000 803f 0000 803f 0000 803f 0000 803f
00000160: 0000 803f 0000 803f 0000 803f 0000 803f
00000170: 0000 0000 0000 0000 0000 0000 0000 0000
00000180: 0000 803f 0000 803f 0000 803f 0000 803f
00000190: 0000 803f 0000 803f 0000 803f 0000 803f
000001a0: 0000 803f 0000 0000 0000 0000 0000 0000
000001b0: 0000 803f 0000 803f 0000 803f 0000 803f
000001c0: 0000 803f 0000 803f 0000 803f 0000 803f
000001d0: 0000 803f 0000 803f 0000 0000 0000 0000
000001e0: 0000 803f 0000 803f 0000 803f 0000 803f
000001f0: 0000 803f 0000 803f 0000 803f 0000 803f
00000200: 0000 803f 0000 803f 0000 803f 0000 0000
00000210: 0000 803f 0000 803f 0000 803f 0000 803f
00000220: 0000 803f 0000 803f 0000 803f 0000 803f
00000230: 0000 803f 0000 803f 0000 803f 0000 803f

encoder.blocks.0.attn.key.weight f4 [64, 64]
-0.030239776 0.009395775 -0.045559 0.0426882 0.063688345 0.025838476 0.05204775 -0.053420406
-0.17075703 -0.05338669 -0.012350568 0.042551525 0.0269498 -0.0536349 -0.027441686 0.07765948
-0.22499597 0.03490736 0.07128348 0.026525736 0.044109896 -0.07321017 0.0064559556 -0.006981589
0.069268316 0.027199617 0.074374065 -0.13927409 -0.038081773 -0.058592994 0.070190035 -0.07432927
0.011644343 -0.06265318 0.06264202 -0.029276393 -0.001967639 0.052852694 0.025580658 0.059319112
-0.08314191 0.10708616 -0.010609802 0.1250867 -0.026220039 -0.016248208 0.06720812 0.16376331
-0.021165913 -0.018892553 0.019135186 -0.18318486 0.0048994403 -0.0062813465 -0.045712855 -0.09831202
-0.011547387 0.034709692 0.011601561 0.0054612784 0.09833236 -0.022006633 -0.11471487 0.19035152
0.021665689 -0.046162575 0.15135263 0.0029178646 0.0054659112 0.07213376 -0.008400871 -0.024753429
0.10754886 -0.053424865 0.0014175634 -0.05026084 -0.041820236 0.033658974 0.051127404 0.09380357
0.2784842 0.00037068117 0.011513876 -0.04309408 -0.06611241 -0.02574077 -0.00408475 -0.055606924
-0.04802392 -0.054335777 0.063129 0.016946726 -0.021075493 0.006692536 0.07440216 0.06471314
-0.09655581 0.010451964 -0.014883115 0.11941665 0.033135388 -0.05953138 -0.04728135 -0.061148494
0.17418945 -0.021988586 -0.023684027 0.04783543 0.1743034 -0.05662447 0.05908762 -0.11021437
-0.033965517 0.005317365 -0.06323049 0.21493334 -0.0948047 0.025689285 -0.04133904 0.17081632
-0.069934435 -0.037091862 -0.08299496 -0.13431671 -0.052441444 -0.080647565 0.14907156 -0.14908108
-0.069363646 -0.01553161 -0.17855394 -0.052467484 -0.03804303 -0.044551 -0.031210586 -0.03805421
0.10219138 0.12605433 0.1066597 0.029564736 0.04571696 -0.12265418 -0.05900628 -0.18158032
-0.13808955 0.06204238 -0.017379425 0.07450987 0.0786218 0.055140436 0.05985383 0.10537576
0.08252098 0.09335713 -0.09207978 0.049949978 0.075334564 0.0072876113 -0.14869577 -0.055659823
0.14297967 0.023404786 -0.013140499 -0.08332457 -0.03732052 0.0074969353 0.07079741 0.059641205
-0.16342087 0.034272887 0.039287027 -0.18523453 -0.22202894 0.11810832 -0.17680204 -0.024324492
0.02961674 0.00072343095 0.051420473 -0.10067491 0.050715454 -0.017452477 0.052665684 -0.10701511
0.08115106 0.078661375 0.17347698 0.037027538 0.08961864 0.13735737 -0.07234283 0.12665199
0.10505619 -0.0583805 0.063434914 -0.07352812 -0.12656371 -0.007894244 0.013836962 0.016338682
0.0016591554 0.03172242 0.05160313 -0.14678875 0.05912758 0.09874233 0.028717253 -0.1391419
0.09343376 -0.03148017 -0.055164855 -0.03918761 -0.066340476 -0.01921713 -0.0276337 -0.0154522415
-0.006106504 -0.023033304 0.046708006 0.057705596 -0.15605484 0.15174116 0.008056789 0.12502538
-0.031976018 -0.0002983155 -0.06363927 0.06166622 0.029262949 -0.08894669 -0.024693415 -0.034012042
0.07367495 0.004932788 0.03630752 0.0036399348 -0.0045347842 0.029365983 -0.10254755 -0.01022583
0.119992 0.133878 0.1355363 0.06893084 -0.068949535 -0.014338472 0.07532898 -0.014552144
0.0034135596 -0.034308676 -0.06615078 -0.09256984 -0.0054056514 -0.028664358 0.11937612 -0.13033625
00000000: 68b9 f7bc bdf0 193c 139c 3abd d2d9 2e3d
00000010: 096f 823d 36ab d33c 0630 553d 5bcf 5abd
00000020: eeda 2ebe 00ac 5abd 095a 4abc 824a 2e3d
00000030: d4c5 dc3c 45b0 5bbd 63cd e0bc ef0b 9f3d
00000040: 5865 66be 05fb 0e3d 13fd 913d 804c d93c
00000050: 94ac 343d 37ef 95bd 7b8c d33b d0c5 e4bb
00000060: 8cdc 8d3d bbd1 de3c 6e51 983d de9d 0ebe
00000070: a2fb 1bbd 35ff 6fbd cbbf 8f3d f239 98bd
00000080: eac7 3e3c 4f50 80bd 764a 803d 0cd5 efbc
00000090: 81f3 00bb 117c 583d 878e d13c 99f8 723d
000000a0: 4e46 aabd fd4f db3d bcd4 2dbc ba16 003e
000000b0: 68cb d6bc f61a 85bc 69a4 893d 92b1 273e
000000c0: 2364 adbc 8ec4 9abc 65c1 9c3c d094 3bbe
000000d0: 7c8b a03b c1d3 cdbb 673d 3bbd d057 c9bd
000000e0: 4031 3dbc c02b 0e3d 7914 3e3c 86f4 b23b
000000f0: 7a62 c93d 4147 b4bc a1ef eabd 82eb 423e
00000100: 3e7c b13c f814 3dbd 2ffc 1a3e a539 3f3b
00000110: 631b b33b ddba 933d cfa3 09bc b4c7 cabc
00000120: 9442 dc3d 08d4 5abd 89cd b93a 50de 4dbd
00000130: b24b 2bbd fedd 093d f86a 513d 161c c03d
00000140: 7b95 8e3e fc57 c239 b2a4 3c3c 6b83 30bd
00000150: f165 87bd 4fde d2bc 5ed9 85bb 16c4 63bd
00000160: bbb4 44bd 318f 5ebd c749 813d dcd3 8a3c
00000170: 83a6 acbc 104d db3b 2960 983d 5388 843d
00000180: 0dbf c5bd b73e 2b3c 4fd8 73bc b790 f43d
00000190: f9b8 073d 2dd7 73bd 17aa 41bd d876 7abd
000001a0: b85e 323e 6821 b4bc 0105 c2bc 15ef 433d
000001b0: 977c 323e 0fef 67bd dc05 723d 12b8 e1bd
000001c0: 6d1f 0bbd 4a3d ae3b fd7e 81bd 7c17 5c3e
000001d0: f728 c2bd 5672 d23c 2053 29bd 79ea 2e3e
000001e0: c939 8fbd a3ed 17bd 43f9 a9bd 528a 09be
000001f0: d7cc 56bd 8d2a a5bd 37a6 183e b6a8 18be
00000200: 870e 8ebd 4b78 7ebc d8d6 36be 25e8 56bd
00000210: 02d3 1bbd 1c7b 36bd 58ad ffbc bbde 1bbd
00000220: b749 d13d 6314 013e 6770 da3d bf31 f23c
00000230: b541 3b3d 1d32 fbbd 92b0 71bd 31f0 39be
00000240: 5967 0dbe 2720 7e3d 4c5f 8ebc a198 983d
00000250: 7704 a13d f0da 613d 4a29 753d 3fcf d73d
00000260: c200 a93d 0632 bf3d 5394 bcbd 5998 4c3d
00000270: 0249 9a3d eacc ee3b b443 18be 8efb 63bd
00000280: 4369 123e 65bb bf3c 3f4b 57bc 12a6 aabd
00000290: 67dd 18bd daa8 f53b 3cfe 903d 564a 743d
000002a0: cd57 27be ba61 0c3d 6feb 203d 1fae 3dbe
000002b0: 8e5b 63be c6e2 f13d 980b 35be 2844 c7bc
000002c0: ce9e f23c a1a4 3d3a 469e 523d a62e cebd
000002d0: 02bb 4f3d 7ff8 8ebc f9b7 573d bd2a dbbd
000002e0: 8732 a63d 3719 a13d f3a3 313e 30aa 173d
000002f0: fa89 b73d 69a7 0c3e 7a28 94bd 0fb1 013e
00000300: b327 d73d 6420 6fbd 2aea 813d e995 96bd
00000310: eb99 01be dc56 01bc 6db4 623c b3d8 853c
00000320: 0478 d93a 5eef 013d ce5d 533d ca4f 16be
00000330: c32f 723d 6b39 ca3d 7240 eb3c 377b 0ebe
00000340: 335a bf3d 5af1 00bd 8bf4 61bd 3083 20bd
00000350: 84dd 87bd 3e6d 9dbc 1260 e2bc 662b 7dbc
00000360: 1119 c8bb 57b0 bcbc e550 3f3d b45c 6c3d
00000370: d7cc 1fbe 0962 1b3e 9f00 043c a706 003e
00000380: 49f9 02bd 3b67 9cb9 4e55 82bd b895 7c3d
00000390: dab8 ef3c af29 b6bd d849 cabc 3650 0bbd
000003a0: e4e2 963d 3aa3 a13b 32b7 143d f98b 6e3b
000003b0: 8798 94bb ee90 f03c 7304 d2bd 3d8a 27bc
000003c0: 5ebe f53d 5017 093e 07ca 0a3e 9d2b 8d3d
000003d0: 6a35 8dbd e9eb 6abc 1546 9a3d 1e6c 6ebc
000003e0: 07b6 5f3b 4187 0cbd 0f7a 87bd 4295 bdbd
000003f0: e421 b1bb 84d1 eabc 787b f43d de76 05be

encoder.blocks.0.attn.key.bias f4 [64]
1.8197716e-07 8.3257625e-08 1.4733139e-07 -2.3664661e-08 1.8953138e-07 1.1031396e-07 -1.3014677e-07 4.592291e-08
4.7311843e-08 6.641348e-09 4.59676e-08 5.9698074e-08 -3.9205162e-08 2.1108905e-08 -8.5974904e-08 3.409652e-08
1.398441e-10 4.0751832e-08 -6.1507706e-08 -8.383048e-08 3.4362365e-08 -2.8260335e-08 -1.2406403e-08 1.1442851e-07
8.9823715e-08 -1.8636929e-07 -4.511233e-08 4.3707555e-08 -2.0722678e-07 -1.3769346e-07 -6.108501e-08 2.1670767e-08
1.08395014e-07 -1.5302608e-07 1.2577055e-07 -2.5092013e-09 1.3562412e-07 -1.8535735e-07 -1.574105e-07 -1.62376e-08
6.632329e-08 -2.908654e-08 -1.3886618e-07 -1.6969e-07 1.5202369e-07 -1.423102e-07 1.3553627e-07 1.3414626e-07
1.8380491e-07 -5.63355e-08 -7.757877e-09 2.3536333e-07 -1.2219023e-07 -5.517384e-08 -1.01998e-07 1.3122478e-07
-2.4300645e-08 -7.508071e-08 9.548051e-08 1.7436294e-07 -7.280004e-08 1.18492444e-07 2.1344611e-07 5.3733544e-08
00000000: 8065 4334 5dcb b233 2532 1e34 2447 cbb2
00000010: fd81 4b34 bee5 ec33 79be 0bb4 c63c 4533
00000020: ec33 4b33 ea31 e431 e96d 4533 5d33 8033
00000030: 8862 28b3 f952 b532 34a1 b8b3 8571 1233
00000040: 9dc2 192f 1d07 2f33 3816 84b3 4b06 b4b3
00000050: d295 1333 22c1 f2b2 f023 55b2 bdbb f533
00000060: 1ce5 c033 cd1c 48b4 88c1 41b3 f7b8 3b33
00000070: 1082 5eb4 e4d8 13b4 d72d 83b3 8526 ba32
00000080: cac6 e833 7d4f 24b4 8c0b 0734 566e 2cb1
00000090: 13a0 1134 a406 47b4 ab04 29b4 dc7a 8bb2
000000a0: 9d6d 8e33 fad9 f9b2 3f1b 15b4 0834 36b4
000000b0: f43b 2334 eecd 18b4 ed87 1134 d809 1034
000000c0: e95b 4534 8af5 71b3 8147 05b2 2eb8 7c34
000000d0: 6533 03b4 47f8 6cb3 fe09 dbb3 cbe6 0c34
000000e0: afbd d0b2 0f3c a1b3 f70a cd33 8538 3b34
000000f0: 3f56 9cb3 e975 fe33 9f2f 6534 a8c8 6633
