trainer/results/football/11_vs_11_stochastic/mat/check/run1/models/transformer_1000.pt (torch, 467894 bytes, 73 tensors)

encoder.state_encoder.0.weight f4 [37]
1.0 1.0 1.0 1.0 1.0 1.0 1.0 1.0
1.0 1.0 1.0 1.0 1.0 1.0 1.0 1.0
1.0 1.0 1.0 1.0 1.0 1.0 1.0 1.0
1.0 1.0 1.0 1.0 1.0 1.0 1.0 1.0
1.0 1.0 1.0 1.0 1.0
00000000: 0000 803f 0000 803f 0000 803f 0000 803f
00000010: 0000 803f 0000 803f 0000 803f 0000 803f
00000020: 0000 803f 0000 803f 0000 803f 0000 803f
00000030: 0000 803f 0000 803f 0000 803f 0000 803f
00000040: 0000 803f 0000 803f 0000 803f 0000 803f
00000050: 0000 803f 0000 803f 0000 803f 0000 803f
00000060: 0000 803f 0000 803f 0000 803f 0000 803f
00000070: 0000 803f 0000 803f 0000 803f 0000 803f
00000080: 0000 803f 0000 803f 0000 803f 0000 803f
00000090: 0000 803f

encoder.state_encoder.0.bias f4 [37]
0.0 0.0 0.0 0.0 0.0 0.0 0.0 0.0
0.0 0.0 0.0 0.0 0.0 0.0 0.0 0.0
0.0 0.0 0.0 0.0 0.0 0.0 0.0 0.0
0.0 0.0 0.0 0.0 0.0 0.0 0.0 0.0
0.0 0.0 0.0 0.0 0.0
00000000: 0000 0000 0000 0000 0000 0000 0000 0000
00000010: 0000 0000 0000 0000 0000 0000 0000 0000
00000020: 0000 0000 0000 0000 0000 0000 0000 0000
00000030: 0000 0000 0000 0000 0000 0000 0000 0000
00000040: 0000 0000 0000 0000 0000 0000 0000 0000
00000050: 0000 0000 0000 0000 0000 0000 0000 0000
00000060: 0000 0000 0000 0000 0000 0000 0000 0000
00000070: 0000 0000 0000 0000 0000 0000 0000 0000
00000080: 0000 0000 0000 0000 0000 0000 0000 0000
00000090: 0000 0000

encoder.state_encoder.1.weight f4 [64, 37]
0.4574152 0.19178663 0.11696038 -0.03484751 -0.024718557 0.08946806 0.01876197 0.09317158
0.26316312 -0.070077896 0.3382568 -0.05923168 -0.12915726 -0.2459303 -0.024627378 0.13580255
-0.15919763 -0.17724416 0.041411754 0.022096744 0.18048406 0.123222694 -0.07639876 -0.36825076
-0.29680172 -0.034182478 0.056617558 0.20112307 0.051109444 0.20088284 0.1841506 -0.07784154
0.022256143 -0.00198585 0.017833995 0.16791677 0.14283958 0.2520978 -0.0026797678 0.036555268
-0.34279457 0.20965734 0.109166384 0.05958064 0.182345 0.19287658 0.05516808 0.016364643
-0.12562779 0.28481907 0.024451666 0.35011736 -0.16751002 -0.27444172 0.09274273 0.009425651
-0.14077525 -0.21963161 0.17755678 -0.022642229 0.02076482 0.04338099 -0.35535234 -0.17457849
0.10034779 -0.06924844 -0.061708517 -0.08110467 0.29113233 0.07335813 -0.19970822 -0.03494495
-0.064540915 0.312445 0.062430877 -0.1748564 0.15701269 0.08229059 -0.085262515 -0.16688499
0.044076603 -0.23346321 0.014359764 -0.050128154 -0.2761496 -0.09011372 0.19620766 0.33910358
0.087567285 0.20255402 0.005088991 0.11868635 0.05329292 0.17252271 0.22197093 0.057809833
-0.032914076 -0.15549012 -0.27870542 0.29608682 -0.18096645 -0.054570347 -0.2719342 -0.05681888
-0.086294785 0.25709227 0.10048054 0.00021697802 0.01413764 0.20644523 -0.175578 0.06629577
-0.55853295 -0.055624884 -0.1845203 0.26592916 -0.08810885 -0.028984131 -0.30324194 -0.05605378
0.25482255 -0.09172232 -0.07383927 -0.2708589 0.19046381 0.018751414 -0.006208304 -0.13356234
-0.124814704 -0.09745824 0.05768247 0.25524354 0.14021857 -0.14652897 -0.07516245 0.16695458
-0.25621763 0.022513237 -0.18820949 -0.05454332 -0.05423308 -0.191489 -0.06498444 0.14634998
0.24868573 0.27689525 -0.3586541 -0.19422892 0.20540085 -0.25503674 0.36688456 -0.055246513
-0.047298037 0.130609 -0.043869317 0.086236976 -0.08167747 0.08824544 -0.013922421 -0.0008757562
-0.28996956 -0.2678294 -0.12416736 -0.003983409 -0.083968274 -0.18522517 -0.14653817 -0.008485533
0.19713818 0.023719832 0.03716988 -0.14856616 -0.12148814 0.012963545 -0.07299419 -0.011729042
-0.043155413 -0.09657931 -0.09067693 -0.36637384 -0.2825897 -0.3737699 -0.06531416 0.08889984
-0.19877006 0.062309705 0.17385122 -0.008961584 0.096334815 0.2159585 -0.11990709 0.064151324
-0.17163816 -0.28194264 0.013052619 0.16149867 0.14832835 -0.05156396 -0.1286681 -0.41663256
0.09592095 -0.11497352 0.053902917 -0.065543264 0.2730092 -0.10748558 -0.6373737 -0.19424647
-0.06450384 0.08185028 -0.11890842 0.0473612 -0.14008644 -0.07692784 -0.14484356 -0.18607596
0.043479685 0.0050566993 -0.14898743 0.09944455 -0.044569854 0.10265905 -0.037873775 0.28203073
0.068844385 -0.035023462 -0.3559894 0.2541483 -0.0029488925 0.07143271 0.14594343 0.2193845
-0.12030955 -0.04227861 -0.08445814 -0.2582056 -0.39506748 0.18912336 -0.13990681 0.022381444
-0.031242913 0.021755932 -0.01393924 0.09101519 0.13713178 0.12850487 -0.07857095 -0.25117433
-0.21247439 0.042816125 -0.10013963 0.007848316 -0.51894224 0.08713726 -0.14834349 0.1854715
00000000: 5332 ea3e b763 443e ec88 ef3d 43bc 0ebd
00000010: 927e cabc 083b b73d b4b2 993c bed0 be3d
00000020: 51bd 863e 0085 8fbd ff2f ad3e eb9c 72bd
00000030: cd41 04be 27d5 7bbe 5bbf c9bc d30f 0b3e
00000040: b404 23be 7e7f 35be 5f9f 293d 3b04 b53c
00000050: d0d0 383e 2e5c fc3d f476 9cbd 5d8b bcbe
00000060: 65f6 97be ed02 0cbd d0e7 673d 35f3 4d3e
00000070: 2358 513d 3bb4 4d3e fa91 3c3e 636b 9fbd
00000080: 8452 b63c 0925 02bb 9918 923c 60f2 2b3e
00000090: 8a44 123e f612 813e 0b9f 2fbb faba 153d
000000a0: c582 afbe 6ab0 563e a092 df3d d40a 743d
000000b0: a6b8 3a3e 7081 453e edf7 613d 250f 863c
000000c0: 92a4 00be ced3 913e dc4e c83c 9542 b33e
000000d0: bf87 2bbe a083 8cbe e7ef bd3d 0c6e 1a3c
000000e0: 6327 10be 1ce7 60be 72d1 353e 327c b9bc
000000f0: fc1a aa3c 44b0 313d bef0 b5be b4c4 32be
00000100: 2483 cd3d 20d2 8dbd 12c2 7cbd 351a a6bd
00000110: 4c0f 953e ca3c 963d 5080 4cbe 7022 0fbd
00000120: 072e 84bd cbf8 9f3e 85b7 7f3d 8e0d 33be
00000130: efc7 203e f887 a83d 1d9e aebd e6e3 2abe
00000140: ab89 343d fb10 6fbe 3745 6b3c 2e53 4dbd
00000150: 7b63 8dbe 8b8d b8bd a9ea 483e fc9e ad3e
00000160: 7a56 b33d 526a 4f3e 8dc1 a63b d411 f33d
00000170: ad49 5a3d cba9 303e 594c 633e 01ca 6c3d
00000180: e9d0 06bd cd38 1fbe 7ab2 8ebe b198 973e
00000190: 454f 39be 2885 5fbd f63a 8bbe eaba 68bd
000001a0: 52bb b0bd 99a1 833e bec8 cd3d 9884 6339
000001b0: 8fa1 673c 6166 533e b8ca 33be 14c6 873d
000001c0: 04fc 0ebf ebd6 63bd e4f2 3cbe de27 883e
000001d0: 6a72 b4bd 2170 edbc 8742 9bbe a698 65bd
000001e0: 1a78 823e e9d8 bbbd 0b39 97bd 05ae 8abe
000001f0: f208 433e 919c 993c 076f cbbb 91c4 08be
00000200: da9e ffbd 3098 c7bd 7444 6c3d 48af 823e
00000210: 7595 0f3e b10b 16be c5ee 99bd 24f6 2a3e
00000220: f52e 83be ae6d b83c fdb9 40be d168 5fbd
00000230: 8223 5ebd b115 44be 9016 85bd c5dc 153e
00000240: 79a7 7e3e 37c5 8d3e 83a1 b7be f2e3 46be
00000250: 9a54 523e 2d94 82be 4bd8 bb3e 2b4a 62bd
00000260: 96bb 41bd 5ebe 053e 50b0 33bd 039d b03d
00000270: 8446 a7bd 06ba b43d de1a 64bc 0193 65ba
00000280: e476 94be ef20 89be 754b febd 4287 82bb
00000290: 8ff7 abbd abab 3dbe 1a0e 16be e806 0bbc
000002a0: 97de 493e 1850 c23c 723f 183d ba21 18be
000002b0: c6ce f8bd 0c65 543c fa7d 95bd 2b2b 40bc
000002c0: bbc3 30bd 60cb c5bd d4b4 b9bd 5a95 bbbe
000002d0: 99af 90be c55e bfbe 6ec3 85bd 1f11 b63d
000002e0: 618a 4bbe 7638 7f3d 0e06 323e 9cd3 12bc
000002f0: 304b c53d 3a24 5d3e d991 f5bd c561 833d
00000300: eac1 2fbe c95a 90be a7da 553c e85f 253e
00000310: 63e3 173e bb34 53bd 92c1 03be dd50 d5be
00000320: 3472 c43d 3d77 ebbd 4ec9 5c3d 8c3b 86bd
00000330: ddc7 8b3e 6621 dcbd ec2a 23bf 8ce8 46be
00000340: 971a 84bd 1fa1 a73d 4286 f3bd d1fd 413d
00000350: d272 0fbe 588c 9dbd df51 14be b28a 3ebe
00000360: c117 323d abb2 a53b 2990 18be 96a9 cb3d
00000370: e18e 36bd e83e d23d 8821 1bbd 5566 903e
00000380: 49fe 8c3d c374 0fbd 3e44 b6be ba1f 823e
00000390: 3542 41bb 504b 923d 3272 153e 55a6 603e
000003a0: da64 f6bd 562c 2dbd 64f8 acbd 8633 84be
000003b0: 4946 cabe 8ea9 413e bb43 0fbe 4a59 b73c
000003c0: 23f1 ffbc 7f39 b23c 6961 64bc 2c66 ba3d
000003d0: 466c 0c3e c896 033e cee9 a0bd ec99 80be
000003e0: e392 59be f65f 2f3d 0216 cdbd 3996 003c
000003f0: 66d9 04bf 0575 b23d 5be7 17be 3eec 3d3e

encoder.state_encoder.1.bias f4 [64]
0.0 0.0 0.0 0.0 0.0 0.0 0.0 0.0
0.0 0.0 0.0 0.0 0.0 0.0 0.0 0.0
0.0 0.0 0.0 0.0 0.0 0.0 0.0 0.0
0.0 0.0 0.0 0.0 0.0 0.0 0.0 0.0
0.0 0.0 0.0 0.0 0.0 0.0 0.0 0.0
0.0 0.0 0.0 0.0 0.0 0.0 0.0 0.0
0.0 0.0 0.0 0.0 0.0 0.0 0.0 0.0
0.0 0.0 0.0 0.0 0.0 0.0 0.0 0.0
00000000: 0000 0000 0000 0000 0000 0000 0000 0000
00000010: 0000 0000 0000 0000 0000 0000 0000 0000
00000020: 0000 0000 0000 0000 0000 0000 0000 0000
00000030: 0000 0000 0000 0000 0000 0000 0000 0000
00000040: 0000 0000 0000 0000 0000 0000 0000 0000
00000050: 0000 0000 0000 0000 0000 0000 0000 0000
00000060: 0000 0000 0000 0000 0000 0000 0000 0000
00000070: 0000 0000 0000 0000 0000 0000 0000 0000
00000080: 0000 0000 0000 0000 0000 0000 0000 0000
00000090: 0000 0000 0000 0000 0000 0000 0000 0000
000000a0: 0000 0000 0000 0000 0000 0000 0000 0000
000000b0: 0000 0000 0000 0000 0000 0000 0000 0000
000000c0: 0000 0000 0000 0000 0000 0000 0000 0000
000000d0: 0000 0000 0000 0000 0000 0000 0000 0000
000000e0: 0000 0000 0000 0000 0000 0000 0000 0000
000000f0: 0000 0000 0000 0000 0000 0000 0000 0000

encoder.obs_encoder.0.weight f4 [217]
0.90926474 0.9734283 0.9885096 0.9651303 0.9459098 0.8974547 0.95771426 0.9258045
0.9338843 1.1729141 1.095309 1.2113405 1.1298072 0.95186025 0.69360757 0.58049065
1.121369 1.1206944 1.0192496 1.1148272 1.412846 1.1650785 1.0486395 1.0430405
1.2352589 1.128513 1.0798064 1.2500492 1.2264073 1.2684647 1.2891247 1.3197384
0.5396692 1.2726139 1.2184565 1.2543253 1.3815938 0.92610765 0.7686508 0.41050512
0.55761844 0.6741652 0.9527737 0.99902284 1.162903 2.0868814 0.96976 1.4208792
0.8525278 1.1550345 0.84079814 0.6944245 1.090641 0.26267514 0.5974937 0.5855319
0.8862652 0.99645466 0.90235615 0.8381872 0.3435035 0.4462492 0.5140388 0.81384456
0.93580234 0.9467694 0.7473064 0.29449025 0.49748668 0.5434481 0.9305069 0.947084
0.91624415 0.74552006 0.33429363 0.5728553 0.5094662 0.89627165 0.9619907 0.78129345
0.7277856 0.29264683 0.5417115 0.5138178 1.0312515 0.97672224 0.8875433 0.74787897
0.37556288 0.5302384 0.56453806 0.86715364 0.95406747 0.8063761 0.90913045 0.38620523
0.47492078 0.60001373 0.87367994 0.8111847 0.6332019 0.77872336 0.2322039 0.50345933
0.55249774 0.7906156 0.9203509 0.7023155 0.62068915 0.28567755 0.53620106 0.59458536
0.8332141 0.9770833 0.95371556 1.1477859 0.6072601 0.6811306 0.6753616 1.3154205
0.8453469 1.0066723 1.0243758 1.0730284 0.9554341 0.96055716 1.2033914 1.0882314
1.0117552 1.0577458 1.0071826 1.0264611 0.4897712 0.88563037 0.76684314 0.6709011
0.87961024 0.71551275 1.0296285 0.99554116 1.0100617 1.0886881 0.9592194 0.9709026
0.96456397 0.95423037 1.1428987 0.90107816 0.83093774 0.7249683 0.64283913 0.81996095
0.90355855 0.99022746 0.9872367 1.0211909 0.6794065 0.56082636 0.7611625 0.78410774
0.9524152 0.8696359 0.9536976 0.55246 0.64021957 0.6727703 0.84009266 0.9559534
0.84570843 0.95706016 0.59868616 0.7407057 0.7488571 0.9566087 0.96278954 0.8534821
1.0306379 0.4981384 0.6970044 0.61121714 0.7578831 0.9887321 0.9496866 0.9195636
0.67346567 0.5537732 0.6483821 0.75292736 0.99005455 0.94102746 1.0569953 0.8497671
0.91467136 0.72996986 0.86663777 0.9731871 0.9189125 1.084992 0.7590129 0.9329011
0.7511696 0.9280205 1.0054598 1.0152416 1.0953634 0.9354532 0.8138161 0.97706896
0.8900517 0.9641506 0.9287491 0.87225896 0.81769025 0.9404153 0.7520325 0.89361745
1.0275779
00000000: 93c5 683f 9932 793f f70e 7d3f c812 773f
00000010: 2527 723f 97bf 653f c32c 753f 8601 6d3f
00000020: 0b13 6f3f 0d22 963f 1633 8c3f 350d 9b3f
00000030: 869d 903f 1dad 733f 4490 313f 099b 143f
00000040: 0589 8f3f ea72 8f3f c576 823f a8b2 8e3f
00000050: 23d8 b43f 4b21 953f d239 863f 5a82 853f
00000060: f71c 9e3f 1d73 903f 1937 8a3f 9d01 a03f
00000070: eafa 9c3f 0d5d a23f 0a02 a53f 30ed a83f
00000080: c327 0a3f 03e5 a23f 62f6 9b3f bb8d a03f
00000090: 11d8 b03f 6415 6d3f 4dc6 443f ba2d d23e
000000a0: 15c0 0e3f 1796 2c3f fae8 733f f6bf 7f3f
000000b0: 01da 943f 778f 0540 3142 783f 5fdf b53f
000000c0: 433f 5a3f 2cd8 933f 8c3e 573f cec5 313f
000000d0: 209a 8b3f 5b7d 863e 59f5 183f 6be5 153f
000000e0: 47e2 623f a717 7f3f d000 673f 7093 563f
000000f0: b1df af3e c67a e43e 0c98 033f 1e58 503f
00000100: be90 6f3f 7b5f 723f 794f 3f3f 6dc7 963e
00000110: 93b6 fe3e 6a1f 0b3f b335 6e3f 1974 723f
00000120: fa8e 6a3f 67da 3e3f 8928 ab3e a5a6 123f
00000130: 606c 023f 0f72 653f 0645 763f d902 483f
00000140: 2850 3a3f ced5 953e 9bad 0a3f 9089 033f
00000150: 0d00 843f 780a 7a3f 0a36 633f ff74 3f3f
00000160: c749 c03e b4bd 073f 9185 103f c8fd 5d3f
00000170: c43d 743f aa6e 4e3f c6bc 683f b1bc c53e
00000180: d128 f33e 809a 193f 7da9 5f3f cda9 4f3f
00000190: 8519 223f 6a5a 473f dcc6 6d3e b6e2 003f
000001a0: 7e70 0d3f c965 4a3f 1e9c 6b3f f3ca 333f
000001b0: 7ce5 1e3f 5444 923e 7944 093f bf36 183f
000001c0: 854d 553f 2222 7a3f b426 743f a6ea 923f
000001d0: 6675 1b3f 935e 2e3f 7fe4 2c3f b35f a83f
000001e0: a868 583f a3da 803f bf1e 833f ff58 893f
000001f0: 5497 743f 13e7 753f bb08 9a3f 2b4b 8b3f
00000200: 3281 813f 3764 873f 5ceb 803f 1463 833f
00000210: 4ac3 fa3e acb8 623f d54f 443f 2dc0 2b3f
00000220: 232e 613f d82b 373f deca 833f c9db 7e3f
00000230: b449 813f 225a 8b3f 678f 753f 138d 783f
00000240: aaed 763f 7148 743f 814a 923f 0fad 663f
00000250: 56b8 543f 8697 393f 1b91 243f f6e8 513f
00000260: 9d4f 673f 8c7f 7d3f 8bbb 7c3f 62b6 823f
00000270: 96ed 2d3f 5192 0f3f 8cdb 423f 49bb 483f
00000280: 7cd1 733f 75a0 5e3f 8725 743f 056e 0d3f
00000290: 6ee5 233f ad3a 2c3f 5010 573f 5db9 743f
000002a0: 5980 583f e501 753f 7f43 193f e49e 3d3f
000002b0: 19b5 3f3f 4fe4 743f 6079 763f ce7d 5a3f
000002c0: f1eb 833f ff0b ff3e e16e 323f ba78 1c3f
000002d0: a004 423f 8c1d 7d3f a91e 733f 8568 6b3f
000002e0: 3f68 2c3f 15c4 0d3f 5ffc 253f d9bf 403f
000002f0: 3774 7d3f 2de7 703f 9f4b 873f 568a 593f
00000300: e727 6a3f 4edf 3a3f f9db 5d3f ca22 793f
00000310: d93d 6b3f 05e1 8a3f ab4e 423f 9bd2 6e3f
00000320: a74c 403f c092 6d3f e8b2 803f 70f3 813f
00000330: de34 8c3f dc79 6f3f 4056 503f 3121 7a3f
00000340: 6eda 633f 93d2 763f 80c2 6d3f 5d4c 5f3f
00000350: 2654 513f 0fbf 703f 3485 403f 1dc4 643f
00000360: ac87 833f

encoder.obs_encoder.0.bias f4 [217]
-0.12783958 -0.077158675 -0.03393865 -0.03509812 -0.083928615 -0.110813834 -0.07160672 -0.088691
-0.1008155 0.06790692 0.03946444 0.07637294 0.027504666 -0.056771122 -0.12076932 -0.06441383
0.049868546 0.025453202 0.05191263 0.03971425 0.008570533 0.06742887 -0.06200596 -0.012137766
0.09815332 -0.0033920505 0.047088005 0.027512357 0.040467184 0.08121199 0.029750584 0.021239717
0.04622035 -0.07707264 -0.08115803 -0.017035054 0.031544723 0.03342371 0.044003453 0.046292253
0.076066345 -0.09216597 -0.050166 -0.0020680276 0.00025840613 0.02162482 0.035214085 0.04573163
-0.059062734 -0.012074746 -0.07669914 0.055829316 0.022982702 0.047035478 0.08913438 -0.13021716
-0.051167693 -0.033920906 0.021717604 0.041890282 0.015627492 0.0651553 -0.123460054 -0.08367899
-0.07024516 0.06530212 0.0012080338 0.01255749 0.052342586 -0.058197495 -0.06615681 -0.033675354
0.03440868 0.009962388 -0.01187088 0.045174923 -0.12961797 -0.0781495 -0.055651423 0.101379484
0.02174258 0.061692894 0.055185985 -0.13138714 -0.038340002 -0.087909445 0.056621138 0.0148125915
0.032349057 0.076349676 -0.15273339 -0.07034109 -0.062341303 0.102453366 0.037693787 0.03721227
0.06633091 -0.1121918 -0.10241844 -0.061385572 -0.011468029 0.05202906 0.042004943 0.099948704
-0.14728424 -0.086543776 -0.028310362 0.02849775 -0.008049987 0.037294675 0.09630845 -0.11161008
-0.08111566 -0.023812445 0.024559408 -0.008659057 0.03926666 0.07279378 -0.10740885 -0.011406886
-0.016757675 -0.003002723 -0.0063939276 0.05533114 -0.025032653 0.031271633 -0.010498664 0.0032884101
0.0020604464 -0.045962367 -0.0735647 -0.015587861 -0.13586493 0.07432249 0.0906345 0.098793626
0.09999635 -0.12883805 -0.044346023 -0.06660606 -0.04131627 -0.007979254 0.03361297 0.070242755
0.037337653 -0.046675738 0.0010149437 0.07296406 -0.027223026 0.086865045 0.028157968 -0.057386626
-0.060341954 -0.04148708 0.023671545 -0.0029851561 0.056806028 0.04890555 -0.11022134 -0.10509075
-0.05002088 0.07258097 0.057120305 0.09968614 0.059707873 -0.10714194 -0.089461885 -0.029635016
0.050154224 0.09422654 0.06120037 0.043649852 -0.032499522 -0.057655312 -0.09298933 0.12434078
0.03283869 0.1393365 0.026632398 -0.16496713 -0.08520351 -0.087255135 0.058696732 0.0344926
0.06983305 0.066568606 -0.09862108 -0.049106903 -0.0012396855 0.097000785 0.036775995 0.10050947
0.03236928 -0.16056809 -0.05852732 -0.03245405 0.11847975 -0.049220823 0.13004568 0.034931894
-0.10717233 -0.11874293 -0.04651177 0.11239466 0.012796407 0.097221665 0.0116177555 -0.05216477
-0.12180846 -0.051907614 0.06490939 0.060158946 0.09172923 0.02284777 -0.13395503 -0.066618316
-0.08259688
00000000: 61e8 02be 5e05 9ebd 4103 0bbd 0cc3 0fbd
00000010: c4e2 abbd 5df2 e2bd 8ba6 92bd a1a3 b5bd
00000020: 5b78 cebd c912 8b3d 77a5 213d 6a69 9c3d
00000030: 7751 e13c d688 68bd e855 f7bd 66eb 83bd
00000040: f642 4c3d 3c83 d03c 57a2 543d 69ab 223d
00000050: 6c6b 0c3c 2618 8a3d f6f9 7dbd 7bdd 46bc
00000060: 9c04 c93d 2a4d 5ebb 5adf 403d 9861 e13c
00000070: ebc0 253d 7952 a63d 7fb7 f33c eafe ad3c
00000080: 8d51 3d3d 43d8 9dbd 2e36 a6bd 198d 8bbc
00000090: 0a35 013d 4de7 083d f73c 343d f29c 3d3d
000000a0: acc8 9b3d 83c1 bcbd dd7a 4dbd bf87 07bb
000000b0: af7a 8739 8926 b13c a53c 103d 1751 3b3d
000000c0: c4eb 71bd 28d5 45bc 7014 9dbd 48ad 643d
000000d0: 3846 bc3c 46a8 403d 168c b63d a657 05be
000000e0: 3795 51bd a6f0 0abd 1ee9 b13c 2595 2b3d
000000f0: 3a05 803c 2470 853d a0d8 fcbd e45f abbd
00000100: b2dc 8fbd 1ebd 853d e356 9e3a eebd 4d3c
00000110: 2e65 563d 7f60 6ebd 397d 87bd 2bef 09bd
00000120: 1ef0 0c3d 4939 233c 147e 42bc 5709 393d
00000130: 93ba 04be d80c a0bd bff2 63bd 0ca0 cf3d
00000140: 7f1d b23c b0b1 7c3d b30a 623d 5a8a 06be
00000150: 680a 1dbd de09 b4bd 91eb 673d 83b0 723c
00000160: 7280 043d 385d 9c3d 2466 1cbe fd0e 90bd
00000170: 9859 7fbd 12d3 d13d cd64 1a3d e56b 183d
00000180: 80d8 873d d0c4 e5bd c2c0 d1bd 706f 7bbd
00000190: 66e4 3bbc 6c1c 553d 600d 2c3d e8b1 cc3d
000001a0: aed1 16be dd3d b1bd 22eb e7bc 1d74 e93c
000001b0: 18e4 03bc 4dc2 183d 5d3d c53d d393 e4bd
000001c0: f81f a6bd 5112 c3bc d030 c93c b8de 0dbc
000001d0: 14d6 203d e814 953d 2cf9 dbbd f3e3 3abc
000001e0: 6447 89bc 55c9 44bb 2784 d1bb e8a2 623d
000001f0: 4711 cdbc af16 003d 9702 2cbc 5e82 573b
00000200: 8e08 073b 0943 3cbd 17a9 96bd 3a64 7fbc
00000210: 2d20 0bbe 6436 983d 959e b93d 5054 ca3d
00000220: e3ca cc3d 1fee 03be 2da4 35bd c268 88bd
00000230: 403b 29bd 6bbb 02bc c1ad 093d 6fdb 8f3d
00000240: 5eef 183d 0f2f 3fbd dc07 853a 2e6e 953d
00000250: d302 dfbc 4de6 b13d 8aab e63c 3d0e 6bbd
00000260: 2029 77bd 5bee 29bd d4ea c13c 9ca2 43bb
00000270: 70ad 683d 3051 483d babb e1bd d239 d7bd
00000280: b2e2 4cbd 55a5 943d fbf6 693d 3f28 cc3d
00000290: 3e90 743d 3c6d dbbd cb37 b7bd 22c5 f2bc
000002a0: 846e 4d3d d8f9 c03d 3dad 7a3d 30ca 323d
000002b0: 381e 05bd fa27 6cbd 3171 bebd 61a6 fe3d
000002c0: dd81 063d 3aae 0e3e 302c da3c 25ed 28be
000002d0: 2e7f aebd d2b2 b2bd fc6b 703d 1d48 0d3d
000002e0: a104 8f3d 1f55 883d d9f9 c9bd 5224 49bd
000002f0: f17c a2ba 59a8 c63d 6da2 163d e9d7 cd3d
00000300: a695 043d f66b 24be 58ba 6fbd 8aee 04bd
00000310: 83a5 f23d c69b 49bd b22a 053e bf14 0f3d
00000320: 2b7d dbbd 7e2f f3bd 2083 3ebd 2c2f e63d
00000330: 05a8 513c 271c c73d 6658 3e3c baaa 55bd
00000340: b776 f9bd 149d 54bd 37ef 843d 3a69 763d
00000350: 89dc bb3d 3f2b bb3c 822b 09be 2f6f 88bd
00000360: 8e28 a9bd

encoder.obs_encoder.1.weight f4 [64, 217]
0.11834048 0.08967669 -0.013504653 0.08958026 0.062386498 0.073587924 0.23733489 0.07959456
0.020870382 0.17135552 0.06471584 0.009401466 0.01594614 0.103801966 -0.037829895 -0.010500374
0.12940376 -0.012577096 0.034853827 -0.088440455 -0.036879525 0.079836465 0.088148706 0.052836638
0.0036924072 0.046630234 0.14754173 0.30508423 0.14178093 0.0106911855 -0.1265088 -0.026036143
0.08575748 0.01946077 -0.14020152 0.037258014 -0.20646791 -0.039426103 0.058643065 -0.01778214
0.02181925 0.10173053 -0.0020373727 -0.15134068 -0.040129405 0.013242023 0.016624687 0.08547543
0.19804405 -0.0018825096 0.09215473 -0.104538135 -0.0037217673 -0.084996596 0.054032963 0.10109869
-0.00020190372 -0.1469455 -0.23059559 0.20284168 -0.09460069 -0.037971433 0.16757946 0.14916514
-0.03413193 -0.09557288 -0.09478004 0.022492835 0.21029255 0.09380169 -0.031695575 -0.19850579
-0.1603524 0.035071112 0.052729037 0.014490997 0.07884358 -0.043549895 -0.25900742 0.04637971
0.22361952 0.0007171626 0.09725321 0.13082682 0.15561923 -0.18407977 0.06179325 0.14887892
0.2438655 0.03811574 0.008113157 0.06477643 -0.16599831 -0.02632846 0.017486392 -0.07998161
-0.06116465 -0.0050455234 0.10986268 -0.007840476 -0.15183508 0.14665622 0.020490784 -0.04741414
0.052583575 -0.16565654 -0.1407494 0.11703187 -0.089976065 -0.019445606 0.06771297 0.085294746
0.0121900365 -0.13945088 -0.0052921404 -0.08800001 -0.005556638 0.024089264 0.021622198 0.2687732
0.23793833 0.25975546 0.15694061 0.43640035 0.27122095 0.22840619 0.20158848 0.09449792
0.14463626 0.37841025 -0.097845264 0.032474305 0.092905894 -0.060256947 0.010350627 0.036766373
0.043996118 -0.042605437 -0.108807564 -0.03713299 0.11562154 0.1503865 0.12174013 -0.017193483
-0.025402652 0.10617119 0.13918504 -0.12953117 -0.050334446 -0.040850967 -0.13247211 0.0111694755
0.08223878 -0.15228927 -0.2319009 -0.12175409 -0.14216033 -0.115686 -0.05574373 0.031192498
0.0020989592 -0.18179072 -0.0065638274 -0.09767316 -0.019944139 0.116112195 -0.05938524 -0.15075475
0.25307852 -0.052239794 0.14499594 0.055534333 -0.024133777 0.16256407 -0.052987345 -0.1703634
0.13530669 -0.10266783 -0.12825343 -0.11508216 0.111908525 -3.4692795e-05 -0.0790935 -0.014650326
0.03630738 -0.1363013 0.14091603 0.012905856 0.036778353 0.14188758 0.17227751 0.03217066
0.13960795 -0.031814013 -0.05093279 -0.18715118 -0.057016995 -0.17389944 0.099149786 -0.30562124
-0.0029766378 0.012869129 -0.031384204 -0.12824969 0.09327921 0.14466023 -0.072735384 -0.003586066
0.025187982 -0.13074613 -0.033798933 -0.0090846615 -0.13203332 0.0163611 -0.18238635 0.029584333
-0.21494962 -0.023788333 -0.046959024 -0.08826865 0.06540753 -0.12644856 0.096975066 0.009000032
-0.015876915 -0.1481266 -0.1837698 -0.18217003 0.05243381 0.07003423 -0.18405668 -0.040911518
-0.06938161 -0.37781748 -0.056895297 0.09737226 -0.0796002 -0.031258106 -0.25676033 0.124816075
0.039209783 -0.07338736 0.012611453 -0.01073165 -0.17484343 -0.19206746 0.13029808 -0.13221212
0.27796486 0.03073687 0.01525811 0.122716576 0.09457992 -0.24289466 -0.011943109 0.03386697
00000000: 7e5c f23d 6aa8 b73d 9f42 5dbc db75 b73d
00000010: fc88 7f3d 44b5 963d eb07 733e 7902 a33d
00000020: 5df8 aa3c d277 2f3e bd89 843d 9b08 1a3c
00000030: 7ba1 823c 2096 d43d 85f3 1abd c309 2cbc
00000040: 6b82 043e 2a10 4ebc e3c2 0e3d 4520 b5bd
00000050: fc0e 17bd 4d81 a33d 4f87 b43d 3b6b 583d
00000060: 50fc 713b 58ff 3e3d 2e15 173e 0034 9c3e
00000070: 052f 113e 152a 2f3c 868b 01be c049 d5bc
00000080: 9ea1 af3d 316c 9f3c fd90 0fbe dc9b 183d
00000090: 536c 53be 447d 21bd b633 703d daab 91bc
000000a0: 49be b23c 1958 d03d 7185 05bb 0df9 1abe
000000b0: bb5e 24bd 12f5 583c 7f30 883c be0d af3d
000000c0: 0fcc 4a3e 8abe f6ba 9ebb bc3d 1718 d6bd
000000d0: e5e8 73bb b212 aebd ab51 5d3d d40c cf3d
000000e0: 1eb6 53b9 e278 16be 4021 6cbe bbb5 4f3e
000000f0: 02be c1bd ef87 1bbd f399 2b3e bfbe 183e
00000100: eccd 0bbd b7bb c3bd 0a1c c2bd e542 b83c
00000110: ee56 573e 1a1b c03d 38d3 01bd 1a45 4bbe
00000120: 6b33 24be baa6 0f3d 67fa 573d a66b 6d3c
00000130: be78 a13d 6061 32bd 9f9c 84be a7f8 3d3d
00000140: 84fc 643e f8ff 3b3a b12c c73d 77f7 053e
00000150: a65a 1f3e 687f 3cbe eb1a 7d3d b773 183e
00000160: e1b7 793e 401f 1c3d 0ced 043c 81a9 843d
00000170: 76fb 29be c8ae d7bc 9f3f 8f3c 66cd a3bd
00000180: c987 7abd eb54 a5bb afff e03d 5775 00bc
00000190: a87a 1bbe 0c2d 163e 4adc a73c 5435 42bd
000001a0: e061 573d dea1 29be 9c20 10be 68ae ef3d
000001b0: 5f45 b8bd 644c 9fbc 19ad 8a3d 03af ae3d
000001c0: b8b8 473c 36cc 0ebe b169 adbb 5939 b4bd
000001d0: 7514 b6bb d956 c53c 0921 b13c a49c 893e
000001e0: 1ba6 733e abfe 843e 0ab5 203e de6f df3e
000001f0: 79dd 8a3e 50e3 693e 366d 4e3e 2088 c13d
00000200: 871b 143e fdbe c13e 1963 c8bd c703 053d
00000210: 7245 be3d fdcf 76bd ad95 293c 5698 163d
00000220: 4635 343d 0a83 2ebd 80d6 debd c318 18bd
00000230: fcca ec3d ebfe 193e e452 f93d 59d9 8cbc
00000240: 3919 d0bc 4870 d93d 8686 0e3e d2a3 04be
00000250: 7e2b 4ebd 5853 27bd c5a6 07be 2d00 373c
00000260: ce6c a83d b8f1 1bbe 6e77 6dbe 355a f9bd
00000270: 7a92 11be c8ec ecbd 8a53 64bd 6987 ff3c
00000280: b18e 093b 5927 3abe 6015 d7bb de08 c8bd
00000290: e461 a3bc 3bcc ed3d f03d 73bd 745f 1abe
000002a0: 8293 813e 65f9 55bd d179 143e f877 633d
000002b0: 33b4 c5bc 3277 263e 4209 59bd be73 2ebe
000002c0: d68d 0a3e 8343 d2bd de54 03be 32b0 ebbd
000002d0: 4c30 e53d 1b83 11b8 c6fb a1bd ec07 70bc
000002e0: 0cb7 143d 9192 0bbe 4b4c 103e 1573 533c
000002f0: e6a4 163d fa4a 113e 8469 303e 62c5 033d
00000300: 63f5 0e3e 694f 02bd e79e 50bd 8fa4 3fbe
00000310: a78a 69bd b212 32be 0b0f cb3d 637a 9cbe
00000320: b213 43bb 0ad9 523c b98c 00bd e353 03be
00000330: 2c09 bf3d d021 143e 4af6 94bd 3404 6bbb
00000340: 0757 ce3c 50e2 05be c070 0abd d5d7 14bc
00000350: be33 07be b707 863c 7dc3 3abe d85a f23c
00000360: c11b 5cbe c0df c2bc 1b58 40bd 32c6 b4bd
00000370: 62f4 853d bb7b 01be dd9a c63d df74 133c
00000380: 4e10 82bc 80ae 17be 272e 3cbe c88a 3abe
00000390: d6c4 563d 1b6e 8f3d 5b79 3cbe d692 27bd
000003a0: f217 8ebd 4b71 c1be 0b0b 69bd 1c6b c73d
000003b0: 6e05 a3bd 8008 00bd 1776 83be 929f ff3d
000003c0: 709a 203d 1d4c 96bd 45a0 4e3c cdd3 2fbc
000003d0: 280a 33be 55ad 44be dc6c 053e 9d62 07be
000003e0: 6951 8e3e e3cb fb3c 27fd 793c d452 fb3d
000003f0: 1eb3 c13d 61b9 78be 08ad 43bc 18b8 0a3d

encoder.obs_encoder.1.bias f4 [64]
0.012547823 -0.019968193 -0.018420178 0.026683511 0.05467051 0.010145853 -0.0006302715 0.036045913
0.033828057 0.045233637 0.10137322 -0.016666433 -0.031418826 -0.025477096 0.025767704 -0.020202652
-0.002670851 0.039294988 0.026599113 0.025636947 0.003036958 -0.0015099888 -0.0060603735 0.0047503887
0.027776446 -0.027656956 -0.004581515 0.043977894 0.013945934 0.008091827 0.048271246 0.021557674
0.07018961 0.05452189 0.008948815 0.0482841 0.103920326 0.05225442 0.0053645493 0.03907712
0.036051482 -0.032361664 0.052361637 -0.026871486 0.007616099 0.027273953 -0.0027458605 -0.035351817
-0.03150077 0.0077805547 0.015515747 0.027143087 0.017311735 0.030683989 0.027156718 -0.0038589411
0.014499577 -0.123412974 -0.015809305 0.024383288 -0.043102838 0.041932683 -0.00059635827 -0.028184505
00000000: 6295 4d3c 5694 a3bc eae5 96bc 6197 da3c
00000010: 2fee 5f3d cb3a 263c ce38 25ba e1a4 133d
00000020: 4a8f 0a3d e846 393d c39c cf3d 0b88 88bc
00000030: 07b1 00bd 58b5 d0bc cb16 d33c 0880 a5bc
00000040: 7209 2fbb c8f3 203d 62e6 d93c 9304 d23c
00000050: b307 473b d1ea c5ba 1996 c6bb 26a9 9b3b
00000060: 6e8b e33c d790 e2bc 8920 96bb 2a22 343d
00000070: 7d7d 643c 9593 043c 12b8 453d b899 b03c
00000080: 92bf 8f3d 5852 5f3d 0d9e 123c 8cc5 453d
00000090: 2ed4 d43d bb08 563d 1ac9 af3b 550f 203d
000000a0: b8aa 133d aa8d 04bd 2879 563d 9721 dcbc
000000b0: 7890 f93b a06d df3c e5f3 33bb 11cd 10bd
000000c0: f406 01bd 06f4 fe3b c235 7e3c 2e5b de3c
000000d0: 57d1 8d3c fd5c fb3c c477 de3c 4ae6 7cbb
000000e0: a28f 6d3c f1bf fcbd 8482 81bc 76bf c73c
000000f0: 9a8c 30bd 9bc1 2b3d ed54 1cba 31e3 e6bc

encoder.ln.weight f4 [64]
0.92064697 0.8982936 0.9136324 0.99581015 0.9289686 0.9264934 1.0862756 1.0598109
0.9942261 1.0012255 0.848308 0.78225225 0.96787876 1.0253342 0.94559467 0.9061641
1.2809281 0.88606715 1.0716223 0.9212184 1.0547714 0.8512013 0.80132395 1.0328981
0.9963306 0.9660737 1.003499 0.9573607 0.9481923 1.0181116 0.95870936 1.1394854
0.9473697 1.029567 0.8589949 0.94638544 0.9725925 0.9497003 0.9449664 1.0652764
1.0666131 1.0540042 0.8032063 1.0248561 1.0165992 1.0452684 1.0248111 0.9628527
1.0418943 1.0653242 1.0486332 1.1412277 0.97819906 0.9235061 0.981679 0.9832343
0.98913646 0.9620821 0.88684064 0.95967966 0.892348 0.9311613 1.0541992 1.048927
00000000: 85af 6b3f 92f6 653f d0e3 693f 6aed 7e3f
00000010: e3d0 6d3f ac2e 6d3f 140b 8b3f e2a7 873f
00000020: 9a85 7e3f 2828 803f b72a 593f af41 483f
00000030: e7c6 773f 273e 833f 7e12 723f 5ffa 673f
00000040: 74f5 a33f 4cd5 623f eb2a 893f f8d4 6b3f
00000050: c002 873f 54e8 593f 9123 4d3f 0136 843f
00000060: 860f 7f3f 9b50 773f a872 803f 9715 753f
00000070: bbbc 723f 7b51 823f fa6d 753f a8da 913f
00000080: d286 723f dac8 833f 17e7 5b3f 5146 723f
00000090: d2fb 783f 8f1f 733f 51e9 713f fa5a 883f
000000a0: c786 883f 9ce9 863f ee9e 4d3f 7c2e 833f
000000b0: ec1f 823f 5bcb 853f 032d 833f 847d 763f
000000c0: cb5c 853f 8b5c 883f 9d39 863f c013 923f
000000d0: 416b 7a3f e56a 6c3f 514f 7b3f 3eb5 7b3f
000000e0: 0c38 7d3f 034b 763f fd07 633f 91ad 753f
000000f0: eb70 643f 9660 6e3f 00f0 863f 3d43 863f

encoder.ln.bias f4 [64]
-0.057338245 -0.01404198 -0.0007609613 0.0028280402 0.029638616 0.02665891 -0.040384777 0.0050500305
0.012454156 0.0050279666 0.05013829 -0.015364039 -0.053915463 -0.033849485 0.018645125 -0.023334797
-0.027454937 -0.024806717 0.0014386178 0.08286865 -0.020506054 0.015374621 0.03186317 -0.01827556
-0.004787529 0.042025525 -0.045027696 -0.005934054 0.0363832 0.023987511 0.03178441 -0.003285857
0.07077259 -0.0036530194 -0.04944782 0.036793053 0.070795365 -0.024764106 0.020104766 0.04873578
0.038137916 -0.011614494 -0.061612543 -0.006835201 -0.06263183 0.047531404 0.02662261 0.02649136
-0.04633896 0.015776914 0.009405543 0.0028685862 -0.005098975 0.021469826 0.0149240075 0.007390496
0.033518642 0.0406287 0.053991716 0.0334548 0.07533236 0.0042900243 -0.0023776877 0.003374355
00000000: 82db 6abd 5510 66bc 407b 47ba a456 393b
00000010: afcc f23c c963 da3c 826a 25bd ba7a a53b
00000020: 840c 4c3c a4c1 a43b cf5d 4d3d 73b9 7bbc
00000030: 76d6 5cbd c2a5 0abd a9bd 983c 9e28 bfbc
00000040: 2de9 e0bc 7537 cbbc 0190 bc3a 0ab7 a93d
00000050: 50fc a7bc d6e5 7b3c f582 023d a1b6 95bc
00000060: b4e0 9cbb f522 2c3d f66e 38bd 7472 c2bb
00000070: 8d06 153d 7581 c43c 5f30 023d 8857 57bb
00000080: 38f1 903d 7f67 6fbb cc89 4abd 50b4 163d
00000090: 29fd 903d 18de cabc c0b2 a43c 2b9f 473d
000000a0: 8136 1c3d b84a 3ebc 6f5d 7cbd d2f9 dfbb
000000b0: 1e45 80bd 4ab0 423d a917 da3c 6904 d93c
000000c0: eccd 3dbd 963e 813c b519 1a3c e4fe 3b3b
000000d0: 4d15 a7bb 7de1 af3c d383 743c f92b f23b
000000e0: d84a 093d 486a 263d 6b26 5d3d e607 093d
000000f0: da47 9a3d 5593 8c3b fbd2 1bbb 4824 5d3b

encoder.blocks.0.ln1.weight f4 [64]
0.9812391 0.990483 0.97791725 0.9482745 0.8941164 0.9580625 1.1381054 1.010365
0.74367815 1.0445443 0.9907796 0.73479295 1.0302148 1.0608572 1.0017916 0.938134
0.9999056 1.0203323 1.0766615 0.8932393 0.8584772 0.9012227 0.8179925 1.0429268
1.0520176 0.9792371 1.04915 0.97249067 1.0474739 1.1269847 1.0204989 1.1279724
0.93415475 1.0386373 0.95473367 1.0638525 1.0448321 1.0605427 0.9050956 1.057221
0.9804536 1.0372614 0.8850544 1.0542974 1.0528446 1.0539608 1.0486312 0.78089434
1.0986296 1.1261573 1.0167756 1.0999976 1.025541 0.8183088 0.9912898 0.97634923
1.0453537 0.97371584 0.91151667 0.7651201 0.9025352 1.0030634 0.9894919 1.0043335
00000000: 7c32 7b3f 4b90 7d3f c958 7a3f 1ec2 723f
00000010: d0e4 643f 9643 753f 70ad 913f a453 813f
00000020: b161 3e3f a1b3 853f bba3 7d3f 641b 3c3f
00000030: 14de 833f 2bca 873f b53a 803f 8d29 703f
00000040: d0f9 7f3f 409a 823f 0bd0 893f 55ab 643f
00000050: 29c5 5b3f 88b6 663f f567 513f a07e 853f
00000060: 83a8 863f 48af 7a3f 8c4a 863f 26f5 783f
00000070: a013 863f 0941 903f b59f 823f 6661 903f
00000080: c424 6f3f 11f2 843f 6d69 743f 522c 883f
00000090: 0fbd 853f ddbf 873f 58b4 673f 0553 873f
000000a0: 02ff 7a3f fbc4 843f ed92 623f 38f3 863f
000000b0: 9dc3 863f 30e8 863f 8c39 863f b1e8 473f
000000c0: e59f 8c3f ec25 903f b425 823f b9cc 8c3f
000000d0: ed44 833f af7c 513f 2bc5 7d3f 06f2 793f
000000e0: 26ce 853f 7145 793f 2859 693f e9de 433f
000000f0: 8c0c 673f 6264 803f 574f 7d3f 008e 803f

encoder.blocks.0.ln1.bias f4 [64]
-0.031420812 -0.03338722 0.04368573 -0.07605154 0.04437693 0.039970595 -0.03515815 -0.006986898
0.031544935 0.015719796 0.074711576 0.076805815 -0.026859874 -0.01206157 -0.0056241737 0.022868067
-0.05741772 0.019176586 0.020630546 0.06154108 -0.03933545 0.0031282168 0.044041008 -0.034582146
-0.07160445 -0.003564412 -0.0142709315 0.039389435 0.0025256977 0.07161847 -0.059427988 -0.022004569
0.03394946 0.026078537 -0.0026615327 0.040183656 0.044790372 -0.029998226 0.022037704 0.04546682
0.027933497 -0.05013919 -0.05812296 0.009380654 -0.059554856 0.072415255 0.07954246 0.098444745
-0.015877131 -0.009879507 0.035163194 -0.031753834 0.010042053 0.04864859 0.09275447 -0.015505535
0.07746399 0.041750718 0.019593632 0.023952276 0.0363994 -0.014460058 0.0020971156 -0.0032261577
00000000: 1cb3 00bd 0ac1 08bd cfef 323d e9c0 9bbd
00000010: 95c4 353d 35b8 233d fe01 10bd 59f2 e4bb
00000020: 4335 013d cdc6 803c 6202 993d 5e4c 9d3d
00000030: 3d09 dcbc e49d 45bc fd4a b8bb d055 bb3c
00000040: d82e 6bbd 3718 9d3c 6401 a93c 8012 7c3d
00000050: 351e 21bd c502 4d3b 5864 343d 02a6 0dbd
00000060: 5ba5 92bd e998 69bb a0d0 69bc d156 213d
00000070: 2d86 253b b4ac 923d c36a 73bd ed42 b4bc
00000080: 970e 0b3d a8a2 d53c 1c6d 2ebb 9e97 243d
00000090: 1c76 373d d7be f5bc 6a88 b43c 6b3b 3a3d
000000a0: cad4 e43c c05e 4dbd 5712 6ebd 51b1 193c
000000b0: cbef 73bd 734e 943d 28e7 a23d 669d c93d
000000c0: c210 82bc a8dd 21bc 4807 103d 4f10 02bd
000000d0: 6c87 243c be43 473d 0ef6 bd3d ed0a 7ebc
000000e0: 71a5 9e3d cd02 2b3d d382 a03c 9037 c43c
000000f0: 8a17 153d e1e9 6cbc c36f 093b f26d 53bb

encoder.blocks.0.ln2.weight f4 [64]
0.9746651 0.90554035 0.95443577 1.0463194 0.89940697 1.0328469 1.076683 1.0272442
0.8588773 1.0755165 1.0206562 0.95983016 0.9767193 1.0112038 0.97324437 0.97114706
0.97570807 1.00153 1.0544006 0.8408779 0.91453904 0.97898245 0.9325561 1.0327886
1.0259012 0.9567684 1.0229443 0.8750559 0.9860927 1.0808026 0.9642928 1.020553
0.9402795 1.0471818 0.9237404 1.1136856 1.1067072 1.0036463 0.9505107 1.12499
1.0405453 1.1138896 1.022008 1.0161656 1.0534436 1.0600692 1.117966 0.8644657
0.99091434 1.0726372 1.0776231 1.1690292 0.95272374 0.8904742 0.9180509 0.89766914
0.9979064 1.0589586 0.92375594 0.9682782 0.9091547 1.0388466 1.1566218 1.0240718
00000000: a783 793f 7ed1 673f e755 743f cbed 853f
00000010: 893f 663f 5434 843f c0d0 893f bd7c 833f
00000020: 62df 5b3f 86aa 893f dda4 823f 6eb7 753f
00000030: 470a 7a3f 206f 813f 8b26 793f 189d 783f
00000040: 01c8 793f 2332 803f 99f6 863f c643 573f
00000050: 3b1f 6a3f 989e 7a3f ffbb 6e3f 6b32 843f
00000060: bb50 833f c6ee 743f d7ef 823f aa03 603f
00000070: 9270 7c3f bd57 8a3f e5db 763f 7ba1 823f
00000080: 28b6 703f 0e0a 863f 407a 6c3f 408d 8e3f
00000090: 95a8 8d3f 7b77 803f ab54 733f acff 8f3f
000000a0: 9730 853f ef93 8e3f 28d1 823f b711 823f
000000b0: 3dd7 863f 59b0 873f 8319 8f3f a04d 5d3f
000000c0: 90ac 7d3f 2d4c 893f 8eef 893f c0a2 953f
000000d0: b4e5 733f 1ef6 633f 6205 6b3f a5cd 653f
000000e0: cb76 7f3f f58b 873f 457b 6c3f 15e1 773f
000000f0: 5dbe 683f edf8 843f 2f0c 943f c914 833f

encoder.blocks.0.ln2.bias f4 [64]
-0.02088465 -0.012970268 0.054232277 -0.06400919 0.002440884 0.036873285 -0.067392655 0.023431681
-0.04795713 0.047854405 0.044312064 0.0247129 -0.009324633 -0.0048871906 -0.010838102 0.027432078
-0.08947159 -0.013587119 0.0069617177 -0.009728932 -0.092752956 0.050997823 -0.0006045919 -0.048828367
-0.03602192 -0.016540207 -0.013686458 -0.027981905 -0.0049069114 0.06271397 0.010334767 -0.0033090077
0.03379891 0.054615803 0.020334616 0.06663132 0.018782789 -0.027794879 -0.030975206 -0.011444931
0.0019799678 -0.083177306 0.025210757 0.00033445063 -0.043092616 0.03897267 0.08199319 0.023480998
-0.024672782 -0.028554093 -0.02079044 -0.06108949 -0.010825954 0.038585663 0.006953863 0.009309276
0.06917407 -0.013398291 0.010610659 0.02332646 0.045666426 0.022345653 -0.1202729 0.010167113
00000000: 4916 abbc 3f81 54bc aa22 5e3d 4017 83bd
00000010: 3df7 1f3b 7108 173d 2905 8abd ccf3 bf3c
00000020: b26e 44bd fb02 443d 9180 353d b572 ca3c
00000030: 58c6 18bc ba24 a0bb 4b92 31bc 3db9 e03c
00000040: e23c b7bd 829c 5ebc 1f1f e43b 1966 1fbc
00000050: 43f5 bdbd 18e3 503d 7a7d 1eba 4100 48bd
00000060: b98b 13bd 547f 87bc 2a3d 60bc 4f3a e5bc
00000070: 28ca a0bb 2f70 803d 2853 293c f0db 58bb
00000080: ba70 0a3d d2b4 5f3d c894 a63c 0076 883d
00000090: 5dde 993c 16b2 e3bc b7bf fdbc 8583 3bbc
000000a0: 59c2 013b dd58 aabd ca86 ce3c 3459 af39
000000b0: e281 30bd cea1 1f3d 0cec a73d 395b c03c
000000c0: 931e cabc 46ea e9bc b650 aabc f938 7abd
000000d0: 585f 31bc 000c 1e3d 3bdd e33b ef85 183c
000000e0: 23ab 8d3d 8184 5bbc 54d8 2d3c 2217 bf3c
000000f0: b80c 3b3d 3b0e b73c a351 f6bd f693 263c

encoder.blocks.0.attn.mask f4 [1, 1, 12, 12]
1.0 0.0 0.0 0.0 0.0 0.0 0.0 0.0
0.0 0.0 0.0 0.0 1.0 1.0 0.0 0.0
0.0 0.0 0.0 0.0 0.0 0.0 0.0 0.0
1.0 1.0 1.0 0.0 0.0 0.0 0.0 0.0
0.0 0.0 0.0 0.0 1.0 1.0 1.0 1.0
0.0 0.0 0.0 0.0 0.0 0.0 0.0 0.0
1.0 1.0 1.0 1.0 1.0 0.0 0.0 0.0
0.0 0.0 0.0 0.0 1.0 1.0 1.0 1.0
1.0 1.0 0.0 0.0 0.0 0.0 0.0 0.0
1.0 1.0 1.0 1.0 1.0 1.0 1.0 0.0
0.0 0.0 0.0 0.0 1.0 1.0 1.0 1.0
1.0 1.0 1.0 1.0 0.0 0.0 0.0 0.0
1.0 1.0 1.0 1.0 1.0 1.0 1.0 1.0
1.0 0.0 0.0 0.0 1.0 1.0 1.0 1.0
1.0 1.0 1.0 1.0 1.0 1.0 0.0 0.0
1.0 1.0 1.0 1.0 1.0 1.0 1.0 1.0
1.0 1.0 1.0 0.0 1.0 1.0 1.0 1.0
1.0 1.0 1.0 1.0 1.0 1.0 1.0 1.0
00000000: 0000 803f 0000 0000 0000 0000 0000 0000
00000010: 0000 0000 0000 0000 0000 0000 0000 0000
00000020: 0000 0000 0000 0000 0000 0000 0000 0000
00000030: 0000 803f 0000 803f 0000 0000 0000 0000
00000040: 0000 0000 0000 0000 0000 0000 0000 0000
00000050: 0000 0000 0000 0000 0000 0000 0000 0000
00000060: 0000 803f 0000 803f 0000 803f 0000 0000
00000070: 0000 0000 0000 0000 0000 0000 0000 0000
00000080: 0000 0000 0000 0000 0000 0000 0000 0000
00000090: 0000 803f 0000 803f 0000 803f 0000 803f
000000a0: 0000 0000 0000 0000 0000 0000 0000 0000
000000b0: 0000 0000 0000 0000 0000 0000 0000 0000
000000c0: 0000 803f 0000 803f 0000 803f 0000 803f
000000d0: 0000 803f 0000 0000 0000 0000 0000 0000
000000e0: 0000 0000 0000 0000 0000 0000 0000 0000
000000f0: 0000 803f 0000 803f 0000 803f 0000 803f
00000100: 0000 803f 0000 803f 0000 0000 0000 0000
00000110: 0000 0000 0000 0000 0000 0000 0000 0000
00000120: 0000 803f 0000 803f 0000 803f 0000 803f
00000130: 0000 803f 0000 803f 0000 803f 0000 0000
00000140: 0000 0000 0000 0000 0000 0000 0000 0000
00000150: 0000 803f 0000 803f 0000 803f 0000 803f
00000160: 0000 803f 0000 803f 0000 803f 0000 803f
00000170: 0000 0000 0000 0000 0000 0000 0000 0000
00000180: 0000 803f 0000 803f 0000 803f 0000 803f
00000190: 0000 803f 0000 803f 0000 803f 0000 803f
000001a0: 0000 803f 0000 0000 0000 0000 0000 0000
000001b0: 0000 803f 0000 803f 0000 803f 0000 803f
000001c0: 0000 803f 0000 803f 0000 803f 0000 803f
000001d0: 0000 803f 0000 803f 0000 0000 0000 0000
000001e0: 0000 803f 0000 803f 0000 803f 0000 803f
000001f0: 0000 803f 0000 803f 0000 803f 0000 803f
00000200: 0000 803f 0000 803f 0000 803f 0000 0000
00000210: 0000 803f 0000 803f 0000 803f 0000 803f
00000220: 0000 803f 0000 803f 0000 803f 0000 803f
00000230: 0000 803f 0000 803f 0000 803f 0000 803f

encoder.blocks.0.attn.key.weight f4 [64, 64]
0.023813665 0.0029391341 -0.080918 0.018467942 0.0745552 0.042010836 0.06513609 -0.059978224
-0.15666927 -0.05499131 0.0071832747 0.020787964 0.012165672 -0.039450955 -0.0379114 0.07552515
-0.16446543 0.060616408 0.048307862 0.030246511 0.037475523 -0.048275378 0.009736922 0.0049581327
0.08947121 0.023658162 0.097075745 -0.10749031 -0.0088566905 -0.08823101 0.060705267 -0.09727559
0.00025199744 -0.06587767 0.040497806 -0.013005108 -0.024741258 0.04791852 0.017549003 0.061932646
-0.09675628 0.10710702 -0.014247561 0.11035052 -0.05026547 -0.017980576 0.044847194 0.15851246
-0.0016173772 -0.03344575 0.027352504 -0.21049167 0.031510573 -9.063801e-05 -0.046188995 -0.12669565
-0.021263517 0.039721303 0.025334107 0.009706039 0.12903363 0.0004729353 -0.12241713 0.19858748
0.059473176 -0.019767443 0.16745843 -0.0028363063 0.011167636 0.12817945 0.03266332 -0.06667737
0.120659165 -0.033066068 0.017370054 -0.023029646 -0.009034945 0.050523426 -0.021357799 0.13751648
0.3337805 0.015595305 0.019024242 -0.05313813 -0.07295365 -0.028430335 -0.029259523 -0.08128395
-0.03816268 -0.08184292 0.1084354 0.022170832 -0.008406058 -0.032941118 0.07357949 0.0954867
-0.13338289 0.021959478 -0.014791692 0.09952882 0.012966037 -0.009775139 -0.059216805 -0.0570079
0.1652242 -0.08257857 -0.024130296 0.05737696 0.21463184 -0.07974148 0.04565003 -0.08686205
-0.04263107 0.035868958 -0.09069612 0.23487352 -0.09182164 0.03694938 -0.057790045 0.22277358
-0.10313557 -0.057890523 -0.090012625 -0.10157142 -0.055374846 -0.11050045 0.141154 -0.1554241
-0.12844922 -0.042686414 -0.1825749 -0.018157464 -0.03271176 -0.09218564 -0.088840224 0.020313576
0.080916554 0.113455705 0.080064185 0.0072934325 0.022038853 -0.13620803 0.011149822 -0.20956402
-0.20031516 0.049804572 -0.017704787 0.07669532 0.08142741 0.03991305 0.09692149 0.12530905
0.048961245 0.12715766 -0.13573334 0.03024132 0.048443113 0.027836373 -0.14194523 -0.07886987
0.18040143 0.0124199325 -0.015370614 -0.0773052 -0.010305978 -0.041447096 0.08634613 0.05605907
-0.14160146 0.106478564 0.035477925 -0.18618298 -0.26362735 0.14494012 -0.15331377 -0.0447867
0.046788108 -0.022197548 0.087820396 -0.10287885 0.02590604 -0.029973615 0.081284955 -0.17594273
0.1235028 0.09385076 0.1475255 0.006569407 0.06434549 0.16845785 -0.07165324 0.13679378
0.06144899 -0.061524615 0.04836222 -0.12718241 -0.10910264 0.019114649 0.04891014 -0.0012391782
0.06334282 0.007059033 0.07472055 -0.15062469 0.036249634 0.081229374 0.024449117 -0.10777906
0.08602495 -0.0010989908 -0.01710181 -0.037747603 -0.06626092 -0.00769722 -0.021648174 -0.014529535
0.08732249 -0.023861365 0.09951307 0.075276144 -0.113184914 0.12041782 -0.04328208 0.11741158
-0.031749167 -0.0014890048 -0.055496495 0.075861484 0.022243336 -0.09783019 -0.06578672 -0.022582794
0.07374035 -0.019906623 0.021887958 -0.035279468 0.023776408 0.07061409 -0.13335161 -0.037790954
0.13306849 0.12500155 0.113116674 0.06628955 -0.04474527 -0.03313028 0.06321241 0.0008231256
0.000640246 -0.036750935 -0.07135361 -0.060445417 0.010415587 0.022419909 0.113477334 -0.12292177
00000000: e014 c33c 7d9e 403b 56b8 a5bd 154a 973c
00000010: 66b0 983d 8e13 2c3d 1266 853d baab 75bd
00000020: e96d 20be 913e 61bd ad61 eb3b 854b aa3c
00000030: 8752 473c 5397 21bd fc48 1bbd eeac 9a3d
00000040: a069 28be e948 783d 77de 453d 88c7 f73c
00000050: ef7f 193d 67bc 45bd 9c87 1f3c d577 a23b
00000060: af3c b73d c3ce c13c a6cf c63d e123 dcbd
00000070: a71b 11bc 76b2 b4bd 16a6 783d 6d38 c7bd
00000080: 861e 8439 dfea 86bd 07e1 253d 6013 55bc
00000090: 2eae cabc 3646 443d edc2 8f3c 16ad 7d3d
000000a0: 2828 c6bd ed5a db3d 9a6e 69bc 74ff e13d
000000b0: 2ae3 4dbd 004c 93bc b1b1 373d 1751 223e
000000c0: 2cfe d3ba 69fe 08bd 5c12 e03c 218b 57be
000000d0: 3b11 013d e914 beb8 ac30 3dbd 81bc 01be
000000e0: d430 aebc ceb2 223d 7989 cf3c 1406 1f3c
000000f0: 6421 043e 4df4 f739 d5b5 fabd 845a 4b3e
00000100: 259a 733d 55ef a1bc 397a 2b3e 53e1 39bb
00000110: 76f8 363c 7941 033e f9c9 053d 258e 88bd
00000120: 271c f73d 4970 07bd a54b 8e3c aba8 bcbc
00000130: 4e07 14bc a7f1 4e3d 8df6 aebc 1fd1 0c3e
00000140: 47e5 aa3e 7383 7f3c bad8 9b3c 5ea7 59bd
00000150: b968 95bd bce6 e8bc abb1 efbc 3378 a6bd
00000160: 7850 1cbd 439d a7bd 6113 de3d 9b9f b53c
00000170: 90b9 09bc 44ed 06bd d8b0 963d 888e c33d
00000180: 8695 08be 5de4 b33c da58 72bc c4d5 cb3d
00000190: 806f 543c e827 20bc 528d 72bd 1e81 69bd
000001a0: 8830 293e f41e a9bd e6ac c5bc 1a04 6b3d
000001b0: 73c8 5b3e 804f a3bd 87fb 3a3d bbe4 b1bd
000001c0: eb9d 2ebd 54eb 123d e3be b9bd af82 703e
000001d0: fc0c bcbd 3c58 173d 41b5 6cbd c21e 643e
000001e0: be38 d3bd 9d1e 6dbd 8a58 b8bd ad04 d0bd
000001f0: bcd0 62bd 0f4e e2bd ad8a 103e 7f27 1fbe
00000200: 3188 03be f3d7 2ebd eaf4 3abe f6be 94bc
00000210: c4fc 05bd d3cb bcbd ddf1 b5bd a868 a63c
00000220: 94b7 a53d 775b e83d b1f8 a33d bffd ee3b
00000230: d38a b43c 1e7a 0bbe bead 363c f397 56be
00000240: 6b1f 4dbe e1ff 4b3d a109 91bc 7012 9d3d
00000250: 6ac3 a63d de7b 233d c67e c63d 0451 003e
00000260: 968b 483d 9e35 023e aefd 0abe a5bc f73c
00000270: 496c 463d 1b09 e43c 175a 11be 8786 a1bd
00000280: 27bb 383e f97c 4b3c 07d5 7bbc 3052 9ebd
00000290: 68da 28bc 6ec4 29bd 3dd6 b03d 329e 653d
000002a0: f9ff 10be 6f11 da3d 4d51 113d c0a6 3ebe
000002b0: 2afa 86be 2f6b 143e 49fe 1cbe 4272 37bd
000002c0: e3a4 3f3d a2d7 b5bc 2edb b33d 26b2 d2bd
000002d0: e738 d43c 3a8b f5bc ba78 a63d 552a 34be
000002e0: 09ef fc3d d434 c03d ed10 173e 2e44 d73b
000002f0: 91c7 833d 3780 2c3e efbe 92bd ab13 0c3e
00000300: f0b1 7b3d 3c01 7cbd 7717 463d 1b3c 02be
00000310: 3471 dfbd 5396 9c3c 0056 483d ec6b a2ba
00000320: e1b9 813d 764f e73b 1607 993d 5c3d 1abe
00000330: 7f7a 143d 965b a63d 8449 c83c 45bb dcbd
00000340: d92d b03d 030c 90ba 1819 8cbc 3b9d 1abd
00000350: ceb3 87bd f638 fcbb 8357 b1bc 490d 6ebc
00000360: 22d6 b23d e978 c3bc 82cd cb3d 612a 9a3d
00000370: 7ecd e7bd 9e9d f63d 8d48 31bd 7c75 f03d
00000380: 6a0b 02bd b62a c3ba 4b50 63bd 445d 9b3d
00000390: a837 b63c 325b c8bd 30bb 86bd 8dff b8bc
000003a0: 2e05 973d 3713 a3bc 604e b33c 3481 10bd
000003b0: bec6 c23c 1f9e 903d 538d 08be b0ca 1abd
000003c0: 1b43 083e 6800 003e b7a9 e73d d1c2 873d
000003d0: d146 37bd 9eb3 07bd 8275 813d 06c7 573a
000003e0: 2fd6 273a 2688 16bd d721 92bd 9d95 77bd
000003f0: 23a6 2a3c f5a9 b73c ce66 e83d 69be fbbd

encoder.blocks.0.attn.key.bias f4 [64]
1.5632519e-07 6.290384e-09 5.862982e-08 -2.7092526e-08 1.5405848e-07 5.8868046e-08 2.3956913e-08 -1.6027895e-08
5.7766382e-08 -3.817888e-08 6.010393e-08 7.046167e-08 -5.2572744e-08 9.833703e-09 -7.823535e-08 -7.5298985e-08
2.9085626e-08 4.3689734e-08 -5.694948e-08 -8.807423e-08 -6.723266e-08 -6.482092e-08 1.5918047e-07 1.5384867e-07
8.608251e-08 -1.6610358e-07 1.6594235e-08 2.2729834e-08 -1.573987e-07 -8.574012e-08 -1.5066453e-07 -1.2075613e-07
7.144647e-08 -1.2660871e-07 1.4669445e-07 -5.1083664e-08 9.601205e-08 -1.6354743e-07 -1.9312967e-07 -2.0208528e-08
1.8123771e-07 -2.5174103e-08 -1.7825572e-07 -1.6585525e-07 2.07881e-07 -1.5185252e-07 1.13521615e-07 1.5008902e-07
1.7281691e-07 -5.0541612e-08 -2.9331737e-08 1.9025823e-07 -1.4208192e-07 -2.8313577e-08 -1.3269438e-07 -1.3871548e-08
-6.1557415e-08 -2.2629248e-08 -2.9324765e-09 1.259063e-07 -1.1100045e-07 7.3671714e-08 2.0146413e-07 6.90057e-08
00000000: 57da 2734 ce22 d831 2bd0 7b33 18b9 e8b2
00000010: 466b 2534 1ad6 7c33 cfc9 cd32 b7ad 89b2
00000020: cf1a 7833 1ffa 23b3 7c12 8133 b650 9733
00000030: 58cc 61b3 15f1 2832 5702 a8b3 0eb4 a1b3
00000040: f8d7 f932 5fa5 3b33 9e98 74b3 5223 bdb3
00000050: 8c61 90b3 ad33 8bb3 32eb 2a34 9a31 2534
00000060: 5cdc b833 345a 32b4 1c8b 8e32 6f3f c332
00000070: 6d01 29b4 2120 b8b3 5ac6 21b4 31a9 01b4
00000080: 1d6e 9933 f0f1 07b4 1083 1d34 1567 5bb3
00000090: 2f2f ce33 939b 2fb4 145f 4fb4 0697 adb2
000000a0: 3e9a 4234 703e d8b2 8f66 3fb4 f215 32b4
000000b0: e535 5f34 e70c 23b4 2bc9 f333 2828 2134
000000c0: 8d8f 3934 1713 59b3 2cf5 fbb2 c949 4c34
000000d0: 2e8f 18b4 3736 f3b2 c17a 0eb4 b74f 6eb2
000000e0: 8c31 84b3 3e62 c2b2 ac84 49b1 dc30 0734
000000f0: 255f eeb3 7435 9e33 0a52 5834 4930 9433
