trainer/results/football/11_vs_11_stochastic/mat/check/run1/models/transformer_1400.pt (torch, 467894 bytes, 73 tensors)

encoder.state_encoder.0.weight f4 [37]
1.0 1.0 1.0 1.0 1.0 1.0 1.0 1.0
1.0 1.0 1.0 1.0 1.0 1.0 1.0 1.0
1.0 1.0 1.0 1.0 1.0 1.0 1.0 1.0
1.0 1.0 1.0 1.0 1.0 1.0 1.0 1.0
1.0 1.0 1.0 1.0 1.0
00000000: 0000 803f 0000 803f 0000 803f 0000 803f
00000010: 0000 803f 0000 803f 0000 803f 0000 803f
00000020: 0000 803f 0000 803f 0000 803f 0000 803f
00000030: 0000 803f 0000 803f 0000 803f 0000 803f
00000040: 0000 803f 0000 803f 0000 803f 0000 803f
00000050: 0000 803f 0000 803f 0000 803f 0000 803f
00000060: 0000 803f 0000 803f 0000 803f 0000 803f
00000070: 0000 803f 0000 803f 0000 803f 0000 803f
00000080: 0000 803f 0000 803f 0000 803f 0000 803f
00000090: 0000 803f

encoder.state_encoder.0.bias f4 [37]
0.0 0.0 0.0 0.0 0.0 0.0 0.0 0.0
0.0 0.0 0.0 0.0 0.0 0.0 0.0 0.0
0.0 0.0 0.0 0.0 0.0 0.0 0.0 0.0
0.0 0.0 0.0 0.0 0.0 0.0 0.0 0.0
0.0 0.0 0.0 0.0 0.0
00000000: 0000 0000 0000 0000 0000 0000 0000 0000
00000010: 0000 0000 0000 0000 0000 0000 0000 0000
00000020: 0000 0000 0000 0000 0000 0000 0000 0000
00000030: 0000 0000 0000 0000 0000 0000 0000 0000
00000040: 0000 0000 0000 0000 0000 0000 0000 0000
00000050: 0000 0000 0000 0000 0000 0000 0000 0000
00000060: 0000 0000 0000 0000 0000 0000 0000 0000
00000070: 0000 0000 0000 0000 0000 0000 0000 0000
00000080: 0000 0000 0000 0000 0000 0000 0000 0000
00000090: 0000 0000

encoder.state_encoder.1.weight f4 [64, 37]
0.4574152 0.19178663 0.11696038 -0.03484751 -0.024718557 0.08946806 0.01876197 0.09317158
0.26316312 -0.070077896 0.3382568 -0.05923168 -0.12915726 -0.2459303 -0.024627378 0.13580255
-0.15919763 -0.17724416 0.041411754 0.022096744 0.18048406 0.123222694 -0.07639876 -0.36825076
-0.29680172 -0.034182478 0.056617558 0.20112307 0.051109444 0.20088284 0.1841506 -0.07784154
0.022256143 -0.00198585 0.017833995 0.16791677 0.14283958 0.2520978 -0.0026797678 0.036555268
-0.34279457 0.20965734 0.109166384 0.05958064 0.182345 0.19287658 0.05516808 0.016364643
-0.12562779 0.28481907 0.024451666 0.35011736 -0.16751002 -0.27444172 0.09274273 0.009425651
-0.14077525 -0.21963161 0.17755678 -0.022642229 0.02076482 0.04338099 -0.35535234 -0.17457849
0.10034779 -0.06924844 -0.061708517 -0.08110467 0.29113233 0.07335813 -0.19970822 -0.03494495
-0.064540915 0.312445 0.062430877 -0.1748564 0.15701269 0.08229059 -0.085262515 -0.16688499
0.044076603 -0.23346321 0.014359764 -0.050128154 -0.2761496 -0.09011372 0.19620766 0.33910358
0.087567285 0.20255402 0.005088991 0.11868635 0.05329292 0.17252271 0.22197093 0.057809833
-0.032914076 -0.15549012 -0.27870542 0.29608682 -0.18096645 -0.054570347 -0.2719342 -0.05681888
-0.086294785 0.25709227 0.10048054 0.00021697802 0.01413764 0.20644523 -0.175578 0.06629577
-0.55853295 -0.055624884 -0.1845203 0.26592916 -0.08810885 -0.028984131 -0.30324194 -0.05605378
0.25482255 -0.09172232 -0.07383927 -0.2708589 0.19046381 0.018751414 -0.006208304 -0.13356234
-0.124814704 -0.09745824 0.05768247 0.25524354 0.14021857 -0.14652897 -0.07516245 0.16695458
-0.25621763 0.022513237 -0.18820949 -0.05454332 -0.05423308 -0.191489 -0.06498444 0.14634998
0.24868573 0.27689525 -0.3586541 -0.19422892 0.20540085 -0.25503674 0.36688456 -0.055246513
-0.047298037 0.130609 -0.043869317 0.086236976 -0.08167747 0.08824544 -0.013922421 -0.0008757562
-0.28996956 -0.2678294 -0.12416736 -0.003983409 -0.083968274 -0.18522517 -0.14653817 -0.008485533
0.19713818 0.023719832 0.03716988 -0.14856616 -0.12148814 0.012963545 -0.07299419 -0.011729042
-0.043155413 -0.09657931 -0.09067693 -0.36637384 -0.2825897 -0.3737699 -0.06531416 0.08889984
-0.19877006 0.062309705 0.17385122 -0.008961584 0.096334815 0.2159585 -0.11990709 0.064151324
-0.17163816 -0.28194264 0.013052619 0.16149867 0.14832835 -0.05156396 -0.1286681 -0.41663256
0.09592095 -0.11497352 0.053902917 -0.065543264 0.2730092 -0.10748558 -0.6373737 -0.19424647
-0.06450384 0.08185028 -0.11890842 0.0473612 -0.14008644 -0.07692784 -0.14484356 -0.18607596
0.043479685 0.0050566993 -0.14898743 0.09944455 -0.044569854 0.10265905 -0.037873775 0.28203073
0.068844385 -0.035023462 -0.3559894 0.2541483 -0.0029488925 0.07143271 0.14594343 0.2193845
-0.12030955 -0.04227861 -0.08445814 -0.2582056 -0.39506748 0.18912336 -0.13990681 0.022381444
-0.031242913 0.021755932 -0.01393924 0.09101519 0.13713178 0.12850487 -0.07857095 -0.25117433
-0.21247439 0.042816125 -0.10013963 0.007848316 -0.51894224 0.08713726 -0.14834349 0.1854715
00000000: 5332 ea3e b763 443e ec88 ef3d 43bc 0ebd
00000010: 927e cabc 083b b73d b4b2 993c bed0 be3d
00000020: 51bd 863e 0085 8fbd ff2f ad3e eb9c 72bd
00000030: cd41 04be 27d5 7bbe 5bbf c9bc d30f 0b3e
00000040: b404 23be 7e7f 35be 5f9f 293d 3b04 b53c
00000050: d0d0 383e 2e5c fc3d f476 9cbd 5d8b bcbe
00000060: 65f6 97be ed02 0cbd d0e7 673d 35f3 4d3e
00000070: 2358 513d 3bb4 4d3e fa91 3c3e 636b 9fbd
00000080: 8452 b63c 0925 02bb 9918 923c 60f2 2b3e
00000090: 8a44 123e f612 813e 0b9f 2fbb faba 153d
000000a0: c582 afbe 6ab0 563e a092 df3d d40a 743d
000000b0: a6b8 3a3e 7081 453e edf7 613d 250f 863c
000000c0: 92a4 00be ced3 913e dc4e c83c 9542 b33e
000000d0: bf87 2bbe a083 8cbe e7ef bd3d 0c6e 1a3c
000000e0: 6327 10be 1ce7 60be 72d1 353e 327c b9bc
000000f0: fc1a aa3c 44b0 313d bef0 b5be b4c4 32be
00000100: 2483 cd3d 20d2 8dbd 12c2 7cbd 351a a6bd
00000110: 4c0f 953e ca3c 963d 5080 4cbe 7022 0fbd
00000120: 072e 84bd cbf8 9f3e 85b7 7f3d 8e0d 33be
00000130: efc7 203e f887 a83d 1d9e aebd e6e3 2abe
00000140: ab89 343d fb10 6fbe 3745 6b3c 2e53 4dbd
00000150: 7b63 8dbe 8b8d b8bd a9ea 483e fc9e ad3e
00000160: 7a56 b33d 526a 4f3e 8dc1 a63b d411 f33d
00000170: ad49 5a3d cba9 303e 594c 633e 01ca 6c3d
00000180: e9d0 06bd cd38 1fbe 7ab2 8ebe b198 973e
00000190: 454f 39be 2885 5fbd f63a 8bbe eaba 68bd
000001a0: 52bb b0bd 99a1 833e bec8 cd3d 9884 6339
000001b0: 8fa1 673c 6166 533e b8ca 33be 14c6 873d
000001c0: 04fc 0ebf ebd6 63bd e4f2 3cbe de27 883e
000001d0: 6a72 b4bd 2170 edbc 8742 9bbe a698 65bd
000001e0: 1a78 823e e9d8 bbbd 0b39 97bd 05ae 8abe
000001f0: f208 433e 919c 993c 076f cbbb 91c4 08be
00000200: da9e ffbd 3098 c7bd 7444 6c3d 48af 823e
00000210: 7595 0f3e b10b 16be c5ee 99bd 24f6 2a3e
00000220: f52e 83be ae6d b83c fdb9 40be d168 5fbd
00000230: 8223 5ebd b115 44be 9016 85bd c5dc 153e
00000240: 79a7 7e3e 37c5 8d3e 83a1 b7be f2e3 46be
00000250: 9a54 523e 2d94 82be 4bd8 bb3e 2b4a 62bd
00000260: 96bb 41bd 5ebe 053e 50b0 33bd 039d b03d
00000270: 8446 a7bd 06ba b43d de1a 64bc 0193 65ba
00000280: e476 94be ef20 89be 754b febd 4287 82bb
00000290: 8ff7 abbd abab 3dbe 1a0e 16be e806 0bbc
000002a0: 97de 493e 1850 c23c 723f 183d ba21 18be
000002b0: c6ce f8bd 0c65 543c fa7d 95bd 2b2b 40bc
000002c0: bbc3 30bd 60cb c5bd d4b4 b9bd 5a95 bbbe
000002d0: 99af 90be c55e bfbe 6ec3 85bd 1f11 b63d
000002e0: 618a 4bbe 7638 7f3d 0e06 323e 9cd3 12bc
000002f0: 304b c53d 3a24 5d3e d991 f5bd c561 833d
00000300: eac1 2fbe c95a 90be a7da 553c e85f 253e
00000310: 63e3 173e bb34 53bd 92c1 03be dd50 d5be
00000320: 3472 c43d 3d77 ebbd 4ec9 5c3d 8c3b 86bd
00000330: ddc7 8b3e 6621 dcbd ec2a 23bf 8ce8 46be
00000340: 971a 84bd 1fa1 a73d 4286 f3bd d1fd 413d
00000350: d272 0fbe 588c 9dbd df51 14be b28a 3ebe
00000360: c117 323d abb2 a53b 2990 18be 96a9 cb3d
00000370: e18e 36bd e83e d23d 8821 1bbd 5566 903e
00000380: 49fe 8c3d c374 0fbd 3e44 b6be ba1f 823e
00000390: 3542 41bb 504b 923d 3272 153e 55a6 603e
000003a0: da64 f6bd 562c 2dbd 64f8 acbd 8633 84be
000003b0: 4946 cabe 8ea9 413e bb43 0fbe 4a59 b73c
000003c0: 23f1 ffbc 7f39 b23c 6961 64bc 2c66 ba3d
000003d0: 466c 0c3e c896 033e cee9 a0bd ec99 80be
000003e0: e392 59be f65f 2f3d 0216 cdbd 3996 003c
000003f0: 66d9 04bf 0575 b23d 5be7 17be 3eec 3d3e

encoder.state_encoder.1.bias f4 [64]
0.0 0.0 0.0 0.0 0.0 0.0 0.0 0.0
0.0 0.0 0.0 0.0 0.0 0.0 0.0 0.0
0.0 0.0 0.0 0.0 0.0 0.0 0.0 0.0
0.0 0.0 0.0 0.0 0.0 0.0 0.0 0.0
0.0 0.0 0.0 0.0 0.0 0.0 0.0 0.0
0.0 0.0 0.0 0.0 0.0 0.0 0.0 0.0
0.0 0.0 0.0 0.0 0.0 0.0 0.0 0.0
0.0 0.0 0.0 0.0 0.0 0.0 0.0 0.0
00000000: 0000 0000 0000 0000 0000 0000 0000 0000
00000010: 0000 0000 0000 0000 0000 0000 0000 0000
00000020: 0000 0000 0000 0000 0000 0000 0000 0000
00000030: 0000 0000 0000 0000 0000 0000 0000 0000
00000040: 0000 0000 0000 0000 0000 0000 0000 0000
00000050: 0000 0000 0000 0000 0000 0000 0000 0000
00000060: 0000 0000 0000 0000 0000 0000 0000 0000
00000070: 0000 0000 0000 0000 0000 0000 0000 0000
00000080: 0000 0000 0000 0000 0000 0000 0000 0000
00000090: 0000 0000 0000 0000 0000 0000 0000 0000
000000a0: 0000 0000 0000 0000 0000 0000 0000 0000
000000b0: 0000 0000 0000 0000 0000 0000 0000 0000
000000c0: 0000 0000 0000 0000 0000 0000 0000 0000
000000d0: 0000 0000 0000 0000 0000 0000 0000 0000
000000e0: 0000 0000 0000 0000 0000 0000 0000 0000
000000f0: 0000 0000 0000 0000 0000 0000 0000 0000

encoder.obs_encoder.0.weight f4 [217]
0.8747675 0.9445163 0.9608875 0.9446866 0.9232092 0.8490539 0.9425278 0.9049405
0.89044493 1.2030137 1.1121948 1.2366781 1.1632357 0.91554856 0.5836921 0.43460786
1.1595911 1.1412457 1.0183417 1.1457154 1.8443176 1.1246945 1.018579 1.0580392
1.2185146 1.1533597 1.1038111 1.2351176 1.2734555 1.3921238 1.3216505 1.5041788
0.44069064 1.3191496 1.3007009 1.3344373 1.4452153 0.9035499 0.67121917 0.32216996
0.4536768 0.618341 1.0018564 0.9712616 1.1932008 2.2006752 0.97324085 1.4034181
0.74611515 1.2029921 0.796871 0.57221335 1.0459487 0.15163676 0.5235835 0.42658442
0.80371463 0.9778836 0.818916 0.82999486 0.22393209 0.3173291 0.4388284 0.70125306
0.8892652 0.89036953 0.68524224 0.22797987 0.34198576 0.42297435 0.89128244 0.89989644
0.8656828 0.70073277 0.29447445 0.4927975 0.38830125 0.87171036 0.91941017 0.7686321
0.6346871 0.14738455 0.47182265 0.4096298 1.0155451 0.93386286 0.8229754 0.53289056
0.1560556 0.46870956 0.49227297 0.81265616 0.90768427 0.65537465 0.84894097 0.22145185
0.3882712 0.4883087 0.8079362 0.78757256 0.4507088 0.6846454 0.23093364 0.37807906
0.44404426 0.7046113 0.8995317 0.544755 0.45714718 0.21964389 0.4233531 0.50033075
0.79013866 0.87932307 0.92047805 1.0888741 0.62991506 0.6032283 0.5287683 1.4346685
0.8212927 0.98405516 1.017153 1.1031824 0.9408322 0.9330256 1.20933 1.1017957
1.0421772 1.0524601 0.98599523 1.006245 0.38701436 0.8345729 0.78971666 0.5570927
0.9000945 0.6128787 1.072552 0.94175464 1.0079075 1.0990183 0.9848179 0.9796813
0.97073364 0.91832256 1.1990871 0.88491994 0.7809386 0.5957748 0.59499 0.69187665
0.85310185 0.956506 0.9163217 1.018841 0.55466217 0.52717423 0.64043 0.7520806
0.89043003 0.78997093 0.9659617 0.42125323 0.53884435 0.5519091 0.80391055 0.92720544
0.73963255 0.9308575 0.4897098 0.5994374 0.6080887 0.955443 0.89796233 0.78314644
1.0358459 0.3633203 0.51112896 0.5144103 0.69919527 0.938292 0.8475172 0.9464699
0.48886442 0.49060702 0.47953463 0.7163697 0.9575757 0.8946539 1.076415 0.7667304
0.84241754 0.6531395 0.8226147 0.9462878 0.90395695 1.0673523 0.63312143 0.95570093
0.6643659 0.9511663 0.9893665 1.0119828 1.1417581 0.9140214 0.88150233 0.9341714
0.83279175 0.8907667 0.91552377 0.80803466 0.7846458 0.8714322 0.6741629 0.8574317
0.99949265
00000000: c3f0 5f3f d2cb 713f b9fc 753f fbd6 713f
00000010: 7057 6c3f 995b 593f 8049 713f 2eaa 673f
00000020: 33f4 633f 5afc 993f 665c 8e3f 784b 9e3f
00000030: e8e4 943f 6461 6a3f d86c 153f ec84 de3e
00000040: 7b6d 943f 5714 923f 0559 823f cda6 923f
00000050: 9912 ec3f fdf5 8f3f cc60 823f d46d 873f
00000060: 49f8 9b3f 4aa1 933f af49 8d3f 5518 9e3f
00000070: 9700 a33f 1d31 b23f d82b a93f ee88 c03f
00000080: 34a2 e13e e5d9 a83f 5e7d a63f d7ce aa3f
00000090: d1fc b83f 0c4f 673f 05d5 2b3f 76f3 a43e
000000a0: 5348 e83e 994b 1e3f d53c 803f 9aa4 783f
000000b0: ceba 983f ddd7 0c40 5026 793f 34a3 b33f
000000c0: 6701 3f3f a5fb 993f bdff 4b3f 937c 123f
000000d0: a6e1 853f ab46 1b3e 9109 063f 4669 da3e
000000e0: 3ec0 4d3f 9456 7a3f 7ba4 513f 8b7a 543f
000000f0: 744e 653e f678 a23e 1eae e03e 5285 333f
00000100: e2a6 633f 42ef 633f 096c 2f3f 8e73 693e
00000110: c218 af3e 1890 d83e 162b 643f 9d5f 663f
00000120: 639d 5d3f 3963 333f 5bc5 963e f44f fc3e
00000130: 6ccf c63e 6928 5f3f 775e 6b3f 13c5 443f
00000140: db7a 223f faeb 163e bd92 f13e ffba d13e
00000150: 62fd 813f a311 6f3f 84ae 523f 846b 083f
00000160: 0acd 1f3e b3fa ef3e 340b fc3e 3c0a 503f
00000170: ff5d 683f a2c6 273f 3254 593f 46c4 623e
00000180: 7ccb c63e 9903 fa3e e8d4 4e3f 5b9e 493f
00000190: 4ec3 e63e ec44 2f3f de79 6c3e 9493 c13e
000001a0: c559 e33e 6861 343f b647 663f 1075 0b3f
000001b0: 320f ea3e 54ea 603e bdc1 d83e ad15 003f
000001c0: 8746 4a3f 511b 613f 73a4 6b3f 3a60 8b3f
000001d0: 1d42 213f 2b6d 1a3f 5c5d 073f 38a3 b73f
000001e0: 3d40 523f 0aeb 7b3f 1232 823f 1535 8d3f
000001f0: 61da 703f c4da 6e3f 53cb 9a3f a407 8d3f
00000200: 1066 853f 03b7 863f 2f6a 7c3f a3cc 803f
00000210: bf26 c63e 92a6 553f df2a 4a3f a19d 0e3f
00000220: 986c 663f 9ee5 1c3f 6249 893f d516 713f
00000230: 1d03 813f a2ac 8c3f 071d 7c3f 65cc 7a3f
00000240: 0082 783f 3017 6b3f b07b 993f 1d8a 623f
00000250: 98eb 473f b384 183f 4451 183f d41e 313f
00000260: e264 5a3f 94dd 743f 0f94 6a3f 6269 823f
00000270: 57fe 0d3f e4f4 063f 38f3 233f 5b88 403f
00000280: 39f3 633f 893b 4a3f 4449 773f 81ae d73e
00000290: b4f1 093f ea49 0d3f 15cd 4d3f 565d 6d3f
000002a0: 8f58 3d3f ad4c 6e3f 3ebb fa3e bb74 193f
000002b0: b3ab 1b3f ea97 743f dce0 653f 497c 483f
000002c0: 9996 843f 1e05 ba3e 59d9 023f 65b0 033f
000002d0: 76fe 323f e833 703f e3f6 583f da4b 723f
000002e0: 704c fa3e d830 fb3e 9085 f53e 0164 373f
000002f0: ae23 753f 0a08 653f f7c7 893f 7248 443f
00000300: ada8 573f 2634 273f e196 523f eb3f 723f
00000310: b969 673f 009f 883f 3f14 223f d1a8 743f
00000320: e213 2a3f a27f 733f 1f47 7d3f a788 813f
00000330: 2125 923f 4efd 693f 23aa 613f db25 6f3f
00000340: d731 553f 4909 643f c45f 6a3f 5cdb 4e3f
00000350: 8cde 483f 2e16 5f3f f195 2c3f a580 5b3f
00000360: c0de 7f3f

encoder.obs_encoder.0.bias f4 [217]
-0.17084277 -0.12081805 -0.06256169 -0.06597964 -0.11262624 -0.16228178 -0.11147448 -0.13292797
-0.14912541 0.085083246 0.056529794 0.08580673 0.030433351 -0.08868661 -0.20055258 -0.12282299
0.057916865 0.027997352 0.062387906 0.044324543 0.00740202 0.08809142 -0.079078875 -0.016097855
0.1360913 -0.0020139469 0.05956645 0.03805102 0.04748116 0.08210989 0.040101316 0.03449351
0.050183717 -0.10393316 -0.12664534 -0.02485794 0.036148716 0.05345537 0.05384914 0.04174054
0.10196491 -0.12783784 -0.06739332 -0.01476751 0.012375609 0.036254242 0.041727014 0.05962886
-0.08565498 -0.02206566 -0.07604309 0.11227055 0.051850006 0.04440873 0.094338045 -0.13766484
-0.07854549 -0.03369244 0.05510119 0.056967027 0.019515388 0.07272028 -0.13993083 -0.114833616
-0.0824462 0.12495537 0.008876018 0.009221183 0.074764885 -0.07378629 -0.07613668 -0.059564415
0.10318956 0.024133418 0.00032844002 0.061105054 -0.1438267 -0.1032536 -0.07867459 0.14594798
0.03767256 0.04951839 0.087528326 -0.15028663 -0.053706698 -0.0941536 0.08490906 0.025729593
0.03569046 0.09175348 -0.15355814 -0.09330854 -0.08265779 0.13550988 0.07291351 0.046773475
0.09172862 -0.14004087 -0.15659417 -0.0740073 -0.010258022 0.07531787 0.050803736 0.11595072
-0.16322826 -0.15219879 -0.038210075 0.04358042 0.0016980689 0.03918835 0.12446441 -0.14187437
-0.13170049 -0.052207343 0.04826947 -0.0063023744 0.06451297 0.089442685 -0.17302214 -0.0007253259
-0.020308789 0.00930258 -0.0022250714 0.05995554 -0.03155378 0.04374833 -0.012015711 0.011191642
0.0064297244 -0.06084486 -0.09318426 0.007013988 -0.16712984 0.119911484 0.1119783 0.13314898
0.12560418 -0.21725972 -0.072940856 -0.08791607 -0.0631792 0.009805766 0.062345065 0.07887583
0.0447357 -0.09455757 0.0061527095 0.110258244 -0.04000654 0.108440734 0.033201605 -0.089588284
-0.08414356 -0.067830525 0.043906897 0.011171567 0.083509676 0.03261042 -0.12617907 -0.14916152
-0.08020797 0.09134912 0.07819158 0.13277228 0.07100558 -0.15289038 -0.11798191 -0.050933223
0.058678616 0.13399354 0.09645552 0.047432765 -0.0536089 -0.07633283 -0.12615493 0.19415502
0.03584491 0.19035234 0.05316618 -0.18993703 -0.12969522 -0.12540476 0.09969952 0.061513945
0.11334996 0.05363542 -0.15180273 -0.093658336 -0.016011788 0.15234976 0.048150633 0.14686392
0.044685684 -0.20682648 -0.09495029 -0.04909124 0.13800316 -0.06952015 0.16413598 0.053447306
-0.14524351 -0.119923726 -0.07379346 0.13136871 0.009868678 0.15409993 -0.0029849736 -0.105239056
-0.15731697 -0.078939155 0.08765335 0.07579062 0.13311425 0.032283526 -0.18307236 -0.07180755
-0.108768284
00000000: 68f1 2ebe 746f f7bd 5820 80bd 5520 87bd
00000010: 96a8 e6bd 322d 26be bb4c e4bd 451e 08be
00000020: 55b4 18be 2040 ae3d c98b 673d 70bb af3d
00000030: 5d4f f93c 53a1 b5bd a85d 4dbe 9f8a fbbd
00000040: 3c3a 6d3d b45a e53c 768a 7f3d a78d 353d
00000050: a58c f23b 4669 b43d 1bf4 a1bd a6df 83bc
00000060: 855b 0b3e 6cfc 03bb f3fb 733d 63db 1b3d
00000070: 9b7b 423d 3b29 a83d 4741 243d 1149 0d3d
00000080: 718d 4d3d e9da d4bd 51af 01be e1a2 cbbc
00000090: ad10 143d 05f4 5a3d ea90 5c3d 21f8 2a3d
000000a0: fbd2 d03d ece7 02be 8205 8abd 6df3 71bc
000000b0: 11c3 4a3c 547f 143d f2e9 2a3d 643d 743d
000000c0: e16b afbd 0bc3 b4bc 7bbc 9bbd 1aee e53d
000000d0: ac60 543d eee5 353d 4e34 c13d 03f8 0cbe
000000e0: 75dc a0bd 1501 0abd c9b1 613d 4256 693d
000000f0: bcde 9f3c 5fee 943d 074a 0fbe e32d ebbd
00000100: 8ed9 a8bd 9ae8 ff3d b86c 113c 7214 173c
00000110: 551e 993d 441d 97bd 8ced 9bbd d1f9 73bd
00000120: 0c55 d33d 72b3 c53c 7932 ac39 4b49 7a3d
00000130: 4e47 13be a076 d3bd 2520 a1bd 6373 153e
00000140: 8b4e 1a3d ccd3 4a3d 0d42 b33d bde4 19be
00000150: 8efb 5bbd 9ad3 c0bd cde4 ad3d dec6 d23c
00000160: 2930 123d 40e9 bb3d 583e 1dbe 8c18 bfbd
00000170: 7d48 a9bd 1ac3 0a3e ae53 953d 8b95 3f3d
00000180: 37dc bb3d e066 0fbe 395a 20be 2491 97bd
00000190: 4311 28bc 4140 9a3d 9417 503d 9277 ed3d
000001a0: 4f25 27be 00da 1bbe 2b82 1cbd 6281 323d
000001b0: bd91 de3a f783 203d 32e7 fe3d 8447 11be
000001c0: 7edc 06be 5ed7 55bd 35b6 453d 2684 cebb
000001d0: 601f 843d ba2d b73d b72c 31be cc23 3eba
000001e0: 9e5e a6bc d969 183c 81d2 11bb f193 753d
000001f0: 893e 01bd 7331 333d 8bdd 44bc 265d 373c
00000200: 70b0 d23b 7638 79bd 64d7 bebd 99d5 e53b
00000210: 1624 2bbe 2794 f53d e154 e53d 3558 083e
00000220: 629e 003e 5579 5ebe 0462 95bd 570d b4bd
00000230: 1964 81bd 5da8 203c 8a5d 7f3d a789 a13d
00000240: c83c 373d 66a7 c1bd ab9c c93b 13cf e13d
00000250: e6dd 23bd 2d16 de3d 68fe 073d 107a b7bd
00000260: 7553 acbd bbea 8abd b8d7 333d f308 373c
00000270: 1f07 ab3d 8192 053d 1635 01be ccbd 18be
00000280: 1444 a4bd 3f15 bb3d e822 a03d 75f5 073e
00000290: 606b 913d 4c8f 1cbe 80a0 f1bd 5b9f 50bd
000002a0: fd58 703d 9a35 093e 798a c53d dc48 423d
000002b0: 0295 5bbd 6354 9cbd c22e 01be 93d0 463e
000002c0: 1dd2 123d b9eb 423e c8c4 593d da7e 42be
000002d0: d3ce 04be 1b6a 00be 432f cc3d 0cf6 7b3d
000002e0: 0624 e83d d0b0 5b3d 2d72 1bbe f1cf bfbd
000002f0: 272b 83bc 9301 1c3e 9939 453d 7f63 163e
00000300: 5608 373d 52ca 53be 4c75 c2bd e513 49bd
00000310: b350 0d3e 9560 8ebd 4313 283e 90eb 5a3d
00000320: b7ba 14be 929a f5bd 0721 97bd 8585 063e
00000330: 3cb0 213c 5fcc 1d3e 8c9f 43bb 9387 d7bd
00000340: b317 21be daaa a1bd 9983 b33d 1d38 9b3d
00000350: 1a4f 083e bb3b 043d 5277 3bbe d60f 93bd
00000360: e8c1 debd

encoder.obs_encoder.1.weight f4 [64, 217]
0.10821972 0.08534308 -0.017118504 0.08586031 0.05850928 0.06987632 0.23314369 0.0758364
0.016320322 0.16737431 0.06153317 0.0048736627 0.032095157 0.09981506 -0.029837588 0.00798864
0.13264555 0.008928338 0.010423034 -0.08104258 -0.045111515 0.058410205 0.11257129 0.070486106
0.018725168 0.052457996 0.15878227 0.2299539 0.15593487 0.049554087 -0.065822214 -0.015836775
0.10655841 0.012296233 -0.14096299 0.101571105 -0.24249502 -0.024522578 0.009424738 -0.000935229
0.0132641215 0.09301977 -0.08333936 -0.13675296 -0.031809438 0.023005905 0.009437103 0.041591015
0.20821385 -0.018386459 0.10662326 -0.1457783 -0.0026219846 -0.061467994 0.05382352 0.10871303
-0.028230889 -0.12900062 -0.2436379 0.14447299 -0.10937517 0.0049263714 0.17062515 0.12501638
-0.009995142 -0.08853887 -0.17626426 0.079616286 0.14904064 0.10053713 -0.049122054 -0.18254165
-0.16768685 -0.120309174 -0.021457547 -0.0017765051 0.06927706 -0.04341144 -0.23523857 0.0073758517
0.1447247 0.020838886 0.093164764 0.015184962 0.14201738 -0.16624543 0.079165384 0.073394306
0.17534599 -0.018752664 -0.009763119 0.1051506 -0.15020342 0.005437709 0.049384087 -0.04325637
-0.10673865 0.024145186 0.122874394 0.020682214 -0.14682218 0.06000222 0.0027019258 -0.019551609
-0.086788855 -0.1791479 -0.12087304 0.21939617 -0.15892342 0.018201314 0.07908502 0.04170754
0.022006162 -0.13253306 -0.002890227 -0.1100671 0.023512788 0.015002417 0.0013645624 0.28991547
0.27906522 0.29830933 0.17187329 0.45318386 0.19435446 0.2702064 0.23225716 0.10914304
0.15182269 0.3712718 -0.083264865 0.012597612 0.10970828 -0.04525914 -0.05123998 0.050642
0.102121286 -0.04844149 -0.106029585 -0.037914522 0.09954467 0.16058661 0.08204228 -0.02586615
0.031189425 0.09653396 0.15616988 -0.18289213 -0.08957341 -0.04673363 -0.10508945 0.00029268695
0.12233025 -0.1477967 -0.25343278 -0.12228572 -0.14580588 -0.057183318 -0.069586635 0.021115595
0.012483921 -0.16988063 -0.03579884 -0.08515458 0.06840242 0.09671017 -0.03910593 -0.147936
0.27184615 -0.04978563 0.23273997 0.084920734 0.0007267275 0.1640698 -0.04379829 -0.12822716
0.20088984 -0.10551045 -0.07020973 -0.18439344 0.14217386 -0.002379591 -0.0767928 -0.035771664
0.02190163 -0.073248364 0.13041547 0.018550085 0.036006063 0.14295073 0.14193171 0.025663268
0.2624185 -0.018308073 -0.054457482 -0.17554751 -0.060028363 -0.17182797 0.095121406 -0.3179537
-0.012334922 0.0781173 -0.035599574 -0.13592558 0.07981491 0.16360906 -0.021927752 -0.054986857
0.06261023 -0.12974852 -0.03481982 0.032739073 -0.15760173 0.045538045 -0.19541922 0.05069346
-0.21034041 -0.016535765 -0.040058866 -0.0811887 0.07292139 -0.119830504 0.103091665 0.016626656
-0.008389345 -0.14086695 -0.231488 -0.22671871 0.0037607546 0.037934355 -0.1767885 -0.040925723
-0.030420592 -0.42098454 -0.09819677 0.055460412 -0.10431486 0.073397234 -0.26678175 0.13632593
-0.003933795 -0.13032034 -0.016979592 -0.046336744 -0.17617905 -0.24093628 0.16959612 -0.1602926
0.36084294 0.04622862 0.03747959 0.14008462 0.10421439 -0.27739558 0.012991233 0.06471904
00000000: 4da2 dd3d 5ac8 ae3d 1b3c 8cbc 88d7 af3d
00000010: 6da7 6f3d 511b 8f3d 38bd 6e3e 1d50 9b3d
00000020: 32b2 853c 2c64 2b3e 350a 7c3d 3fb3 9f3b
00000030: 3676 033d d76b cc3d f56d f4bc c9e2 023c
00000040: 3cd4 073e 2a48 123c 60c5 2a3c a7f9 a5bd
00000050: dac6 38bd 8a3f 6f3d c78b e63d 055b 903d
00000060: 8665 993c 32de 563d d297 223e 0979 6b3e
00000070: 64ad 1f3e 3af9 4a3d cccd 86bd 20bc 81bc
00000080: 4c3b da3d 2476 493c 9a58 10be 8304 d03d
00000090: 9d50 78be 93e3 c8bc 376a 1a3c 282a 75ba
000000a0: c251 593c 2681 be3d d4ad aabd f808 0cbe
000000b0: 9d4a 02bd e176 bc3c 149e 1a3c 575b 2a3d
000000c0: 0336 553e 339f 96bc 4c5d da3d e846 15be
000000d0: 9ad5 2bbb ddc5 7bbd 0d76 5c3d f0a4 de3d
000000e0: 7744 e7bc bd18 04be 377c 79be baf0 133e
000000f0: 1700 e0bd 666d a13b 5cb8 2e3e 4b04 003e
00000100: aac2 23bc de53 b5bd 9e7e 34be dd0d a33d
00000110: 1c9e 183e 69e6 cd3d 3534 49bd 33ec 3abe
00000120: 1ab6 2bbe a864 f6bd bdc7 afbc 9fd9 e8ba
00000130: 22e1 8d3d 32d0 31bd 61e2 70be 21b1 f13b
00000140: b632 143e 50b6 aa3c 2bcd be3d 59ca 783c
00000150: 016d 113e 3e3c 2abe 7621 a23d c14f 963d
00000160: e68d 333e 309f 99bc 7df5 1fbc 3359 d73d
00000170: edce 19be cf2e b23b f846 4a3d 972d 31bd
00000180: cb99 dabd 20cc c53c 92a5 fb3d bf6d a93c
00000190: 8e58 16be e3c4 753d cb12 313b b22a a0bc
000001a0: 5bbe b1bd 8c72 37be 498c f7bd 64a9 603e
000001b0: d2bc 22be ec1a 953c 54f7 a13d 87d5 2a3d
000001c0: 4446 b43c bfb6 07be f669 3dbb dc6a e1bd
000001d0: e49d c03c b3cc 753c 1edb b23a cd6f 943e
000001e0: a3e1 8e3e 00bc 983e 8dff 2f3e b707 e83e
000001f0: db04 473e 7e58 8a3e d2d4 6d3e 6386 df3d
00000200: 6877 1b3e 5617 be3e c586 aabd 3766 4e3c
00000210: bcae e03d a661 39bd 03e1 51bd fc6d 4f3d
00000220: f724 d13d 956a 46bd 0a26 d9bd 424c 1bbd
00000230: 13de cb3d d170 243e c805 a83d 40e5 d3bc
00000240: f780 ff3c 99b3 c53d ffea 1f3e 1348 3bbe
00000250: 4472 b7bd c36b 3fbd 2339 d7bd c773 9939
00000260: 4888 fa3d 0558 17be f1c1 81be f070 fabd
00000270: 234e 15be 0e39 6abd 7083 8ebd 9dfa ac3c
00000280: 5c89 4c3c 30f5 2dbe cea1 12bd 8665 aebd
00000290: 9116 8c3d fb0f c63d 8a2d 20bd 897c 17be
000002a0: 6b2f 8b3e 04ec 4bbd 6353 6e3e ecea ad3d
000002b0: db81 3e3a ea01 283e d665 33bd fb4d 03be
000002c0: 11b6 4d3e dd15 d8bd 1eca 8fbd a2d1 3cbe
000002d0: 0696 113e eaf2 1bbb 8b45 9dbd 4f85 12bd
000002e0: 0c6b b33c 3d03 96bd a28b 053e 59f6 973c
000002f0: 187b 133d ad61 123e 8c56 113e c63b d23c
00000300: b85b 863e d0fa 95bc cf0e 5fbd bac2 33be
00000310: 4de0 75bd acf3 2fbe 03cf c23d d4ca a2be
00000320: 6a18 4abc f7fb 9f3d dcd0 11bd 1330 0bbe
00000330: 0076 a33d 2289 273e d4a1 b3bc e639 61bd
00000340: cb39 803d ccdc 04be 3a9f 0ebd 6819 063d
00000350: 5962 21be 1a86 3a3d fa1b 48be f2a3 4f3d
00000360: 7a63 57be 0376 87bc c414 24bd 4346 a6bd
00000370: cf57 953d b269 f5bd b921 d33d a034 883c
00000380: 7773 09bc 6d3f 10be 310b 6dbe f328 68be
00000390: fe76 763b 0e61 1b3d 0b08 35be bba1 27bd
000003a0: 9b34 f9bc 498b d7be 631b c9bd 752a 633d
000003b0: 08a3 d5bd 4a51 963d 9e97 88be 0699 0b3e
000003c0: 10e7 80bb b272 05be c918 8bbc 99cb 3dbd
000003d0: 4868 34be 00b8 76be 9baa 2d3e be23 24be
000003e0: 68c0 b83e 395a 3d3d 3384 193d 5872 0f3e
000003f0: 5b6e d53d cb06 8ebe 2ed9 543c 6b8b 843d

encoder.obs_encoder.1.bias f4 [64]
0.011817306 -0.014335087 -0.02843185 0.02178969 0.061851818 -0.0020037617 0.002172073 0.03229929
0.041291803 0.05044351 0.117838256 -0.028939607 -0.06636471 -0.024229867 0.03808713 -0.023652272
0.005593389 0.057052236 0.01416808 0.05591435 0.0068324795 0.013763234 -0.018518342 0.010849619
0.043417495 -0.041034717 0.01064113 0.07166015 -0.0013352084 0.0034676935 0.045143336 0.0594278
0.10978177 0.07116146 0.0017793395 0.056115225 0.10705041 0.038365252 -0.039224207 0.069095224
0.0377881 -0.039186653 0.04260411 -0.05377077 0.01431582 0.04085168 -0.014482304 -0.0463521
-0.059586927 0.0067134844 0.005527235 0.038969267 0.021910556 0.03002174 0.011630707 0.012069052
-0.0066603716 -0.1503175 -0.05689075 0.019413749 -0.072720245 0.039148178 -0.0061227195 -0.036096543
00000000: 609d 413c b6dd 6abc e9e9 e8bc 4b80 b23c
00000010: 5558 7d3d 8b51 03bb 5659 0e3b 434c 043d
00000020: 9821 293d db9d 4e3d 2f55 f13d c112 edbc
00000030: 39ea 87bd b77d c6bc 4001 1c3d 69c2 c1bc
00000040: bf48 b73b 9baf 693d 3c21 683c 7206 653d
00000050: fee2 df3b 307f 613c c7b3 97bc 9ac2 313c
00000060: 8bd6 313d 0514 28bd 2258 2e3c 8fc2 923d
00000070: 2902 afba 3e42 633b 38e8 383d 916a 733d
00000080: 44d5 e03d 19bd 913d ba38 e93a 14d9 653d
00000090: 3f3d db3d e224 1d3d 90a9 20bd cc81 8d3d
000000a0: b2c7 1a3d 2f82 20bd a681 2e3d bd3e 5cbd
000000b0: e78c 6a3c 1754 273d 3047 6dbc b3db 3dbd
000000c0: 6c11 74bd cafc db3b cf1d b53b 3d9e 1f3d
000000d0: c47d b33c 27f0 f53c b98e 3e3c 46bd 453c
000000e0: 3f3f dabb d5ec 19be 4606 69bd 9509 9f3c
000000f0: 5aee 94bd d759 203d 18a1 c8bb f8d9 13bd

encoder.ln.weight f4 [64]
0.8444022 0.8631664 0.8482497 0.9736144 0.883123 0.8686421 1.0969595 1.0468237
0.98013395 1.0130494 0.7759346 0.7061581 0.9459607 1.027047 0.9314797 0.84525853
1.3052145 0.85404825 1.1020397 0.8268755 1.0387119 0.8901762 0.74599093 1.034172
0.9545037 0.9701954 0.9904189 0.9674747 1.0931996 1.0939846 0.91394144 1.1878905
0.92735535 1.0212858 0.85186344 0.934422 0.96399546 0.95323485 0.8946793 1.1034255
1.0925635 1.0239152 0.7611711 1.0088139 0.99020064 1.0806537 0.9834643 0.9344145
1.0401623 1.0778608 0.985635 1.201087 0.93900883 0.9075179 0.93872434 0.93356544
0.98889273 0.94627976 0.8741019 0.9860342 0.8795227 0.8164155 1.0402906 1.003951
00000000: be2a 583f 79f8 5c3f e426 593f cb3e 793f
00000010: 5914 623f 545f 5e3f 2b69 8c3f 52fe 853f
00000020: 0fea 7a3f 9aab 813f a6a3 463f c7c6 343f
00000030: 7b2a 723f 4776 833f 7475 6e3f dd62 583f
00000040: 4511 a73f e8a2 5a3f a30f 8d3f 1dae 533f
00000050: 83f4 843f 96e2 633f 43f9 3e3f c05f 843f
00000060: 5b5a 743f ba5e 783f 188c 7d3f 6cac 773f
00000070: f7ed 8b3f b007 8c3f 11f8 693f cc0c 983f
00000080: 2967 6d3f 7eb9 823f b913 5a3f 4836 6f3f
00000090: 68c8 763f 3307 743f b409 653f 0c3d 8d3f
000000a0: 1fd9 8b3f a70f 833f 1cdc 423f d020 813f
000000b0: ca7d 7d3f dc52 8a3f 51c4 7b3f ca35 6f3f
000000c0: 0a24 853f 58f7 893f 9352 7c3f 38bd 993f
000000d0: e262 703f 1853 683f 3d50 703f 25fe 6e3f
000000e0: 1328 7d3f 643f 723f 24c5 5f3f bd6c 7c3f
000000f0: 6628 613f 9b00 513f 3e28 853f 7781 803f

encoder.ln.bias f4 [64]
-0.09499771 -0.00080348115 -0.0050746137 0.012620383 0.04555422 0.042110305 -0.04235892 0.00092118076
0.016158355 -0.0020530007 0.067842335 0.0077566407 -0.05374933 -0.05279966 0.018343052 -0.046599906
-0.026685635 -0.061036628 0.0042684185 0.13838343 -0.017617155 0.023360947 0.034145277 -0.007171427
0.008818503 0.05484641 -0.0946174 -0.0065286644 0.061751585 0.007240471 0.043372486 0.0052383128
0.12239139 -0.011229727 -0.05699215 0.050386954 0.10347954 -0.050429765 0.067527205 0.05207714
0.052979454 -0.010282422 -0.08245341 -0.03802866 -0.08675596 0.058237534 0.01967021 0.040143013
-0.08321337 0.030473659 0.010780219 0.012915485 0.0009903457 0.028943669 0.025300754 0.023873443
0.022281006 0.06467947 0.07353741 0.039862934 0.09338668 0.038034268 0.0060982094 0.00942402
00000000: 298e c2bd b5a0 52ba f248 a6bb b9c5 4e3c
00000010: 1097 3a3d db7b 2c3d 8c80 2dbd 657b 713a
00000020: 875e 843c a38b 06bb ecf0 8a3d 6b2b fe3b
00000030: 4228 5cbd 7544 58bd 2b44 963c 8bdf 3ebd
00000040: d59b dabc 8b01 7abd 17de 8b3b 63b4 0d3e
00000050: da51 90bc 755f bf3c ebdb 0b3d 4afe eabb
00000060: 7b7b 103c a1a6 603d c4c6 c1bd 68ee d5bb
00000070: 3bef 7c3d 7941 ed3b 59a7 313d 27a6 ab3b
00000080: 56a8 fa3d e4fc 37bc 9a70 69bd 8d62 4e3d
00000090: 15ed d33d 718f 4ebd b44b 8a3d d74e 553d
000000a0: fc00 593d 9b77 28bc 55dd a8bd f1c3 1bbd
000000b0: 1cad b1bd 7b8a 6e3d 6c23 a13c 006d 243d
000000c0: c56b aabd e5a3 f93c 849f 303c 789b 533c
000000d0: 7dce 813a 461b ed3c 8743 cf3c 3d92 c33c
000000e0: a886 b63c ac76 843d c89a 963d 5147 233d
000000f0: 8441 bf3d d2c9 1b3d 7dd3 c73b 3467 1a3c

encoder.blocks.0.ln1.weight f4 [64]
0.9438685 0.9727772 0.9349116 0.8729282 0.8925015 0.94232386 1.1465842 1.0281848
0.74415475 1.0828197 0.9671984 0.6876565 1.0201491 1.1077409 0.99845463 0.879932
0.9965168 1.0057373 1.1189337 0.8369379 0.892962 0.8897737 0.8101448 1.0588492
1.0306828 0.9869719 1.0593189 1.0401661 1.1969314 1.2455231 1.0145477 1.19344
0.89735806 1.0495083 0.9626933 1.1227331 1.0477365 1.0530926 0.84927773 1.0738876
0.8891659 0.99893636 0.82431257 1.0381092 1.0403122 1.0622958 1.0200775 0.73399764
1.1255443 1.1135604 0.9762173 1.1093116 1.026632 0.81762004 0.98773265 0.90132403
1.1078103 0.93658876 0.9028511 0.727527 0.9135322 0.9217089 0.95309883 0.9876138
00000000: 5ea1 713f ed07 793f 5e56 6f3f 3978 5f3f
00000010: fa7a 643f 233c 713f 45c3 923f 8f9b 833f
00000020: ed80 3e3f d699 8a3f 509a 773f 420a 303f
00000030: 3f94 823f 74ca 8d3f b99a 7f3f 3943 613f
00000040: ba1b 7f3f 00bc 803f 3839 8f3f 9041 563f
00000050: 2899 643f 36c8 633f a665 4f3f 5f88 873f
00000060: 6aed 833f 31aa 7c3f c397 873f 2a24 853f
00000070: 0c35 993f 4d6d 9f3f b3dc 813f a4c2 983f
00000080: 42b9 653f 4a56 863f 1173 763f b8b5 8f3f
00000090: 3b1c 863f bdcb 863f 446a 593f 2675 893f
000000a0: 60a0 633f 4bba 7f3f 2606 533f c3e0 843f
000000b0: f328 853f 4ff9 873f e691 823f 45e7 3b3f
000000c0: d611 903f 2689 8e3f 61e9 793f ecfd 8d3f
000000d0: ad68 833f 8c4f 513f 0cdc 7c3f 2cbd 663f
000000e0: bacc 8d3f 48c4 6f3f 4021 673f 363f 3a3f
000000f0: 3fdd 693f 1df5 6b3f 49fe 733f 42d4 7c3f

encoder.blocks.0.ln1.bias f4 [64]
-0.043993324 -0.026516601 0.065113544 -0.11598626 0.08873309 0.058777064 -0.026875937 0.0012020096
0.00091466913 0.027272731 0.0934716 0.08380024 -0.020212322 -0.01004395 -0.021543117 0.037081458
-0.0799222 0.014229773 0.034875095 0.08226636 -0.040813923 -0.007988627 0.06915573 -0.052846964
-0.08827139 -0.01787603 -0.024216881 0.07881652 0.0007038785 0.07823369 -0.10685304 -0.01830604
0.050803322 0.010387738 -0.0030555464 0.057917047 0.06335619 -0.04802473 0.06304717 0.044436853
0.033555005 -0.050227128 -0.09382509 -0.0021594325 -0.080884494 0.09547631 0.08167053 0.1208076
-0.021270156 -0.013893008 0.06627414 -0.032168437 0.012875816 0.072498366 0.15318507 -0.011547868
0.057417065 0.047346577 0.007837357 0.015597162 0.012325598 0.028080165 -0.0053296117 -0.0019147824
00000000: 5832 34bd 5839 d9bc 405a 853d 348a edbd
00000010: b2b9 b53d 38c0 703d ed2a dcbc c08c 9d3a
00000020: 68c6 6f3a 106b df3c 0a6e bf3d 769f ab3d
00000030: 5094 a5bc 618f 24bc 317b b0bc bae2 173d
00000040: 40ae a3bd fe23 693c 30d9 0e3d 447b a83d
00000050: 802c 27bd bbe2 02bc 85a1 8d3d 0f76 58bd
00000060: a1c7 b4bd c170 92bc 7b62 c6bc 8e6a a13d
00000070: 7d84 383a fc38 a03d c4d5 dabd 8cf6 95bc
00000080: 2517 503d 5531 2a3c 903f 48bb 6d3a 6d3d
00000090: e4c0 813d 94b5 44bd e01e 813d 6b03 363d
000000a0: f970 093d f6ba 4dbd 5e27 c0bd 4485 0dbb
000000b0: c5a6 a5bd 1589 c33d e142 a73d fa69 f73d
000000c0: c03e aebc 809f 63bc bcba 873d 0dc3 03bd
000000d0: 16f5 523c 067a 943d 8cdc 1c3e 4533 3dbc
000000e0: 282e 6b3d 7cee 413d 4268 003c 3d8b 7f3c
000000f0: 4ef1 493c 6008 e63c 06a4 aebb 70f9 faba

encoder.blocks.0.ln2.weight f4 [64]
0.9666269 0.8955305 0.9220193 1.0643578 0.9520327 0.9937498 1.0777287 1.0497847
0.8741305 1.1435224 1.0222044 0.9184567 0.960505 1.0296848 1.086171 0.9161419
0.96769696 1.013802 1.1023272 0.8245707 1.0012474 0.9734991 0.91351897 1.0266819
1.0378547 0.940226 1.0266097 0.8629221 1.071177 1.0730336 0.9850965 1.0415989
1.0222943 1.0658756 1.0215608 1.1702993 1.0756425 0.9615944 0.87255794 1.1400691
0.9665761 1.1333052 1.0576749 1.0202281 1.0617033 1.1046505 1.1138525 0.8140698
0.9388197 1.070994 1.0490265 1.2125804 0.9265873 0.8957871 0.9453293 0.8693446
1.007395 1.0877738 0.9314155 0.9443308 0.9482347 1.0452538 1.1856278 1.0310987
00000000: dc74 773f 7d41 653f 7509 6c3f e03c 883f
00000010: 6ab8 733f 6366 7e3f 04f3 893f 585f 863f
00000020: 04c7 5f3f f15e 923f 98d7 823f fa1f 6b3f
00000030: a8e3 753f b6cc 833f a707 8b3f 4788 6a3f
00000040: fdba 773f 44c4 813f 0f19 8d3f 1117 533f
00000050: e028 803f 3d37 793f 61dc 693f 506a 833f
00000060: 6cd8 843f a7b2 703f f267 833f 76e8 5c3f
00000070: 541c 893f 2a59 893f 492f 7c3f 1d53 853f
00000080: 8ada 823f 9d6e 883f 81c2 823f 5ecc 953f
00000090: a7ae 893f 0d2b 763f f55f 5f3f c9ed 913f
000000a0: 8871 773f 2510 913f e461 873f d696 823f
000000b0: e5e5 873f 3065 8d3f b892 8e3f e166 503f
000000c0: 7d56 703f 5516 893f 8046 863f d635 9b3f
000000d0: d334 6d3f 4e52 653f 1a01 723f 5e8d 5e3f
000000e0: 52f2 803f 2c3c 8b3f 3f71 6e3f aabf 713f
000000f0: 82bf 723f e0ca 853f a7c2 973f 0bfb 833f

encoder.blocks.0.ln2.bias f4 [64]
-0.019543162 0.019827748 0.053837657 -0.06523672 -0.0036831081 0.04390148 -0.069013335 0.018511739
-0.049899407 0.097142376 0.06701632 0.029993882 0.0006237405 0.004002433 -0.029307695 0.041335907
-0.113511436 -0.0064613605 0.02280674 -0.018935723 -0.103162885 0.025818098 0.006275881 -0.03990994
-0.06147426 -0.010994231 -0.014246246 -0.05847064 0.01919475 0.06612543 0.028612033 0.0037366657
0.022101147 0.049311798 0.01734197 0.08864747 0.034461014 -0.032292396 -0.010195788 -0.018324936
0.058295093 -0.059974056 0.041977815 -0.0052995402 -0.05724813 0.04423175 0.09022961 0.026116181
-0.0040305317 -0.02510107 -0.011081079 -0.067928635 -0.013854516 0.046569634 0.021823956 0.016582489
0.034527596 -0.047470044 0.014189106 0.035175122 0.043421913 0.060033422 -0.14342499 0.00013596109
00000000: fb18 a0bc cd6d a23c e084 5c3d d49a 85bd
00000010: 4d60 71bb 0ad2 333d dd56 8dbd eea5 973c
00000020: 5263 4cbd 95f2 c63d da3f 893d bbb5 f53c
00000030: 8482 233a d726 833b b116 f0bc d74f 293d
00000040: af78 e8bd d2b9 d3bb 33d5 ba3c 171f 9bbc
00000050: 1047 d3bd 7a80 d33c e8a5 cd3b 9b78 23bd
00000060: 6fcc 7bbd 2621 34bc 1669 69bc e97e 6fbd
00000070: 4f3e 9d3c c56c 873d c863 ea3c d9e2 743b
00000080: 770d b53c 2bfb 493d bf10 8e3c ce8c b53d
00000090: fe26 0d3d 0845 04bd 3c0c 27bc 2d1e 96bc
000000a0: d6c6 6e3d 5ba7 75bd eef0 2b3d c4a7 adbb
000000b0: 047d 6abd 5a2c 353d 4dca b83d 9af1 d53c
000000c0: 8d12 84bb c2a0 cdbc 6a8d 35bc 2b1e 8bbd
000000d0: 0dfe 62bc cdbf 3e3d 27c8 b23c 00d8 873c
000000e0: cf6c 0d3d f36f 42bd 6d79 683c ca13 103d
000000f0: 2ddb 313d 9be5 753d 00de 12be c790 0e39

encoder.blocks.0.attn.mask f4 [1, 1, 12, 12]
1.0 0.0 0.0 0.0 0.0 0.0 0.0 0.0
0.0 0.0 0.0 0.0 1.0 1.0 0.0 0.0
0.0 0.0 0.0 0.0 0.0 0.0 0.0 0.0
1.0 1.0 1.0 0.0 0.0 0.0 0.0 0.0
0.0 0.0 0.0 0.0 1.0 1.0 1.0 1.0
0.0 0.0 0.0 0.0 0.0 0.0 0.0 0.0
1.0 1.0 1.0 1.0 1.0 0.0 0.0 0.0
0.0 0.0 0.0 0.0 1.0 1.0 1.0 1.0
1.0 1.0 0.0 0.0 0.0 0.0 0.0 0.0
1.0 1.0 1.0 1.0 1.0 1.0 1.0 0.0
0.0 0.0 0.0 0.0 1.0 1.0 1.0 1.0
1.0 1.0 1.0 1.0 0.0 0.0 0.0 0.0
1.0 1.0 1.0 1.0 1.0 1.0 1.0 1.0
1.0 0.0 0.0 0.0 1.0 1.0 1.0 1.0
1.0 1.0 1.0 1.0 1.0 1.0 0.0 0.0
1.0 1.0 1.0 1.0 1.0 1.0 1.0 1.0
1.0 1.0 1.0 0.0 1.0 1.0 1.0 1.0
1.0 1.0 1.0 1.0 1.0 1.0 1.0 1.0
00000000: 0000 803f 0000 0000 0000 0000 0000 0000
00000010: 0000 0000 0000 0000 0000 0000 0000 0000
00000020: 0000 0000 0000 0000 0000 0000 0000 0000
00000030: 0000 803f 0000 803f 0000 0000 0000 0000
00000040: 0000 0000 0000 0000 0000 0000 0000 0000
00000050: 0000 0000 0000 0000 0000 0000 0000 0000
00000060: 0000 803f 0000 803f 0000 803f 0000 0000
00000070: 0000 0000 0000 0000 0000 0000 0000 0000
00000080: 0000 0000 0000 0000 0000 0000 0000 0000
00000090: 0000 803f 0000 803f 0000 803f 0000 803f
000000a0: 0000 0000 0000 0000 0000 0000 0000 0000
000000b0: 0000 0000 0000 0000 0000 0000 0000 0000
000000c0: 0000 803f 0000 803f 0000 803f 0000 803f
000000d0: 0000 803f 0000 0000 0000 0000 0000 0000
000000e0: 0000 0000 0000 0000 0000 0000 0000 0000
000000f0: 0000 803f 0000 803f 0000 803f 0000 803f
00000100: 0000 803f 0000 803f 0000 0000 0000 0000
00000110: 0000 0000 0000 0000 0000 0000 0000 0000
00000120: 0000 803f 0000 803f 0000 803f 0000 803f
00000130: 0000 803f 0000 803f 0000 803f 0000 0000
00000140: 0000 0000 0000 0000 0000 0000 0000 0000
00000150: 0000 803f 0000 803f 0000 803f 0000 803f
00000160: 0000 803f 0000 803f 0000 803f 0000 803f
00000170: 0000 0000 0000 0000 0000 0000 0000 0000
00000180: 0000 803f 0000 803f 0000 803f 0000 803f
00000190: 0000 803f 0000 803f 0000 803f 0000 803f
000001a0: 0000 803f 0000 0000 0000 0000 0000 0000
000001b0: 0000 803f 0000 803f 0000 803f 0000 803f
000001c0: 0000 803f 0000 803f 0000 803f 0000 803f
000001d0: 0000 803f 0000 803f 0000 0000 0000 0000
000001e0: 0000 803f 0000 803f 0000 803f 0000 803f
000001f0: 0000 803f 0000 803f 0000 803f 0000 803f
00000200: 0000 803f 0000 803f 0000 803f 0000 0000
00000210: 0000 803f 0000 803f 0000 803f 0000 803f
00000220: 0000 803f 0000 803f 0000 803f 0000 803f
00000230: 0000 803f 0000 803f 0000 803f 0000 803f

encoder.blocks.0.attn.key.weight f4 [64, 64]
0.0032190734 0.02500819 -0.06039823 0.013465211 0.06604614 0.030251907 0.08281251 -0.057544533
-0.16711205 -0.034398932 -0.057953704 0.04394713 0.035385106 -0.010227788 -0.009375285 0.11341909
-0.18243591 0.030581508 0.06514975 0.021538561 0.03722543 -0.1221004 0.062783636 -0.0115134865
0.051232353 0.01906464 0.07908403 -0.03863357 0.039923884 -0.09461848 0.044143967 -0.070506774
-0.0071671214 -0.05681461 0.014176706 -0.04466787 -0.026071966 0.0076807127 -0.03123606 0.065572135
-0.051645286 0.09026161 -0.013683785 0.09511384 -0.02798793 0.013218009 0.034671936 0.11716784
-0.062349062 -0.049276315 0.036604084 -0.26310068 0.027378634 -0.005655825 -0.05564887 -0.16586429
-0.021813113 0.02300778 0.039016776 -0.01164926 0.11197357 0.020118902 -0.095042154 0.23312262
0.054564938 -0.023739938 0.17911586 -0.03963106 0.006563174 0.15915534 0.011477981 -0.08783494
0.13358325 -0.0738368 0.025810407 -0.07620565 0.06864866 0.05706334 0.09130922 0.15724272
0.38252172 0.009191544 -0.019044816 0.0058841165 -0.06825245 -0.048046928 -0.036751635 -0.11102867
-0.032239288 -0.13326357 0.18448097 0.04067463 -0.019583708 -0.034976073 0.1172494 0.06207404
-0.1487741 0.00046135683 0.00019191197 0.075365365 0.039892476 -0.03755752 -0.062471505 -0.09477526
0.21069032 -0.07281031 -0.015336943 0.1284937 0.16588384 -0.12036306 0.045282125 -0.12145485
-0.03060967 0.0024720102 -0.0858398 0.23613042 -0.08928204 0.01904307 -0.062257733 0.21831769
-0.09718717 -0.090277284 -0.13906889 -0.12186043 -0.09211903 -0.127817 0.16915317 -0.12269455
-0.09382563 -0.08932901 -0.19993909 0.01403457 -0.038041785 -0.09747137 -0.079274654 0.043000646
0.098370194 0.152461 0.079743385 0.05076495 -0.057408035 -0.1658695 -0.12811592 -0.24200301
-0.26545516 0.09653663 -0.00031607118 -0.0067007393 0.08732429 0.02809478 0.0988003 0.15829262
0.061651513 0.18114226 -0.20003626 -0.009180912 -0.013355364 0.060409125 -0.15391879 -0.045926552
0.18511473 0.04795252 -0.00080758234 -0.056086402 -0.039349344 -0.04252123 0.10201206 0.08675786
-0.18127581 0.09336195 0.039228253 -0.23971471 -0.20769991 0.17320551 -0.15075803 -0.02401914
0.08194225 0.0060008224 0.07129879 -0.08958674 0.023691684 -0.0065057846 0.08939258 -0.1809194
0.1150712 0.13006862 0.18385844 0.007248762 0.106829524 0.1903438 -0.10998085 0.08722418
0.09675643 -0.051667847 0.06440348 -0.062343072 -0.101559184 -0.0021567463 0.024822043 0.032482564
0.05251997 0.014337163 -0.023501778 -0.13732149 -0.021734152 0.112144224 0.036101308 -0.12970217
0.032925125 -0.026951397 -0.03892379 0.0236003 -0.06926517 -0.018285133 -0.0024535665 -0.030555852
0.12902771 -0.018588703 0.14008419 0.07740396 -0.18192823 0.06157388 0.020931946 0.0795403
-0.096273236 -0.02149157 -0.07376259 -0.015443155 0.11507525 -0.13387826 -0.08551296 -0.038790677
0.11604897 0.0055100797 0.037451822 -0.0013826564 -0.016940609 0.14980976 -0.098120734 -0.046006132
0.1155611 0.11931608 0.11710856 0.06349963 -0.04745993 0.003252819 0.035953 0.031702753
0.027918812 -0.056415897 -0.15706508 -0.0882833 -0.013565283 -0.024409825 0.12871741 -0.15223603
00000000: 17f7 523b fadd cc3c 2264 77bd 309d 5c3c
00000010: 3343 873d d9d2 f73c 9b99 a93d d1b3 6bbd
00000020: 6c1f 2bbe e5e5 0cbd dd60 6dbd e801 343d
00000030: f9ef 103d 7492 27bc cc9a 19bc 4548 e83d
00000040: 7bd0 3abe 1286 fa3c 3b6d 853d a371 b03c
00000050: b179 183d c60f fabd b594 803d 10a3 3cbc
00000060: 04d9 513d 732d 9c3c cff6 a13d 3c3e 1ebd
00000070: 3a87 233d 55c7 c1bd 4ed0 343d db65 90bd
00000080: 2cda eabb 70b6 68bd 6a45 683c a8f5 36bd
00000090: e094 d5bc 7dae fb3b c4e2 ffbc af4a 863d
000000a0: 028a 53bd 14db b83d f431 60bc 0ccb c23d
000000b0: f246 e5bc 5990 583c 2904 0e3d b1f5 ef3d
000000c0: bb61 7fbd f6d5 49bd 2aee 153d 22b5 86be
000000d0: 2849 e03c 8054 b9bb 12f0 63bd 54d8 29be
000000e0: 6ab1 b2bc d07a bc3c 0ed0 1f3d 8adc 3ebc
000000f0: 6652 e53d 65d0 a43c 76a5 c2bd b2b7 6e3e
00000100: 7c7f 5f3d 427a c2bc 266a 373e 2e54 22bd
00000110: e50f d73b 9ef9 223e 240e 3c3c cee2 b3bd
00000120: 0cca 083e c037 97bd 5970 d33c b511 9cbd
00000130: ab97 8c3d 40bb 693d 5400 bb3d 3c04 213e
00000140: e3d9 c33e 2198 163c e003 9cbc 8ccf c03b
00000150: f1c7 8bbd dbcc 44bd e288 16bd 0063 e3bd
00000160: 580d 04bd 3f76 08be 94e8 3c3e 719a 263d
00000170: 036e a0bc 1243 0fbd 7420 f03d 5941 7e3d
00000180: 3d58 18be 44e2 f139 fa3b 4939 2859 9a3d
00000190: 4b66 233d ead5 19bd 1fe2 7fbd 8819 c2bd
000001a0: 34bf 573e 921d 95bd cd47 7bbc da93 033e
000001b0: 74dd 293e e880 f6bd c079 393d 52bd f8bd
000001c0: 21c1 fabc 7301 223b c7cc afbd 2ccc 713e
000001d0: 81d9 b6bd 3600 9c3c f701 7fbd ac8e 5f3e
000001e0: 110a c7bd 4ce3 b8bd 1368 0ebe f691 f9bd
000001f0: e7a8 bcbd 76e2 02be 7d36 2d3e 4847 fbbd
00000200: a727 c0bd 21f2 b6bd d5bc 4cbe 41f1 653c
00000210: b4d1 1bbd 129f c7bd c05a a2bd 7221 303d
00000220: 5076 c93d bd1e 1c3e 8050 a33d e9ee 4f3d
00000230: b024 6bbd b2d9 29be d230 03be a3cf 77be
00000240: bde9 87be ffb4 c53d 5bb6 a5b9 e091 dbbb
00000250: 14d7 b23d 0627 e63c d057 ca3d 7617 223e
00000260: 4c86 7c3d 5b7d 393e 4ed6 4cbe 896b 16bc
00000270: 75d0 5abc 8f6f 773d e39c 1dbe 7b1d 3cbd
00000280: b78e 3d3e dd69 443d efb3 53ba dbba 65bd
00000290: c72c 21bd be2a 2ebd b3eb d03d 1bae b13d
000002a0: 5ea0 39be 8d34 bf3d cead 203d c677 75be
000002b0: 49af 54be c95c 313e 5060 1abe cac3 c4bc
000002c0: 57d1 a73d 8ca2 c43b 1a05 923d 4179 b7bd
000002d0: 1015 c23c 7a2e d5bb 7513 b73d ef42 39be
000002e0: 73aa eb3d b530 053e 6345 3c3e 0687 ed3b
000002f0: 70c9 da3d 7ce9 423e a43d e1bd 97a2 b23d
00000300: 3c28 c63d aaa1 53bd f9e5 833d 735b 7fbd
00000310: 43fe cfbd 3358 0dbb 9957 cb3c 700c 053d
00000320: 2e1f 573d 6ce6 6a3c cd86 c0bc 019e 0cbe
00000330: d20b b2bc dfab e53d f7de 133d a5d0 04be
00000340: 7fdc 063d 2dc9 dcbc 8d6e 1fbd 6b55 c13c
00000350: e6da 8dbd b4ca 95bc 04cc 20bb 4450 fabc
00000360: d71f 043e 5647 98bc 3b72 0f3e f885 9e3d
00000370: 654b 3abe e534 7c3d 7979 ab3c 06e6 a23d
00000380: e72a c5bd 170f b0bc d710 97bd 4905 7dbc
00000390: 93ac eb3d 6217 09be 6b21 afbd f9e2 1ebd
000003a0: 15ab ed3d e68d b43b 1567 193d 403a b5ba
000003b0: 08c7 8abc bb67 193e 86f3 c8bd ed70 3cbd
000003c0: 4cab ec3d fd5b f43d 9dd6 ef3d 180c 823d
000003d0: 5865 42bd 3f2d 553b 7443 133d bfda 013d
000003e0: feb5 e43c 5b14 67bd abd5 20be e0cd b4bd
000003f0: ec40 5ebc 1df7 c7bc 7fce 033e c3e3 1bbe

encoder.blocks.0.attn.key.bias f4 [64]
2.4523e-07 5.6240527e-08 7.2038446e-08 2.7646003e-08 2.9167327e-07 2.3214295e-09 1.9319104e-07 -1.482187e-07
1.0333029e-07 -9.106123e-08 4.1866244e-08 -1.522269e-08 -1.8819904e-07 3.8704226e-09 4.2241588e-08 7.1940627e-09
7.910666e-08 -3.4512084e-09 -2.1223107e-07 -8.4368516e-08 1.502691e-07 -3.9384542e-08 7.2329776e-08 1.1943543e-07
1.2093538e-07 -5.4911002e-08 -2.1334118e-08 2.963944e-08 -2.166343e-07 -8.4681105e-08 -2.2866514e-07 3.6684384e-08
-2.6485127e-09 -4.2198515e-08 1.3042015e-07 4.215923e-08 3.566944e-08 2.2576927e-08 -1.9451343e-07 4.679903e-08
2.7321897e-07 4.0870482e-08 -1.1512493e-07 -4.495e-08 1.4472303e-07 -2.220188e-07 4.6797776e-08 6.8545396e-09
2.3271116e-07 -3.4577197e-09 3.8958667e-08 1.5457317e-07 -2.309413e-07 -2.4479345e-07 -2.6553687e-07 -9.160698e-08
-5.133988e-08 5.7164566e-08 9.854993e-10 1.4850782e-07 -8.8841986e-08 6.698601e-08 9.774011e-08 -2.0151383e-08
00000000: 28a8 8334 1d8d 7133 8eb3 9a33 347a ed32
00000010: 4597 9c34 0587 1f31 f36f 4f34 0c26 1fb4
00000020: 6de6 dd33 718d c3b3 6cd0 3333 0dc3 82b2
00000030: c213 4ab4 99fc 8431 1e6d 3533 a52f f731
00000040: 59e1 a933 4d2a 6db1 a2e1 63b4 152e b5b3
00000050: a859 2134 c327 29b3 b753 9b33 293e 0034
00000060: 77da 0134 49d7 6bb3 3942 b7b2 d199 fe32
00000070: fc9b 68b4 eed9 b5b3 ff86 75b4 e88e 1d33
00000080: 2101 36b1 c23d 35b3 9e09 0c34 9012 3533
00000090: f732 1933 30ef c132 72db 50b4 1400 4933
000000a0: eeae 9234 9289 2f33 993a f7b3 0c0f 41b3
000000b0: 2a65 1b34 1064 6eb4 b3fe 4833 2b85 eb31
000000c0: 28df 7934 d99c 6db1 8253 2733 c0f8 2534
000000d0: a9f8 77b4 286c 83b4 1c8f 8eb4 78b9 c4b3
000000e0: cc80 5cb3 1b85 7533 2d72 8730 8575 1f34
000000f0: 66c9 beb3 f3d9 8f33 32e5 d133 5c19 adb2
