trainer/results/football/11_vs_11_stochastic/mat/check/run1/models/transformer_300.pt (torch, 467816 bytes, 73 tensors)

encoder.state_encoder.0.weight f4 [37]
0	0x3f800000	1.0
1	0x3f800000	1.0
2	0x3f800000	1.0
3	0x3f800000	1.0
4	0x3f800000	1.0
5	0x3f800000	1.0
6	0x3f800000	1.0
7	0x3f800000	1.0
8	0x3f800000	1.0
9	0x3f800000	1.0
10	0x3f800000	1.0
11	0x3f800000	1.0
12	0x3f800000	1.0
13	0x3f800000	1.0
14	0x3f800000	1.0
15	0x3f800000	1.0
16	0x3f800000	1.0
17	0x3f800000	1.0
18	0x3f800000	1.0
19	0x3f800000	1.0
20	0x3f800000	1.0
21	0x3f800000	1.0
22	0x3f800000	1.0
23	0x3f800000	1.0
24	0x3f800000	1.0
25	0x3f800000	1.0
26	0x3f800000	1.0
27	0x3f800000	1.0
28	0x3f800000	1.0
29	0x3f800000	1.0
30	0x3f800000	1.0
31	0x3f800000	1.0
32	0x3f800000	1.0
33	0x3f800000	1.0
34	0x3f800000	1.0
35	0x3f800000	1.0
36	0x3f800000	1.0

encoder.state_encoder.0.bias f4 [37]
0	0x00000000	0.0
1	0x00000000	0.0
2	0x00000000	0.0
3	0x00000000	0.0
4	0x00000000	0.0
5	0x00000000	0.0
6	0x00000000	0.0
7	0x00000000	0.0
8	0x00000000	0.0
9	0x00000000	0.0
10	0x00000000	0.0
11	0x00000000	0.0
12	0x00000000	0.0
13	0x00000000	0.0
14	0x00000000	0.0
15	0x00000000	0.0
16	0x00000000	0.0
17	0x00000000	0.0
18	0x00000000	0.0
19	0x00000000	0.0
20	0x00000000	0.0
21	0x00000000	0.0
22	0x00000000	0.0
23	0x00000000	0.0
24	0x00000000	0.0
25	0x00000000	0.0
26	0x00000000	0.0
27	0x00000000	0.0
28	0x00000000	0.0
29	0x00000000	0.0
30	0x00000000	0.0
31	0x00000000	0.0
32	0x00000000	0.0
33	0x00000000	0.0
34	0x00000000	0.0
35	0x00000000	0.0
36	0x00000000	0.0

encoder.state_encoder.1.weight f4 [64, 37]
0	0x3eea3253	0.4574152
1	0x3e4463b7	0.19178663
2	0x3def88ec	0.11696038
3	0xbd0ebc43	-0.03484751
4	0xbcca7e92	-0.024718557
5	0x3db73b08	0.08946806
6	0x3c99b2b4	0.01876197
7	0x3dbed0be	0.09317158
8	0x3e86bd51	0.26316312
9	0xbd8f8500	-0.070077896
10	0x3ead2fff	0.3382568
11	0xbd729ceb	-0.05923168
12	0xbe0441cd	-0.12915726
13	0xbe7bd527	-0.2459303
14	0xbcc9bf5b	-0.024627378
15	0x3e0b0fd3	0.13580255
16	0xbe2304b4	-0.15919763
17	0xbe357f7e	-0.17724416
18	0x3d299f5f	0.041411754
19	0x3cb5043b	0.022096744
20	0x3e38d0d0	0.18048406
21	0x3dfc5c2e	0.123222694
22	0xbd9c76f4	-0.07639876
23	0xbebc8b5d	-0.36825076
24	0xbe97f665	-0.29680172
25	0xbd0c02ed	-0.034182478
26	0x3d67e7d0	0.056617558
27	0x3e4df335	0.20112307
28	0x3d515823	0.051109444
29	0x3e4db43b	0.20088284
30	0x3e3c91fa	0.1841506
31	0xbd9f6b63	-0.07784154
32	0x3cb65284	0.022256143
33	0xbb022509	-0.00198585
34	0x3c921899	0.017833995
35	0x3e2bf260	0.16791677
36	0x3e12448a	0.14283958
37	0x3e8112f6	0.2520978
38	0xbb2f9f0b	-0.0026797678
39	0x3d15bafa	0.036555268
40	0xbeaf82c5	-0.34279457
41	0x3e56b06a	0.20965734
42	0x3ddf92a0	0.109166384
43	0x3d740ad4	0.05958064
44	0x3e3ab8a6	0.182345
45	0x3e458170	0.19287658
46	0x3d61f7ed	0.05516808
47	0x3c860f25	0.016364643
48	0xbe00a492	-0.12562779
49	0x3e91d3ce	0.28481907
50	0x3cc84edc	0.024451666
51	0x3eb34295	0.35011736
52	0xbe2b87bf	-0.16751002
53	0xbe8c83a0	-0.27444172
54	0x3dbdefe7	0.09274273
55	0x3c1a6e0c	0.009425651
56	0xbe102763	-0.14077525
57	0xbe60e71c	-0.21963161
58	0x3e35d172	0.17755678
59	0xbcb97c32	-0.022642229
60	0x3caa1afc	0.02076482
61	0x3d31b044	0.04338099
62	0xbeb5f0be	-0.35535234
63	0xbe32c4b4	-0.17457849
64	0x3dcd8324	0.10034779
65	0xbd8dd220	-0.06924844
66	0xbd7cc212	-0.061708517
67	0xbda61a35	-0.08110467
68	0x3e950f4c	0.29113233
69	0x3d963cca	0.07335813
70	0xbe4c8050	-0.19970822
71	0xbd0f2270	-0.03494495
72	0xbd842e07	-0.064540915
73	0x3e9ff8cb	0.312445
74	0x3d7fb785	0.062430877
75	0xbe330d8e	-0.1748564
76	0x3e20c7ef	0.15701269
77	0x3da887f8	0.08229059
78	0xbdae9e1d	-0.085262515
79	0xbe2ae3e6	-0.16688499
80	0x3d3489ab	0.044076603
81	0xbe6f10fb	-0.23346321
82	0x3c6b4537	0.014359764
83	0xbd4d532e	-0.050128154
84	0xbe8d637b	-0.2761496
85	0xbdb88d8b	-0.09011372
86	0x3e48eaa9	0.19620766
87	0x3ead9efc	0.33910358
88	0x3db3567a	0.087567285
89	0x3e4f6a52	0.20255402
90	0x3ba6c18d	0.005088991
91	0x3df311d4	0.11868635
92	0x3d5a49ad	0.05329292
93	0x3e30a9cb	0.17252271
94	0x3e634c59	0.22197093
95	0x3d6cca01	0.057809833
96	0xbd06d0e9	-0.032914076
97	0xbe1f38cd	-0.15549012
98	0xbe8eb27a	-0.27870542
99	0x3e9798b1	0.29608682
100	0xbe394f45	-0.18096645
101	0xbd5f8528	-0.054570347
102	0xbe8b3af6	-0.2719342
103	0xbd68baea	-0.05681888
104	0xbdb0bb52	-0.086294785
105	0x3e83a199	0.25709227
106	0x3dcdc8be	0.10048054
107	0x39638498	0.00021697802
108	0x3c67a18f	0.01413764
109	0x3e536661	0.20644523
110	0xbe33cab8	-0.175578
111	0x3d87c614	0.06629577
112	0xbf0efc04	-0.55853295
113	0xbd63d6eb	-0.055624884
114	0xbe3cf2e4	-0.1845203
115	0x3e8827de	0.26592916
116	0xbdb4726a	-0.08810885
117	0xbced7021	-0.028984131
118	0xbe9b4287	-0.30324194
119	0xbd6598a6	-0.05605378
120	0x3e82781a	0.25482255
121	0xbdbbd8e9	-0.09172232
122	0xbd97390b	-0.07383927
123	0xbe8aae05	-0.2708589
124	0x3e4308f2	0.19046381
125	0x3c999c91	0.018751414
126	0xbbcb6f07	-0.006208304
127	0xbe08c491	-0.13356234
128	0xbdff9eda	-0.124814704
129	0xbdc79830	-0.09745824
130	0x3d6c4474	0.05768247
131	0x3e82af48	0.25524354
132	0x3e0f9575	0.14021857
133	0xbe160bb1	-0.14652897
134	0xbd99eec5	-0.07516245
135	0x3e2af624	0.16695458
136	0xbe832ef5	-0.25621763
137	0x3cb86dae	0.022513237
138	0xbe40b9fd	-0.18820949
139	0xbd5f68d1	-0.05454332
140	0xbd5e2382	-0.05423308
141	0xbe4415b1	-0.191489
142	0xbd851690	-0.06498444
143	0x3e15dcc5	0.14634998
144	0x3e7ea779	0.24868573
145	0x3e8dc537	0.27689525
146	0xbeb7a183	-0.3586541
147	0xbe46e3f2	-0.19422892
148	0x3e52549a	0.20540085
149	0xbe82942d	-0.25503674
150	0x3ebbd84b	0.36688456
151	0xbd624a2b	-0.055246513
152	0xbd41bb96	-0.047298037
153	0x3e05be5e	0.130609
154	0xbd33b050	-0.043869317
155	0x3db09d03	0.086236976
156	0xbda74684	-0.08167747
157	0x3db4ba06	0.08824544
158	0xbc641ade	-0.013922421
159	0xba659301	-0.0008757562
160	0xbe9476e4	-0.28996956
161	0xbe8920ef	-0.2678294
162	0xbdfe4b75	-0.12416736
163	0xbb828742	-0.003983409
164	0xbdabf78f	-0.083968274
165	0xbe3dabab	-0.18522517
166	0xbe160e1a	-0.14653817
167	0xbc0b06e8	-0.008485533
168	0x3e49de97	0.19713818
169	0x3cc25018	0.023719832
170	0x3d183f72	0.03716988
171	0xbe1821ba	-0.14856616
172	0xbdf8cec6	-0.12148814
173	0x3c54650c	0.012963545
174	0xbd957dfa	-0.07299419
175	0xbc402b2b	-0.011729042
176	0xbd30c3bb	-0.043155413
177	0xbdc5cb60	-0.09657931
178	0xbdb9b4d4	-0.09067693
179	0xbebb955a	-0.36637384
180	0xbe90af99	-0.2825897
181	0xbebf5ec5	-0.3737699
182	0xbd85c36e	-0.06531416
183	0x3db6111f	0.08889984
184	0xbe4b8a61	-0.19877006
185	0x3d7f3876	0.062309705
186	0x3e32060e	0.17385122
187	0xbc12d39c	-0.008961584
188	0x3dc54b30	0.096334815
189	0x3e5d243a	0.2159585
190	0xbdf591d9	-0.11990709
191	0x3d8361c5	0.064151324
192	0xbe2fc1ea	-0.17163816
193	0xbe905ac9	-0.28194264
194	0x3c55daa7	0.013052619
195	0x3e255fe8	0.16149867
196	0x3e17e363	0.14832835
197	0xbd5334bb	-0.05156396
198	0xbe03c192	-0.1286681
199	0xbed550dd	-0.41663256
200	0x3dc47234	0.09592095
201	0xbdeb773d	-0.11497352
202	0x3d5cc94e	0.053902917
203	0xbd863b8c	-0.065543264
204	0x3e8bc7dd	0.2730092
205	0xbddc2166	-0.10748558
206	0xbf232aec	-0.6373737
207	0xbe46e88c	-0.19424647
208	0xbd841a97	-0.06450384
209	0x3da7a11f	0.08185028
210	0xbdf38642	-0.11890842
211	0x3d41fdd1	0.0473612
212	0xbe0f72d2	-0.14008644
213	0xbd9d8c58	-0.07692784
214	0xbe1451df	-0.14484356
215	0xbe3e8ab2	-0.18607596
216	0x3d3217c1	0.043479685
217	0x3ba5b2ab	0.0050566993
218	0xbe189029	-0.14898743
219	0x3dcba996	0.09944455
220	0xbd368ee1	-0.044569854
221	0x3dd23ee8	0.10265905
222	0xbd1b2188	-0.037873775
223	0x3e906655	0.28203073
224	0x3d8cfe49	0.068844385
225	0xbd0f74c3	-0.035023462
226	0xbeb6443e	-0.3559894
227	0x3e821fba	0.2541483
228	0xbb414235	-0.0029488925
229	0x3d924b50	0.07143271
230	0x3e157232	0.14594343
231	0x3e60a655	0.2193845
232	0xbdf664da	-0.12030955
233	0xbd2d2c56	-0.04227861
234	0xbdacf864	-0.08445814
235	0xbe843386	-0.2582056
236	0xbeca4649	-0.39506748
237	0x3e41a98e	0.18912336
238	0xbe0f43bb	-0.13990681
239	0x3cb7594a	0.022381444
240	0xbcfff123	-0.031242913
241	0x3cb2397f	0.021755932
242	0xbc646169	-0.01393924
243	0x3dba662c	0.09101519
244	0x3e0c6c46	0.13713178
245	0x3e0396c8	0.12850487
246	0xbda0e9ce	-0.07857095
247	0xbe8099ec	-0.25117433
248	0xbe5992e3	-0.21247439
249	0x3d2f5ff6	0.042816125
250	0xbdcd1602	-0.10013963
251	0x3c009639	0.007848316
252	0xbf04d966	-0.51894224
253	0x3db27505	0.08713726
254	0xbe17e75b	-0.14834349
255	0x3e3dec3e	0.1854715

encoder.state_encoder.1.bias f4 [64]
0	0x00000000	0.0
1	0x00000000	0.0
2	0x00000000	0.0
3	0x00000000	0.0
4	0x00000000	0.0
5	0x00000000	0.0
6	0x00000000	0.0
7	0x00000000	0.0
8	0x00000000	0.0
9	0x00000000	0.0
10	0x00000000	0.0
11	0x00000000	0.0
12	0x00000000	0.0
13	0x00000000	0.0
14	0x00000000	0.0
15	0x00000000	0.0
16	0x00000000	0.0
17	0x00000000	0.0
18	0x00000000	0.0
19	0x00000000	0.0
20	0x00000000	0.0
21	0x00000000	0.0
22	0x00000000	0.0
23	0x00000000	0.0
24	0x00000000	0.0
25	0x00000000	0.0
26	0x00000000	0.0
27	0x00000000	0.0
28	0x00000000	0.0
29	0x00000000	0.0
30	0x00000000	0.0
31	0x00000000	0.0
32	0x00000000	0.0
33	0x00000000	0.0
34	0x00000000	0.0
35	0x00000000	0.0
36	0x00000000	0.0
37	0x00000000	0.0
38	0x00000000	0.0
39	0x00000000	0.0
40	0x00000000	0.0
41	0x00000000	0.0
42	0x00000000	0.0
43	0x00000000	0.0
44	0x00000000	0.0
45	0x00000000	0.0
46	0x00000000	0.0
47	0x00000000	0.0
48	0x00000000	0.0
49	0x00000000	0.0
50	0x00000000	0.0
51	0x00000000	0.0
52	0x00000000	0.0
53	0x00000000	0.0
54	0x00000000	0.0
55	0x00000000	0.0
56	0x00000000	0.0
57	0x00000000	0.0
58	0x00000000	0.0
59	0x00000000	0.0
60	0x00000000	0.0
61	0x00000000	0.0
62	0x00000000	0.0
63	0x00000000	0.0

encoder.obs_encoder.0.weight f4 [217]
0	0x3f706886	0.9390949
1	0x3f8134d4	1.0094247
2	0x3f7e741c	0.9939592
3	0x3f7dd3ec	0.9915149
4	0x3f79b07a	0.97534907
5	0x3f7715f0	0.9651785
6	0x3f7c5b29	0.985766
7	0x3f778c49	0.96698433
8	0x3f77dcb7	0.9682116
9	0x3f8963cf	1.0733584
10	0x3f7c13f8	0.9846797
11	0x3f8ae458	1.0850935
12	0x3f86a9fe	1.0520627
13	0x3f7afb72	0.98039925
14	0x3f63681e	0.88830745
15	0x3f6a465f	0.9151363
16	0x3f80131d	1.0005833
17	0x3f820617	1.0158108
18	0x3f7f43ee	0.9971303
19	0x3f86cc78	1.0531149
20	0x3f8a8846	1.0822837
21	0x3f979d8b	1.1844953
22	0x3f8b7a69	1.0896732
23	0x3f83b8dd	1.0290791
24	0x3f9399c8	1.1531305
25	0x3f87aa93	1.059893
26	0x3f832a76	1.0247333
27	0x3f86a9a4	1.052052
28	0x3f8cf98e	1.1013658
29	0x3f8853ad	1.0650536
30	0x3f99fd88	1.2030497
31	0x3f86c823	1.0529827
32	0x3f444de4	0.7668135
33	0x3f8bc335	1.0918947
34	0x3f88c947	1.0686425
35	0x3f9292a4	1.1451001
36	0x3fa4fb12	1.288912
37	0x3f80de87	1.006791
38	0x3f65c645	0.8975566
39	0x3f411886	0.75428045
40	0x3f59b06e	0.85034835
41	0x3f6a59db	0.9154336
42	0x3f71aa78	0.9440074
43	0x3f83ca5c	1.029613
44	0x3f88e9d7	1.0696362
45	0x3fbdec18	1.4837675
46	0x3f63e52c	0.89021564
47	0x3f708e86	0.93967474
48	0x3f70d2e1	0.94071776
49	0x3f822b1a	1.0169404
50	0x3f74b101	0.95582587
51	0x3f6afbee	0.91790664
52	0x3f752aeb	0.9576861
53	0x3f32d3c6	0.6985439
54	0x3f5f1d5c	0.87154174
55	0x3f67dc5f	0.90570635
56	0x3f726ea3	0.9470007
57	0x3f84b28f	1.0366992
58	0x3f7ca0cf	0.98682874
59	0x3f6d76c4	0.92759347
60	0x3f4618f2	0.77381814
61	0x3f57d94d	0.8431595
62	0x3f4ec745	0.8077281
63	0x3f7565ab	0.9585826
64	0x3f8135bf	1.0094527
65	0x3f7fe56d	0.9995945
66	0x3f69f92d	0.9139584
67	0x3f4a53f1	0.79034334
68	0x3f6d8779	0.9278484
69	0x3f5ff78d	0.8748711
70	0x3f6e2a67	0.9303345
71	0x3f7dd52b	0.99153394
72	0x3f849ce4	1.0360379
73	0x3f7579ed	0.9588917
74	0x3f358cb3	0.70917815
75	0x3f5321b2	0.8247329
76	0x3f4dbf4f	0.8037004
77	0x3f6a06ed	0.9141682
78	0x3f819ead	1.0126549
79	0x3f7cc403	0.9873659
80	0x3f71d474	0.944648
81	0x3f49688a	0.7867514
82	0x3f5673f2	0.8377067
83	0x3f563b3b	0.8368413
84	0x3f844d25	1.0336043
85	0x3f818b0e	1.0120561
86	0x3f7fc882	0.99915326
87	0x3f786936	0.9703554
88	0x3f4c185a	0.7972466
89	0x3f49496f	0.78627676
90	0x3f5c07c0	0.85949326
91	0x3f7c520e	0.98562706
92	0x3f813a20	1.0095863
93	0x3f6d6ad6	0.92741144
94	0x3f81eaaf	1.0149745
95	0x3f4ee15a	0.8081261
96	0x3f4d0ff2	0.80102456
97	0x3f55b66b	0.8348147
98	0x3f780c82	0.96894085
99	0x3f6517ea	0.89489615
100	0x3f6d56c4	0.9271052
101	0x3f6f1817	0.93396133
102	0x3f321d7e	0.6957625
103	0x3f5516d8	0.8323798
104	0x3f6587f1	0.89660555
105	0x3f688385	0.9082568
106	0x3f7da18f	0.99074644
107	0x3f65f2ba	0.89823496
108	0x3f4b6ea6	0.7946571
109	0x3f31237d	0.69194776
110	0x3f57500d	0.8410652
111	0x3f5a8689	0.85361534
112	0x3f71f1d1	0.9450961
113	0x3f84f89a	1.0388367
114	0x3f7e51c8	0.9934354
115	0x3f90a4ca	1.130029
116	0x3f394ce6	0.7238296
117	0x3f519380	0.8186569
118	0x3f518f55	0.8185933
119	0x3f8de2cc	1.1084838
120	0x3f7b28fd	0.9810942
121	0x3f895c1d	1.0731236
122	0x3f886598	1.0656004
123	0x3f82cdb9	1.0219032
124	0x3f82282a	1.0168507
125	0x3f7db49a	0.991037
126	0x3f81ea8a	1.0149701
127	0x3f87ce89	1.0609905
128	0x3f7cdcb3	0.9877426
129	0x3f84d7ef	1.0378398
130	0x3f802f39	1.0014411
131	0x3f839af8	1.0281668
132	0x3f4ecc43	0.8078043
133	0x3f7c657c	0.9859235
134	0x3f6a83a3	0.9160711
135	0x3f612290	0.87943363
136	0x3f627863	0.88464946
137	0x3f62de84	0.8862078
138	0x3f88b136	1.067908
139	0x3f8390cb	1.0278562
140	0x3f82538b	1.0181745
141	0x3f8a43e3	1.0801967
142	0x3f849fc6	1.0361259
143	0x3f7509ba	0.95717967
144	0x3f7bb0ca	0.98316634
145	0x3f7cf704	0.98814416
146	0x3f8ba64d	1.0910126
147	0x3f767872	0.96277535
148	0x3f7eca8a	0.995278
149	0x3f6e1fd8	0.9301734
150	0x3f6fc341	0.9365731
151	0x3f6b670e	0.91954124
152	0x3f78e038	0.9721713
153	0x3f82d6b6	1.0221775
154	0x3f88443a	1.0645821
155	0x3f95055e	1.1642263
156	0x3f78601c	0.9702165
157	0x3f54c9a7	0.831202
158	0x3f715cb5	0.94282085
159	0x3f70b3f9	0.94024616
160	0x3f80255d	1.0011402
161	0x3f842269	1.0323001
162	0x3f7f8c46	0.99823415
163	0x3f631492	0.8870326
164	0x3f5102c5	0.8164485
165	0x3f5fe5a8	0.874598
166	0x3f72fc4a	0.9491621
167	0x3f7e91c5	0.99441177
168	0x3f827354	1.0191445
169	0x3f805c6a	1.0028203
170	0x3f6448d6	0.8917364
171	0x3f69550f	0.91145414
172	0x3f6b3a9c	0.91886306
173	0x3f79a0e2	0.9751111
174	0x3f8155d7	1.0104321
175	0x3f80f2e1	1.0074121
176	0x3f902913	1.1262535
177	0x3f628c4a	0.88495314
178	0x3f87d2d2	1.0611212
179	0x3f4eb647	0.80746883
180	0x3f747d7b	0.9550397
181	0x3f8458a6	1.0339553
182	0x3f833983	1.0251926
183	0x3f7c25bd	0.98495084
184	0x3f6739cb	0.9032256
185	0x3f6b50ef	0.9192037
186	0x3f6aed3d	0.91768247
187	0x3f6f46e4	0.93467546
188	0x3f846a91	1.0345021
189	0x3f82a063	1.0205196
190	0x3f887aa7	1.066243
191	0x3f83f6f6	1.0309741
192	0x3f7cee38	0.9880099
193	0x3f6c9445	0.9241374
194	0x3f705d69	0.9389253
195	0x3f7e5911	0.99354655
196	0x3f809933	1.0046753
197	0x3f86814f	1.0508212
198	0x3f708f1c	0.9396837
199	0x3f83c5ff	1.0294799
200	0x3f6e83fe	0.93170154
201	0x3f75d8d3	0.9603397
202	0x3f838cd9	1.0277358
203	0x3f82ccda	1.0218766
204	0x3f8a70d6	1.0815685
205	0x3f7686cb	0.9629943
206	0x3f5fc2b5	0.87406474
207	0x3f825d15	1.0184656
208	0x3f7064ed	0.93904
209	0x3f837b3c	1.0271983
210	0x3f7dd9b4	0.99160314
211	0x3f7253be	0.9465903
212	0x3f75b682	0.9598161
213	0x3f80aff3	1.0053695
214	0x3f6df5ba	0.92953074
215	0x3f71797d	0.94326
216	0x3f85c0d7	1.0449475

encoder.obs_encoder.0.bias f4 [217]
0	0xbd98d0f9	-0.07461733
1	0xbc91c171	-0.017792435
2	0xbbf085a2	-0.007340149
3	0xbb6a0f13	-0.0035714551
4	0xbcb3415f	-0.021881757
5	0xbd16c25d	-0.036806453
6	0xbca89dcf	-0.020583062
7	0xbd05004f	-0.032470997
8	0xbd556c94	-0.0521055
9	0x3d03c276	0.032167874
10	0xb9d93d13	-0.0004143497
11	0x3ceb814c	0.028748177
12	0x3c1a89af	0.00943224
13	0xbc713ef0	-0.014724478
14	0xbd070257	-0.032961216
15	0xbc8586d4	-0.016299643
16	0x3cd5e31c	0.02610927
17	0x3b03785b	0.002006075
18	0x3cb64010	0.022247344
19	0x3ca1fb4f	0.019773154
20	0x3beea1fb	0.007282493
21	0x3ce40df6	0.027838688
22	0xbcdaf3ad	-0.026727522
23	0x3b00b0dd	0.0019636669
24	0x3d05f22a	0.03270165
25	0xbc2a0b56	-0.010378679
26	0x3cd38b54	0.025823273
27	0xbc10fa3d	-0.008848724
28	0x3c678941	0.014131845
29	0x3d3ffd1b	0.04687224
30	0x3c853361	0.016259851
31	0x3c312f22	0.01081446
32	0x3cad532f	0.02115783
33	0xbcee8e21	-0.029120507
34	0xbca13c35	-0.01968203
35	0xbc0709c0	-0.008242071
36	0x3c98b057	0.018638773
37	0x3c1b708f	0.009487285
38	0xbbe5950d	-0.0070062936
39	0x3cc1aac3	0.023640996
40	0x3c28b7b7	0.010297707
41	0xbcd56f01	-0.026053907
42	0xbcd5b0a3	-0.026085204
43	0x3cb48b16	0.022038978
44	0xbc0e4b36	-0.008684924
45	0x3c570c22	0.013125451
46	0x3cc49cad	0.02400049
47	0x3c16730e	0.009182705
48	0xbcd9626d	-0.02653619
49	0xba0f6fb7	-0.0005471664
50	0xbcbc0d00	-0.022955418
51	0x3c8c6551	0.017138155
52	0xbb147881	-0.0022654834
53	0x3ce61dc0	0.028090358
54	0x3ce9b304	0.028527744
55	0xbd0caef1	-0.034346525
56	0xbca18270	-0.019715518
57	0xbc409e3c	-0.011756476
58	0x399b8576	0.0002966334
59	0x3be8abcf	0.0071005593
60	0xbc25cb66	-0.010119295
61	0x3cf655e1	0.030070247
62	0xbcd9ec8e	-0.026602056
63	0xbd0b5443	-0.034015905
64	0xbcde823a	-0.027161706
65	0x3cc1ff54	0.02368132
66	0x3c24c32c	0.010056298
67	0xbb44f806	-0.003005506
68	0x3bd088b9	0.006363955
69	0x3b54cceb	0.0032470773
70	0xbd5e0ee4	-0.05421342
71	0xbc1581a5	-0.009125148
72	0xbc6c88db	-0.014436926
73	0xbbc96ffc	-0.006147383
74	0xbd089da6	-0.03335347
75	0x3c8f0ff8	0.01746367
76	0xbd14c7b5	-0.036323268
77	0xbd414809	-0.04718784
78	0xbbce9a3c	-0.0063050073
79	0x3ce05e3e	0.027388688
80	0xbaa45686	-0.0012537993
81	0x3cf2f65e	0.029658493
82	0xba0fa647	-0.00054797943
83	0xbd36cb25	-0.044627327
84	0xbcd51bac	-0.026014172
85	0xbd26a208	-0.04068187
86	0xbb825ad6	-0.0039781136
87	0x3c8d4fff	0.01725006
88	0x3c03e286	0.008049613
89	0x3ce0d710	0.0274463
90	0xbcffcf2b	-0.031226715
91	0xbcfb632f	-0.030686943
92	0xbd085e76	-0.03329321
93	0x3d521834	0.051292613
94	0x3c3e9fa9	0.011634746
95	0x3c40e95b	0.011774386
96	0x3ce20fc5	0.02759541
97	0xba4a8ef2	-0.0007726989
98	0xbd3bb37f	-0.045825478
99	0xbcebee4d	-0.028800154
100	0x3c3e8f86	0.011630898
101	0x3ca31a77	0.01991008
102	0x3c8f99bc	0.017529361
103	0x3d31c733	0.04340286
104	0xbd1cdfbe	-0.038299315
105	0xbcd7be8f	-0.026335983
106	0xbc11c0a4	-0.008896027
107	0x3cac355e	0.021021541
108	0xba8637c0	-0.0010240003
109	0x3cbe3728	0.02321966
110	0x3d190616	0.03735932
111	0xbc962502	-0.018328194
112	0xbd164d38	-0.036694735
113	0x3b191f12	0.0023364467
114	0xbb7adeb0	-0.0038279705
115	0xbc08d13e	-0.0083506685
116	0x3c731293	0.014835971
117	0x3d0b3956	0.033990227
118	0xbd0ea62d	-0.034826446
119	0xbc8923c4	-0.016740687
120	0xbbb40960	-0.0054942816
121	0xbc32e8ec	-0.010919791
122	0xbc263dfe	-0.010146616
123	0x3d1a18b7	0.037621226
124	0xbc80ed06	-0.015738022
125	0x3c8f3213	0.017479932
126	0xbb2f71ee	-0.0026770788
127	0xbc23fa7c	-0.010008451
128	0x3c289905	0.010290389
129	0xbca3660f	-0.019946126
130	0xbd05b1fa	-0.032640435
131	0xbcd68df0	-0.026190728
132	0xbd53b82b	-0.051689308
133	0x3cabbabb	0.020963063
134	0x3cf0c8bc	0.029392593
135	0x3c8757bd	0.016521329
136	0x3d4fb1f6	0.050706826
137	0xbd546e5f	-0.05186307
138	0xbcef4e4a	-0.029212136
139	0xbca35399	-0.019937323
140	0x3a979bca	0.0011566815
141	0xbccbf758	-0.024898216
142	0xbc6fc93d	-0.014635381
143	0x3ceb4d9c	0.02872353
144	0x3c58f809	0.01324273
145	0xbbaeff96	-0.005340527
146	0xba8411b7	-0.001007608
147	0x3d0199f2	0.031640954
148	0xbcbb28af	-0.022846548
149	0x3ce76944	0.028248437
150	0x3ac40a51	0.0014956688
151	0xbc42aa44	-0.011881415
152	0xbc9dc975	-0.019261101
153	0xbae6d7b6	-0.0017611894
154	0x3c2b3171	0.0104487995
155	0xbc3a2ee7	-0.011363721
156	0x3c3f8dda	0.011691535
157	0x3d18c357	0.037295666
158	0xbd714948	-0.058907777
159	0xbcbfa13b	-0.02339231
160	0xbc4a49af	-0.012346669
161	0x3d0378b4	0.032097533
162	0x3c3f361a	0.011670614
163	0x3d2f4d3d	0.04279827
164	0x3d0146f9	0.031561825
165	0xbd3dfc40	-0.046383142
166	0xbcfa60f4	-0.030563809
167	0xbbeaace1	-0.007161722
168	0x3cf0ebc8	0.029409304
169	0x3d3c87bc	0.046027884
170	0x3c819f1c	0.01582294
171	0x3ba15fa7	0.0049247327
172	0xbc2e54d4	-0.010640342
173	0xbd1d625b	-0.038423877
174	0xbd34cf43	-0.044142973
175	0x3cf20787	0.029544605
176	0x3cbd3243	0.023095256
177	0x3d5e21be	0.054231398
178	0x3b3f0f41	0.002915338
179	0xbdb12cc9	-0.0865112
180	0xbcbdba8e	-0.023160245
181	0xbc8f3b47	-0.01748432
182	0x3d07e233	0.033174705
183	0xbbba0391	-0.0056766947
184	0x3b8cba91	0.0042947014
185	0x3d0cc6fd	0.034369458
186	0xbc2c6e42	-0.010524334
187	0xb82c45c7	-4.107298e-05
188	0x3c610202	0.013733389
189	0x3cb1d4d2	0.021707926
190	0x3b4fda86	0.0031715943
191	0x3cc6add6	0.024252813
192	0xba3817d7	-0.00070225954
193	0xbd793d94	-0.06084974
194	0xbc60ec36	-0.013728192
195	0xbbb591c8	-0.00554106
196	0x3d0e98fc	0.034813866
197	0xbb81cbcb	-0.0039610616
198	0x3d4af9cd	0.049554635
199	0x3c8cb737	0.017177207
200	0xbd137309	-0.035998378
201	0xbd6b2369	-0.057406817
202	0xbc800666	-0.015628051
203	0x3d04b0cc	0.03239517
204	0x3b2efea8	0.002670208
205	0x3d18ccb7	0.037304606
206	0x3bb31908	0.0054656304
207	0xbb8c653e	-0.00428453
208	0xbd107d2f	-0.035275634
209	0xbb399d8f	-0.0028322672
210	0x3cd9d235	0.026589492
211	0x3ca60e5f	0.020270525
212	0x3ca6b086	0.020347845
213	0xbbeecf0d	-0.007287866
214	0xbd1c4fca	-0.03816203
215	0xbcf94e29	-0.030432777
216	0xbcd90405	-0.026491174

encoder.obs_encoder.1.weight f4 [64, 217]
0	0x3debd6c2	0.11515571
1	0x3daa967d	0.083294846
2	0xbcaba6dd	-0.02095359
3	0x3da82790	0.08210671
4	0x3d616e2e	0.055036716
5	0x3d882526	0.066477105
6	0x3e6befd7	0.2304071
7	0x3d931a63	0.07182767
8	0x3c6e37f0	0.014539704
9	0x3e00fcf5	0.12596495
10	0x3cc951a7	0.024575068
11	0xbd0db3f4	-0.034595445
12	0xbd52afc5	-0.05143716
13	0x3dc52f9e	0.09628223
14	0xbd80feeb	-0.06298622
15	0x3c374205	0.011185174
16	0x3dd736ed	0.10508523
17	0xbd8c609b	-0.068543635
18	0x3c4641d2	0.012100654
19	0xbe054c3c	-0.13017362
20	0xbc2787ad	-0.010225219
21	0x3e004080	0.12524605
22	0x3e071e59	0.1319517
23	0x3d1516e2	0.036398776
24	0xbdd4fd20	-0.10399842
25	0xbaa2adc3	-0.0012411404
26	0xb95eb952	-0.00021240607
27	0x3e4f53e8	0.20246851
28	0x3ca32eb8	0.019919738
29	0x3c4dd2f7	0.012562505
30	0xbe3b341f	-0.18281601
31	0x3d8207ef	0.063491695
32	0x3d726930	0.059182346
33	0x3daa5ac5	0.08318094
34	0xbdc42988	-0.09578234
35	0x3c61fc54	0.01379307
36	0xbe662bc1	-0.22477628
37	0xbcfd1e59	-0.03089826
38	0xbc4d7c23	-0.0125418035
39	0xbd37d955	-0.044885
40	0x3c8f3791	0.01748255
41	0x3dc9369e	0.098248705
42	0x3dee29bf	0.11629056
43	0xbdfc8b05	-0.12331203
44	0xbd8875da	-0.066631034
45	0x3d39d823	0.04537214
46	0x3d7f1516	0.06227597
47	0x3dc34a29	0.09535629
48	0x3dce0c63	0.10060956
49	0x3d51f869	0.051262293
50	0x3debbfae	0.115111694
51	0xbd978024	-0.07397488
52	0x3caf6bff	0.021413801
53	0xbd3207bb	-0.043464404
54	0x3d3ec303	0.046572696
55	0x3d80b16d	0.06283841
56	0xbc80cfb8	-0.015724048
57	0xbdf8af93	-0.12142863
58	0xbe2b7332	-0.16743162
59	0x3e67fc9c	0.22654957
60	0xbd650a04	-0.055917755
61	0xbd899f57	-0.06719845
62	0x3ddfdee7	0.10931187
63	0x3debecae	0.115197524
64	0xbbfe40b5	-0.0077591785
65	0xbd80db32	-0.06291808
66	0xbc9a1d11	-0.018812688
67	0x3c5f5b7c	0.013632651
68	0x3e78d0f3	0.24298458
69	0x3d208253	0.039186787
70	0xbd83c6b5	-0.06434385
71	0xbe2fec71	-0.17180039
72	0xbe208328	-0.15675032
73	0x3d7b67c9	0.061378274
74	0x3ddff112	0.109346524
75	0x3d2a66ad	0.041601826
76	0x3d527b5c	0.051387176
77	0xbd928a2b	-0.0715526
78	0xbe70fadc	-0.23533195
79	0x3d919006	0.071075484
80	0x3e25c330	0.1618774
81	0xbd0a2d12	-0.03373439
82	0x3d53610a	0.051606216
83	0x3d88e01f	0.06683373
84	0x3dfd6951	0.12373603
85	0xbe24e522	-0.16103032
86	0x3d854f9d	0.06509326
87	0x3e4d37de	0.20040843
88	0x3e62c3d7	0.2214502
89	0xbcc02ce2	-0.023458902
90	0x3d7221de	0.05911433
91	0x3d4f64ae	0.050633125
92	0xbe1308b6	-0.14358792
93	0x3d3e3742	0.046439417
94	0x3d0bc090	0.03411919
95	0xbcabd3ac	-0.020974956
96	0xbdf76895	-0.12080494
97	0x3bd7d75b	0.0065869517
98	0x3dfeee46	0.12447791
99	0x3cd540a4	0.0260318
100	0xbe2bb265	-0.16767271
101	0x3d167ddd	0.036741126
102	0xbdad7615	-0.08469788
103	0xbcffbd05	-0.031218061
104	0x3d3c8325	0.046023507
105	0xbe3a06a2	-0.18166593
106	0xbdfb61b1	-0.122744925
107	0x3e11ac29	0.1422583
108	0xbd0b81ab	-0.034059208
109	0x3d2081ba	0.039186217
110	0x3c62d359	0.0138443345
111	0x3c8b92a7	0.017037703
112	0x3d00366e	0.03130191
113	0xbdfe5979	-0.12419409
114	0x3c172677	0.009225479
115	0xbdfa8730	-0.12232816
116	0xbc7167c0	-0.014734209
117	0x3cde96ff	0.02717161
118	0x3c960f57	0.018317861
119	0x3e12896c	0.14310235
120	0x3ddc3301	0.10751916
121	0x3dda6da9	0.10665447
122	0x3db9a0d8	0.09063882
123	0x3eb9f0d4	0.3631655
124	0x3e47c6f2	0.19509485
125	0x3e29bab4	0.16575128
126	0x3e95526d	0.29164448
127	0x3d02413f	0.031800505
128	0x3d8df7e8	0.0693205
129	0x3eb8b4ae	0.36075348
130	0xbd89541b	-0.06705495
131	0x3c6d94d8	0.014500819
132	0x3dfe0575	0.124033846
133	0xbd672420	-0.056430936
134	0x3d9b72b7	0.075902395
135	0xbc53e2d4	-0.012932498
136	0xbd0e43d3	-0.03473265
137	0xbd54c697	-0.051947203
138	0x3d52a8ee	0.051430635
139	0xbbd443d0	-0.0064778104
140	0x3e143b4c	0.14475745
141	0x3dc5dfb4	0.096618086
142	0x3e04a4a1	0.12953426
143	0xbcd17727	-0.025569512
144	0xbde9635a	-0.11395903
145	0x3ddd86a5	0.10816697
146	0x3dd4f735	0.103987135
147	0xbdb143ca	-0.08655508
148	0xbcc0bfe7	-0.023529006
149	0xbd2d6200	-0.04232979
150	0xbd40a2e1	-0.047030333
151	0xba8a19fd	-0.001053631
152	0x3da38d9c	0.07985994
153	0xbdf8d444	-0.121498615
154	0xbe4a4d26	-0.19755992
155	0xbe2b8585	-0.16750152
156	0xbdec205e	-0.11529611
157	0xbb231187	-0.0024882273
158	0xbd8dc8a0	-0.06923032
159	0x3dc50164	0.09619406
160	0x3d21fa70	0.039545476
161	0xbe258153	-0.16162615
162	0x3a8c087f	0.0010683684
163	0xbd99f851	-0.07518066
164	0xbcb39ca3	-0.021925276
165	0x3d666703	0.056250583
166	0xbdaa5696	-0.08317296
167	0xbddd2368	-0.10797769
168	0x3e58d182	0.21173671
169	0xbd3853dc	-0.04500185
170	0x3deaa025	0.114563264
171	0x3d4603d7	0.048343506
172	0xbd852569	-0.06501276
173	0x3e1cc84a	0.15310779
174	0xbc2caf8a	-0.010539899
175	0xbdf76ecb	-0.12081679
176	0x3dc0162c	0.09379229
177	0xbdbe9330	-0.093054175
178	0xbd974126	-0.07385473
179	0xbe045e11	-0.12926508
180	0x3ccb816f	0.024841992
181	0x3ccfa6ec	0.02534815
182	0x3c245275	0.010029425
183	0xbca6b8e6	-0.020351838
184	0x3d661f7c	0.05618237
185	0xbe06a2c1	-0.13148023
186	0x3e01a652	0.12661102
187	0x3d1bf95b	0.0380796
188	0x3d8fdc45	0.07024435
189	0x3df30c3c	0.11867568
190	0x3e18bff2	0.14916971
191	0xbcb5faef	-0.022214381
192	0x3e0e52f2	0.13898829
193	0xbbd843a7	-0.0065998617
194	0xbda1cce4	-0.07900408
195	0xbe206288	-0.15662587
196	0xbd98d549	-0.07462556
197	0xbdc541f2	-0.09631719
198	0x3de36334	0.11102906
199	0xbe6d9ce1	-0.23204376
200	0x3d3d1447	0.046161916
201	0xbbd9743f	-0.006636172
202	0x3c123a0d	0.008924973
203	0xbd9fd964	-0.07805136
204	0x3d70d669	0.058798227
205	0x3e1e5103	0.15460591
206	0xbdf602aa	-0.12012227
207	0x3cacd28c	0.02109649
208	0x3ca846b5	0.020541528
209	0xbdd705c8	-0.104991496
210	0xbcbe475e	-0.02322739
211	0xbd5a02a3	-0.05322517
212	0xbe23dc99	-0.1600212
213	0xbc6e8e33	-0.01456027
214	0xbe58834a	-0.21143833
215	0xbd2646dc	-0.04059492
216	0xbe3e3096	-0.18573222
217	0xbc8ae246	-0.016953599
218	0xbd27064c	-0.04077749
219	0xbda85392	-0.08219065
220	0x3d90f381	0.07077695
221	0xbdf5d485	-0.120034255
222	0x3dd3df7d	0.103453614
223	0x3c68daf9	0.014212363
224	0xbc2ec0e0	-0.010666102
225	0xbe11d2ae	-0.14240524
226	0xbdd4ca63	-0.10390165
227	0xbde4a0ad	-0.11163459
228	0x3e0835c4	0.1330176
229	0x3dda18b4	0.10649243
230	0xbe36aaca	-0.17838588
231	0xbadc373d	-0.001680113
232	0xbdd1a545	-0.10236601
233	0xbe956bec	-0.291839
234	0x3bf7c524	0.007561343
235	0x3e0d0b8e	0.13773939
236	0xbd0ab494	-0.03386362
237	0xbdc91c7c	-0.09819886
238	0xbe2f2a86	-0.17106065
239	0x3e0de9bb	0.13858692
240	0x3d6393c4	0.055560842
241	0xbd0c830f	-0.034304675
242	0x3d3bd488	0.045856982
243	0x3cef9538	0.029245958
244	0xbe159890	-0.14608979
245	0xbdd63d3d	-0.10460899
246	0x3e189577	0.14900766
247	0xbdfd3671	-0.123638995
248	0x3e063e87	0.1310979
249	0x3d867a78	0.06566328
250	0x3d8eb620	0.06968331
251	0x3e04e970	0.12979674
252	0x3d9abb0e	0.07555209
253	0xbe366f2f	-0.1781585
254	0xbd2dc73f	-0.042426344
255	0xbc9abe78	-0.01888965

encoder.obs_encoder.1.bias f4 [64]
0	0x3bd59bb0	0.0065188035
1	0xbbca5884	-0.0061751027
2	0x3a3acc63	0.0007125793
3	0x3c1e0922	0.009645732
4	0x3d03b21b	0.032152276
5	0x3bdc95a5	0.006731706
6	0x3b7fcd57	0.0039032304
7	0x3cf73613	0.030177152
8	0x3cdc0d73	0.026861882
9	0x3cbbdce0	0.02293247
10	0x3cff1e09	0.031142252
11	0xb9e9efd9	-0.00044619924
12	0xbc863d68	-0.016386703
13	0xbc8f2ff2	-0.017478917
14	0x3cdcb366	0.026941013
15	0x3baa8d7b	0.005204854
16	0xb91cc838	-0.00014951907
17	0x3bde2f2c	0.0067805257
18	0x3cf83013	0.030296361
19	0xbc953938	-0.01821576
20	0xbb90dc52	-0.0044207955
21	0x3be033bc	0.0068421047
22	0xbbca35ce	-0.006170965
23	0xbcc28071	-0.023742886
24	0x3abfe7d0	0.0014641229
25	0xbce9ab6b	-0.028524121
26	0x399aca42	0.00029523863
27	0x3d171375	0.03688379
28	0x3c14d54f	0.00908406
29	0x3ce4dd84	0.027937658
30	0xb99c8354	-0.00029852486
31	0xbb6ca24c	-0.0036107479
32	0x3c23fdec	0.01000927
33	0x3cd4a8c6	0.025959384
34	0x3cd357fb	0.025798788
35	0x3cfa717a	0.030571688
36	0x3d4ac9c3	0.04950882
37	0x3b81e657	0.003964226
38	0xbd1fab30	-0.038981616
39	0x3c8360a0	0.016037285
40	0x3c8440da	0.016144205
41	0xbc666ba9	-0.014063754
42	0x3c3ab694	0.011396069
43	0xbc5babfa	-0.013407702
44	0x3bb54b50	0.0055326596
45	0x3c70a016	0.014686605
46	0x3c9f9121	0.019478383
47	0xbc5d9b35	-0.013525774
48	0xbca66fd1	-0.02031699
49	0x3ca230d6	0.019798677
50	0x3cb20822	0.021732394
51	0x3ca1c661	0.019747915
52	0x3cd39f16	0.025832694
53	0x3cbe9e69	0.023268895
54	0x3cff9378	0.031198248
55	0xbbaba84a	-0.0052385675
56	0x3ca2d176	0.01987527
57	0xbd3b7bdd	-0.045772422
58	0xbc179082	-0.009250762
59	0x3cdaf7da	0.026729513
60	0xbcf8fa58	-0.03039281
61	0x3c41acca	0.011820981
62	0xbbedb880	-0.00725466
63	0xbc8bfd3f	-0.01708853

encoder.ln.weight f4 [64]
0	0x3f769b75	0.9633096
1	0x3f7eaf8c	0.99486613
2	0x3f691b57	0.9105734
3	0x3f86fb80	1.0545502
4	0x3f82217a	1.0166466
5	0x3f7e668c	0.99375224
6	0x3f862de9	1.0482761
7	0x3f869c8d	1.0516526
8	0x3f752149	0.95753914
9	0x3f82ed4c	1.0228667
10	0x3f70209a	0.93799746
11	0x3f6f08de	0.93372905
12	0x3f807991	1.0037099
13	0x3f81de01	1.0145875
14	0x3f7c5402	0.98565686
15	0x3f751c1a	0.95746005
16	0x3f751cfc	0.9574735
17	0x3f75d6f9	0.9603115
18	0x3f841bc5	1.0320975
19	0x3f782dee	0.96945083
20	0x3f80c06e	1.0058725
21	0x3f6d218d	0.9262932
22	0x3f62cdb5	0.88595134
23	0x3f86a037	1.0517644
24	0x3f852d71	1.0404493
25	0x3f7e244c	0.99274135
26	0x3f859c9b	1.0438417
27	0x3f7ff0fa	0.99977076
28	0x3f78172b	0.9691035
29	0x3f8c8015	1.0976588
30	0x3f7c0eaa	0.98459876
31	0x3f8a51e5	1.0806242
32	0x3f7d5020	0.98950386
33	0x3f84a92a	1.0364125
34	0x3f793ed0	0.9736147
35	0x3f7c3ff2	0.9853507
36	0x3f72d409	0.9485479
37	0x3f751b8c	0.9574516
38	0x3f7bce0e	0.9836129
39	0x3f83d7fe	1.030029
40	0x3f8a3a6f	1.0799083
41	0x3f8a7b56	1.0818889
42	0x3f633113	0.88746756
43	0x3f82c571	1.0216504
44	0x3f838a5b	1.0276598
45	0x3f854d11	1.0414144
46	0x3f8123ea	1.0089085
47	0x3f7184c4	0.9434321
48	0x3f832aae	1.02474
49	0x3f8835e8	1.0641451
50	0x3f86db81	1.0535737
51	0x3f819606	1.0123909
52	0x3f7d6ff3	0.98998946
53	0x3f7bf47e	0.9841994
54	0x3f848594	1.0353265
55	0x3f7d2adf	0.9889354
56	0x3f823a4b	1.017404
57	0x3f79ce2e	0.9758023
58	0x3f7b2e7e	0.98117816
59	0x3f8168e5	1.0110136
60	0x3f6e5c27	0.93109363
61	0x3f771a29	0.9652429
62	0x3f836608	1.0265512
63	0x3f84b325	1.036717

encoder.ln.bias f4 [64]
0	0xbc1f481b	-0.009721781
1	0xbc80c302	-0.015717987
2	0x3b749884	0.0037322352
3	0xba78ac8b	-0.000948616
4	0x3c7e32f0	0.015515074
5	0x3c1f2059	0.009712302
6	0xbccada98	-0.024762437
7	0x3c19dfb7	0.009391717
8	0x3b58ed60	0.003310047
9	0x3c262b03	0.010142091
10	0x3cbc1a48	0.02296175
11	0xbb03c1c1	-0.00201045
12	0xbcb025e2	-0.021502439
13	0xbc8090f6	-0.015694123
14	0x3c82c07e	0.015960928
15	0x3bbf91c0	0.005846232
16	0xbc77dc81	-0.015128256
17	0xbbdee926	-0.006802696
18	0xbc14645b	-0.00905713
19	0x3cf2e60e	0.029650714
20	0xbc35093f	-0.011049568
21	0x3c031e9f	0.008002906
22	0x3c386cd5	0.011256416
23	0xbd30ab09	-0.04313186
24	0xbcc0710c	-0.023491405
25	0x3b82b923	0.003989355
26	0xbc6225db	-0.013802971
27	0x3c09a14b	0.008400272
28	0x397f81aa	0.00024366999
29	0x3cfbfb94	0.03075961
30	0x3c0b309f	0.008495479
31	0xbc685b77	-0.014181963
32	0x3ca880cd	0.02056923
33	0x3c697cd4	0.014250953
34	0xbc75693a	-0.014978701
35	0x3ca38669	0.019961553
36	0x3d74685b	0.059669834
37	0xbb07b7b5	-0.0020708863
38	0xba5b4e8c	-0.00083658914
39	0x3c86af81	0.016441109
40	0x3bc154fb	0.005900023
41	0xbc852630	-0.01625356
42	0x3c8c35a7	0.017115427
43	0xbb0fdba9	-0.0021950996
44	0xbcfd8cb8	-0.030950889
45	0x3c5009bc	0.012697633
46	0x3c53a215	0.012917061
47	0xbc86770d	-0.01641419
48	0xbcb3aaf6	-0.021932106
49	0x3b34151e	0.0027478407
50	0x3bbc0bd9	0.005738717
51	0x3b8b34e4	0.0042482484
52	0xbc4ca5f1	-0.012490735
53	0x3c898fb6	0.01679216
54	0x3c3c8c38	0.01150804
55	0xbc809d31	-0.015699955
56	0x3c9e2a26	0.019307207
57	0x3ca6ca92	0.020360265
58	0x3c8d806a	0.017273147
59	0x3c929660	0.01789397
60	0x3cc3612a	0.023850042
61	0x3b415639	0.0029500856
62	0xbc995227	-0.018715931
63	0xbc4635dd	-0.012097803

encoder.blocks.0.ln1.weight f4 [64]
0	0x3f7c59fd	0.9857481
1	0x3f83cc30	1.0296688
2	0x3f6ed433	0.9329254
3	0x3f8062d1	1.0030156
4	0x3f7bda0d	0.98379594
5	0x3f815475	1.0103899
6	0x3f86a8cd	1.0520264
7	0x3f813348	1.0093775
8	0x3f680137	0.90626854
9	0x3f858b51	1.0433141
10	0x3f79c2fb	0.9756314
11	0x3f5ef46a	0.87091696
12	0x3f819c33	1.0125793
13	0x3f827c83	1.0194248
14	0x3f7aba89	0.9794088
15	0x3f7513bd	0.95733243
16	0x3f69730b	0.91191167
17	0x3f7facb7	0.99872917
18	0x3f8450ef	1.0337199
19	0x3f753bf1	0.9579459
20	0x3f73c16c	0.95217013
21	0x3f68caa8	0.9093423
22	0x3f62ea04	0.8863833
23	0x3f88d8fd	1.069122
24	0x3f879986	1.0593727
25	0x3f7e8af5	0.9943078
26	0x3f882b1b	1.0638155
27	0x3f7265cf	0.946866
28	0x3f77a721	0.96739393
29	0x3f8d5deb	1.1044286
30	0x3f7bef20	0.9841175
31	0x3f88a1a6	1.0674331
32	0x3f785965	0.97011405
33	0x3f83e48b	1.0304121
34	0x3f728c97	0.94745773
35	0x3f83ac66	1.0286987
36	0x3f719db7	0.9438128
37	0x3f7cef74	0.98802876
38	0x3f7bbcdb	0.98335046
39	0x3f8376b6	1.0270603
40	0x3f873d09	1.0565501
41	0x3f8914c1	1.0709459
42	0x3f6f6dae	0.9352673
43	0x3f824e6d	1.0180184
44	0x3f84e2bb	1.0381693
45	0x3f85dd8e	1.0458238
46	0x3f818c5b	1.0120958
47	0x3f63b755	0.8895162
48	0x3f84ba24	1.0369306
49	0x3f871200	1.0552368
50	0x3f849414	1.035769
51	0x3f824f8d	1.0180527
52	0x3f82ed80	1.0228729
53	0x3f6f661e	0.93515193
54	0x3f827736	1.019263
55	0x3f835e61	1.0263177
56	0x3f7f8f00	0.99827576
57	0x3f74b623	0.9559042
58	0x3f79bfdb	0.97558373
59	0x3f73af64	0.951895
60	0x3f738ef3	0.9514
61	0x3f7baabf	0.9830741
62	0x3f8421e3	1.0322841
63	0x3f811377	1.0084065

encoder.blocks.0.ln1.bias f4 [64]
0	0xbc09324a	-0.008373806
1	0xbc7e0f6a	-0.015506605
2	0x3c3da615	0.011575242
3	0xbc4234c0	-0.011853397
4	0x3c8543f7	0.01626776
5	0x3c071728	0.008245267
6	0xbcb6ef26	-0.022330832
7	0x3a9b7393	0.0011860005
8	0x3c2bf904	0.010496382
9	0x3c1abc6d	0.009444338
10	0x3cf348b4	0.029697753
11	0x3cefd53d	0.029276485
12	0xbc8ee5e9	-0.017443614
13	0xbc82f162	-0.01598424
14	0x3bd7c9ba	0.006585327
15	0x3cbf6bd9	0.023366855
16	0xbc70ad0b	-0.014689694
17	0x3add52d8	0.0016885651
18	0xbb6a481b	-0.0035748545
19	0x3d31e3dd	0.043430198
20	0xbbbd3c09	-0.005774979
21	0x3b09b369	0.0021011478
22	0x3cbaf74d	0.022823
23	0xbd468591	-0.048467223
24	0xbd24cd7e	-0.040235035
25	0xbacad385	-0.0015474415
26	0xbb9dabec	-0.0048117545
27	0x3c9aa7e6	0.018878888
28	0xbc238f1e	-0.009982852
29	0x3d3ab826	0.045585774
30	0xbbe9ed88	-0.0071389116
31	0xbc9b4ba9	-0.018956976
32	0x3c871ac3	0.016492253
33	0x3d079e58	0.033109993
34	0xbb17b18b	-0.0023146595
35	0x3cab2465	0.020891378
36	0x3d7f6e2d	0.06236093
37	0xbc00d8aa	-0.007864157
38	0xbb7bb22b	-0.0038405757
39	0x3cc45e03	0.02397061
40	0x3af0e70f	0.0018379408
41	0xbd468bc1	-0.048473123
42	0x3ca2dd69	0.019880967
43	0x3b1503e7	0.0022737922
44	0xbd0e89a4	-0.034799233
45	0x3c49df0e	0.012321247
46	0x3cd011e6	0.02539916
47	0x3b06473a	0.0020489232
48	0xbc53d38a	-0.012928853
49	0xbc1758e6	-0.009237504
50	0xba92fe1d	-0.0011214648
51	0xbb96385a	-0.0045843543
52	0xbc454dc4	-0.012042467
53	0x3ca0f0bb	0.01964604
54	0x3c93f264	0.018059917
55	0xbc0f8421	-0.008759529
56	0x3cb0c38f	0.021577625
57	0x3d2e7596	0.042592607
58	0x3cc8e3d7	0.024522705
59	0x3c03c5b6	0.008042743
60	0x3ca79073	0.020454621
61	0x3b93d83e	0.004511862
62	0xbc89df5e	-0.016830143
63	0xbc0bef33	-0.008540916

encoder.blocks.0.ln2.weight f4 [64]
0	0x3f7bd0ff	0.9836578
1	0x3f7e2059	0.9926811
2	0x3f744b56	0.95427454
3	0x3f847890	1.0349293
4	0x3f732c28	0.9498925
5	0x3f7d6707	0.9898533
6	0x3f810ed4	1.008265
7	0x3f806db1	1.0033475
8	0x3f760acd	0.9611023
9	0x3f8736e4	1.0563626
10	0x3f773ffe	0.9658202
11	0x3f758f1f	0.9592151
12	0x3f80ff54	1.007792
13	0x3f82fb41	1.0232927
14	0x3f81450d	1.0099198
15	0x3f7c799b	0.98623055
16	0x3f6aeea6	0.917704
17	0x3f7d6a49	0.98990303
18	0x3f826b9b	1.0189089
19	0x3f717f52	0.943349
20	0x3f737b8c	0.9511039
21	0x3f6fbfb0	0.93651867
22	0x3f70422a	0.9385096
23	0x3f88a146	1.0674217
24	0x3f80f24e	1.0073946
25	0x3f7d27fa	0.98889124
26	0x3f88ab7f	1.0677336
27	0x3f6fd5af	0.9368543
28	0x3f77d69c	0.9681184
29	0x3f8921fb	1.0713495
30	0x3f77f657	0.9686026
31	0x3f8492c5	1.035729
32	0x3f758eaf	0.9592084
33	0x3f868bd0	1.0511417
34	0x3f63b0a7	0.88941425
35	0x3f84d524	1.0377545
36	0x3f8047f5	1.002196
37	0x3f75bb20	0.95988655
38	0x3f7afdb0	0.98043346
39	0x3f8ade2b	1.084905
40	0x3f8c2e97	1.0951718
41	0x3f8c4a74	1.0960221
42	0x3f756789	0.9586111
43	0x3f82144b	1.0162443
44	0x3f85b2b8	1.0445166
45	0x3f84c462	1.0372431
46	0x3f7f456e	0.99715316
47	0x3f6cc90c	0.92494273
48	0x3f8460a4	1.0341992
49	0x3f8623b3	1.0479645
50	0x3f81af5e	1.0131643
51	0x3f8a56a3	1.080769
52	0x3f819401	1.0123292
53	0x3f65d35f	0.8977565
54	0x3f7e0d0a	0.99238646
55	0x3f73ef34	0.9528687
56	0x3f7f396f	0.9969701
57	0x3f812525	1.0089461
58	0x3f78651b	0.97029275
59	0x3f7aa790	0.9791193
60	0x3f7335cf	0.9500398
61	0x3f7cf699	0.9881378
62	0x3f8a0df4	1.0785508
63	0x3f82f8c6	1.023217

encoder.blocks.0.ln2.bias f4 [64]
0	0x3c073bc7	0.008253998
1	0xbc2b81f5	-0.010467996
2	0x3cad77f9	0.021175371
3	0xbcc1830a	-0.023622055
4	0x3bf67089	0.0075207395
5	0xbbb8b47a	-0.005636749
6	0xbcc41fd9	-0.023940967
7	0xbb8cac1d	-0.0042929784
8	0xbc04a300	-0.008095503
9	0x3cf72a98	0.030171677
10	0x3bde6b17	0.0067876684
11	0xbc27b8e1	-0.01023695
12	0xbb937db1	-0.0045010676
13	0xbac598ec	-0.0015075481
14	0x3bce92f3	0.006304139
15	0x3d28e3e3	0.041232955
16	0xbc997938	-0.01873456
17	0x38f9bfa4	0.00011908941
18	0xbc1dd8b0	-0.009634182
19	0x3be0188d	0.006838864
20	0xbd219158	-0.03944525
21	0x3cebe92e	0.028797712
22	0xbc5eeb0e	-0.013605846
23	0xbd6d0d36	-0.057873927
24	0xbcd7b624	-0.026331969
25	0xbb7b06a2	-0.0038303514
26	0x3c00271e	0.007821826
27	0xbb2a0271	-0.0025941397
28	0xbc016fd2	-0.007900195
29	0x3c8ff8c6	0.01757468
30	0x3c351d9f	0.0110544255
31	0xbc4cbf42	-0.012496771
32	0x3bb5faa1	0.005553559
33	0x3d53c145	0.051697988
34	0x3bc5489c	0.0060206186
35	0x3ce1888c	0.027530931
36	0x3d0b58d8	0.034020275
37	0xbc03febd	-0.00805634
38	0xbb70d20a	-0.0036746287
39	0xba573ee4	-0.00082109706
40	0x3c13f5db	0.0090307845
41	0xbd5d7629	-0.054067764
42	0x3cebb5d1	0.02877322
43	0x3bce30e6	0.0062924502
44	0xbcb69aef	-0.022290675
45	0x3c13c8a6	0.009020006
46	0x3c58cc37	0.013232282
47	0x399ad886	0.00029534491
48	0xbbb60f44	-0.005556019
49	0xbc4c7dfe	-0.012481211
50	0xbcd389fc	-0.025822632
51	0xbc9b0fdf	-0.018928466
52	0xbbdb1e3e	-0.0066869548
53	0x3c978f32	0.018500898
54	0x393d77ce	0.00018069075
55	0x3b5aa727	0.003336379
56	0x3cbb9d98	0.022902295
57	0xbbed0e06	-0.0072343377
58	0x3cd07420	0.025445998
59	0x397b488d	0.00023964253
60	0x3cb56af2	0.022145722
61	0x3bb5e462	0.005550907
62	0xbd43bf6e	-0.047789983
63	0x3af09020	0.00183535

encoder.blocks.0.attn.mask f4 [1, 1, 12, 12]
0	0x3f800000	1.0
1	0x00000000	0.0
2	0x00000000	0.0
3	0x00000000	0.0
4	0x00000000	0.0
5	0x00000000	0.0
6	0x00000000	0.0
7	0x00000000	0.0
8	0x00000000	0.0
9	0x00000000	0.0
10	0x00000000	0.0
11	0x00000000	0.0
12	0x3f800000	1.0
13	0x3f800000	1.0
14	0x00000000	0.0
15	0x00000000	0.0
16	0x00000000	0.0
17	0x00000000	0.0
18	0x00000000	0.0
19	0x00000000	0.0
20	0x00000000	0.0
21	0x00000000	0.0
22	0x00000000	0.0
23	0x00000000	0.0
24	0x3f800000	1.0
25	0x3f800000	1.0
26	0x3f800000	1.0
27	0x00000000	0.0
28	0x00000000	0.0
29	0x00000000	0.0
30	0x00000000	0.0
31	0x00000000	0.0
32	0x00000000	0.0
33	0x00000000	0.0
34	0x00000000	0.0
35	0x00000000	0.0
36	0x3f800000	1.0
37	0x3f800000	1.0
38	0x3f800000	1.0
39	0x3f800000	1.0
40	0x00000000	0.0
41	0x00000000	0.0
42	0x00000000	0.0
43	0x00000000	0.0
44	0x00000000	0.0
45	0x00000000	0.0
46	0x00000000	0.0
47	0x00000000	0.0
48	0x3f800000	1.0
49	0x3f800000	1.0
50	0x3f800000	1.0
51	0x3f800000	1.0
52	0x3f800000	1.0
53	0x00000000	0.0
54	0x00000000	0.0
55	0x00000000	0.0
56	0x00000000	0.0
57	0x00000000	0.0
58	0x00000000	0.0
59	0x00000000	0.0
60	0x3f800000	1.0
61	0x3f800000	1.0
62	0x3f800000	1.0
63	0x3f800000	1.0
64	0x3f800000	1.0
65	0x3f800000	1.0
66	0x00000000	0.0
67	0x00000000	0.0
68	0x00000000	0.0
69	0x00000000	0.0
70	0x00000000	0.0
71	0x00000000	0.0
72	0x3f800000	1.0
73	0x3f800000	1.0
74	0x3f800000	1.0
75	0x3f800000	1.0
76	0x3f800000	1.0
77	0x3f800000	1.0
78	0x3f800000	1.0
79	0x00000000	0.0
80	0x00000000	0.0
81	0x00000000	0.0
82	0x00000000	0.0
83	0x00000000	0.0
84	0x3f800000	1.0
85	0x3f800000	1.0
86	0x3f800000	1.0
87	0x3f800000	1.0
88	0x3f800000	1.0
89	0x3f800000	1.0
90	0x3f800000	1.0
91	0x3f800000	1.0
92	0x00000000	0.0
93	0x00000000	0.0
94	0x00000000	0.0
95	0x00000000	0.0
96	0x3f800000	1.0
97	0x3f800000	1.0
98	0x3f800000	1.0
99	0x3f800000	1.0
100	0x3f800000	1.0
101	0x3f800000	1.0
102	0x3f800000	1.0
103	0x3f800000	1.0
104	0x3f800000	1.0
105	0x00000000	0.0
106	0x00000000	0.0
107	0x00000000	0.0
108	0x3f800000	1.0
109	0x3f800000	1.0
110	0x3f800000	1.0
111	0x3f800000	1.0
112	0x3f800000	1.0
113	0x3f800000	1.0
114	0x3f800000	1.0
115	0x3f800000	1.0
116	0x3f800000	1.0
117	0x3f800000	1.0
118	0x00000000	0.0
119	0x00000000	0.0
120	0x3f800000	1.0
121	0x3f800000	1.0
122	0x3f800000	1.0
123	0x3f800000	1.0
124	0x3f800000	1.0
125	0x3f800000	1.0
126	0x3f800000	1.0
127	0x3f800000	1.0
128	0x3f800000	1.0
129	0x3f800000	1.0
130	0x3f800000	1.0
131	0x00000000	0.0
132	0x3f800000	1.0
133	0x3f800000	1.0
134	0x3f800000	1.0
135	0x3f800000	1.0
136	0x3f800000	1.0
137	0x3f800000	1.0
138	0x3f800000	1.0
139	0x3f800000	1.0
140	0x3f800000	1.0
141	0x3f800000	1.0
142	0x3f800000	1.0
143	0x3f800000	1.0

encoder.blocks.0.attn.key.weight f4 [64, 64]
0	0xbd28b4ed	-0.04118817
1	0xbc5a4bf0	-0.013323769
2	0xbbc22837	-0.005925204
3	0x3db8d284	0.09024528
4	0x3d927fbd	0.071532704
5	0x3d77c7dd	0.06049334
6	0x3d152a19	0.0364171
7	0xbd31d44d	-0.043415356
8	0xbdc98362	-0.098395124
9	0xbd565446	-0.052326463
10	0xbd59ca9e	-0.053171746
11	0x3d96135b	0.073279105
12	0x3c317473	0.010830986
13	0xbd8df8e1	-0.069322355
14	0xbd180c42	-0.037121065
15	0x3d647a2a	0.055780567
16	0xbd43811d	-0.047730554
17	0x3d79fc8d	0.061031867
18	0x3da46486	0.08026986
19	0xbb538218	-0.0032273587
20	0x3cb7c8f4	0.02243469
21	0xbda2288f	-0.07917892
22	0x3d39c241	0.04535127
23	0xbcb7c121	-0.022430958
24	0x3dc27370	0.09494674
25	0xbba29372	-0.0049614245
26	0xbc5146a1	-0.012773187
27	0xbe4de5fc	-0.20107263
28	0xbd0ade08	-0.03390315
29	0xbd83d1e1	-0.064365156
30	0x3d937af2	0.07201184
31	0xbdc2d53a	-0.09513326
32	0x3b8ef3b5	0.0043625482
33	0xbdd7f7b3	-0.10545292
34	0x3da31067	0.07962113
35	0xbd4bbe95	-0.0497423
36	0xbc924091	-0.017853053
37	0xbbf81ddb	-0.0075719184
38	0xbc0fd54f	-0.008778884
39	0x3cc38cda	0.023870874
40	0xbe072fa5	-0.13201769
41	0x3e1e439c	0.15455478
42	0x3b01aa1e	0.0019785236
43	0x3e117aca	0.14206997
44	0x3d84e2ff	0.064886086
45	0xbb9f81bb	-0.00486776
46	0x3dc04c3d	0.09389541
47	0x3de04868	0.109513104
48	0xbc7ceb61	-0.015436978
49	0xbd2b9a39	-0.041895125
50	0xbca60721	-0.020267071
51	0xbd009f0b	-0.031401675
52	0xbd691687	-0.05690625
53	0xbb914e13	-0.004434356
54	0xbd31c8d5	-0.04340442
55	0xbc2a85f1	-0.010407911
56	0x3c0dca85	0.008654241
57	0x3b503980	0.0031772554
58	0xbc135b19	-0.008993887
59	0xbb24b00e	-0.002512935
60	0x3da1da3c	0.07902953
61	0xbda68482	-0.081307426
62	0xbd8b5f7d	-0.06805322
63	0x3e148dd4	0.14507228
64	0xbc600f69	-0.013675549
65	0xbbdde4b1	-0.006771647
66	0x3c7001ea	0.014648894
67	0xbcfc333f	-0.030786155
68	0x3b585316	0.0033008507
69	0x3c0cabbf	0.008585869
70	0xbc1652de	-0.0091750305
71	0xbc6daabc	-0.014506038
72	0x3c87c38c	0.016572736
73	0x3d69b5e5	0.057058234
74	0x3d8e51a6	0.06949167
75	0xbdbf33f9	-0.09336085
76	0xbe1cbe5b	-0.1530699
77	0x3ca64fea	0.020301778
78	0x39f5a132	0.0004685014
79	0x3d874333	0.06604614
80	0x3dac7481	0.08420659
81	0xbc18cc58	-0.009326063
82	0xbceed875	-0.02915595
83	0xbc3036e1	-0.010755272
84	0xbd03d54f	-0.03218585
85	0x3e01c2e4	0.12672001
86	0xbd17db4b	-0.03707437
87	0x3c8bbe98	0.017058656
88	0xbd6fb06b	-0.058517855
89	0x3c6872ef	0.014187559
90	0x3d9f051b	0.07764646
91	0x3d92dc75	0.07170955
92	0x3d91de9e	0.07122539
93	0xbad58e89	-0.0016293089
94	0x3d89e854	0.06733766
95	0x3d4c9586	0.049947284
96	0x3cd3ff0f	0.025878457
97	0x3d921664	0.07133177
98	0xbd9c5d6f	-0.076350085
99	0x3db90f90	0.090361714
100	0x3d1f281a	0.038856603
101	0x3cff9c01	0.031202318
102	0x3c9c21e3	0.019059127
103	0xbbab28ff	-0.005223393
104	0x3e3901f9	0.18067159
105	0xbd4bade0	-0.049726367
106	0xbcdee765	-0.027209947
107	0xbd56a94d	-0.05240755
108	0xbd02a3f5	-0.031894643
109	0xbbb883ff	-0.0056309695
110	0x3b6bcc11	0.0035979787
111	0xbc0cbd0e	-0.008589996
112	0x3bdc1ead	0.006717524
113	0x3d8e12ae	0.069371566
114	0xbd85d5ca	-0.06534918
115	0x3cfe81b1	0.031067701
116	0xbd456389	-0.048190627
117	0x3d151bf7	0.036403622
118	0xbd4e8b3a	-0.050425746
119	0x3bf0ac18	0.007344734
120	0xbd34eabb	-0.04416917
121	0x3d005a23	0.03133596
122	0x3d273fe1	0.040832404
123	0xbd63ea6e	-0.05564349
124	0x3c7535c6	0.014966434
125	0xbd2a71c9	-0.04161242
126	0x3d0dfb58	0.03466353
127	0xbdff4e36	-0.124660894
128	0x3bdef597	0.006804179
129	0x3cbc4d73	0.02298615
130	0xbd8a6b6b	-0.067587696
131	0xbcd01bd3	-0.025403893
132	0xbd0a5ebd	-0.033781756
133	0xbd105320	-0.035235524
134	0x3c2c1e1f	0.010505228
135	0xbd2206b8	-0.03955719
136	0x3d77e5ce	0.060521893
137	0xbb401260	-0.0029307827
138	0xbdb3b05c	-0.08773872
139	0x3dcfcd4f	0.101465814
140	0x3e1d3d4b	0.15355413
141	0xbd31d2e0	-0.043413997
142	0x3cbabc9f	0.02279502
143	0xbdce3c9d	-0.10070155
144	0xbd6f4b7d	-0.0584216
145	0x3c89fed1	0.016845139
146	0x3d355fc3	0.04428078
147	0x3d0d7a33	0.034540366
148	0x3d3bba63	0.04583205
149	0xbdde09d9	-0.10841722
150	0x3c5c79f5	0.013456811
151	0x3c7579c9	0.014982649
152	0x3c51a56f	0.01279579
153	0x3c581cd6	0.013190469
154	0xbd499784	-0.049216762
155	0x3d7c0e14	0.061536863
156	0xbd70b620	-0.058767438
157	0xbb8ec43b	-0.0043568886
158	0xbdf4dabf	-0.11955785
159	0xbcd63483	-0.026148086
160	0xbb9e041a	-0.0048222663
161	0xbc9a1b0a	-0.018811721
162	0x3d81edd6	0.06344192
163	0xbd7babdc	-0.061443195
164	0xbc70bc14	-0.014693279
165	0xbda19bbc	-0.07891032
166	0x3b0e533e	0.0021717097
167	0x3af7cc51	0.0018905496
168	0xbe14dd7c	-0.14537615
169	0x3c213dcf	0.0098413965
170	0x3ca088f4	0.019596554
171	0xbb69b2e7	-0.0035659613
172	0xbc32872e	-0.010896487
173	0x3cbb1eb7	0.022841794
174	0xbd94abae	-0.07259308
175	0xbc8fa395	-0.017534057
176	0xbc27292d	-0.010202688
177	0xbcb3ea13	-0.021962201
178	0x3ddbbc98	0.10729331
179	0x3d13ba50	0.036066353
180	0x3dbe2ab9	0.092854924
181	0xbcf643a6	-0.030061554
182	0x3d0ebafe	0.0348463
183	0x3c57b7e7	0.013166404
184	0x3b4cbc2d	0.0031240091
185	0xbaefed3e	-0.0018304957
186	0xbcc4b361	-0.024011316
187	0xbc6299af	-0.013830586
188	0xbc5997b1	-0.013280795
189	0x3dc9c130	0.09851301
190	0x3c94948d	0.01813724
191	0x3d389bbe	0.045070402
192	0x3b5e3c0f	0.003391031
193	0xbd129676	-0.035788022
194	0x3c1272ba	0.008938486
195	0xbd054a7c	-0.032541737
196	0xbdb985d8	-0.09058732
197	0xbd42fecd	-0.04760628
198	0xbd0fc212	-0.03509719
199	0x3cc96597	0.024584575
200	0x3cb0e8ea	0.021595437
201	0x3d1626a5	0.036657948
202	0x3d0c1921	0.034203652
203	0xbd6c5f54	-0.0577081
204	0x3c471eb5	0.012153317
205	0x3d0c1c30	0.03420657
206	0x3c9b7ca7	0.018980337
207	0xbd4d4606	-0.050115608
208	0x3c830816	0.015995067
209	0xbcbd3dee	-0.02310082
210	0xbc1877b6	-0.009305885
211	0x3c00a4c5	0.007851784
212	0xbd95e271	-0.07318581
213	0x3d9709d4	0.073749214
214	0xbd4b5b64	-0.049647704
215	0x3cb2888d	0.021793628
216	0xbdb8a869	-0.09016497
217	0x3c5bd54c	0.013417553
218	0x3c5cbac9	0.013472267
219	0x3dcfb635	0.10142175
220	0xbd9631da	-0.07333727
221	0x3df85b12	0.12126745
222	0xbda33955	-0.079699196
223	0x3dbf4d0e	0.09340869
224	0xbafb6052	-0.0019178486
225	0x3d622f30	0.055220783
226	0xbd9427f7	-0.07234185
227	0x3b1547dd	0.002277843
228	0x3c9c0701	0.019046308
229	0x3ceac3ca	0.028657813
230	0x3c3ea1c1	0.011635245
231	0x3c45f33a	0.0120819155
232	0x3db5d77e	0.088789925
233	0xbdb0e72a	-0.08637841
234	0x3a37f9df	0.00070181297
235	0xbdb6001c	-0.088867396
236	0xbb0e57d0	-0.002171982
237	0x3cd5ee3d	0.026114577
238	0xbdc32f4e	-0.09530507
239	0xbd6ade44	-0.057340875
240	0x3ccbfb7e	0.024900194
241	0x3d8b8b9c	0.06813738
242	0x3dcae278	0.09906477
243	0x3d582c8e	0.052776866
244	0x3ad23771	0.0016038251
245	0x3d0516e0	0.03249252
246	0x3dd3700b	0.10324105
247	0xbcd3acdc	-0.025839262
248	0x3c832a84	0.016011484
249	0x3b98dcd0	0.004664995
250	0x3c0564a5	0.008141671
251	0xbc830459	-0.015993284
252	0x3cae6323	0.021287506
253	0x3c9f2cde	0.019430574
254	0x3cf2bace	0.029630091
255	0xbdcdf30d	-0.10056124

encoder.blocks.0.attn.key.bias f4 [64]
0	0x3436a3ff	1.7009732e-07
1	0xb2ba6adc	-2.1701844e-08
2	0x31e69708	6.7110513e-09
3	0xb3739ee7	-5.6722367e-08
4	0x33ffee6e	1.1917733e-07
5	0x333789fb	4.27335e-08
6	0xb3511886	-4.868391e-08
7	0xb2ad9c23	-2.0210853e-08
8	0x3397b32f	7.064079e-08
9	0xb222cd89	-9.476374e-09
10	0x32db4fb6	2.5531204e-08
11	0x328ddb00	1.651415e-08
12	0xb2a212bc	-1.8867802e-08
13	0xb19eb135	-4.6185513e-09
14	0xb2b3dcf7	-2.0938826e-08
15	0xb34bfac6	-4.7492698e-08
16	0xb3193700	-3.567311e-08
17	0x3353c29a	4.9304255e-08
18	0x32b9d56b	2.1633886e-08
19	0xb3649978	-5.3224966e-08
20	0x3363538f	5.2928552e-08
21	0x331269e4	3.408958e-08
22	0x33127e1c	3.410797e-08
23	0x32d54b00	2.483057e-08
24	0x32255a21	9.624757e-09
25	0xb26fb30d	-1.3952342e-08
26	0xb3954e41	-6.9525875e-08
27	0x3310a062	3.367348e-08
28	0xb319fb2c	-3.5851528e-08
29	0xb3c81e1f	-9.318705e-08
30	0xb42697de	-1.5515204e-07
31	0xb293db0b	-1.7212662e-08
32	0x331954d2	3.5700232e-08
33	0xb39d4236	-7.322926e-08
34	0x32cf2841	2.4116277e-08
35	0x319c6071	4.5511617e-09
36	0x3364059f	5.30905e-08
37	0x33c3e0c4	9.12128e-08
38	0xb286736b	-1.565214e-08
39	0xb37a5b81	-5.8290883e-08
40	0x32db8a7c	2.555793e-08
41	0x3218bb24	8.890115e-09
42	0xb2b2bfea	-2.08092e-08
43	0xb364a4fa	-5.3235432e-08
44	0x32ca46de	2.3548122e-08
45	0xb3c96d1e	-9.37964e-08
46	0x338ff2e3	6.703137e-08
47	0xb2878aca	-1.5779182e-08
48	0x331aaf6d	3.6015468e-08
49	0xb2c24d21	-2.2619647e-08
50	0xb3502a3f	-4.8467196e-08
51	0x333fb899	4.4638544e-08
52	0xb3c3a076	-9.109583e-08
53	0x31ad43a3	5.042652e-09
54	0xb3925268	-6.8136444e-08
55	0xb38408e5	-6.148347e-08
56	0xb2711b91	-1.4034314e-08
57	0x32cb55ce	2.367133e-08
58	0xb26d5e61	-1.3816675e-08
59	0x338cf07d	6.5630026e-08
60	0xb2f28732	-2.8233988e-08
61	0x330d0294	3.2831466e-08
62	0x3314a5b9	3.460966e-08
63	0x32be5117	2.2155787e-08
