trainer/results/football/11_vs_11_stochastic/mat/check/run1/models/transformer_1200.pt (torch, 467894 bytes, 73 tensors)

encoder.state_encoder.0.weight f4 [37]
0	0x3f800000	1.0
1	0x3f800000	1.0
2	0x3f800000	1.0
3	0x3f800000	1.0
4	0x3f800000	1.0
5	0x3f800000	1.0
6	0x3f800000	1.0
7	0x3f800000	1.0
8	0x3f800000	1.0
9	0x3f800000	1.0
10	0x3f800000	1.0
11	0x3f800000	1.0
12	0x3f800000	1.0
13	0x3f800000	1.0
14	0x3f800000	1.0
15	0x3f800000	1.0
16	0x3f800000	1.0
17	0x3f800000	1.0
18	0x3f800000	1.0
19	0x3f800000	1.0
20	0x3f800000	1.0
21	0x3f800000	1.0
22	0x3f800000	1.0
23	0x3f800000	1.0
24	0x3f800000	1.0
25	0x3f800000	1.0
26	0x3f800000	1.0
27	0x3f800000	1.0
28	0x3f800000	1.0
29	0x3f800000	1.0
30	0x3f800000	1.0
31	0x3f800000	1.0
32	0x3f800000	1.0
33	0x3f800000	1.0
34	0x3f800000	1.0
35	0x3f800000	1.0
36	0x3f800000	1.0

encoder.state_encoder.0.bias f4 [37]
0	0x00000000	0.0
1	0x00000000	0.0
2	0x00000000	0.0
3	0x00000000	0.0
4	0x00000000	0.0
5	0x00000000	0.0
6	0x00000000	0.0
7	0x00000000	0.0
8	0x00000000	0.0
9	0x00000000	0.0
10	0x00000000	0.0
11	0x00000000	0.0
12	0x00000000	0.0
13	0x00000000	0.0
14	0x00000000	0.0
15	0x00000000	0.0
16	0x00000000	0.0
17	0x00000000	0.0
18	0x00000000	0.0
19	0x00000000	0.0
20	0x00000000	0.0
21	0x00000000	0.0
22	0x00000000	0.0
23	0x00000000	0.0
24	0x00000000	0.0
25	0x00000000	0.0
26	0x00000000	0.0
27	0x00000000	0.0
28	0x00000000	0.0
29	0x00000000	0.0
30	0x00000000	0.0
31	0x00000000	0.0
32	0x00000000	0.0
33	0x00000000	0.0
34	0x00000000	0.0
35	0x00000000	0.0
36	0x00000000	0.0

encoder.state_encoder.1.weight f4 [64, 37]
0	0x3eea3253	0.4574152
1	0x3e4463b7	0.19178663
2	0x3def88ec	0.11696038
3	0xbd0ebc43	-0.03484751
4	0xbcca7e92	-0.024718557
5	0x3db73b08	0.08946806
6	0x3c99b2b4	0.01876197
7	0x3dbed0be	0.09317158
8	0x3e86bd51	0.26316312
9	0xbd8f8500	-0.070077896
10	0x3ead2fff	0.3382568
11	0xbd729ceb	-0.05923168
12	0xbe0441cd	-0.12915726
13	0xbe7bd527	-0.2459303
14	0xbcc9bf5b	-0.024627378
15	0x3e0b0fd3	0.13580255
16	0xbe2304b4	-0.15919763
17	0xbe357f7e	-0.17724416
18	0x3d299f5f	0.041411754
19	0x3cb5043b	0.022096744
20	0x3e38d0d0	0.18048406
21	0x3dfc5c2e	0.123222694
22	0xbd9c76f4	-0.07639876
23	0xbebc8b5d	-0.36825076
24	0xbe97f665	-0.29680172
25	0xbd0c02ed	-0.034182478
26	0x3d67e7d0	0.056617558
27	0x3e4df335	0.20112307
28	0x3d515823	0.051109444
29	0x3e4db43b	0.20088284
30	0x3e3c91fa	0.1841506
31	0xbd9f6b63	-0.07784154
32	0x3cb65284	0.022256143
33	0xbb022509	-0.00198585
34	0x3c921899	0.017833995
35	0x3e2bf260	0.16791677
36	0x3e12448a	0.14283958
37	0x3e8112f6	0.2520978
38	0xbb2f9f0b	-0.0026797678
39	0x3d15bafa	0.036555268
40	0xbeaf82c5	-0.34279457
41	0x3e56b06a	0.20965734
42	0x3ddf92a0	0.109166384
43	0x3d740ad4	0.05958064
44	0x3e3ab8a6	0.182345
45	0x3e458170	0.19287658
46	0x3d61f7ed	0.05516808
47	0x3c860f25	0.016364643
48	0xbe00a492	-0.12562779
49	0x3e91d3ce	0.28481907
50	0x3cc84edc	0.024451666
51	0x3eb34295	0.35011736
52	0xbe2b87bf	-0.16751002
53	0xbe8c83a0	-0.27444172
54	0x3dbdefe7	0.09274273
55	0x3c1a6e0c	0.009425651
56	0xbe102763	-0.14077525
57	0xbe60e71c	-0.21963161
58	0x3e35d172	0.17755678
59	0xbcb97c32	-0.022642229
60	0x3caa1afc	0.02076482
61	0x3d31b044	0.04338099
62	0xbeb5f0be	-0.35535234
63	0xbe32c4b4	-0.17457849
64	0x3dcd8324	0.10034779
65	0xbd8dd220	-0.06924844
66	0xbd7cc212	-0.061708517
67	0xbda61a35	-0.08110467
68	0x3e950f4c	0.29113233
69	0x3d963cca	0.07335813
70	0xbe4c8050	-0.19970822
71	0xbd0f2270	-0.03494495
72	0xbd842e07	-0.064540915
73	0x3e9ff8cb	0.312445
74	0x3d7fb785	0.062430877
75	0xbe330d8e	-0.1748564
76	0x3e20c7ef	0.15701269
77	0x3da887f8	0.08229059
78	0xbdae9e1d	-0.085262515
79	0xbe2ae3e6	-0.16688499
80	0x3d3489ab	0.044076603
81	0xbe6f10fb	-0.23346321
82	0x3c6b4537	0.014359764
83	0xbd4d532e	-0.050128154
84	0xbe8d637b	-0.2761496
85	0xbdb88d8b	-0.09011372
86	0x3e48eaa9	0.19620766
87	0x3ead9efc	0.33910358
88	0x3db3567a	0.087567285
89	0x3e4f6a52	0.20255402
90	0x3ba6c18d	0.005088991
91	0x3df311d4	0.11868635
92	0x3d5a49ad	0.05329292
93	0x3e30a9cb	0.17252271
94	0x3e634c59	0.22197093
95	0x3d6cca01	0.057809833
96	0xbd06d0e9	-0.032914076
97	0xbe1f38cd	-0.15549012
98	0xbe8eb27a	-0.27870542
99	0x3e9798b1	0.29608682
100	0xbe394f45	-0.18096645
101	0xbd5f8528	-0.054570347
102	0xbe8b3af6	-0.2719342
103	0xbd68baea	-0.05681888
104	0xbdb0bb52	-0.086294785
105	0x3e83a199	0.25709227
106	0x3dcdc8be	0.10048054
107	0x39638498	0.00021697802
108	0x3c67a18f	0.01413764
109	0x3e536661	0.20644523
110	0xbe33cab8	-0.175578
111	0x3d87c614	0.06629577
112	0xbf0efc04	-0.55853295
113	0xbd63d6eb	-0.055624884
114	0xbe3cf2e4	-0.1845203
115	0x3e8827de	0.26592916
116	0xbdb4726a	-0.08810885
117	0xbced7021	-0.028984131
118	0xbe9b4287	-0.30324194
119	0xbd6598a6	-0.05605378
120	0x3e82781a	0.25482255
121	0xbdbbd8e9	-0.09172232
122	0xbd97390b	-0.07383927
123	0xbe8aae05	-0.2708589
124	0x3e4308f2	0.19046381
125	0x3c999c91	0.018751414
126	0xbbcb6f07	-0.006208304
127	0xbe08c491	-0.13356234
128	0xbdff9eda	-0.124814704
129	0xbdc79830	-0.09745824
130	0x3d6c4474	0.05768247
131	0x3e82af48	0.25524354
132	0x3e0f9575	0.14021857
133	0xbe160bb1	-0.14652897
134	0xbd99eec5	-0.07516245
135	0x3e2af624	0.16695458
136	0xbe832ef5	-0.25621763
137	0x3cb86dae	0.022513237
138	0xbe40b9fd	-0.18820949
139	0xbd5f68d1	-0.05454332
140	0xbd5e2382	-0.05423308
141	0xbe4415b1	-0.191489
142	0xbd851690	-0.06498444
143	0x3e15dcc5	0.14634998
144	0x3e7ea779	0.24868573
145	0x3e8dc537	0.27689525
146	0xbeb7a183	-0.3586541
147	0xbe46e3f2	-0.19422892
148	0x3e52549a	0.20540085
149	0xbe82942d	-0.25503674
150	0x3ebbd84b	0.36688456
151	0xbd624a2b	-0.055246513
152	0xbd41bb96	-0.047298037
153	0x3e05be5e	0.130609
154	0xbd33b050	-0.043869317
155	0x3db09d03	0.086236976
156	0xbda74684	-0.08167747
157	0x3db4ba06	0.08824544
158	0xbc641ade	-0.013922421
159	0xba659301	-0.0008757562
160	0xbe9476e4	-0.28996956
161	0xbe8920ef	-0.2678294
162	0xbdfe4b75	-0.12416736
163	0xbb828742	-0.003983409
164	0xbdabf78f	-0.083968274
165	0xbe3dabab	-0.18522517
166	0xbe160e1a	-0.14653817
167	0xbc0b06e8	-0.008485533
168	0x3e49de97	0.19713818
169	0x3cc25018	0.023719832
170	0x3d183f72	0.03716988
171	0xbe1821ba	-0.14856616
172	0xbdf8cec6	-0.12148814
173	0x3c54650c	0.012963545
174	0xbd957dfa	-0.07299419
175	0xbc402b2b	-0.011729042
176	0xbd30c3bb	-0.043155413
177	0xbdc5cb60	-0.09657931
178	0xbdb9b4d4	-0.09067693
179	0xbebb955a	-0.36637384
180	0xbe90af99	-0.2825897
181	0xbebf5ec5	-0.3737699
182	0xbd85c36e	-0.06531416
183	0x3db6111f	0.08889984
184	0xbe4b8a61	-0.19877006
185	0x3d7f3876	0.062309705
186	0x3e32060e	0.17385122
187	0xbc12d39c	-0.008961584
188	0x3dc54b30	0.096334815
189	0x3e5d243a	0.2159585
190	0xbdf591d9	-0.11990709
191	0x3d8361c5	0.064151324
192	0xbe2fc1ea	-0.17163816
193	0xbe905ac9	-0.28194264
194	0x3c55daa7	0.013052619
195	0x3e255fe8	0.16149867
196	0x3e17e363	0.14832835
197	0xbd5334bb	-0.05156396
198	0xbe03c192	-0.1286681
199	0xbed550dd	-0.41663256
200	0x3dc47234	0.09592095
201	0xbdeb773d	-0.11497352
202	0x3d5cc94e	0.053902917
203	0xbd863b8c	-0.065543264
204	0x3e8bc7dd	0.2730092
205	0xbddc2166	-0.10748558
206	0xbf232aec	-0.6373737
207	0xbe46e88c	-0.19424647
208	0xbd841a97	-0.06450384
209	0x3da7a11f	0.08185028
210	0xbdf38642	-0.11890842
211	0x3d41fdd1	0.0473612
212	0xbe0f72d2	-0.14008644
213	0xbd9d8c58	-0.07692784
214	0xbe1451df	-0.14484356
215	0xbe3e8ab2	-0.18607596
216	0x3d3217c1	0.043479685
217	0x3ba5b2ab	0.0050566993
218	0xbe189029	-0.14898743
219	0x3dcba996	0.09944455
220	0xbd368ee1	-0.044569854
221	0x3dd23ee8	0.10265905
222	0xbd1b2188	-0.037873775
223	0x3e906655	0.28203073
224	0x3d8cfe49	0.068844385
225	0xbd0f74c3	-0.035023462
226	0xbeb6443e	-0.3559894
227	0x3e821fba	0.2541483
228	0xbb414235	-0.0029488925
229	0x3d924b50	0.07143271
230	0x3e157232	0.14594343
231	0x3e60a655	0.2193845
232	0xbdf664da	-0.12030955
233	0xbd2d2c56	-0.04227861
234	0xbdacf864	-0.08445814
235	0xbe843386	-0.2582056
236	0xbeca4649	-0.39506748
237	0x3e41a98e	0.18912336
238	0xbe0f43bb	-0.13990681
239	0x3cb7594a	0.022381444
240	0xbcfff123	-0.031242913
241	0x3cb2397f	0.021755932
242	0xbc646169	-0.01393924
243	0x3dba662c	0.09101519
244	0x3e0c6c46	0.13713178
245	0x3e0396c8	0.12850487
246	0xbda0e9ce	-0.07857095
247	0xbe8099ec	-0.25117433
248	0xbe5992e3	-0.21247439
249	0x3d2f5ff6	0.042816125
250	0xbdcd1602	-0.10013963
251	0x3c009639	0.007848316
252	0xbf04d966	-0.51894224
253	0x3db27505	0.08713726
254	0xbe17e75b	-0.14834349
255	0x3e3dec3e	0.1854715

encoder.state_encoder.1.bias f4 [64]
0	0x00000000	0.0
1	0x00000000	0.0
2	0x00000000	0.0
3	0x00000000	0.0
4	0x00000000	0.0
5	0x00000000	0.0
6	0x00000000	0.0
7	0x00000000	0.0
8	0x00000000	0.0
9	0x00000000	0.0
10	0x00000000	0.0
11	0x00000000	0.0
12	0x00000000	0.0
13	0x00000000	0.0
14	0x00000000	0.0
15	0x00000000	0.0
16	0x00000000	0.0
17	0x00000000	0.0
18	0x00000000	0.0
19	0x00000000	0.0
20	0x00000000	0.0
21	0x00000000	0.0
22	0x00000000	0.0
23	0x00000000	0.0
24	0x00000000	0.0
25	0x00000000	0.0
26	0x00000000	0.0
27	0x00000000	0.0
28	0x00000000	0.0
29	0x00000000	0.0
30	0x00000000	0.0
31	0x00000000	0.0
32	0x00000000	0.0
33	0x00000000	0.0
34	0x00000000	0.0
35	0x00000000	0.0
36	0x00000000	0.0
37	0x00000000	0.0
38	0x00000000	0.0
39	0x00000000	0.0
40	0x00000000	0.0
41	0x00000000	0.0
42	0x00000000	0.0
43	0x00000000	0.0
44	0x00000000	0.0
45	0x00000000	0.0
46	0x00000000	0.0
47	0x00000000	0.0
48	0x00000000	0.0
49	0x00000000	0.0
50	0x00000000	0.0
51	0x00000000	0.0
52	0x00000000	0.0
53	0x00000000	0.0
54	0x00000000	0.0
55	0x00000000	0.0
56	0x00000000	0.0
57	0x00000000	0.0
58	0x00000000	0.0
59	0x00000000	0.0
60	0x00000000	0.0
61	0x00000000	0.0
62	0x00000000	0.0
63	0x00000000	0.0

encoder.obs_encoder.0.weight f4 [217]
0	0x3f650c13	0.8947155
1	0x3f76574a	0.9622694
2	0x3f794bc6	0.97381246
3	0x3f74957e	0.95540607
4	0x3f6ec749	0.93272835
5	0x3f6024d2	0.87556183
6	0x3f74cb61	0.9562283
7	0x3f6a8f7a	0.9162518
8	0x3f6af50a	0.9178015
9	0x3f97e07f	1.1865386
10	0x3f8e4032	1.1113341
11	0x3f9d06ca	1.2267697
12	0x3f9228b0	1.1418667
13	0x3f6dcc0a	0.92889464
14	0x3f240fe9	0.64086777
15	0x3ef3bccb	0.47604975
16	0x3f93206d	1.149427
17	0x3f9090dc	1.1294208
18	0x3f817cd8	1.0116224
19	0x3f917391	1.1363393
20	0x3fd21ced	1.6415077
21	0x3f937f38	1.1523199
22	0x3f875805	1.0573736
23	0x3f825c82	1.0184481
24	0x3f9e9399	1.2388793
25	0x3f90d4dd	1.1314961
26	0x3f8a8afe	1.0823667
27	0x3f9f6da1	1.2455331
28	0x3fa0d7c5	1.2565848
29	0x3fab600f	1.338869
30	0x3fa69e0d	1.3016983
31	0x3fb5b77a	1.4196618
32	0x3ef87ba8	0.48531842
33	0x3fa67a95	1.3006159
34	0x3f9f9e0f	1.2470111
35	0x3fa16e23	1.2611736
36	0x3fb4f826	1.4138229
37	0x3f6cd543	0.9251291
38	0x3f3f7d5f	0.74800676
39	0x3eb7b518	0.3588035
40	0x3f036ef3	0.5134117
41	0x3f20036f	0.6250524
42	0x3f80c19d	1.0059086
43	0x3f7f2899	0.9967132
44	0x3f971fdd	1.1806599
45	0x4008d33c	2.1378927
46	0x3f73fddc	0.95309234
47	0x3fb914de	1.4459493
48	0x3f492ea1	0.78586775
49	0x3f975677	1.1823262
50	0x3f57cb76	0.8429483
51	0x3f235890	0.6380701
52	0x3f880d68	1.0629091
53	0x3e335390	0.17512345
54	0x3f11c340	0.5693855
55	0x3efef1b6	0.49793786
56	0x3f5d03cb	0.8633391
57	0x3f7d4dc4	0.98946786
58	0x3f60e35e	0.87846935
59	0x3f645ba3	0.89202327
60	0x3e941964	0.28925622
61	0x3ecbaf10	0.39782
62	0x3eeef2e0	0.46669674
63	0x3f44c594	0.7686398
64	0x3f64ca99	0.8937164
65	0x3f6fa442	0.9361001
66	0x3f3a027b	0.72660035
67	0x3e202cae	0.15642044
68	0x3ee4505c	0.4459256
69	0x3ef1df2e	0.47240585
70	0x3f6ab1b7	0.9167742
71	0x3f6ed977	0.93300575
72	0x3f6c83ce	0.9238862
73	0x3f379e28	0.717257
74	0x3e773ab2	0.24143484
75	0x3f04e5c1	0.51913077
76	0x3ee3fad8	0.44527316
77	0x3f63da3b	0.8900487
78	0x3f70d80a	0.9407965
79	0x3f4455f7	0.7669367
80	0x3f367b69	0.7128206
81	0x3e6e58f8	0.23276126
82	0x3f06739c	0.52520156
83	0x3eedfab5	0.46480337
84	0x3f84e00f	1.0380877
85	0x3f732015	0.9497083
86	0x3f61737e	0.8806685
87	0x3f2b38a4	0.668833
88	0x3e7373ac	0.23774594
89	0x3f06dcef	0.5268087
90	0x3f068be9	0.52557236
91	0x3f597367	0.84941715
92	0x3f6b7ef3	0.91990584
93	0x3f412947	0.7545361
94	0x3f5db607	0.86605877
95	0x3e9ddda8	0.30833173
96	0x3ee44f6c	0.44591844
97	0x3f0bf286	0.54666936
98	0x3f59ef90	0.8513117
99	0x3f4c0018	0.79687643
100	0x3f0d4799	0.55187374
101	0x3f405783	0.7513353
102	0x3e408aeb	0.18802993
103	0x3ec6e2cd	0.3884491
104	0x3f0318b4	0.5120957
105	0x3f368765	0.71300346
106	0x3f6ae8c5	0.9176143
107	0x3f28ee32	0.6598846
108	0x3f0e66f5	0.5562585
109	0x3e6259f1	0.22104622
110	0x3ee90d99	0.45518187
111	0x3f04fe56	0.51950586
112	0x3f53c37c	0.8272016
113	0x3f759aa5	0.95939094
114	0x3f70d849	0.94080025
115	0x3f8e0b79	1.1097251
116	0x3f1bbf44	0.60838723
117	0x3f28971d	0.6585558
118	0x3f131c84	0.57465386
119	0x3faef09d	1.3667179
120	0x3f4a209a	0.78955996
121	0x3f7d3c4a	0.9892012
122	0x3f80844d	1.0040375
123	0x3f89f89b	1.0778993
124	0x3f6d774c	0.9276016
125	0x3f6cd5bb	0.92513627
126	0x3f97eb2d	1.1868645
127	0x3f8b2d1e	1.0873144
128	0x3f83fa4c	1.031076
129	0x3f873163	1.0561947
130	0x3f7e7c46	0.99408376
131	0x3f814d02	1.0101626
132	0x3ee9fb85	0.45699707
133	0x3f5a98e0	0.8538952
134	0x3f3d38f5	0.73915035
135	0x3f1eb0c2	0.6198846
136	0x3f65b600	0.89730835
137	0x3f25d6b2	0.64780724
138	0x3f8384e5	1.0274931
139	0x3f79560c	0.9739692
140	0x3f810e01	1.0082399
141	0x3f8bbe2a	1.0917408
142	0x3f7c6f8e	0.9860772
143	0x3f77f232	0.96853936
144	0x3f6f93dc	0.9358499
145	0x3f711c4c	0.941838
146	0x3f9374f4	1.1520066
147	0x3f616f3d	0.8806036
148	0x3f4be08d	0.7963951
149	0x3f313c2e	0.6923245
150	0x3f1951ab	0.5989024
151	0x3f465fed	0.7749012
152	0x3f60e28e	0.87845695
153	0x3f7d4b17	0.98942703
154	0x3f702548	0.93806887
155	0x3f83807d	1.0273587
156	0x3f2014f7	0.6253199
157	0x3f1950e7	0.5988907
158	0x3f2ecdfa	0.68283045
159	0x3f3c8ccb	0.73652333
160	0x3f70edcc	0.9411285
161	0x3f50f0ce	0.8161744
162	0x3f78da77	0.9720835
163	0x3ef904ca	0.48636466
164	0x3f139deb	0.5766284
165	0x3f0e74ad	0.55646783
166	0x3f52e8bf	0.8238639
167	0x3f710fbf	0.9416465
168	0x3f3d2882	0.73889935
169	0x3f709d19	0.9398971
170	0x3f0288d9	0.5099006
171	0x3f258e7f	0.64670557
172	0x3f312268	0.69193125
173	0x3f76bfc4	0.9638636
174	0x3f6dcb1e	0.9288806
175	0x3f54b4fb	0.83088654
176	0x3f825a16	1.0183742
177	0x3ed5a227	0.41725275
178	0x3f0ce8c7	0.5504269
179	0x3f10e2c8	0.5659604
180	0x3f3ebf4e	0.7451066
181	0x3f73fffe	0.9531249
182	0x3f649713	0.8929302
183	0x3f6cad60	0.9245205
184	0x3f17fd36	0.59370744
185	0x3f0d4862	0.5518857
186	0x3f051ab0	0.51993847
187	0x3f3b8319	0.73246914
188	0x3f78bf6f	0.97167104
189	0x3f6c3490	0.92267704
190	0x3f891793	1.0710319
191	0x3f5582dc	0.834028
192	0x3f69d33f	0.9133796
193	0x3f31dcd6	0.69477594
194	0x3f551253	0.83231086
195	0x3f770e84	0.96506524
196	0x3f694fd8	0.91137457
197	0x3f866275	1.0498797
198	0x3f34b20a	0.70584166
199	0x3f7d220c	0.98880076
200	0x3f37097c	0.71498847
201	0x3f735e4f	0.9506578
202	0x3f7fda84	0.99942803
203	0x3f8067d0	1.0031681
204	0x3f8f514f	1.1196688
205	0x3f69b8c5	0.9129756
206	0x3f4f39e3	0.80947703
207	0x3f6e5177	0.93093055
208	0x3f59ae46	0.85031545
209	0x3f6c1236	0.9221529
210	0x3f6eed65	0.93330985
211	0x3f55d107	0.83522075
212	0x3f4cd22d	0.800082
213	0x3f78ab4d	0.97136384
214	0x3f35afd8	0.7097144
215	0x3f61ed58	0.8825278
216	0x3f827bcd	1.0194031

encoder.obs_encoder.0.bias f4 [217]
0	0xbe177f82	-0.14794734
1	0xbdc39fa6	-0.09551935
2	0xbd4e21a5	-0.050325055
3	0xbd58b96f	-0.05291122
4	0xbdc3883a	-0.095474675
5	0xbe072cee	-0.13200733
6	0xbdb32d70	-0.08748901
7	0xbde4002d	-0.11132846
8	0xbdf6ae52	-0.12044968
9	0x3d985291	0.07437623
10	0x3d3b41b7	0.045716967
11	0x3da49341	0.08035899
12	0x3d027e6c	0.031858847
13	0xbda27e8e	-0.07934295
14	0xbe1f95b1	-0.15584446
15	0xbdd26cc2	-0.1027465
16	0x3d4d6dd6	0.050153576
17	0x3cc022de	0.023454126
18	0x3d643a15	0.055719454
19	0x3d17bd83	0.037045967
20	0x3c68ca8b	0.014208446
21	0x3d9065ea	0.070506886
22	0xbd87db4e	-0.06633626
23	0xbc56d922	-0.013113292
24	0x3dedd17c	0.116122216
25	0xb9f83d3b	-0.00047347866
26	0x3d5c0cbf	0.053723093
27	0x3d249e0a	0.04018978
28	0x3d28605b	0.041107517
29	0x3dad8178	0.0847196
30	0x3cf39c6d	0.029737676
31	0x3cfe6b95	0.031057158
32	0x3d2ade59	0.041715953
33	0xbdbdbc3a	-0.09264417
34	0xbdc223f5	-0.094795145
35	0xbca2d874	-0.019878604
36	0x3ce2e087	0.027694954
37	0x3d26a5f7	0.04068562
38	0x3d63861e	0.055547826
39	0x3d51efcd	0.051254082
40	0x3dd02148	0.10162598
41	0xbdf40328	-0.119146645
42	0xbd73c43d	-0.05951332
43	0xbc73abf4	-0.01487254
44	0x3bc8d94b	0.006129419
45	0x3cf68e09	0.030097025
46	0x3d2676b7	0.04064056
47	0x3d556de8	0.052106768
48	0xbd8c3389	-0.06845767
49	0xbc8c85d9	-0.017153667
50	0xbd9969bc	-0.0749087
51	0x3da357b7	0.07975715
52	0x3d13c3d5	0.03607543
53	0x3d52b76d	0.05144446
54	0x3db687a0	0.08912587
55	0xbe1573f1	-0.1459501
56	0xbd665f4c	-0.056243226
57	0xbd12174d	-0.035666753
58	0x3d24164f	0.040060338
59	0x3d56abc0	0.052409887
60	0x3c906834	0.017627813
61	0x3d8b4527	0.06800299
62	0xbe118ff5	-0.14215071
63	0xbdc6a8f9	-0.09700198
64	0xbdae645f	-0.08515238
65	0x3db656ac	0.0890325
66	0x3b973193	0.004614064
67	0x3bcb5700	0.0062054396
68	0x3d91d4a5	0.07120637
69	0xbd88989a	-0.066697314
70	0xbd929003	-0.07156374
71	0xbd48d170	-0.04902786
72	0x3d9c17d2	0.07621731
73	0x3cb51c16	0.022108119
74	0xbb2cda8a	-0.0026375377
75	0x3d7e5314	0.06209095
76	0xbe0fadd2	-0.14031151
77	0xbdaca40c	-0.08429727
78	0xbda146ec	-0.078748554
79	0x3e0c0b47	0.13676177
80	0x3d1be6cd	0.038061906
81	0x3d7905ff	0.060796734
82	0x3dafeac4	0.085897
83	0xbe0d3346	-0.1378909
84	0xbd2de943	-0.042458784
85	0xbdc4ee42	-0.096157566
86	0x3d8e052c	0.0693458
87	0x3cfbbad5	0.030728737
88	0x3d2477d9	0.040153358
89	0x3db5c9ae	0.08876358
90	0xbe16bef9	-0.14721288
91	0xbda9d352	-0.08292259
92	0xbd95133f	-0.072790615
93	0x3e00971a	0.1255764
94	0x3d7c25c9	0.061559472
95	0x3d5122af	0.051058467
96	0x3dacaf49	0.084318705
97	0xbdfe1049	-0.1240545
98	0xbe01deb1	-0.12682606
99	0xbd91089a	-0.07081719
100	0xbc19c144	-0.009384457
101	0x3d8dc5d7	0.069225006
102	0x3d582a28	0.05277458
103	0x3ded3eb1	0.11584223
104	0xbe1c4d27	-0.15263806
105	0xbddf8174	-0.10913363
106	0xbd06d328	-0.032916218
107	0x3d16ae8b	0.03678755
108	0xbafcc1ad	-0.0019283794
109	0x3d17674c	0.036963746
110	0x3de30e5d	0.11086724
111	0xbdfebc23	-0.12438228
112	0xbdc8d08c	-0.09805402
113	0xbd1d2a14	-0.038370207
114	0x3d09a15c	0.03360115
115	0xbb9f6e89	-0.0048654717
116	0x3d66ec3c	0.056377634
117	0x3db87b28	0.09007865
118	0xbe1cdc09	-0.15318312
119	0xbb8c6f03	-0.0042856946
120	0xbc514290	-0.012772217
121	0x3c10f8ae	0.008848352
122	0xbad3478d	-0.0016119346
123	0x3d837c13	0.0642015
124	0xbcbedda5	-0.023299048
125	0x3d30ef73	0.043197107
126	0xbc0b1f5d	-0.008491364
127	0x3c3409c1	0.010988654
128	0x3c16cf05	0.009204631
129	0xbd5442a0	-0.05182135
130	0xbda96ff1	-0.08273304
131	0xbb4780bc	-0.0030441722
132	0xbe1eaf5e	-0.15496585
133	0x3dbc9fa5	0.09210137
134	0x3dda647c	0.10663697
135	0x3deeb2e5	0.11655215
136	0x3dec6676	0.115429804
137	0xbe32b686	-0.1745244
138	0xbd7a3a93	-0.061091017
139	0xbd9d6873	-0.07685938
140	0xbd543ae1	-0.051813964
141	0x3b4dc87f	0.0031400023
142	0x3d3121fa	0.043245293
143	0x3d949212	0.07254423
144	0x3d1f6287	0.038912322
145	0xbd841e2f	-0.064510696
146	0x3be71164	0.0070516337
147	0x3db22e76	0.08700268
148	0xbd215689	-0.039389167
149	0x3dc98d8e	0.098414525
150	0x3cfeb977	0.031094296
151	0xbd91a1a3	-0.07110908
152	0xbd75a17f	-0.059968468
153	0xbd547271	-0.051866952
154	0x3ce7bbbb	0.028287759
155	0x3bff2e57	0.0077875066
156	0x3d850fac	0.0649713
157	0x3d37861e	0.04480564
158	0xbdf3421e	-0.11877845
159	0xbe030b18	-0.127972
160	0xbd875373	-0.066077136
161	0x3d9b1efc	0.07574269
162	0x3d8b7b0d	0.068105794
163	0x3df369f8	0.11885446
164	0x3d90bdd5	0.070674576
165	0xbe0a86d7	-0.13528
166	0xbdc5e247	-0.096622996
167	0xbd38806f	-0.04504436
168	0x3d7cbd9d	0.061704267
169	0x3df4c48d	0.119515516
170	0x3da6ae12	0.0813867
171	0x3d2c84d7	0.042118873
172	0xbd1a5581	-0.0376792
173	0xbd833ce2	-0.06408097
174	0xbde31c79	-0.11089415
175	0x3e26861c	0.16262096
176	0x3d1ba940	0.038003206
177	0x3e27e3be	0.1639547
178	0x3d3965b0	0.045262992
179	0xbe3f4c21	-0.18681385
180	0xbde01d5f	-0.10943102
181	0xbde7081e	-0.11280845
182	0x3da09d64	0.0784252
183	0x3d652925	0.05594744
184	0x3dc24934	0.09486619
185	0x3d7ab081	0.061203483
186	0xbe161a7e	-0.14658543
187	0xbda317a1	-0.07963491
188	0xbc2b2c0f	-0.010447516
189	0x3dfb80e2	0.12280442
190	0x3d3ea8c2	0.04654766
191	0x3de9f384	0.114234
192	0x3d1acc78	0.037792653
193	0xbe3b227f	-0.18274878
194	0xbdab8401	-0.08374787
195	0xbd294616	-0.041326605
196	0x3e00e2cd	0.12586518
197	0xbd83a062	-0.06427075
198	0x3e0c2c56	0.13688788
199	0x3d2b219c	0.0417801
200	0xbdff578c	-0.1246787
201	0xbdf2ca65	-0.1185501
202	0xbd823fb5	-0.063598074
203	0x3dfb7872	0.122788325
204	0x3caeac1d	0.021322304
205	0x3decdf32	0.115660086
206	0x3bd2993e	0.0064269593
207	0xbd9aacbf	-0.0755248
208	0xbe2075f6	-0.15669999
209	0xbd8ad3f6	-0.067787096
210	0x3d9730c7	0.073823504
211	0x3d8de687	0.06928735
212	0x3ddcd16e	0.10782133
213	0x3cf2aa48	0.029622212
214	0xbe21d0d3	-0.15802316
215	0xbd967da4	-0.07348183
216	0xbdca0614	-0.098644406

encoder.obs_encoder.1.weight f4 [64, 217]
0	0x3dfa4eb4	0.12222043
1	0x3dc446f3	0.09583845
2	0xbbe3733e	-0.006941228
3	0x3dc4e8fe	0.09614752
4	0x3d8d0a62	0.06886746
5	0x3da4385e	0.08018564
6	0x3e7970ef	0.24359487
7	0x3db08a76	0.08620159
8	0x3cdc3466	0.026880454
9	0x3e20cf6f	0.1570413
10	0x3d511f35	0.051055152
11	0xbbaf2c04	-0.0053458232
12	0x3cc29b1a	0.023755599
13	0x3de1d4d7	0.11026924
14	0xbcbcd109	-0.023048894
15	0x3bf6e66b	0.007534792
16	0x3e0a7337	0.13520513
17	0xbc848efe	-0.016181465
18	0x3c9a5c25	0.018842766
19	0xbdadccf4	-0.08486357
20	0xbcfc3fee	-0.030792203
21	0x3d89bfc4	0.067260295
22	0x3df961c3	0.1217685
23	0x3d2a533b	0.04158328
24	0x3c936382	0.017991785
25	0x3d4881e6	0.048952006
26	0x3e1face5	0.15593298
27	0x3e8dd8b1	0.27704385
28	0x3e16e1d4	0.14734584
29	0x3d6060ed	0.054779936
30	0xbdbf58bb	-0.09343096
31	0xbd732206	-0.05935862
32	0x3dd661a9	0.10467846
33	0x3cac0480	0.02099824
34	0xbe232dfa	-0.15935507
35	0x3d87884d	0.06617794
36	0xbe5854c8	-0.21126091
37	0xbd2859cc	-0.041101262
38	0x3cbe4b76	0.023229342
39	0xbcf45860	-0.029827297
40	0x3d8058f1	0.06266964
41	0x3dc9c00e	0.09851085
42	0xbd9b761c	-0.07590887
43	0xbe1334f5	-0.1437567
44	0xbd1a0023	-0.037597787
45	0x3d0e0ba9	0.03467909
46	0x3d402c76	0.0469174
47	0x3d81ac12	0.06331648
48	0x3e410b24	0.18851906
49	0xbc1a3f6d	-0.009414536
50	0x3dbef673	0.0932435
51	0xbe16b1d2	-0.1471627
52	0x3c2cfebf	0.010558783
53	0xbdaed3ba	-0.085364774
54	0x3d2f444f	0.042789754
55	0x3e093350	0.1339848
56	0xbc8ead5a	-0.017416645
57	0xbe0ce0b4	-0.13757592
58	0xbe81931b	-0.25307545
59	0x3e1a126b	0.15046088
60	0xbdb36a65	-0.087605275
61	0xbc55f993	-0.013059991
62	0x3e1d536c	0.15363854
63	0x3e082035	0.13293536
64	0xbce77597	-0.028254313
65	0xbdd0719e	-0.10177921
66	0xbdd88121	-0.105715044
67	0xbca692a9	-0.020333605
68	0x3e811f7b	0.2521933
69	0x3dce673e	0.10078286
70	0xbced853b	-0.028994193
71	0xbe441922	-0.19150212
72	0xbe24309c	-0.16034168
73	0xbc9e1e1b	-0.019301465
74	0xbbe1a00c	-0.006885534
75	0x3a9594a0	0.0011412092
76	0x3e11ab7d	0.14225574
77	0xbd3a757e	-0.045522206
78	0xbe8124b9	-0.2522333
79	0x3d714238	0.05890104
80	0x3e2b3afa	0.16721717
81	0x3b8d07b0	0.004303895
82	0x3dd77e0c	0.105220884
83	0x3d9fd4f4	0.078042895
84	0x3e0c744f	0.13716243
85	0xbe3448af	-0.17605852
86	0x3dc823b7	0.09772437
87	0x3d6891e5	0.05677976
88	0x3e21bab5	0.1579388
89	0x3d4494df	0.047993537
90	0xbd4103fe	-0.047122948
91	0x3d90f4e2	0.07077958
92	0xbe2432cc	-0.16035002
93	0x3cc33f06	0.023833763
94	0x3cf636d1	0.030055435
95	0xbd005781	-0.03133345
96	0xbd4c789a	-0.049919702
97	0xbca63d9e	-0.020293053
98	0x3e01125c	0.1260466
99	0x3ba740da	0.0051041665
100	0xbe171cac	-0.14757031
101	0x3e11cd04	0.14238364
102	0xbd0c5c9c	-0.034268007
103	0x3c60c962	0.013719888
104	0xbc2ec0bf	-0.010666071
105	0xbe345286	-0.17609605
106	0xbe08737c	-0.13325304
107	0x3e2b88ea	0.16751447
108	0xbe0b8794	-0.13625938
109	0x3ce8504e	0.028358605
110	0x3d907390	0.07053292
111	0x3db2be49	0.087277
112	0x3bc574b0	0.006025873
113	0xbe0e4d55	-0.13896687
114	0xbb34ee62	-0.0027607908
115	0xbddd5f5f	-0.10809206
116	0xbb60aaa9	-0.003428141
117	0x3d153598	0.036428064
118	0xbc099e1d	-0.008399514
119	0x3e8d4ea3	0.27599058
120	0x3e49f90f	0.19723915
121	0x3e943d73	0.28953132
122	0x3e0613b2	0.1309345
123	0x3ee405f3	0.4453579
124	0x3e8515d0	0.25993204
125	0x3e86cf87	0.26330206
126	0x3e711dde	0.2354655
127	0x3dcf1133	0.10110702
128	0x3e532656	0.20620093
129	0x3ec5c5d2	0.38627487
130	0xbdbcc617	-0.0921747
131	0x3c9519c4	0.018200763
132	0x3de2afab	0.11068662
133	0xbd6abe27	-0.05731025
134	0xbd064063	-0.032776248
135	0x3cfc0c8a	0.030767698
136	0x3d97fbb8	0.074210584
137	0xbd285559	-0.04109702
138	0xbe19253c	-0.1495561
139	0xbd2ac2e2	-0.04168976
140	0x3dec701b	0.1154482
141	0x3e1f2aa0	0.15543604
142	0x3de028a2	0.1094525
143	0xbcb321ca	-0.021866698
144	0x3c246b03	0.010035279
145	0x3dd98abd	0.10622165
146	0x3e078992	0.13236073
147	0xbe2b5199	-0.16730346
148	0xbd9ea218	-0.07745761
149	0xbd56fced	-0.052487303
150	0xbdb85e1a	-0.090023234
151	0xbb831b87	-0.0040010842
152	0x3ddfb0b3	0.109223746
153	0xbe212a06	-0.15738687
154	0xbe7352e7	-0.23762093
155	0xbdabdd2c	-0.083917946
156	0xbe250bd5	-0.16117795
157	0xbd9a16d0	-0.075238824
158	0xbc9a433f	-0.018830894
159	0x3d02a62b	0.03189675
160	0x3ac0b81f	0.001470331
161	0xbe243123	-0.16034369
162	0xbc9a0c58	-0.018804714
163	0xbd94b112	-0.07260336
164	0x3c3d1004	0.011539463
165	0x3dd37c5c	0.10326454
166	0xbd54c5fd	-0.05194663
167	0xbe1f8ab1	-0.1558025
168	0x3e98e2db	0.29860577
169	0xbd4aadc5	-0.049482126
170	0x3e2053eb	0.15657012
171	0x3d42452f	0.04742926
172	0xbcc8c0cd	-0.024505997
173	0x3e28f298	0.16498792
174	0xbd74a0a2	-0.059723504
175	0xbe43e69b	-0.19130938
176	0x3e2ea298	0.17054212
177	0xbdd0404b	-0.10168513
178	0xbd5a9d16	-0.053372465
179	0xbe1873fd	-0.14887996
180	0x3dc46174	0.095889
181	0xbbad93d0	-0.0052971616
182	0xbd9e851a	-0.07740231
183	0x3cbb1e02	0.022841457
184	0xbc6fd758	-0.014638744
185	0xbe479f81	-0.1949444
186	0x3e35ffa0	0.17773294
187	0xbc52e8a8	-0.012872852
188	0x3d148492	0.03625924
189	0x3e1c9604	0.15291601
190	0x3e29c91f	0.16580628
191	0x3b347828	0.002753744
192	0x3e320438	0.17384422
193	0xbc19fe79	-0.00939905
194	0xbd95cd90	-0.073145986
195	0xbe3e67c9	-0.18594278
196	0xbd5e99a7	-0.054345753
197	0xbdf6a1f9	-0.120426126
198	0x3de48acb	0.11159285
199	0xbe94d5ce	-0.2906937
200	0xbcd87ef3	-0.026427722
201	0x3d18a769	0.03726903
202	0xbd25baf8	-0.04046151
203	0xbdff57df	-0.12467932
204	0x3e00399c	0.12521976
205	0x3e1147f9	0.14187612
206	0xbd4a4e49	-0.049391065
207	0xbd1bccc5	-0.03803708
208	0x3cc98d0a	0.024603385
209	0xbe0d8f21	-0.1382413
210	0xbd2ccce1	-0.042187575
211	0x3c7407b7	0.0148944175
212	0xbe19d3f6	-0.15022263
213	0x3d9ef9dc	0.07762501
214	0xbe534a78	-0.20633876
215	0x3ce8504b	0.0283586
216	0xbe6059fa	-0.21909323
217	0xbca7e8c2	-0.02049673
218	0xbd32497f	-0.043527123
219	0xbdad07cf	-0.08448755
220	0x3d8df7f3	0.06932058
221	0xbdfc2fc9	-0.12313802
222	0x3dccc4db	0.09998485
223	0x3c522cd3	0.01282807
224	0xbc4865d2	-0.012231307
225	0xbe142ac0	-0.14469433
226	0xbe54c71e	-0.20779082
227	0xbe521de6	-0.20519218
228	0x3ce42d3d	0.027853603
229	0x3d72b102	0.05925084
230	0xbe38a0fe	-0.18030164
231	0xbcf41f50	-0.029800087
232	0xbd20ddef	-0.039274152
233	0xbecf7df1	-0.40525773
234	0xbda046ec	-0.07826027
235	0x3da2663d	0.07929657
236	0xbdcbc920	-0.09950471
237	0x3c9ae5d6	0.018908422
238	0xbe87748f	-0.26456115
239	0x3e140135	0.14453585
240	0x3bc146d9	0.0058983383
241	0xbdbd3216	-0.09238069
242	0x3b01408e	0.0019722315
243	0xbcbd7bce	-0.023130324
244	0xbe4f6ea6	-0.20257053
245	0xbe6bdd6e	-0.23033687
246	0x3e311783	0.17294125
247	0xbe1d1ef7	-0.15343843
248	0x3ea6c97d	0.32575598
249	0x3d7bb425	0.061451096
250	0x3d10653f	0.035252806
251	0x3e15bd8d	0.14623089
252	0x3ddaed32	0.10689773
253	0xbe7c513a	-0.2464036
254	0x3acceef1	0.0015635175
255	0x3d4a52f9	0.049395535

encoder.obs_encoder.1.bias f4 [64]
0	0x3ca8703d	0.020561332
1	0xbc50e49b	-0.012749816
2	0xbca5571d	-0.02018314
3	0x3c9e88af	0.019352285
4	0x3d617702	0.055045135
5	0x3a800cb6	0.0009769413
6	0x3b15d5e7	0.0022863091
7	0x3d141ead	0.036162067
8	0x3d0fba5e	0.035089843
9	0x3d470e43	0.048597585
10	0x3dd22517	0.102609806
11	0xbc841db6	-0.016127449
12	0xbd47a23c	-0.048738703
13	0xbccb8d2a	-0.024847586
14	0x3d05822a	0.032594837
15	0xbca8eb4a	-0.020620007
16	0x3b28473f	0.0025677232
17	0x3d505dfb	0.050870877
18	0x3c94f300	0.018182278
19	0x3d8bb934	0.06822434
20	0x3b1c9d03	0.0023897297
21	0x3c57b093	0.013164657
22	0xbc727349	-0.014797994
23	0xbc8e60b4	-0.017380096
24	0x3cf5027d	0.029908413
25	0xbd4f40ca	-0.050598897
26	0x3c7857dd	0.015157667
27	0x3d680cab	0.056652706
28	0x3bd59649	0.0065181595
29	0x3bedb630	0.0072543845
30	0x3d7c6cb0	0.06162709
31	0x3cf25473	0.029581284
32	0x3d90fcc7	0.070794635
33	0x3d840048	0.06445366
34	0x3c11a839	0.008890205
35	0x3d314473	0.04327817
36	0x3daeab50	0.08528769
37	0x3d61115b	0.054948192
38	0xbb7824c3	-0.0037863709
39	0x3d36b491	0.044605795
40	0x3d3dfea8	0.046385437
41	0xbd0632db	-0.032763343
42	0x3d350de5	0.044202704
43	0xbd1b923b	-0.037981253
44	0x3c8c6df3	0.017142272
45	0x3cdaffbe	0.026733276
46	0xbc3708f6	-0.01117157
47	0xbd451bba	-0.048122145
48	0xbd176248	-0.036958963
49	0x3aef447c	0.0018254663
50	0x3c3555e7	0.011067844
51	0x3d13f3cc	0.036121175
52	0x3ca00de8	0.019537881
53	0x3ce0f4b6	0.027460437
54	0x3c4856ac	0.012227695
55	0x39d8302c	0.0004123462
56	0x3b89fdb1	0.0042111506
57	0xbdf6809a	-0.120362476
58	0xbd520875	-0.051277597
59	0x3ca1cffc	0.019752495
60	0xbd757ad4	-0.05993159
61	0x3cd85b52	0.026410732
62	0xbc5ae65f	-0.013360589
63	0xbd0814df	-0.03322303

encoder.ln.weight f4 [64]
0	0x3f6473f8	0.89239454
1	0x3f5c4258	0.8603873
2	0x3f67cdc8	0.9054837
3	0x3f7bf5f6	0.9842218
4	0x3f6176cc	0.88071895
5	0x3f69e8a3	0.913706
6	0x3f8b2e47	1.0873498
7	0x3f86be32	1.0526793
8	0x3f7b3626	0.981295
9	0x3f81efdf	1.0151328
10	0x3f501622	0.8128377
11	0x3f3db35c	0.74101806
12	0x3f7285c9	0.9473539
13	0x3f861765	1.047589
14	0x3f6f3fb3	0.9345657
15	0x3f5f5719	0.87242275
16	0x3fa37a24	1.2771649
17	0x3f5e0f5e	0.867422
18	0x3f88eb11	1.0696737
19	0x3f5f3436	0.8718904
20	0x3f877c4b	1.0584806
21	0x3f53847e	0.8262404
22	0x3f4e0d20	0.8048878
23	0x3f840139	1.0312873
24	0x3f773c82	0.965767
25	0x3f74c685	0.95615417
26	0x3f7f71a2	0.99782765
27	0x3f75e703	0.9605562
28	0x3f7ea810	0.99475193
29	0x3f87b0c6	1.0600822
30	0x3f6bfab7	0.92179435
31	0x3f93a7dc	1.1535602
32	0x3f6fa3c7	0.9360928
33	0x3f8416e4	1.0319486
34	0x3f62b838	0.88562346
35	0x3f7209a1	0.9454594
36	0x3f7b172c	0.9808223
37	0x3f7de1fb	0.99172944
38	0x3f6b6c69	0.91962296
39	0x3f8a2913	1.0793785
40	0x3f870431	1.0548154
41	0x3f875ebd	1.0575787
42	0x3f46bcd6	0.7763189
43	0x3f7fd6b5	0.9993699
44	0x3f809b82	1.0047457
45	0x3f8a65fd	1.0812374
46	0x3f7e2c6a	0.9928652
47	0x3f709cfc	0.9398954
48	0x3f820b93	1.0159782
49	0x3f868622	1.0509684
50	0x3f840c0e	1.0316179
51	0x3f95dd5a	1.1708176
52	0x3f77f821	0.9686299
53	0x3f6855d2	0.9075595
54	0x3f78529e	0.97001064
55	0x3f75dec7	0.96043056
56	0x3f79a4b7	0.9751696
57	0x3f736845	0.9508098
58	0x3f62cbb6	0.8859209
59	0x3f7531e0	0.9577923
60	0x3f6339b9	0.8875995
61	0x3f5bede8	0.8590989
62	0x3f86bd1d	1.0526463
63	0x3f868c8c	1.0511642

encoder.ln.bias f4 [64]
0	0xbd9b0006	-0.07568364
1	0xbc0a4ea5	-0.008441602
2	0x3b1f95c5	0.0024350744
3	0x3c68d53b	0.014210994
4	0x3d15a133	0.036530685
5	0x3cd9a415	0.026567498
6	0xbd31df75	-0.043425996
7	0x3be2e845	0.0069246613
8	0x3c6ef7b1	0.014585421
9	0x3b343ad0	0.0027500875
10	0x3d719ef5	0.058989484
11	0xbc3ce481	-0.011529089
12	0xbd75d7d3	-0.06002028
13	0xbd38ed85	-0.04514839
14	0x3cb67b01	0.02227545
15	0xbd17ced2	-0.037062474
16	0xbcec8bee	-0.028875317
17	0xbd39216a	-0.04519788
18	0x3ab74bec	0.0013984418
19	0x3dcffef2	0.10156049
20	0xbca0887d	-0.019596333
21	0x3ca793dd	0.020456249
22	0x3d03d07c	0.032181248
23	0xbc256c5c	-0.010096636
24	0x3c4a7a0f	0.012358203
25	0x3d82dadd	0.06389401
26	0xbd885953	-0.06657662
27	0xbc05aa09	-0.008158215
28	0x3d71f080	0.05906725
29	0x3c7d6dff	0.01546812
30	0x3d41678f	0.0472179
31	0x3b9fe38d	0.004879421
32	0x3dc87fd0	0.09790003
33	0xbc11dcc9	-0.008902737
34	0xbd65c491	-0.056095663
35	0x3d16908f	0.036758956
36	0x3da3c8ad	0.0799726
37	0xbd1d2492	-0.038364954
38	0x3d10fe5a	0.03539882
39	0x3d53d82f	0.05171984
40	0x3d46ebe2	0.0485648
41	0xbc32d1d4	-0.010914285
42	0xbd9f5817	-0.07780474
43	0xbc8cd8b2	-0.017193172
44	0xbd9a7b5c	-0.0754306
45	0x3d6385cb	0.055547517
46	0x3cc14032	0.023590181
47	0x3d1462f1	0.03622717
48	0xbd943462	-0.07236554
49	0x3c4afe16	0.01238968
50	0x3c2ff52b	0.010739605
51	0x3bbcb652	0.005759039
52	0xbc3765e6	-0.011193728
53	0x3cb098b2	0.021557186
54	0x3cb56944	0.022144921
55	0x3c89f396	0.016839784
56	0x3d1192b5	0.0355403
57	0x3d61781e	0.055046193
58	0x3d6d57c7	0.05794504
59	0x3d2d999e	0.04238283
60	0x3db36a7b	0.08760544
61	0x3c84e705	0.01622344
62	0xb9edc169	-0.00045348264
63	0x3c38054b	0.011231731

encoder.blocks.0.ln1.weight f4 [64]
0	0x3f79877c	0.9747236
1	0x3f6ee1c4	0.9331324
2	0x3f7c6082	0.9858476
3	0x3f69f405	0.9138797
4	0x3f5b869a	0.8575226
5	0x3f75e79d	0.9605654
6	0x3f934782	1.1506197
7	0x3f84bf17	1.0370816
8	0x3f3e6e60	0.7438717
9	0x3f891252	1.0708716
10	0x3f76078e	0.9610528
11	0x3f348864	0.70520616
12	0x3f82d488	1.0221109
13	0x3f8dd4f3	1.1080612
14	0x3f742f87	0.9538502
15	0x3f6d5033	0.927005
16	0x3f7ee059	0.9956108
17	0x3f81fb38	1.0154791
18	0x3f8c2e1b	1.095157
19	0x3f5da6b8	0.8658252
20	0x3f5fef11	0.8747416
21	0x3f5e3f76	0.86815584
22	0x3f543843	0.8289835
23	0x3f85bbd2	1.0447943
24	0x3f832b32	1.0247557
25	0x3f7c1b42	0.9847909
26	0x3f875b8b	1.0574812
27	0x3f84f71f	1.0387915
28	0x3f915e2d	1.1356865
29	0x3f981ea8	1.1884356
30	0x3f7d1783	0.98864
31	0x3f9302e3	1.1485256
32	0x3f6a8751	0.91612726
33	0x3f875288	1.0572062
34	0x3f74d459	0.95636517
35	0x3f891eff	1.0712584
36	0x3f87eeb8	1.0619726
37	0x3f8f6b47	1.1204613
38	0x3f61975b	0.88121575
39	0x3f8870bd	1.0659405
40	0x3f69962d	0.91244775
41	0x3f864d10	1.0492268
42	0x3f61b65d	0.8816889
43	0x3f840d50	1.0316563
44	0x3f85732a	1.042577
45	0x3f889df2	1.0673201
46	0x3f85ae3e	1.04438
47	0x3f40ded5	0.75340015
48	0x3f8f0568	1.1173525
49	0x3f8da490	1.1065845
50	0x3f81aead	1.0131432
51	0x3f8ba591	1.0909902
52	0x3f85d687	1.0456094
53	0x3f5049b7	0.8136248
54	0x3f7e3383	0.9929735
55	0x3f6f5a35	0.9349702
56	0x3f88a63f	1.0675734
57	0x3f753057	0.95776886
58	0x3f67c20f	0.90530485
59	0x3f3cb094	0.73706937
60	0x3f680768	0.906363
61	0x3f719902	0.94374096
62	0x3f7a4426	0.97760236
63	0x3f816767	1.0109681

encoder.blocks.0.ln1.bias f4 [64]
0	0xbd18c78b	-0.037299674
1	0xbd15aef9	-0.03654382
2	0x3d8540c5	0.065064944
3	0xbda28db7	-0.07937186
4	0x3da4af0e	0.080412015
5	0x3d24269f	0.040075894
6	0xbd17609d	-0.036957372
7	0x3bb0b11b	0.0053922064
8	0x3c033d27	0.008010185
9	0x3c94e2a1	0.018174471
10	0x3db6931d	0.089147784
11	0x3db06e86	0.08614831
12	0xbcc9d853	-0.024639284
13	0xbc2ba7ac	-0.010476988
14	0xbb36e067	-0.002790475
15	0x3cad9772	0.021190379
16	0xbd948cb2	-0.07253398
17	0x3c8d0717	0.017215295
18	0x3ccebaed	0.025235618
19	0x3d95be58	0.07311696
20	0xbcf8472c	-0.030307375
21	0xbb8c9d4d	-0.0042912127
22	0x3d3624ad	0.04446857
23	0xbd06a8d9	-0.03287587
24	0xbd822eca	-0.063565806
25	0x3b2486d8	0.0025104787
26	0xbca252c5	-0.019814858
27	0x3d633c65	0.05547752
28	0x3c167ec1	0.009185494
29	0x3d9826ca	0.074292734
30	0xbd62da53	-0.05538399
31	0xbc59d6d0	-0.013295844
32	0x3d53c8d4	0.051705196
33	0x3c8108c5	0.015751252
34	0x3afbfa47	0.0019224369
35	0x3d2aa580	0.04166174
36	0x3d445299	0.047930334
37	0xbd0524f8	-0.03250596
38	0x3d024f6d	0.031814028
39	0x3d427ab9	0.04748032
40	0x3d3cce88	0.0460954
41	0xbd53bfec	-0.051696703
42	0xbd9f0c4b	-0.077660166
43	0x3be9d551	0.007136025
44	0xbd8e9a58	-0.069630325
45	0x3dbb5552	0.09147133
46	0x3dae8ebc	0.08523318
47	0x3de932f9	0.113866754
48	0xbccf7261	-0.025323095
49	0xbccd93e1	-0.025094928
50	0x3d679f40	0.056548357
51	0xbd1f7441	-0.038929228
52	0x3b3b6ad8	0.002859762
53	0x3d588f6d	0.052871156
54	0x3e0af8e4	0.13571507
55	0xbc6eb697	-0.0145699
56	0x3da72360	0.08161044
57	0x3d558227	0.052126076
58	0xbab75fa8	-0.00139903
59	0x3d35a198	0.04434356
60	0x3cd347a2	0.025790993
61	0x3c2f103b	0.010685022
62	0xba8f51ca	-0.0010934409
63	0x3afad443	0.0019136745

encoder.blocks.0.ln2.weight f4 [64]
0	0x3f770657	0.9649405
1	0x3f613f5e	0.87987316
2	0x3f72a539	0.9478336
3	0x3f857469	1.042615
4	0x3f6328bb	0.88734025
5	0x3f844f99	1.0336791
6	0x3f8d02f2	1.1016524
7	0x3f83e7c4	1.0305104
8	0x3f576357	0.84135956
9	0x3f938527	1.152501
10	0x3f81d92c	1.0144401
11	0x3f70eb08	0.9410863
12	0x3f76a3de	0.9634379
13	0x3f840b39	1.0315925
14	0x3f87284f	1.0559176
15	0x3f7d68c8	0.9898801
16	0x3f7ce2f8	0.98783827
17	0x3f817606	1.0114143
18	0x3f893094	1.071795
19	0x3f4be110	0.79640293
20	0x3f725337	0.94658226
21	0x3f73da9e	0.9525546
22	0x3f671cfa	0.9027859
23	0x3f83ab85	1.0286719
24	0x3f862e52	1.0482886
25	0x3f75618a	0.9585196
26	0x3f829c30	1.0203915
27	0x3f5ad305	0.8547824
28	0x3f8567d6	1.0422313
29	0x3f8cf437	1.1012028
30	0x3f75915c	0.95924926
31	0x3f818af3	1.0120529
32	0x3f7faef7	0.9987635
33	0x3f87a149	1.0596095
34	0x3f7fd480	0.99933624
35	0x3f930d33	1.1488403
36	0x3f8ce58f	1.1007556
37	0x3f82aee9	1.0209628
38	0x3f62d8eb	0.8861224
39	0x3f907e65	1.1288573
40	0x3f7e364e	0.9930161
41	0x3f93d661	1.1549798
42	0x3f84d95b	1.0378832
43	0x3f80ad29	1.0052844
44	0x3f8641c4	1.048882
45	0x3f8a7dea	1.0819676
46	0x3f8eaab7	1.1145848
47	0x3f594d29	0.8488336
48	0x3f7641fb	0.9619443
49	0x3f85e4e2	1.0460474
50	0x3f87829f	1.0586737
51	0x3f973c60	1.18153
52	0x3f7c3a26	0.9852623
53	0x3f67081a	0.90246737
54	0x3f6e6846	0.9312786
55	0x3f5f2fbc	0.8718221
56	0x3f7ef78d	0.9959648
57	0x3f89a2a8	1.0752764
58	0x3f6d0e6b	0.92600125
59	0x3f6f5764	0.9349272
60	0x3f6bcc8a	0.92108977
61	0x3f861401	1.0474855
62	0x3f9764ae	1.18276
63	0x3f85ac57	1.0443219

encoder.blocks.0.ln2.bias f4 [64]
0	0xbcc3a78f	-0.02388361
1	0xbc318d0b	-0.01083685
2	0x3d75bf3b	0.059996825
3	0xbd80928a	-0.0627795
4	0x3c822348	0.015885964
5	0x3cfec069	0.031097608
6	0xbda2f7c9	-0.079574175
7	0x3d07d3be	0.033160917
8	0xbd4ae0ba	-0.049530722
9	0x3dacf2ae	0.08444725
10	0x3d78a5ec	0.06070511
11	0x3cb23acb	0.02175655
12	0xbbdecd90	-0.0067994073
13	0x3bb3c996	0.0054866774
14	0xbcaea6f2	-0.02131984
15	0x3d2edc30	0.042690456
16	0xbdb51794	-0.08842388
17	0x3a21a0a8	0.0006165602
18	0x3c46e1a8	0.012138762
19	0xbc949bca	-0.018140692
20	0xbdb6ce7b	-0.08926102
21	0x3c06e841	0.008234085
22	0xbc6a94e7	-0.014317728
23	0xbd4a8d1e	-0.049450986
24	0xbd51794e	-0.051141076
25	0xbcac6921	-0.021046223
26	0xbc99780d	-0.018734002
27	0xbcfb26fc	-0.030658238
28	0x3cdbfea7	0.026854826
29	0x3d5e9e09	0.054349933
30	0x3d071969	0.032983217
31	0x3b9fe77d	0.0048798905
32	0x3d232eec	0.03983967
33	0x3d5e265a	0.054235794
34	0x3c68c3e4	0.01420686
35	0x3da819ef	0.082080714
36	0x3ca35527	0.019938065
37	0xbcf881d7	-0.03033535
38	0xbcab523a	-0.020913232
39	0xbc43559b	-0.011922265
40	0x3d0fd0fb	0.03511141
41	0xbdbd22c7	-0.09235149
42	0x3cd48610	0.025942832
43	0xbbbf91ea	-0.0058462517
44	0xbd650dd7	-0.0559214
45	0x3d4b2872	0.04959912
46	0x3dbbefef	0.09176623
47	0x3c685314	0.014179964
48	0xbcf945ce	-0.030428793
49	0xbd0f400f	-0.0349732
50	0xbbefa94c	-0.007313883
51	0xbd909de0	-0.07061362
52	0xbc529140	-0.012852013
53	0x3d0bb55a	0.034108497
54	0x3caa5b3e	0.02079546
55	0x3cb0ce91	0.021582874
56	0x3d62a939	0.055337165
57	0xbd0a422f	-0.033754524
58	0x3be998bd	0.0071288035
59	0x3d295deb	0.041349333
60	0x3cf3c260	0.029755771
61	0x3d3bb281	0.04582453
62	0xbe0ddb32	-0.13853148
63	0x3bfd4997	0.00772972

encoder.blocks.0.attn.mask f4 [1, 1, 12, 12]
0	0x3f800000	1.0
1	0x00000000	0.0
2	0x00000000	0.0
3	0x00000000	0.0
4	0x00000000	0.0
5	0x00000000	0.0
6	0x00000000	0.0
7	0x00000000	0.0
8	0x00000000	0.0
9	0x00000000	0.0
10	0x00000000	0.0
11	0x00000000	0.0
12	0x3f800000	1.0
13	0x3f800000	1.0
14	0x00000000	0.0
15	0x00000000	0.0
16	0x00000000	0.0
17	0x00000000	0.0
18	0x00000000	0.0
19	0x00000000	0.0
20	0x00000000	0.0
21	0x00000000	0.0
22	0x00000000	0.0
23	0x00000000	0.0
24	0x3f800000	1.0
25	0x3f800000	1.0
26	0x3f800000	1.0
27	0x00000000	0.0
28	0x00000000	0.0
29	0x00000000	0.0
30	0x00000000	0.0
31	0x00000000	0.0
32	0x00000000	0.0
33	0x00000000	0.0
34	0x00000000	0.0
35	0x00000000	0.0
36	0x3f800000	1.0
37	0x3f800000	1.0
38	0x3f800000	1.0
39	0x3f800000	1.0
40	0x00000000	0.0
41	0x00000000	0.0
42	0x00000000	0.0
43	0x00000000	0.0
44	0x00000000	0.0
45	0x00000000	0.0
46	0x00000000	0.0
47	0x00000000	0.0
48	0x3f800000	1.0
49	0x3f800000	1.0
50	0x3f800000	1.0
51	0x3f800000	1.0
52	0x3f800000	1.0
53	0x00000000	0.0
54	0x00000000	0.0
55	0x00000000	0.0
56	0x00000000	0.0
57	0x00000000	0.0
58	0x00000000	0.0
59	0x00000000	0.0
60	0x3f800000	1.0
61	0x3f800000	1.0
62	0x3f800000	1.0
63	0x3f800000	1.0
64	0x3f800000	1.0
65	0x3f800000	1.0
66	0x00000000	0.0
67	0x00000000	0.0
68	0x00000000	0.0
69	0x00000000	0.0
70	0x00000000	0.0
71	0x00000000	0.0
72	0x3f800000	1.0
73	0x3f800000	1.0
74	0x3f800000	1.0
75	0x3f800000	1.0
76	0x3f800000	1.0
77	0x3f800000	1.0
78	0x3f800000	1.0
79	0x00000000	0.0
80	0x00000000	0.0
81	0x00000000	0.0
82	0x00000000	0.0
83	0x00000000	0.0
84	0x3f800000	1.0
85	0x3f800000	1.0
86	0x3f800000	1.0
87	0x3f800000	1.0
88	0x3f800000	1.0
89	0x3f800000	1.0
90	0x3f800000	1.0
91	0x3f800000	1.0
92	0x00000000	0.0
93	0x00000000	0.0
94	0x00000000	0.0
95	0x00000000	0.0
96	0x3f800000	1.0
97	0x3f800000	1.0
98	0x3f800000	1.0
99	0x3f800000	1.0
100	0x3f800000	1.0
101	0x3f800000	1.0
102	0x3f800000	1.0
103	0x3f800000	1.0
104	0x3f800000	1.0
105	0x00000000	0.0
106	0x00000000	0.0
107	0x00000000	0.0
108	0x3f800000	1.0
109	0x3f800000	1.0
110	0x3f800000	1.0
111	0x3f800000	1.0
112	0x3f800000	1.0
113	0x3f800000	1.0
114	0x3f800000	1.0
115	0x3f800000	1.0
116	0x3f800000	1.0
117	0x3f800000	1.0
118	0x00000000	0.0
119	0x00000000	0.0
120	0x3f800000	1.0
121	0x3f800000	1.0
122	0x3f800000	1.0
123	0x3f800000	1.0
124	0x3f800000	1.0
125	0x3f800000	1.0
126	0x3f800000	1.0
127	0x3f800000	1.0
128	0x3f800000	1.0
129	0x3f800000	1.0
130	0x3f800000	1.0
131	0x00000000	0.0
132	0x3f800000	1.0
133	0x3f800000	1.0
134	0x3f800000	1.0
135	0x3f800000	1.0
136	0x3f800000	1.0
137	0x3f800000	1.0
138	0x3f800000	1.0
139	0x3f800000	1.0
140	0x3f800000	1.0
141	0x3f800000	1.0
142	0x3f800000	1.0
143	0x3f800000	1.0

encoder.blocks.0.attn.key.weight f4 [64, 64]
0	0x3cee0d61	0.029059114
1	0xbc25c3a1	-0.010117442
2	0xbd42b772	-0.04753823
3	0x3c959074	0.018257357
4	0x3d8042ff	0.062627785
5	0x3da93d72	0.08263673
6	0x3d2b7c89	0.041866813
7	0xbd6bdb7c	-0.057582363
8	0xbe34ddbd	-0.17662711
9	0xbd9eb953	-0.077501915
10	0xbd1f2528	-0.038853794
11	0x3d335d9e	0.043790452
12	0x3ce7b90b	0.028286478
13	0xbd0547d0	-0.03253919
14	0xbd8767c3	-0.06611588
15	0x3d95ce7d	0.07314775
16	0xbe1ddc8d	-0.15416165
17	0x3cbbc5ad	0.022921408
18	0x3d8c28e8	0.0684374
19	0x3d006470	0.031345785
20	0x3d1be0b0	0.038056076
21	0xbdd7b88a	-0.10533245
22	0x3d226a39	0.039652083
23	0x3be10265	0.0068667405
24	0x3d4504de	0.048100345
25	0x3d033d2c	0.03204076
26	0x3e021910	0.12704873
27	0xbdc45239	-0.09585995
28	0xbc97469e	-0.01846629
29	0xbd778e2f	-0.06043833
30	0x3d7b1c59	0.06130633
31	0xbd9194b5	-0.07108442
32	0xbbb87cfb	-0.005630133
33	0xbd884514	-0.066538006
34	0x3c259113	0.010105389
35	0x3cb1611b	0.021652749
36	0xbcc44187	-0.023957027
37	0x3d52d17a	0.051469304
38	0xbc36fb5e	-0.011168329
39	0x3daf06d5	0.08546225
40	0xbd7c31e1	-0.061571006
41	0x3df6d07e	0.120514855
42	0xbc2b70af	-0.010463878
43	0x3debfd5b	0.11522933
44	0xbd998b4c	-0.07497272
45	0xbd28d170	-0.04121536
46	0x3d18bb8b	0.03728823
47	0x3de98344	0.1140199
48	0xbd22b145	-0.03971984
49	0xbac626de	-0.0015117784
50	0x3d10f790	0.035392344
51	0xbe6fe258	-0.23426187
52	0x3cfbb7d8	0.030727312
53	0xbc5f380e	-0.013624204
54	0xbd268db3	-0.04066248
55	0xbe26e021	-0.16296436
56	0xbcc9393e	-0.024563428
57	0x3d26d8ba	0.04073403
58	0x3d7d96ce	0.061911397
59	0x3ba21cda	0.004947287
60	0x3e0277b3	0.12740974
61	0xbc2def22	-0.010616096
62	0xbde70555	-0.11280314
63	0x3e3fa1dc	0.18714088
64	0x3d7db096	0.061935984
65	0xbc6380cb	-0.013885687
66	0x3e432bad	0.1905963
67	0xbb750389	-0.003738614
68	0xbb879b7c	-0.004138408
69	0x3e05c005	0.13061531
70	0x3c3f87e8	0.011690117
71	0xbd86efbf	-0.06588697
72	0x3d8eafc0	0.069671154
73	0xbd376111	-0.044770304
74	0xbb9b63b1	-0.0047421088
75	0xbd398788	-0.04529527
76	0x3d3a206d	0.04544108
77	0x3da62e19	0.08114261
78	0x3d9e9a88	0.07744318
79	0x3e10f14f	0.14154552
80	0x3eac083a	0.33600026
81	0xbc94da24	-0.018170424
82	0xbc8d6158	-0.017258331
83	0x398c06cb	0.00026707942
84	0xbdae6a20	-0.085163355
85	0xbd0ea3f5	-0.03482433
86	0xbd351c5b	-0.044216495
87	0xbdc7b079	-0.09750456
88	0xbbcda9b6	-0.0062763346
89	0xbde49e66	-0.111630246
90	0x3e148e5b	0.1450743
91	0x3cda63b5	0.026658872
92	0x3caa1130	0.020760149
93	0xbd56eefe	-0.052474014
94	0x3dc977da	0.09837313
95	0x3dba584b	0.09098872
96	0xbe0bd852	-0.13656738
97	0x3bf05314	0.0073341224
98	0xbcb946cb	-0.022616765
99	0x3daf08e7	0.0854662
100	0x3ca32c9e	0.019918736
101	0xbd159b6f	-0.036525186
102	0xbd3beab4	-0.045878127
103	0xbd9925fd	-0.07477949
104	0x3e341a28	0.17588103
105	0xbd8e2359	-0.06940336
106	0xbccdbc8c	-0.02511432
107	0x3dd09758	0.101851165
108	0x3e36c684	0.17849165
109	0xbdb793a0	-0.08963704
110	0x3d49883c	0.04920219
111	0xbdf100bd	-0.11767719
112	0xbd23bd32	-0.039975353
113	0x3cc1f09d	0.023674304
114	0xbd97d5d9	-0.07413835
115	0x3e7d9c12	0.24766567
116	0xbda79789	-0.081832
117	0x3d07b385	0.033130188
118	0xbd7dce65	-0.06196441
119	0x3e5b155d	0.21394868
120	0xbdab9493	-0.08377948
121	0xbd9c1946	-0.07622008
122	0xbe1efe27	-0.15526639
123	0xbd9d54d1	-0.07682193
124	0xbda37a65	-0.07982329
125	0xbe13f7fa	-0.14450064
126	0x3e2d9d97	0.16954647
127	0xbe11e395	-0.14246972
128	0xbe0645df	-0.13112591
129	0xbd816f9a	-0.063201144
130	0xbe4dff6f	-0.20116971
131	0xbcea3c00	-0.028593063
132	0xbc960f4f	-0.018317847
133	0xbdc87f0a	-0.09789856
134	0xbd8b0355	-0.06787745
135	0x3cc1b6c5	0.023646722
136	0x3e1752a3	0.14777617
137	0x3e0fdb11	0.14048411
138	0x3ddcedf5	0.10787574
139	0x3c8c0711	0.017093213
140	0xbd2aa3ba	-0.041660048
141	0xbe3ce8d7	-0.18448196
142	0xbdc4ecb9	-0.09615464
143	0xbe5a7dd6	-0.21337065
144	0xbe5d64a4	-0.21620423
145	0x3dc515e4	0.09623316
146	0x3c8de219	0.017319726
147	0x37b7cb5b	2.1909995e-05
148	0x3dc9413a	0.09826894
149	0x3cea857a	0.0286281
150	0x3dffdb60	0.12493014
151	0x3e0e4980	0.13895226
152	0x3c8a76e1	0.016902389
153	0x3e1f2cd3	0.15544443
154	0xbe3e126e	-0.18561718
155	0x3c73bd54	0.014876682
156	0xba512edb	-0.00079796993
157	0x3d666ea2	0.05625785
158	0xbe1e3289	-0.15448965
159	0xbdb9748b	-0.09055432
160	0x3e3bab82	0.18327144
161	0x3d093f6c	0.03350775
162	0x3adea352	0.0016985929
163	0xbda52a93	-0.08064761
164	0xbcbe1f37	-0.023208244
165	0xbcb88ebc	-0.022528999
166	0x3da0de41	0.078548916
167	0x3d7e8347	0.062136915
168	0xbe1714d6	-0.14754042
169	0x3dbd3fc3	0.09240677
170	0x3d334bd3	0.043773483
171	0xbe7704c0	-0.24122906
172	0xbe62df48	-0.22155488
173	0x3e2a72f9	0.16645421
174	0xbe238306	-0.1596795
175	0x3ad9174b	0.0016562728
176	0x3d959267	0.07303315
177	0xbcca0541	-0.024660708
178	0x3d892139	0.0669579
179	0xbdeab4da	-0.11460276
180	0x3c89c7b8	0.016818866
181	0xbcc23b4b	-0.023709914
182	0x3dc088e9	0.094011135
183	0xbe2e3f4a	-0.1701633
184	0x3dcfc5d8	0.101451576
185	0x3de15c60	0.11003947
186	0x3e614f1a	0.22002831
187	0xbd17b29c	-0.03703557
188	0x3dbb8967	0.09157067
189	0x3e4c552d	0.19954367
190	0xbdda16d5	-0.10648886
191	0x3df34df9	0.118801065
192	0x3da4fb9c	0.08055803
193	0xbda59519	-0.08085079
194	0x3df762b5	0.12079374
195	0xbe041dad	-0.12901945
196	0xbdd057df	-0.1017301
197	0xbc9be424	-0.019029684
198	0x3bd2c867	0.006432581
199	0x3cecb7b4	0.02889619
200	0x3d628269	0.05530015
201	0xbc8746d4	-0.016513266
202	0x3d2018b9	0.039086077
203	0xbe0d5a7d	-0.1380405
204	0xbd3f38e6	-0.046685122
205	0x3ded65ad	0.11591659
206	0x3d1bd200	0.03804207
207	0xbe0c9c5a	-0.13731518
208	0x3db408ee	0.08790766
209	0xbd642bf4	-0.05570598
210	0xbcac99e1	-0.021069469
211	0xbb1a5062	-0.0023546447
212	0xbd7dc454	-0.06195481
213	0x39fbe7e4	0.00048047223
214	0xbce535d4	-0.027979769
215	0xbc48d38e	-0.01225747
216	0x3e032f6d	0.1281106
217	0xbb91f0bd	-0.004453747
218	0x3dd0b07e	0.10189913
219	0x3d7216cf	0.059103783
220	0xbe01fef5	-0.12694915
221	0x3dbb1d11	0.09136403
222	0x395ad806	0.00020870575
223	0x3dc29021	0.09500147
224	0xbde380de	-0.11108564
225	0xbc855afc	-0.016278736
226	0xbdb0d9a8	-0.08635265
227	0x3ddffd70	0.10937011
228	0x3d8c0169	0.068362065
229	0xbdd9bcf9	-0.10631747
230	0xbd8bdd65	-0.06829337
231	0xbb340790	-0.0027470328
232	0x3d70a6ef	0.05875295
233	0x3cdf65a7	0.027270151
234	0x3cd491cd	0.02594843
235	0xbc71a8e5	-0.01474974
236	0xbd01dee9	-0.031706724
237	0x3dbd45f7	0.0924186
238	0xbdcaa14a	-0.09894045
239	0xbd9d37dd	-0.07676671
240	0x3d1ae02b	0.03781144
241	0x3e1ac41e	0.15113875
242	0x3df78278	0.12085432
243	0x3d704240	0.05865693
244	0xbd4caa22	-0.04996694
245	0xbcd77b48	-0.026303902
246	0x3d60b0be	0.054856054
247	0x3d19c292	0.037539072
248	0x3c84b232	0.016198251
249	0xbd1f3534	-0.038869098
250	0xbd865d5d	-0.065607764
251	0xbd173b6f	-0.036921915
252	0x3b96cfc9	0.0046024066
253	0xbcad3b25	-0.021146366
254	0x3df3915f	0.11892962
255	0xbe13b106	-0.14422998

encoder.blocks.0.attn.key.bias f4 [64]
0	0x3459cc70	2.0284074e-07
1	0x34688177	2.1653783e-07
2	0x33b1e63b	8.2840835e-08
3	0x330d4687	3.2893265e-08
4	0x34833d7c	2.4445387e-07
5	0x31d1e48a	6.1086824e-09
6	0x342e6db8	1.6244928e-07
7	0xb39347db	-6.8582914e-08
8	0x33e9b331	1.0882503e-07
9	0xb3df44a6	-1.0396734e-07
10	0x33b711a2	8.524809e-08
11	0x32c500ab	2.2934122e-08
12	0xb4352ec8	-1.6873958e-07
13	0xb123e557	-2.3849986e-09
14	0xb3816589	-6.0255e-08
15	0xb3e347b6	-1.05835554e-07
16	0x332dc4d9	4.0458733e-08
17	0x3330e1b1	4.118346e-08
18	0xb45b695f	-2.0434298e-07
19	0xb3e63d2f	-1.0721339e-07
20	0x32adea11	2.0246292e-08
21	0xb311fccb	-3.3990357e-08
22	0x34420d7c	1.8072564e-07
23	0x33fd7b3d	1.18036475e-07
24	0x346c9842	2.2034604e-07
25	0xb37739ea	-5.756184e-08
26	0x33359af9	4.2283293e-08
27	0x33572303	5.009043e-08
28	0xb4344e4c	-1.679229e-07
29	0xb3df2135	-1.0390287e-07
30	0xb45341a0	-1.967478e-07
31	0xb3f7a058	-1.1531e-07
32	0x3359b877	5.069202e-08
33	0xb3adff2e	-8.102357e-08
34	0x342822e9	1.565892e-07
35	0x31616575	3.279948e-09
36	0x33e2ad7a	1.05555e-07
37	0xb3810125	-6.007239e-08
38	0xb45ef784	-2.0765407e-07
39	0xb322cca4	-3.7904684e-08
40	0x348a4764	2.5756447e-07
41	0x32a9b6e0	1.9757351e-08
42	0xb414ff26	-1.3876397e-07
43	0xb3c4a259	-9.156492e-08
44	0x342deef2	1.6198808e-07
45	0xb44e7458	-1.922757e-07
46	0x335fca55	5.2105253e-08
47	0x33a69870	7.7577056e-08
48	0x344f68df	1.9316529e-07
49	0xb2144e60	-8.632554e-09
50	0xb332a34a	-4.1592365e-08
51	0x3482ef22	2.438838e-07
52	0xb45e8e17	-2.0727053e-07
53	0xb3eca4ce	-1.1019584e-07
54	0xb452ec7b	-1.9643805e-07
55	0xb3b5ded3	-8.469001e-08
56	0xb3052dcc	-3.1008128e-08
57	0x3311e687	3.3970107e-08
58	0x31f7e02a	7.2141306e-09
59	0x34197d71	1.429487e-07
60	0xb3cc0cfa	-9.501851e-08
61	0x339c44c0	7.2768216e-08
62	0x3450054b	1.9373435e-07
63	0xb29f0b70	-1.8515237e-08
