trainer/results/football/11_vs_11_stochastic/mat/check/run1/models/transformer_600.pt (torch, 467816 bytes, 73 tensors)

encoder.state_encoder.0.weight f4 [37]
1.0 1.0 1.0 1.0 1.0 1.0 1.0 1.0
1.0 1.0 1.0 1.0 1.0 1.0 1.0 1.0
1.0 1.0 1.0 1.0 1.0 1.0 1.0 1.0
1.0 1.0 1.0 1.0 1.0 1.0 1.0 1.0
1.0 1.0 1.0 1.0 1.0
00000000: 0000 803f 0000 803f 0000 803f 0000 803f
00000010: 0000 803f 0000 803f 0000 803f 0000 803f
00000020: 0000 803f 0000 803f 0000 803f 0000 803f
00000030: 0000 803f 0000 803f 0000 803f 0000 803f
00000040: 0000 803f 0000 803f 0000 803f 0000 803f
00000050: 0000 803f 0000 803f 0000 803f 0000 803f
00000060: 0000 803f 0000 803f 0000 803f 0000 803f
00000070: 0000 803f 0000 803f 0000 803f 0000 803f
00000080: 0000 803f 0000 803f 0000 803f 0000 803f
00000090: 0000 803f

encoder.state_encoder.0.bias f4 [37]
0.0 0.0 0.0 0.0 0.0 0.0 0.0 0.0
0.0 0.0 0.0 0.0 0.0 0.0 0.0 0.0
0.0 0.0 0.0 0.0 0.0 0.0 0.0 0.0
0.0 0.0 0.0 0.0 0.0 0.0 0.0 0.0
0.0 0.0 0.0 0.0 0.0
00000000: 0000 0000 0000 0000 0000 0000 0000 0000
00000010: 0000 0000 0000 0000 0000 0000 0000 0000
00000020: 0000 0000 0000 0000 0000 0000 0000 0000
00000030: 0000 0000 0000 0000 0000 0000 0000 0000
00000040: 0000 0000 0000 0000 0000 0000 0000 0000
00000050: 0000 0000 0000 0000 0000 0000 0000 0000
00000060: 0000 0000 0000 0000 0000 0000 0000 0000
00000070: 0000 0000 0000 0000 0000 0000 0000 0000
00000080: 0000 0000 0000 0000 0000 0000 0000 0000
00000090: 0000 0000

encoder.state_encoder.1.weight f4 [64, 37]
0.4574152 0.19178663 0.11696038 -0.03484751 -0.024718557 0.08946806 0.01876197 0.09317158
0.26316312 -0.070077896 0.3382568 -0.05923168 -0.12915726 -0.2459303 -0.024627378 0.13580255
-0.15919763 -0.17724416 0.041411754 0.022096744 0.18048406 0.123222694 -0.07639876 -0.36825076
-0.29680172 -0.034182478 0.056617558 0.20112307 0.051109444 0.20088284 0.1841506 -0.07784154
0.022256143 -0.00198585 0.017833995 0.16791677 0.14283958 0.2520978 -0.0026797678 0.036555268
-0.34279457 0.20965734 0.109166384 0.05958064 0.182345 0.19287658 0.05516808 0.016364643
-0.12562779 0.28481907 0.024451666 0.35011736 -0.16751002 -0.27444172 0.09274273 0.009425651
-0.14077525 -0.21963161 0.17755678 -0.022642229 0.02076482 0.04338099 -0.35535234 -0.17457849
0.10034779 -0.06924844 -0.061708517 -0.08110467 0.29113233 0.07335813 -0.19970822 -0.03494495
-0.064540915 0.312445 0.062430877 -0.1748564 0.15701269 0.08229059 -0.085262515 -0.16688499
0.044076603 -0.23346321 0.014359764 -0.050128154 -0.2761496 -0.09011372 0.19620766 0.33910358
0.087567285 0.20255402 0.005088991 0.11868635 0.05329292 0.17252271 0.22197093 0.057809833
-0.032914076 -0.15549012 -0.27870542 0.29608682 -0.18096645 -0.054570347 -0.2719342 -0.05681888
-0.086294785 0.25709227 0.10048054 0.00021697802 0.01413764 0.20644523 -0.175578 0.06629577
-0.55853295 -0.055624884 -0.1845203 0.26592916 -0.08810885 -0.028984131 -0.30324194 -0.05605378
0.25482255 -0.09172232 -0.07383927 -0.2708589 0.19046381 0.018751414 -0.006208304 -0.13356234
-0.124814704 -0.09745824 0.05768247 0.25524354 0.14021857 -0.14652897 -0.07516245 0.16695458
-0.25621763 0.022513237 -0.18820949 -0.05454332 -0.05423308 -0.191489 -0.06498444 0.14634998
0.24868573 0.27689525 -0.3586541 -0.19422892 0.20540085 -0.25503674 0.36688456 -0.055246513
-0.047298037 0.130609 -0.043869317 0.086236976 -0.08167747 0.08824544 -0.013922421 -0.0008757562
-0.28996956 -0.2678294 -0.12416736 -0.003983409 -0.083968274 -0.18522517 -0.14653817 -0.008485533
0.19713818 0.023719832 0.03716988 -0.14856616 -0.12148814 0.012963545 -0.07299419 -0.011729042
-0.043155413 -0.09657931 -0.09067693 -0.36637384 -0.2825897 -0.3737699 -0.06531416 0.08889984
-0.19877006 0.062309705 0.17385122 -0.008961584 0.096334815 0.2159585 -0.11990709 0.064151324
-0.17163816 -0.28194264 0.013052619 0.16149867 0.14832835 -0.05156396 -0.1286681 -0.41663256
0.09592095 -0.11497352 0.053902917 -0.065543264 0.2730092 -0.10748558 -0.6373737 -0.19424647
-0.06450384 0.08185028 -0.11890842 0.0473612 -0.14008644 -0.07692784 -0.14484356 -0.18607596
0.043479685 0.0050566993 -0.14898743 0.09944455 -0.044569854 0.10265905 -0.037873775 0.28203073
0.068844385 -0.035023462 -0.3559894 0.2541483 -0.0029488925 0.07143271 0.14594343 0.2193845
-0.12030955 -0.04227861 -0.08445814 -0.2582056 -0.39506748 0.18912336 -0.13990681 0.022381444
-0.031242913 0.021755932 -0.01393924 0.09101519 0.13713178 0.12850487 -0.07857095 -0.25117433
-0.21247439 0.042816125 -0.10013963 0.007848316 -0.51894224 0.08713726 -0.14834349 0.1854715
00000000: 5332 ea3e b763 443e ec88 ef3d 43bc 0ebd
00000010: 927e cabc 083b b73d b4b2 993c bed0 be3d
00000020: 51bd 863e 0085 8fbd ff2f ad3e eb9c 72bd
00000030: cd41 04be 27d5 7bbe 5bbf c9bc d30f 0b3e
00000040: b404 23be 7e7f 35be 5f9f 293d 3b04 b53c
00000050: d0d0 383e 2e5c fc3d f476 9cbd 5d8b bcbe
00000060: 65f6 97be ed02 0cbd d0e7 673d 35f3 4d3e
00000070: 2358 513d 3bb4 4d3e fa91 3c3e 636b 9fbd
00000080: 8452 b63c 0925 02bb 9918 923c 60f2 2b3e
00000090: 8a44 123e f612 813e 0b9f 2fbb faba 153d
000000a0: c582 afbe 6ab0 563e a092 df3d d40a 743d
000000b0: a6b8 3a3e 7081 453e edf7 613d 250f 863c
000000c0: 92a4 00be ced3 913e dc4e c83c 9542 b33e
000000d0: bf87 2bbe a083 8cbe e7ef bd3d 0c6e 1a3c
000000e0: 6327 10be 1ce7 60be 72d1 353e 327c b9bc
000000f0: fc1a aa3c 44b0 313d bef0 b5be b4c4 32be
00000100: 2483 cd3d 20d2 8dbd 12c2 7cbd 351a a6bd
00000110: 4c0f 953e ca3c 963d 5080 4cbe 7022 0fbd
00000120: 072e 84bd cbf8 9f3e 85b7 7f3d 8e0d 33be
00000130: efc7 203e f887 a83d 1d9e aebd e6e3 2abe
00000140: ab89 343d fb10 6fbe 3745 6b3c 2e53 4dbd
00000150: 7b63 8dbe 8b8d b8bd a9ea 483e fc9e ad3e
00000160: 7a56 b33d 526a 4f3e 8dc1 a63b d411 f33d
00000170: ad49 5a3d cba9 303e 594c 633e 01ca 6c3d
00000180: e9d0 06bd cd38 1fbe 7ab2 8ebe b198 973e
00000190: 454f 39be 2885 5fbd f63a 8bbe eaba 68bd
000001a0: 52bb b0bd 99a1 833e bec8 cd3d 9884 6339
000001b0: 8fa1 673c 6166 533e b8ca 33be 14c6 873d
000001c0: 04fc 0ebf ebd6 63bd e4f2 3cbe de27 883e
000001d0: 6a72 b4bd 2170 edbc 8742 9bbe a698 65bd
000001e0: 1a78 823e e9d8 bbbd 0b39 97bd 05ae 8abe
000001f0: f208 433e 919c 993c 076f cbbb 91c4 08be
00000200: da9e ffbd 3098 c7bd 7444 6c3d 48af 823e
00000210: 7595 0f3e b10b 16be c5ee 99bd 24f6 2a3e
00000220: f52e 83be ae6d b83c fdb9 40be d168 5fbd
00000230: 8223 5ebd b115 44be 9016 85bd c5dc 153e
00000240: 79a7 7e3e 37c5 8d3e 83a1 b7be f2e3 46be
00000250: 9a54 523e 2d94 82be 4bd8 bb3e 2b4a 62bd
00000260: 96bb 41bd 5ebe 053e 50b0 33bd 039d b03d
00000270: 8446 a7bd 06ba b43d de1a 64bc 0193 65ba
00000280: e476 94be ef20 89be 754b febd 4287 82bb
00000290: 8ff7 abbd abab 3dbe 1a0e 16be e806 0bbc
000002a0: 97de 493e 1850 c23c 723f 183d ba21 18be
000002b0: c6ce f8bd 0c65 543c fa7d 95bd 2b2b 40bc
000002c0: bbc3 30bd 60cb c5bd d4b4 b9bd 5a95 bbbe
000002d0: 99af 90be c55e bfbe 6ec3 85bd 1f11 b63d
000002e0: 618a 4bbe 7638 7f3d 0e06 323e 9cd3 12bc
000002f0: 304b c53d 3a24 5d3e d991 f5bd c561 833d
00000300: eac1 2fbe c95a 90be a7da 553c e85f 253e
00000310: 63e3 173e bb34 53bd 92c1 03be dd50 d5be
00000320: 3472 c43d 3d77 ebbd 4ec9 5c3d 8c3b 86bd
00000330: ddc7 8b3e 6621 dcbd ec2a 23bf 8ce8 46be
00000340: 971a 84bd 1fa1 a73d 4286 f3bd d1fd 413d
00000350: d272 0fbe 588c 9dbd df51 14be b28a 3ebe
00000360: c117 323d abb2 a53b 2990 18be 96a9 cb3d
00000370: e18e 36bd e83e d23d 8821 1bbd 5566 903e
00000380: 49fe 8c3d c374 0fbd 3e44 b6be ba1f 823e
00000390: 3542 41bb 504b 923d 3272 153e 55a6 603e
000003a0: da64 f6bd 562c 2dbd 64f8 acbd 8633 84be
000003b0: 4946 cabe 8ea9 413e bb43 0fbe 4a59 b73c
000003c0: 23f1 ffbc 7f39 b23c 6961 64bc 2c66 ba3d
000003d0: 466c 0c3e c896 033e cee9 a0bd ec99 80be
000003e0: e392 59be f65f 2f3d 0216 cdbd 3996 003c
000003f0: 66d9 04bf 0575 b23d 5be7 17be 3eec 3d3e

encoder.state_encoder.1.bias f4 [64]
0.0 0.0 0.0 0.0 0.0 0.0 0.0 0.0
0.0 0.0 0.0 0.0 0.0 0.0 0.0 0.0
0.0 0.0 0.0 0.0 0.0 0.0 0.0 0.0
0.0 0.0 0.0 0.0 0.0 0.0 0.0 0.0
0.0 0.0 0.0 0.0 0.0 0.0 0.0 0.0
0.0 0.0 0.0 0.0 0.0 0.0 0.0 0.0
0.0 0.0 0.0 0.0 0.0 0.0 0.0 0.0
0.0 0.0 0.0 0.0 0.0 0.0 0.0 0.0
00000000: 0000 0000 0000 0000 0000 0000 0000 0000
00000010: 0000 0000 0000 0000 0000 0000 0000 0000
00000020: 0000 0000 0000 0000 0000 0000 0000 0000
00000030: 0000 0000 0000 0000 0000 0000 0000 0000
00000040: 0000 0000 0000 0000 0000 0000 0000 0000
00000050: 0000 0000 0000 0000 0000 0000 0000 0000
00000060: 0000 0000 0000 0000 0000 0000 0000 0000
00000070: 0000 0000 0000 0000 0000 0000 0000 0000
00000080: 0000 0000 0000 0000 0000 0000 0000 0000
00000090: 0000 0000 0000 0000 0000 0000 0000 0000
000000a0: 0000 0000 0000 0000 0000 0000 0000 0000
000000b0: 0000 0000 0000 0000 0000 0000 0000 0000
000000c0: 0000 0000 0000 0000 0000 0000 0000 0000
000000d0: 0000 0000 0000 0000 0000 0000 0000 0000
000000e0: 0000 0000 0000 0000 0000 0000 0000 0000
000000f0: 0000 0000 0000 0000 0000 0000 0000 0000

encoder.obs_encoder.0.weight f4 [217]
0.92169666 0.9973695 0.99690044 0.97871244 0.9583331 0.92786765 0.97030956 0.94533557
0.9512097 1.1210177 1.0454726 1.1598004 1.0902972 0.95768404 0.7744103 0.74863565
1.076749 1.0866301 1.0104078 1.0813457 1.2393453 1.1780902 1.0657244 1.019105
1.2437088 1.0930682 1.0427681 1.1290756 1.1630311 1.1924584 1.2277299 1.1838242
0.65380114 1.2018462 1.1433566 1.1785052 1.3276523 0.9707489 0.7801715 0.485286
0.6717822 0.794896 0.9385092 1.0114768 1.1180811 1.9599633 0.870877 1.3364618
0.905361 1.0897279 0.8913703 0.8388734 1.1189413 0.4873633 0.7180199 0.72462875
0.93573 1.0101755 0.9416484 0.934906 0.5490285 0.6336589 0.6620712 0.90960497
0.98289466 0.9644042 0.9069363 0.43906444 0.67804253 0.7379411 0.9608929 0.9716395
0.985475 0.8359022 0.44282365 0.66923094 0.69788516 0.8977693 0.98179936 0.9122589
0.718871 0.5100688 0.6696507 0.6513672 1.055423 0.97644836 0.97588116 0.90084445
0.5598596 0.61488175 0.6888067 0.9349194 0.97339773 0.8862512 0.96668196 0.5435148
0.6185337 0.7003904 0.9985096 0.85029227 0.7877149 0.85435724 0.4081742 0.6046634
0.68820107 0.82306486 0.9363261 0.76551217 0.7312741 0.3998896 0.6873116 0.74940723
0.8930379 1.0008247 0.97529244 1.1636616 0.5791271 0.7147258 0.75229275 1.2260532
0.9160949 1.0234042 1.0592829 1.0401525 0.9542443 0.9657653 1.0957458 1.0715563
1.0154045 1.0514768 1.006885 1.0311271 0.6510079 0.94455844 0.8374836 0.7603784
0.81802875 0.8091765 1.0685211 1.0101229 1.0142808 1.0791016 0.94786066 0.96291876
0.9474613 0.9758679 1.0967934 0.9600421 0.94051296 0.8421381 0.7882762 0.8527462
0.92587 1.005709 1.0485891 1.0655283 0.82634014 0.65066797 0.8440367 0.8263035
0.97720194 1.0072479 0.9930927 0.72240204 0.7477686 0.7882152 0.8893075 0.9718446
0.9195866 0.9964493 0.6988361 0.8312507 0.8149625 0.9683597 0.99039793 0.9302415
1.0404906 0.692122 0.90183294 0.74606806 0.870444 1.015969 0.9886592 0.9432845
0.7824705 0.760369 0.7723357 0.83445174 1.0166326 0.9795583 1.0808213 0.94427127
0.9765245 0.8659143 0.9003574 0.97861665 0.95255125 1.0736569 0.86689067 0.9961234
0.8411446 0.9246368 1.0181347 1.03205 1.088952 0.9366136 0.8065837 1.0017684
0.9073601 1.0054512 0.96857274 0.861817 0.8834507 0.9570967 0.8097807 0.92916614
1.0385821
00000000: 50f4 6b3f 9c53 7f3f de34 7f3f e68c 7a3f
00000010: 5155 753f bc88 6d3f 3566 783f 8301 723f
00000020: 7b82 733f 827d 8f3f 0cd2 853f 5774 943f
00000030: dc8e 8b3f c82a 753f c13f 463f 96a6 3f3f
00000040: e9d2 893f b216 8b3f 0b55 813f 8969 8a3f
00000050: dea2 9e3f a9cb 963f a869 883f 0872 823f
00000060: da31 9f3f a9e9 8b3f 6d79 853f 8d85 903f
00000070: 34de 943f 7aa2 983f 4126 9d3f 8d87 973f
00000080: 835f 273f 19d6 993f 8259 923f 42d9 963f
00000090: 83f0 a93f 0083 783f 52b9 473f 6877 f83e
000000a0: ebf9 2b3f 4e7e 4b3f 2442 703f 1278 813f
000000b0: 481d 8f3f 14e0 fa3f ccf1 5e3f 2e11 ab3f
000000c0: bdc5 673f 347c 8b3f d830 643f 68c0 563f
000000d0: 7839 8f3f af87 f93e 27d0 373f 4581 393f
000000e0: 008c 6f3f 6e4d 813f df0f 713f 0056 6f3f
000000f0: 228d 0c3f 7837 223f 807d 293f dfdb 683f
00000100: fc9e 7b3f 32e3 763f fa2c 683f 0ecd e03e
00000110: 3294 2d3f b5e9 3c3f 14fd 753f 5ebd 783f
00000120: 1748 7c3f b0fd 553f c8b9 e23e b852 2b3f
00000130: 9aa8 323f 35d4 653f 3457 7b3f cd89 693f
00000140: ee07 383f de93 023f 3a6e 2b3f 00c0 263f
00000150: 1a18 873f 85f8 793f 59d3 793f be9d 663f
00000160: f552 0f3f e468 1d3f a355 303f e156 6f3f
00000170: 9830 793f 5ce1 623f 7878 773f c923 0b3f
00000180: 3958 1e3f c94c 333f 539e 7f3f c1ac 593f
00000190: afa7 493f 28b7 5a3f 35fc d03e 38cb 1a3f
000001a0: f22d 303f 61b4 523f 11b3 6f3f 9bf8 433f
000001b0: c834 3b3f 54be cc3e a7f3 2f3f 27d9 3f3f
000001c0: 229e 643f 061b 803f c4ac 793f ddf2 943f
000001d0: ac41 143f 45f8 363f 4296 403f 50ef 9c3f
000001e0: 3285 6a3f e9fe 823f 9596 873f b823 853f
000001f0: 5b49 743f 653c 773f 6641 8c3f c228 893f
00000200: c6f8 813f cb96 863f 9ce1 803f f9fb 833f
00000210: 74a8 263f 95ce 713f 5365 563f 29a8 423f
00000220: 556a 513f 3126 4f3f 4dc5 883f b54b 813f
00000230: f4d3 813f 0020 8a3f ffa6 723f d881 763f
00000240: d38c 723f 7bd2 793f ba63 8c3f 52c5 753f
00000250: 75c5 703f 5d96 573f 78cc 493f 934d 5a3f
00000260: d105 6d3f 13bb 803f 2b38 863f 3b63 883f
00000270: 078b 533f 2d92 263f ca12 583f a088 533f
00000280: e829 7a3f 80ed 803f 533b 7e3f 57ef 383f
00000290: c36d 3f3f 79c8 493f a8a9 633f cfca 783f
000002a0: 076a 6b3f 4d17 7f3f ece6 323f d9cc 543f
000002b0: 62a1 503f 6ce6 773f b88a 7d3f 4f24 6e3f
000002c0: cc2e 853f e82e 313f 86de 663f 51fe 3e3f
000002d0: 6bd5 5e3f 460b 823f c518 7d3f 187b 713f
000002e0: fd4f 483f 8ba7 423f cbb7 453f a19e 553f
000002f0: 0421 823f 55c4 7a3f 5a58 8a3f c3bb 713f
00000300: 82fd 793f 8fac 5d3f d37d 663f 9f86 7a3f
00000310: 66da 733f 976d 893f 8cec 5d3f f101 7f3f
00000320: 4155 573f ffb4 6c3f 3d52 823f 371a 843f
00000330: c762 8b3f e9c5 6f3f 457c 4e3f f239 803f
00000340: c048 683f a0b2 803f 62f4 773f 0aa0 5c3f
00000350: d329 623f 4a04 753f ca4d 4f3f d5dd 6d3f
00000360: 42f0 843f

encoder.obs_encoder.0.bias f4 [217]
-0.10375163 -0.04417204 -0.015109951 -0.015841799 -0.05443536 -0.075514294 -0.042777866 -0.058126044
-0.07564947 0.044112276 0.01751506 0.049984936 0.015581067 -0.03357216 -0.07375674 -0.03689295
0.03662909 0.011885593 0.034064375 0.028510517 0.00088913494 0.05165526 -0.03941554 -0.0065111807
0.0503078 -0.0079893265 0.034765024 0.00077133614 0.026134675 0.06240908 0.024091909 0.01945425
0.0364712 -0.05517434 -0.035268463 -0.01434991 0.025819758 0.01567181 0.015573928 0.042961795
0.050869636 -0.055973686 -0.032636996 0.014620449 -0.0077469656 0.019197129 0.03564947 0.024900718
-0.040083617 -0.0042065713 -0.05046867 0.0238515 0.014988406 0.046407845 0.05939466 -0.08308448
-0.038723946 -0.021223366 0.0036053977 0.026651599 0.013983866 0.050861247 -0.07751931 -0.056790866
-0.040705856 0.04070552 0.0135931885 0.0060753394 0.021488294 -0.021364456 -0.058511764 -0.01644062
-0.0002724937 0.0026920561 -0.026787417 0.027976932 -0.07451814 -0.06890196 -0.02306288 0.05490161
0.011899407 0.044240493 0.03486759 -0.09741049 -0.03381346 -0.06273576 0.007944503 0.021548765
0.02468109 0.054859404 -0.10387992 -0.04972147 -0.04409038 0.07732615 0.019452756 0.030230368
0.04671188 -0.05374902 -0.06401965 -0.045019798 0.00716149 0.040481795 0.033178557 0.06767582
-0.08327668 -0.05038116 -0.018346528 0.021450128 0.0011908254 0.036463395 0.07435059 -0.052458886
-0.059531055 -0.010199548 0.0026504383 -0.006114894 0.035545483 0.04587339 -0.08524147 -0.016933285
-0.011320152 -0.0091916565 -0.011046747 0.043945692 -0.020662392 0.019450612 -0.0104570715 -0.007951133
0.005023184 -0.03458018 -0.053663723 -0.025817988 -0.08484837 0.042529896 0.06534791 0.067104235
0.06961359 -0.08895429 -0.03924307 -0.031226164 -0.016895682 -0.02112666 0.016985754 0.044931963
0.027900971 -0.016497996 -0.0033468571 0.051900815 -0.018935107 0.04942061 0.008801306 -0.03445367
-0.034285046 -0.015302239 0.020078965 -0.01476643 0.028126832 0.03862065 -0.085735396 -0.059959084
-0.029670037 0.045482807 0.033469032 0.07186335 0.05474623 -0.083917975 -0.058537863 -0.014053305
0.037085537 0.061568383 0.042965718 0.023958938 -0.019217435 -0.046698958 -0.056664072 0.06606572
0.0268772 0.102662005 0.01993822 -0.11307804 -0.04867544 -0.041028436 0.046720184 0.006768716
0.037520383 0.039999496 -0.05193815 -0.015345411 0.013411399 0.050768975 0.008333967 0.06313343
0.0047768927 -0.0981377 -0.042539503 -0.015845688 0.06924693 -0.015677799 0.07821718 0.025031388
-0.06175806 -0.08815252 -0.02726108 0.05112258 0.0013800339 0.059079185 0.011177161 -0.021367032
-0.07558396 -0.007898477 0.045033008 0.033524856 0.058341086 0.0072308374 -0.091209084 -0.046477392
-0.04717272
00000000: bc7b d4bd beed 34bd ba8f 77bc a9c6 81bc
00000010: 9df7 5ebd 3da7 9abd d837 2fbd 9315 6ebd
00000020: 1cee 9abd 13af 343d be7b 8f3c 01bd 4c3d
00000030: bb47 7f3c f682 09bd c60d 97bd 101d 17bd
00000040: 6208 163d cabb 423c 1687 0b3d e38e e93c
00000050: d614 693a 7794 533d 3072 21bd be5b d5bb
00000060: 8d0f 4e3d aae5 02bc c565 0e3d 7e33 4a3a
00000070: 6318 d63c aaa0 7f3d 655c c53c 855e 9f3c
00000080: d362 153d 7dfe 61bd aa75 10bd e31b 6bbc
00000090: f583 d33c 2b62 803c ca29 7f3c b5f8 2f3d
000000a0: ae5c 503d aa44 65bd 5fae 05bd 9c8a 6f3c
000000b0: 42da fdbb 4c43 9d3c 2e05 123d 97fc cb3c
000000c0: b82e 24bd 47d7 89bb 3cb8 4ebd 3964 c33c
000000d0: ee91 753c 2716 3e3d d147 733d 3228 aabd
000000e0: 009d 1ebd a0dc adbc 8948 6c3b 7454 da3c
000000f0: 961c 653c e253 503d 72c2 9ebd 8a9d 68bd
00000100: 2fbb 26bd d5ba 263d f7b5 5e3c a413 c73b
00000110: 3808 b03c 8304 afbc 08aa 6fbd 7bae 86bc
00000120: 7cdd 8eb9 356d 303b 4971 dbbc e12f e53c
00000130: f79c 98bd 791c 8dbd 5dee bcbc 83e0 603d
00000140: bbf5 423c 8535 353d 51d1 0e3d 277f c7bd
00000150: fc7f 0abd 9b7b 80bd a929 023c 0987 b03c
00000160: ff2f ca3c 41b4 603d ffbe d4bd bda8 4bbd
00000170: 1d98 34bd 2c5d 9e3d 635b 9f3c ada5 f73c
00000180: f554 3f3d ef27 5cbd bc1c 83bd ae66 38bd
00000190: efaa ea3b 3dd0 253d 3de6 073d 9f99 8a3d
000001a0: f78c aabd 7a5c 4ebd 754b 96bc 2eb8 af3c
000001b0: 7815 9c3a a45a 153d 1f45 983d 21df 56bd
000001c0: d6d6 73bd 011c 27bc fab2 2d3b 735f c8bb
000001d0: 2498 113d bce5 3b3d 1493 aebd acb7 8abc
000001e0: 2978 39bc 9a98 16bc 6afd 34bc 6600 343d
000001f0: 2d44 a9bc e456 9f3c 2354 2bbc 7845 02bc
00000200: 8699 a43b f2a3 0dbd 7ece 5bbd 3f80 d3bc
00000210: fbc4 adbd d433 2e3d 20d5 853d f26d 893d
00000220: 9291 8e3d ab2d b6bd 57bd 20bd 03ce ffbc
00000230: d068 8abc d111 adbc b525 8b3c 940a 383d
00000240: 9490 e43c ce26 87bc f256 5bbb f395 543d
00000250: cc1d 9bbc 446d 4a3d 5a33 103c 4b1f 0dbd
00000260: 7a6e 0cbd 3eb6 7abc a47c a43c e5ee 71bc
00000270: 3e6a e63c b030 1e3d 0a96 afbd a897 75bd
00000280: 940e f3bc 2e4c 3a3d d316 093d 182d 933d
00000290: 953d 603d 30dd abbd 66c5 6fbd d53f 66bc
000002a0: 01e7 173d 212f 7c3d d2fc 2f3d 8945 c43c
000002b0: e26d 9dbc 6847 3fbd 9618 68bd 774d 873d
000002c0: 932d dc3c 7540 d23d 7a55 a33c 7695 e7bd
000002d0: e65f 47bd 6f0d 28bd aa5d 3f3d 1bcc dd3b
000002e0: f9ae 193d 83d6 233d 19bd 54bd 526b 7bbc
000002f0: 7cbb 5b3c 21f3 4f3d 318b 083c 1a4c 813d
00000300: 7b87 9c3b 6bfc c8bd e73d 2ebd d1ce 81bc
00000310: 56d1 8d3d ba6e 80bc 5430 a03d a00e cd3c
00000320: 05f6 7cbd 4f89 b4bd a152 dfbc e965 513d
00000330: 41e2 b43a 04fd 713d 6920 373c ea09 afbc
00000340: c3cb 9abd 9d68 01bc 8874 383d 5c51 093d
00000350: 10f7 6e3d a9f0 ec3b d4cb babd 145f 3ebd
00000360: 2f38 41bd

encoder.obs_encoder.1.weight f4 [64, 217]
0.12223131 0.08614633 -0.017799782 0.0852583 0.05823423 0.06971358 0.233378 0.07523949
0.01754636 0.17491445 0.06889232 0.01367 -0.014715075 0.09935802 -0.042989954 -0.005430062
0.112621814 -0.039179403 0.030696195 -0.091833286 -0.032972556 0.09998857 0.10647354 0.035052877
-0.027927749 0.027868502 0.080708265 0.27626264 0.124502435 0.005085363 -0.14161062 -0.032601435
0.081228696 -0.02182751 -0.1485278 -3.70823e-05 -0.1738337 -0.048071817 0.0061272616 -0.041440673
0.021084396 0.09310638 0.09453609 -0.13256256 -0.03827539 0.019103039 0.05546903 0.047417615
0.14622635 0.011196167 0.11216761 -0.10759715 -0.039829765 -0.09240817 0.008913874 0.08481506
0.012063448 -0.13574375 -0.21491309 0.2006379 -0.06214043 -0.02813812 0.15032543 0.1420112
-0.0201694 -0.08212109 -0.012354613 0.018984467 0.185758 0.07147612 -0.038952634 -0.18403992
-0.15438688 0.06300601 0.057907313 0.02244681 0.013038605 -0.046531133 -0.24903934 0.05058296
0.15338463 -0.020437246 0.0564479 0.10070776 0.15766935 -0.16888534 0.048158575 0.13373832
0.19162244 -0.0058566066 0.048833415 0.056960307 -0.1502836 -0.0029447724 -0.008157762 -0.035745364
-0.10001836 0.0066728587 0.11318217 0.012752426 -0.18913433 0.059059296 -0.061924025 -0.017068446
0.05100889 -0.16731529 -0.13241115 0.1256652 -0.0369127 0.037557766 0.022188412 0.020827314
0.03670579 -0.12669857 -0.0045152255 -0.10657966 0.0046676123 0.023992036 0.022277156 0.25646582
0.17484699 0.16710117 0.09747653 0.40261424 0.20098285 0.2007913 0.2591581 0.06644506
0.13493901 0.3762772 -0.0781597 0.03076863 0.10991218 -0.06701921 0.04136498 0.04229959
0.021904537 -0.059934814 -0.017020524 -0.019166106 0.13607454 0.127637 0.13023463 -0.01891806
-0.090120174 0.115669444 0.14188823 -0.118924305 -0.083719194 -0.04028727 -0.0953729 -0.010394106
0.058438957 -0.13734671 -0.23573433 -0.15654132 -0.14334829 -0.04509169 -0.05179174 0.042891245
0.025351929 -0.19949158 -0.008284993 -0.088882364 -0.032192163 0.08986464 -0.07523617 -0.12277559
0.16096649 -0.04916886 0.16131705 0.027351195 0.0049977815 0.1489719 -0.027830226 -0.11864328
0.10080172 -0.09730559 -0.04410787 -0.14312907 0.061208315 0.008442564 -0.01230207 -0.034541365
0.06745101 -0.11797227 0.1160414 0.013914517 0.053351246 0.14679623 0.17699046 0.0029237291
0.16983384 -0.02171463 -0.07005184 -0.17267428 -0.044698626 -0.100512005 0.103721134 -0.23780173
-0.0070447186 -0.008102449 -0.010988909 -0.08182633 0.075190805 0.1487569 -0.08043435 0.019626401
-0.005643579 -0.121917956 -0.018253943 -0.01212408 -0.15779252 0.026443241 -0.18026814 -0.02056945
-0.20001817 -0.0136710275 -0.037229132 -0.07843709 0.07473475 -0.116494775 0.10693695 0.018287053
-0.006562812 -0.13865976 -0.16562662 -0.16652547 0.071219094 0.07668878 -0.1745163 -0.025833616
-0.07762055 -0.35781434 -0.044970937 0.10708276 -0.06487595 -0.09468954 -0.20524332 0.12736933
0.08980508 -0.038898874 0.017865427 -0.0032797 -0.21714276 -0.15383254 0.078315355 -0.12321078
0.17709322 0.043221537 0.013828644 0.10374445 0.09610596 -0.2239928 -0.03726093 0.028530186
00000000: 6954 fa3d 7d6d b03d d9d0 91bc e79b ae3d
00000010: 0487 6e3d fec5 8e3d a4fa 6e3e 2917 9a3d
00000020: 62bd 8f3c c61c 333e 6b17 8d3d 23f8 5f3c
00000030: 7f17 71bc 387c cb3d 3c16 30bd a9ee b1bb
00000040: 44a6 e63d 957a 20bd 9676 fb3c 1713 bcbd
00000050: 3b0e 07bd cfc6 cc3d cd0e da3d 9b93 0f3d
00000060: bcc8 e4bc 7c4c e43c 604a a53d 4c72 8d3e
00000070: 22fb fe3d 1ea3 a63b 6002 11be 1589 05bd
00000080: 3b5b a63d 9bcf b2bc ac17 18be d188 1bb8
00000090: 7601 32be f4e6 44bd 32c7 c83b b2bd 29bd
000000a0: 2fb9 ac3c 8fae be3d 239c c13d 7bbe 07be
000000b0: a8c6 1cbd fa7d 9c3c 7e33 633d f938 423d
000000c0: 5cbc 153e 2170 373c 22b8 e53d e55b dcbd
000000d0: 8924 23bd 7f40 bdbd 7f0b 123c 85b3 ad3d
000000e0: c5a5 453c 6900 0bbe 2d12 5cbe 0674 4d3e
000000f0: f786 7ebd ea81 e6bc e9ee 193e 626b 113e
00000100: 4c3a a5bc 1a2f a8bd 016b 4abc 5085 9b3c
00000110: 5837 3e3e 1262 923d cc8c 1fbd f674 3cbe
00000120: 9817 1ebe 4c09 813d 3830 6d3d 5fe2 b73c
00000130: e09f 553c 6e97 3ebd 2b04 7fbe 1430 4f3d
00000140: dc10 1d3e 036c a7bc ea35 673d df3f ce3d
00000150: 1374 213e 47f0 2cbe ed41 453d b3f2 083e
00000160: ac38 443e c7e8 bfbb 8c05 483d 364f 693d
00000170: f2e3 19be 15fd 40bb 22a8 05bc bb69 12bd
00000180: 6dd6 ccbd ffa7 da3b 0ecc e73d 8def 503c
00000190: 6eac 41be 29e8 713d 0ca4 7dbd 20d3 8bbc
000001a0: b3ee 503d b354 2bbe ca96 07be 61ae 003e
000001b0: c531 17bd 2cd6 193d 79c4 b53c 0b9e aa3c
000001c0: cf58 163d 45bd 01be 75f4 93bb 7046 dabd
000001d0: c5f2 983b f28a c43c 957e b63c 7d4f 833e
000001e0: 170b 333e 921c 2b3e c6a1 c73d 7423 ce3e
000001f0: 73ce 4d3e 3c9c 4d3e 5fb0 843e 5914 883d
00000200: 742d 0a3e 68a7 c03e 3112 a0bd 7e0e fc3c
00000210: a319 e13d 5e41 89bd 536e 293d 5642 2d3d
00000220: 2571 b33c 357e 75bd a06e 8bbc 3d02 9dbc
00000230: 2057 0b3e 46b3 023e 3a5c 053e 0cfa 9abc
00000240: ed90 b8bd 1ae4 ec3d 264b 113e 968e f3bd
00000250: f874 abbd 4404 25bd de52 c3bd 0a4c 2abc
00000260: b05d 6f3d 9ea4 0cbe 5764 71be 5e4c 20be
00000270: e5c9 12be 10b2 38bd 9323 54bd bbae 2f3d
00000280: d9ae cf3c 8547 4cbe c7bd 07bc f507 b6bd
00000290: eedb 03bd f40a b83d 6c15 9abd c571 fbbd
000002a0: 66d4 243e 4965 49bd 4c30 253e 9d0f e03c
000002b0: 6ec4 a33b 178c 183e 37fc e3bc 3ffb f2bd
000002c0: 2271 ce3d 2748 c7bd 74aa 34bd 6d90 12be
000002d0: 92b5 7a3d ae52 0a3c 9f8e 49bc 3f7b 0dbd
000002e0: c123 8a3d 729b f1bd 1da7 ed3d b7f9 633c
000002f0: d686 5a3d c051 163e fd3c 353e 099c 3f3b
00000300: ece8 2d3e e1e2 b1bc 5777 8fbd 87d1 30be
00000310: e815 37bd 3dd9 cdbd bf6b d43d 4c82 73be
00000320: 62d7 e6bb 22c0 04bc d30a 34bc 9094 a7bd
00000330: a3fd 993d bb53 183e c4ba a4bd 8cc7 a03c
00000340: c6ed b8bb 1fb0 f9bd 4b89 95bc 14a4 46bc
00000350: 5d94 21be 7f9f d83c 3698 38be 4381 a8bc
00000360: 90d1 4cbe 72fc 5fbc 937d 18bd a0a3 a0bd
00000370: 880e 993d d094 eebd c201 db3d bbce 953c
00000380: db0c d7bb d3fc 0dbe 069a 29be a785 2abe
00000390: 51db 913d 020f 9d3d 67b4 32be 05a1 d3bc
000003a0: 86f7 9ebd 7133 b7be 7233 38bd 354e db3d
000003b0: afdd 84bd 97ec c1bd 4e2b 52be 1b6d 023e
000003c0: baeb b73d 6d54 1fbd 845a 923c 3cf0 56bb
000003d0: ac5a 5ebe 4786 1dbe cd63 a03d ef55 fcbd
000003e0: ed57 353e 1109 313d 8991 623c f877 d43d
000003f0: 34d3 c43d 5e5e 65be eb9e 18bd 23b8 e93c

encoder.obs_encoder.1.bias f4 [64]
0.0038169657 -0.008784659 -0.0027664634 0.018302953 0.040334553 0.013336191 0.0015075611 0.034389827
0.019653931 0.03990222 0.061268967 -0.0026080254 -0.027545754 -0.021304501 0.03491134 -0.003780342
0.0002224221 0.024036132 0.027105784 0.020987423 -0.0039067073 0.01541799 -0.008415284 -0.01230965
0.011016749 -0.027801212 -0.0050260187 0.047509287 0.024435585 0.012799617 0.026437247 0.0076902416
0.016915679 0.040300667 0.016846577 0.044123605 0.08582835 0.023029082 -0.0055075823 0.014266587
0.005680271 -0.018251315 0.030260528 -0.023477608 0.00056406204 0.021257095 0.0052268934 -0.031168554
-0.027263474 0.021989033 0.019640993 0.026605655 0.023946805 0.030052789 0.031284794 -0.0050012656
0.017752675 -0.08635601 -0.01435269 0.027204923 -0.05833995 0.021039646 -0.011170031 -0.027614567
00000000: 0f26 7a3b 88ed 0fbc 8e4d 35bb 13f0 953c
00000010: d835 253d 0a80 5a3c 5b99 c53a 59dc 0c3d
00000020: 4801 a13c 8370 233d 2bf5 7a3d 68eb 2abb
00000030: a2a7 e1bc c786 aebc 31ff 0e3d 9dbf 77bb
00000040: fa39 6939 6ce7 c43c f30c de3c d1ed ab3c
00000050: d603 80bb bd9b 7c3c 42e0 09bc 6aae 49bc
00000060: 987f 343c 5ebf e3bc 4db1 a4bb 1999 423d
00000070: 232d c83c 7cb5 513c ed92 d83c 6cfe fb3b
00000080: c092 8a3c 5012 253d d501 8a3c f4ba 343d
00000090: c6c6 af3d 7ca7 bc3c f378 b4bb 67be 693c
000000a0: 9121 ba3b c883 95bc ede4 f73c 1d54 c0bc
000000b0: 90dd 133a 5c23 ae3c 5c46 ab3b 3255 ffbc
000000c0: a657 dfbc 5822 b43c 26e6 a03c 1af4 d93c
000000d0: 172c c43c 4431 f63c 7c24 003d a8e1 a3bb
000000e0: 0f6e 913c 6bdb b0bd 8c27 6bbc dcdc de3c
000000f0: dff5 6ebd 565b ac3c 8102 37bc f237 e2bc

encoder.ln.weight f4 [64]
0.94846123 0.9571145 0.9213545 1.0176138 0.9864863 0.9358756 1.0460134 1.0709116
1.0312252 0.9890177 0.8980879 0.85635775 0.98906195 1.0261036 1.0015383 0.94891024
1.2401444 0.9145743 1.0362922 0.94236743 1.0084603 0.90908146 0.86865205 1.0446367
1.0032891 0.97958094 1.0463957 0.985209 0.9731041 1.081927 0.9690517 1.1045537
0.95456374 1.0357308 0.9372124 1.0015342 0.9696318 0.8991568 0.9777192 1.057686
1.0567231 1.0615356 0.8202303 1.0270727 1.0166069 1.0263911 1.042628 0.9682066
1.0082762 1.0784203 1.0870956 1.0692388 1.0075636 0.9352519 1.0049045 0.98058736
0.9905286 0.96758103 0.95807207 0.9938895 0.9030871 0.939592 1.0380648 1.0231453
00000000: 5bce 723f 7505 753f e3dd 6b3f 2b41 823f
00000010: 5e8a 7c3f 8b95 6f3f c4e3 853f a213 893f
00000020: 30ff 833f 4430 7d3f 17e9 653f 433a 5b3f
00000030: 2a33 7d3f 5d57 833f 6832 803f c8eb 723f
00000040: 0dbd 9e3f 8b21 6a3f 39a5 843f fe3e 713f
00000050: 3a15 813f 90b9 683f fb5f 5e3f a8b6 853f
00000060: c76b 803f d1c5 7a3f 4bf0 853f a836 7c3f
00000070: 5a1d 793f 957c 8a3f c613 783f 0462 8d3f
00000080: 4a5e 743f d492 843f 27ed 6f3f 4632 803f
00000090: ca39 783f 242f 663f ce4b 7a3f 4162 873f
000000a0: b442 873f 66e0 873f 9dfa 513f 1e77 833f
000000b0: 2d20 823f c960 833f d674 853f 63dc 773f
000000c0: 320f 813f ad09 8a3f f325 8b3f d1dc 883f
000000d0: d8f7 803f ab6c 6f3f b6a0 803f c607 7b3f
000000e0: 4893 7d3f 64b3 773f 3644 753f 8b6f 7e3f
000000f0: b730 673f 1a89 703f 4fdf 843f 6df6 823f

encoder.ln.bias f4 [64]
-0.032761443 -0.0123879835 0.0063377637 0.0015027898 0.028568821 0.014652566 -0.032302886 0.009226773
0.01570495 0.010244277 0.008884066 0.0043932553 -0.04030343 -0.024369912 0.017806327 0.0044681234
-0.02353928 -0.0072623454 -0.0062932246 0.05331924 -0.01907203 0.016162701 0.025581222 -0.03537166
-0.020668777 0.028319275 -0.023429183 0.006488528 0.018878937 0.037217185 0.018164502 -0.009951949
0.04315189 0.006546086 -0.034254506 0.022340842 0.06304025 -0.009950405 0.007735539 0.03421621
0.01842999 -0.017839652 -0.033931907 -0.0016985262 -0.051473543 0.02611355 0.014740883 0.002107073
-0.03525311 0.009366392 0.0063698874 0.0007434804 -0.010813396 0.021127233 0.013942341 0.011412035
0.021897268 0.0308583 0.021505762 0.023000197 0.054002315 0.008276658 -0.008731966 -0.0020971019
00000000: dd30 06bd f8f6 4abc 04ad cf3b 42f9 c43a
00000010: 2909 ea3c 5111 703c 0850 04bd e42b 173c
00000020: aba7 803c 9dd7 273c 798e 113c 4cf5 8f3b
00000030: 3615 25bd 69a3 c7bc 93de 913c 5669 923b
00000040: 73d5 c0bc f8f8 edbb 6537 cebb 4765 5a3d
00000050: f23c 9cbc a467 843c b68f d13c e0e1 10bd
00000060: 9151 a9bc d3fd e73c 8fee bfbc b89d d43b
00000070: 00a8 9a3c 0c71 183d b9cd 943c 800d 23bc
00000080: 09c0 303d 8d80 d63b 744e 0cbd 2404 b73c
00000090: 3f1b 813d 0607 23bc 687a fd3b 4c26 0c3d
000000a0: 7efa 963c 7624 92bc 2ffc 0abd 15a1 deba
000000b0: ecd5 52bd 15ec d53c bf83 713c d216 0a3b
000000c0: 9165 10bd 7f75 193c 7dba d03b 20e6 423a
000000d0: ac2a 31bc 0513 ad3c 6b6e 643c 8bf9 3a3c
000000e0: e661 b33c 8cca fc3c da2c b03c e96a bc3c
000000f0: 8831 5d3d d29a 073c 8510 0fbc 886f 09bb

encoder.blocks.0.ln1.weight f4 [64]
0.9906637 0.996955 0.9682103 0.92504317 0.9873642 0.98185515 1.0815151 1.0141267
0.8375214 1.025402 0.9565651 0.71139324 1.024047 1.0537184 1.0237501 0.9637523
1.0250148 1.0097476 1.0408458 0.9507838 0.8617254 0.9272954 0.90283865 1.058159
1.0362278 1.0030286 1.0726442 0.9613716 1.0141596 1.1196874 0.99169266 1.0849702
0.93201256 1.0546807 0.97150534 1.0566177 0.98065007 0.95746523 0.96444833 1.0352634
1.0498074 1.0584161 0.8882318 1.0514004 1.0356245 1.0405531 1.0248177 0.8640814
1.0430462 1.1563094 1.0503749 1.0489012 1.0517049 0.84238076 0.97936803 0.97028613
0.9992119 0.9723349 0.9730056 0.8920064 0.93014693 0.9953282 0.99872863 0.9968311
00000000: 239c 7d3f 7138 7f3f a1dc 773f a1cf 6c3f
00000010: e6c3 7c3f dc5a 7b3f 166f 8a3f e7ce 813f
00000020: cd67 563f 5f40 833f 73e1 743f de1d 363f
00000030: f913 833f 3fe0 863f 3e0a 833f 79b8 763f
00000040: af33 833f 693f 813f 6f3a 853f 9166 733f
00000050: 099a 5c3f 3b63 6d3f 6f20 673f c171 873f
00000060: 1da3 843f 3e63 803f 684c 893f 731c 763f
00000070: fbcf 813f eb51 8f3f 92df 7d3f 4ee0 8a3f
00000080: 6098 6e3f c7ff 863f 93b4 783f 403f 873f
00000090: e20b 7b3f 711c 753f 16e6 763f 8383 843f
000000a0: 1760 863f 2e7a 873f 2963 633f 4a94 863f
000000b0: 588f 843f d830 853f 3a2d 833f 7034 5d3f
000000c0: 8a82 853f f201 943f af72 863f 6542 863f
000000d0: 449e 863f 44a6 573f ddb7 7a3f ac64 783f
000000e0: 5acc 7f3f f1ea 783f e516 793f 885a 643f
000000f0: 1c1e 6e3f d4cd 7e3f aeac 7f3f 5330 7f3f

encoder.blocks.0.ln1.bias f4 [64]
-0.01974565 -0.014486287 0.03202813 -0.029123891 0.042410247 0.01508187 -0.032912754 0.0002337942
0.03852711 0.004350462 0.02999481 0.068923846 -0.023617622 -0.019404832 0.0017525732 0.02962
-0.045957353 0.007853323 0.004238574 0.046868272 -0.025813853 0.0021678437 0.028119134 -0.039247174
-0.05370521 0.0005912974 -0.012658188 0.027155038 -0.0063584438 0.0744984 -0.01929078 -0.02382762
0.033302624 0.023275845 -0.012241996 0.019961145 0.050142635 -0.020326363 0.008306059 0.035300452
0.006658262 -0.041049182 -0.01155353 0.008816861 -0.049323265 0.034141168 0.046876825 0.038975123
-0.018258639 -0.008702036 0.00525012 -0.02616174 -0.011522848 0.033692654 0.043870036 0.009454951
0.029252404 0.04506254 0.018095618 0.007629132 0.033608675 0.0031467725 -0.0027926208 0.0019712278
00000000: a1c1 a1bc e457 6dbc ee2f 033d 3a95 eebc
00000010: 5eb6 2d3d f319 773c 86cf 06bd a726 7539
00000020: 9ace 1d3d 528e 8e3b adb7 f53c f227 8d3d
00000030: be79 c1bc e2f6 9ebc 99b6 e53a a4a5 f23c
00000040: c73d 3cbd 39ab 003c bce3 8a3b f2f8 3f3d
00000050: 9377 d3bc 6212 0e3b 195a e63c a5c1 20bd
00000060: fff9 5bbd 4c01 1b3a 4a64 4fbc 3e74 de3c
00000070: 7e5a d0bb 9e92 983d b307 9ebc 2432 c3bc
00000080: 5568 083d fcac be3c a792 48bc 8e85 a33c
00000090: 5d62 4d3d 7983 a6bc 2316 083c 3597 103d
000000a0: 8d2d da3b 3023 28bd 044b 3dbc 9874 103c
000000b0: 3107 4abd 9cd7 0b3d ea01 403d 61a4 1f3d
000000c0: 2493 95bc fc92 0ebc 3309 ac3b 2551 d6bc
000000d0: 54ca 3cbc 4f01 0a3d 11b1 333d f0e8 1a3c
000000e0: bda2 ef3c 7f93 383d 433d 943c ccfd f93b
000000f0: 40a9 093d 153a 4e3b 6704 37bb b72f 013b

encoder.blocks.0.ln2.weight f4 [64]
0.99828595 0.9151678 0.9185299 1.0138654 0.93862 1.0357796 1.0355287 1.0070015
0.8858143 1.0515869 0.9820101 0.9064921 0.9928235 1.0399306 0.9799668 1.0014206
0.978254 0.98578095 1.0217949 0.9425865 0.91003734 1.0092214 0.9604051 1.0454806
1.0350741 0.9701651 1.0706716 0.8996043 0.9645306 1.0892994 0.95536476 1.018455
0.94414854 1.0462707 0.9053399 1.0821327 1.066296 0.94033897 0.9287126 1.0977631
1.1051061 1.0815732 0.962486 1.0121635 1.0349402 1.0319268 1.0522048 0.90247464
0.99386746 1.0724796 1.0937095 1.1243817 1.0073911 0.8550079 0.94501615 0.8711619
0.9621192 1.057785 0.94459915 0.9924772 0.938295 1.0243406 1.0746765 1.0177063
00000000: ab8f 7f3f 7048 6a3f c724 6b3f 57c6 813f
00000010: 6649 703f 6d94 843f 348c 843f 6de5 803f
00000020: bac4 623f 669a 863f 0465 7b3f de0f 683f
00000030: ae29 7e3f 721c 853f 1bdf 7a3f 8d2e 803f
00000040: db6e 7a3f 245c 7c3f 2dca 823f 594d 713f
00000050: 35f8 683f 2b2e 813f 1cdd 753f 4fd2 853f
00000060: 4f7d 843f bd5c 783f c40b 893f 784c 663f
00000070: 7aeb 763f 2a6e 8b3f c992 743f bc5c 823f
00000080: b8b3 713f 33ec 853f 5bc4 673f 5383 8a3f
00000090: 637c 883f 0eba 703f 1cc0 6d3f 8083 8c3f
000000a0: 1e74 8d3f fe70 8a3f 7c65 763f 938e 813f
000000b0: ec78 843f 2d16 843f a6ae 863f 9408 673f
000000c0: 196e 7e3f 0347 893f acfe 8b3f bdeb 8f3f
000000d0: 31f2 803f cce1 5a3f 94ec 713f 7704 5f3f
000000e0: 724d 763f 8065 873f 40d1 713f fc12 7e3f
000000f0: 1a34 703f 981d 833f 008f 893f 3344 823f

encoder.blocks.0.ln2.bias f4 [64]
-0.0008410608 0.0038545597 0.02966461 -0.03725819 0.026004503 0.0009785203 -0.04354663 0.007824845
-0.015129588 0.040819567 0.019196855 0.014922548 -0.008193279 -0.0025223382 0.0060759964 0.03312096
-0.058046676 -0.010197361 -0.0006220843 -6.835314e-05 -0.06482498 0.029276451 -0.003771898 -0.05053055
-0.037277594 -0.0008327303 -0.006062091 -0.041106295 -9.538834e-05 0.032161485 0.025081001 -0.00415165
0.017972277 0.044512752 -0.008127406 0.041859183 0.012515386 -0.012076697 0.012931402 -0.0049931332
-0.00071431976 -0.048056565 0.019630734 0.0015622696 -0.03684913 0.03129113 0.038524207 0.015452951
-0.017358493 -0.01480034 -0.024523681 -0.049827006 -0.01576308 0.025223425 0.0072482056 0.012496534
0.03344721 -0.00811551 0.020811336 0.017802814 0.038868602 0.026878992 -0.052377142 0.007660974
00000000: a37a 5cba c89c 7c3b 3203 f33c 0b9c 18bd
00000010: 6507 d53c b141 803a f35d 32bd c733 003c
00000020: 17e2 77bc 6b32 273d b942 9d3c b47d 743c
00000030: 1a3d 06bc d04d 25bb 2719 c73b d8a9 073d
00000040: 5ac2 6dbd d512 27bc 5f13 23ba d058 8fb8
00000050: f6c2 84bd 2bd5 ef3c f331 77bb 1ff9 4ebd
00000060: 64b0 18bd 964b 5aba 81a4 c6bb 135f 28bd
00000070: 3a0b c8b8 c3bb 033d ac76 cd3c 900a 88bb
00000080: 993a 933c 0153 363d d028 05bc 8974 2b3d
00000090: 550d 4d3c 57dd 45bc 3bde 533c 709d a3bb
000000a0: 3041 3bba f6d6 44bd a2d0 a03c 12c5 cc3a
000000b0: 1def 16bd 212b 003d 8fcb 1d3d 602e 7d3c
000000c0: 6633 8ebc 207d 72bc e3e5 c8bc 6717 4cbd
000000d0: 9321 81bc 5ba1 ce3c 5b82 ed3b 43be 4c3c
000000e0: f1ff 083d ebf6 04bc 897c aa3c 35d7 913c
000000f0: af34 1f3d 5531 dc3c 6a89 56bd e808 fb3b

encoder.blocks.0.attn.mask f4 [1, 1, 12, 12]
1.0 0.0 0.0 0.0 0.0 0.0 0.0 0.0
0.0 0.0 0.0 0.0 1.0 1.0 0.0 0.0
0.0 0.0 0.0 0.0 0.0 0.0 0.0 0.0
1.0 1.0 1.0 0.0 0.0 0.0 0.0 0.0
0.0 0.0 0.0 0.0 1.0 1.0 1.0 1.0
0.0 0.0 0.0 0.0 0.0 0.0 0.0 0.0
1.0 1.0 1.0 1.0 1.0 0.0 0.0 0.0
0.0 0.0 0.0 0.0 1.0 1.0 1.0 1.0
1.0 1.0 0.0 0.0 0.0 0.0 0.0 0.0
1.0 1.0 1.0 1.0 1.0 1.0 1.0 0.0
0.0 0.0 0.0 0.0 1.0 1.0 1.0 1.0
1.0 1.0 1.0 1.0 0.0 0.0 0.0 0.0
1.0 1.0 1.0 1.0 1.0 1.0 1.0 1.0
1.0 0.0 0.0 0.0 1.0 1.0 1.0 1.0
1.0 1.0 1.0 1.0 1.0 1.0 0.0 0.0
1.0 1.0 1.0 1.0 1.0 1.0 1.0 1.0
1.0 1.0 1.0 0.0 1.0 1.0 1.0 1.0
1.0 1.0 1.0 1.0 1.0 1.0 1.0 1.0
00000000: 0000 803f 0000 0000 0000 0000 0000 0000
00000010: 0000 0000 0000 0000 0000 0000 0000 0000
00000020: 0000 0000 0000 0000 0000 0000 0000 0000
00000030: 0000 803f 0000 803f 0000 0000 0000 0000
00000040: 0000 0000 0000 0000 0000 0000 0000 0000
00000050: 0000 0000 0000 0000 0000 0000 0000 0000
00000060: 0000 803f 0000 803f 0000 803f 0000 0000
00000070: 0000 0000 0000 0000 0000 0000 0000 0000
00000080: 0000 0000 0000 0000 0000 0000 0000 0000
00000090: 0000 803f 0000 803f 0000 803f 0000 803f
000000a0: 0000 0000 0000 0000 0000 0000 0000 0000
000000b0: 0000 0000 0000 0000 0000 0000 0000 0000
000000c0: 0000 803f 0000 803f 0000 803f 0000 803f
000000d0: 0000 803f 0000 0000 0000 0000 0000 0000
000000e0: 0000 0000 0000 0000 0000 0000 0000 0000
000000f0: 0000 803f 0000 803f 0000 803f 0000 803f
00000100: 0000 803f 0000 803f 0000 0000 0000 0000
00000110: 0000 0000 0000 0000 0000 0000 0000 0000
00000120: 0000 803f 0000 803f 0000 803f 0000 803f
00000130: 0000 803f 0000 803f 0000 803f 0000 0000
00000140: 0000 0000 0000 0000 0000 0000 0000 0000
00000150: 0000 803f 0000 803f 0000 803f 0000 803f
00000160: 0000 803f 0000 803f 0000 803f 0000 803f
00000170: 0000 0000 0000 0000 0000 0000 0000 0000
00000180: 0000 803f 0000 803f 0000 803f 0000 803f
00000190: 0000 803f 0000 803f 0000 803f 0000 803f
000001a0: 0000 803f 0000 0000 0000 0000 0000 0000
000001b0: 0000 803f 0000 803f 0000 803f 0000 803f
000001c0: 0000 803f 0000 803f 0000 803f 0000 803f
000001d0: 0000 803f 0000 803f 0000 0000 0000 0000
000001e0: 0000 803f 0000 803f 0000 803f 0000 803f
000001f0: 0000 803f 0000 803f 0000 803f 0000 803f
00000200: 0000 803f 0000 803f 0000 803f 0000 0000
00000210: 0000 803f 0000 803f 0000 803f 0000 803f
00000220: 0000 803f 0000 803f 0000 803f 0000 803f
00000230: 0000 803f 0000 803f 0000 803f 0000 803f

encoder.blocks.0.attn.key.weight f4 [64, 64]
-0.018846212 0.008964639 -0.047686405 0.07454396 0.071041964 0.01145639 0.045325812 -0.052936297
-0.15158792 -0.059165165 -0.10902175 0.07925303 0.020580832 -0.07363925 -0.037140578 0.055706266
-0.22314101 0.037771277 0.06896911 0.02706335 0.04593627 -0.054618385 0.01838093 0.004540434
0.058248572 0.02383492 0.04041278 -0.14913794 -0.025212957 -0.057808027 0.09526118 -0.06670826
0.022636548 -0.07780812 0.08884764 -0.08398889 0.0021677527 -0.008836548 0.017121276 0.062789835
-0.0935864 0.12002006 -0.0032736827 0.12045633 0.030698145 -0.031406388 0.112155184 0.13713501
0.0008041778 0.0018726144 0.006648539 -0.10756299 -0.020889852 -0.011927589 -0.04841439 -0.08134486
-0.009630116 0.032804992 -0.003950857 0.019149827 0.0972166 -0.042710338 -0.12428151 0.15811679
-0.01403312 0.004447398 0.11230615 0.010163754 -0.0151550975 0.05806338 0.029204605 -0.016397387
0.08525379 -0.042124923 0.063361876 -0.03741118 -0.091090195 0.02631444 0.006708733 0.10754502
0.23852344 -0.019121472 0.040893786 -0.02296395 -0.07051604 -0.021804992 -0.012720662 -0.027366895
-0.057480454 -0.029468572 0.12882161 0.08049957 -0.026829833 -0.0040075416 0.076446064 0.1134323
-0.056415398 0.036747333 -0.054958347 0.13409616 0.061387625 -0.022045419 -0.01802362 -0.0690237
0.14098397 -0.035966944 -0.026071977 -0.0026680399 0.100554936 -0.030569568 0.01928847 -0.044845916
-0.052074526 0.02667801 -0.08387489 0.15276927 -0.057678718 0.039476637 -0.04348253 0.12338601
-0.048216935 -0.009915935 0.0076744775 -0.12663558 -0.023091942 -0.086638644 0.114766255 -0.16011573
-0.020345116 -0.03516046 -0.1594922 -0.062165696 -0.02702423 -0.041200597 -0.044819355 -0.052147985
0.103840455 0.117761634 0.050267365 0.020867404 0.09743512 -0.08730651 0.0120872455 -0.17770043
-0.08925317 0.068758585 -0.044767093 0.04703217 0.07915344 0.050972026 0.019146644 0.07611513
0.07650582 0.06422344 -0.17244655 -0.010408747 0.081450894 0.0022459987 -0.17049004 -0.111598656
0.08664732 0.003721792 0.011730488 -0.057711117 -0.07852383 0.008484727 0.04534614 0.060182944
-0.11152071 0.07085721 0.043237984 -0.0977027 -0.18496753 0.08274929 -0.16238877 -0.06483466
0.033872537 -0.011460018 0.09601362 -0.047962386 0.04180351 -0.03116316 0.044175483 -0.045473717
0.045909032 0.046979725 0.059669696 0.017753698 0.053380303 0.13284168 -0.028413652 0.1238083
0.028398039 -0.054499254 0.056204665 -0.055322252 -0.11196592 0.0110593885 0.0069064093 0.010875198
0.0058571887 0.01891787 0.0891995 -0.0935778 0.023571381 0.09566258 0.026822181 -0.09084315
0.0688763 -0.04274442 -0.015004436 -0.03295018 -0.085109554 -0.033372167 -0.021119779 -0.003710534
-0.041915223 -0.01472939 0.067294426 0.10503236 -0.15020204 0.14718592 -0.055341955 0.1326649
-0.0146771725 0.009045105 -0.07002623 0.05161482 0.035458006 -0.043863393 -0.012753348 -0.024136242
0.07296487 -0.005215085 0.017812684 -0.018109294 0.048834562 0.03404347 -0.0865068 -0.034252416
0.063415624 0.08363509 0.13829778 0.07019383 -0.07602936 0.0114203915 0.095925644 -0.035363287
-0.0035036723 -0.023913387 -0.009661094 -0.073367655 0.0051697968 -0.008757818 0.09447121 -0.119646475
00000000: 5f63 9abc 6ce0 123c d252 43bd 81aa 983d
00000010: 737e 913d 95b3 3b3c 8fa7 393d bbd3 58bd
00000020: dd39 1bbe 2c57 72bd cc46 dfbd 6a4f a23d
00000030: 2299 a83c 2dd0 96bd b820 18bd 412c 643d
00000040: 147f 64be 0eb6 1a3d ad3f 8d3d f5b3 dd3c
00000050: ac27 3c3d 87b7 5fbd 9b93 963c ecc7 943b
00000060: 0e96 6e3d 7341 c33c df87 253d 9eb7 18be
00000070: 678b cebc 1cc8 6cbd 4b18 c33d 579e 88bd
00000080: 4870 b93c dd59 9fbd c0f5 b53d 5e02 acbd
00000090: db10 0e3b 2bc7 10bc eb41 8c3c f597 803d
000000a0: 3aaa bfbd 14cd f53d 488b 56bb cfb1 f63d
000000b0: ad7a fb3c fca3 00bd 9eb1 e53d 1f6d 0c3e
000000c0: 75cf 523a 8372 f53a fddb d93b fc49 dcbd
000000d0: 3221 abbc ef6b 43bc 2b4e 46bd 2298 a6bd
000000e0: a2c7 1dbc 875e 063d 3176 81bb 19e0 9c3c
000000f0: 7f19 c73d 09f1 2ebd 4e87 febd 5ee9 213e
00000100: 2ceb 65bc 7abb 913b c400 e63d e085 263c
00000110: 164d 78bc ded3 6d3d 7f3e ef3c d053 86bc
00000120: 8a99 ae3d 2f8b 2cbd dfc3 813d 773c 19bd
00000130: 7f8d babd 6191 d73c eed4 db3b 9040 dc3d
00000140: 7d3f 743e a2a4 9cbc 3e80 273d e51e bcbc
00000150: b76a 90bd 62a0 b2bc 536a 50bc 8a30 e0bc
00000160: a070 6bbd 1368 f1bc d0e9 033e f5dc a43d
00000170: 3dca dbbc b251 83bb c18f 9c3d 324f e83d
00000180: d513 67bd 5f84 163d 011c 61bd 8150 093e
00000190: 9771 7b3d 9898 b4bc 45a6 93bc 4c5c 8dbd
000001a0: 1a5e 103e 1352 13bd e694 d5bc 48da 2ebb
000001b0: bfef cd3d 086d fabc da02 9e3c 5ab0 37bd
000001c0: 194c 55bd d88b da3c 99c6 abbd 8c6f 1c3e
000001d0: 8540 6cbd 41b2 213d bd1a 32bd ceb1 fc3d
000001e0: 1f7f 45bd 7276 22bc 2f7a fb3b c2ac 01be
000001f0: 502b bdbc 9a6f b1bd 920a eb3d 61f5 23be
00000200: cdaa a6bc 6a04 10bd ec51 23be 75a1 7ebd
00000210: eb61 ddbc f5c1 28bd 8094 37bd 2099 55bd
00000220: 4eaa d43d 032d f13d 27e5 4d3d 1ef2 aa3c
00000230: 108c c73d c1cd b2bd 9509 463c 1af7 35be
00000240: 5eca b6bd 4dd1 8c3d b35d 37bd cea4 403d
00000250: 331b a23d 0bc8 503d 6cd9 9c3c 40e2 9b3d
00000260: 15af 9c3d 9487 833d d495 30be 7389 2abc
00000270: bacf a63d 9b31 133b f194 2ebe d68d e4bd
00000280: 2674 b13d 4fe9 733b 3c31 403c 7e62 6cbd
00000290: 1ad1 a0bd 8603 0b3c e0bc 393d 6482 763d
000002a0: f864 e4bd 961d 913d 501a 313d 5a18 c8bd
000002b0: 2168 3dbe 7678 a93d 3e49 26be 09c8 84bd
000002c0: eebd 0a3d cdc2 3bbc caa2 c43d 3574 44bd
000002d0: 283a 2b3d e249 ffbc 5af1 343d a642 3abd
000002e0: 1c0b 3c3d d06d 403d 3668 743d 3470 913c
000002f0: 4ea5 5a3d a607 083e bfc3 e8bc 358f fd3d
00000300: 01a3 e83c 9c3a 5fbd dd36 663d 9699 62bd
00000310: 634e e5bd 7032 353c 294f e23b e32d 323c
00000320: a9ed bf3b a6f9 9a3c 3aae b63d b8a5 bfbd
00000330: c518 c13c beea c33d 31ba db3c f90b babd
00000340: 040f 8d3d c614 2fbd 2ad5 75bc c5f6 06bd
00000350: eb4d aebd 41b1 08bd 6303 adbc 6e2c 73bb
00000360: 4caf 2bbd 8a53 71bc a9d1 893d 351b d73d
00000370: 90ce 19be e8b7 163e 3fae 62bd 4fd9 073e
00000380: 8678 70bc ec31 143c e969 8fbd 106a 533d
00000390: 6a3c 113d 1aaa 33bd 6bf3 50bc 5eb9 c5bc
000003a0: 9b6e 953d 4ee3 aabb e8eb 913c f159 94bc
000003b0: c006 483d 2a71 0b3d 7a2a b1bd 434c 0cbd
000003c0: 0de0 813d e048 ab3d ef9d 0d3e c8c1 8f3d
000003d0: 48b5 9bbd 981c 3b3c aa74 c43d 18d9 10bd
000003e0: de9d 65bb 02e6 c3bc 9149 1ebc c841 96bd
000003f0: 6667 a93b f37c 0fbc 1f7a c13d 3609 f5bd

encoder.blocks.0.attn.key.bias f4 [64]
2.109046e-07 -3.495529e-08 1.4055543e-07 -3.2515384e-08 1.5851575e-07 2.2768756e-07 -2.3019017e-07 -9.396274e-08
8.764908e-08 6.854113e-10 6.7205605e-08 1.13986445e-07 -3.127752e-08 3.6383373e-08 -9.510751e-08 9.281102e-08
3.926715e-09 2.6130444e-08 2.615755e-08 -6.2658906e-08 5.9567643e-08 4.1771585e-08 2.3464953e-08 9.125179e-08
1.2756648e-07 -2.7015304e-07 -1.102435e-07 5.48137e-08 -1.0689341e-07 -1.1040854e-07 -1.2436585e-07 -3.9375767e-08
2.2563142e-07 -9.6157144e-08 1.1032788e-07 9.514598e-08 1.5638649e-07 -1.6513785e-07 -5.0130865e-08 -1.2539267e-07
1.0105344e-07 -4.512511e-09 -1.0218848e-07 -1.5579366e-07 1.03798406e-07 -2.2544592e-07 1.141159e-07 1.0355318e-07
2.0066828e-07 -6.890312e-08 -4.2111708e-08 2.237398e-07 -1.3290465e-07 -1.7812673e-07 -1.375436e-07 3.9402033e-09
3.1579358e-08 -1.9531655e-08 5.994218e-08 1.6969675e-07 -7.2274396e-08 1.1490639e-07 1.593613e-07 8.101091e-08
00000000: 0475 6234 bf21 16b3 95eb 1634 0ba7 0bb3
00000010: 7a34 2a34 487a 7434 312a 77b4 90c8 c9b3
00000020: 9739 bc33 8867 3c30 ac52 9033 b6c8 f433
00000030: ff55 06b3 f143 1c33 e83d ccb3 664f c733
00000040: c0eb 8631 7475 e032 10b1 e032 198f 86b3
00000050: 51d7 7f33 5868 3333 fa8f c932 34f6 c333
00000060: 35f9 0834 8d09 91b4 01bf ecb3 4d6c 6b33
00000070: 468d e5b3 bd19 edb3 6d89 05b4 1d1e 29b3
00000080: 1845 7234 f37e ceb3 65ed ec33 0e53 cc33
00000090: 31eb 2734 bf50 31b4 784f 57b3 ada3 06b4
000000a0: b702 d933 770c 9bb1 b672 dbb3 3c48 27b4
000000b0: c7e7 de33 1a12 72b4 e10f f533 f660 de33
000000c0: 4777 5734 e4f7 93b3 50de 34b3 213d 7034
000000d0: 8db4 0eb4 1a43 3fb4 b2af 13b4 6562 8731
000000e0: dfa1 0733 90c6 a7b2 90b9 8033 e335 3634
000000f0: 4535 9bb3 75c2 f633 e71c 2b34 38f8 ad33
