trainer/results/football/11_vs_11_stochastic/mat/check/run1/models/transformer_400.pt (torch, 467816 bytes, 73 tensors)

encoder.state_encoder.0.weight f4 [37]
000000 00 00 80 3f 00 00 80 3f 00 00 80 3f 00 00 80 3f
       1.0 1.0 1.0 1.0
000010 00 00 80 3f 00 00 80 3f 00 00 80 3f 00 00 80 3f
       1.0 1.0 1.0 1.0
000020 00 00 80 3f 00 00 80 3f 00 00 80 3f 00 00 80 3f
       1.0 1.0 1.0 1.0
000030 00 00 80 3f 00 00 80 3f 00 00 80 3f 00 00 80 3f
       1.0 1.0 1.0 1.0
000040 00 00 80 3f 00 00 80 3f 00 00 80 3f 00 00 80 3f
       1.0 1.0 1.0 1.0
000050 00 00 80 3f 00 00 80 3f 00 00 80 3f 00 00 80 3f
       1.0 1.0 1.0 1.0
000060 00 00 80 3f 00 00 80 3f 00 00 80 3f 00 00 80 3f
       1.0 1.0 1.0 1.0
000070 00 00 80 3f 00 00 80 3f 00 00 80 3f 00 00 80 3f
       1.0 1.0 1.0 1.0
000080 00 00 80 3f 00 00 80 3f 00 00 80 3f 00 00 80 3f
       1.0 1.0 1.0 1.0
000090 00 00 80 3f
       1.0

encoder.state_encoder.0.bias f4 [37]
000000 00 00 00 00 00 00 00 00 00 00 00 00 00 00 00 00
       0.0 0.0 0.0 0.0
000010 00 00 00 00 00 00 00 00 00 00 00 00 00 00 00 00
       0.0 0.0 0.0 0.0
000020 00 00 00 00 00 00 00 00 00 00 00 00 00 00 00 00
       0.0 0.0 0.0 0.0
000030 00 00 00 00 00 00 00 00 00 00 00 00 00 00 00 00
       0.0 0.0 0.0 0.0
000040 00 00 00 00 00 00 00 00 00 00 00 00 00 00 00 00
       0.0 0.0 0.0 0.0
000050 00 00 00 00 00 00 00 00 00 00 00 00 00 00 00 00
       0.0 0.0 0.0 0.0
000060 00 00 00 00 00 00 00 00 00 00 00 00 00 00 00 00
       0.0 0.0 0.0 0.0
000070 00 00 00 00 00 00 00 00 00 00 00 00 00 00 00 00
       0.0 0.0 0.0 0.0
000080 00 00 00 00 00 00 00 00 00 00 00 00 00 00 00 00
       0.0 0.0 0.0 0.0
000090 00 00 00 00
       0.0

encoder.state_encoder.1.weight f4 [64, 37]
000000 53 32 ea 3e b7 63 44 3e ec 88 ef 3d 43 bc 0e bd
       0.4574152 0.19178663 0.11696038 -0.03484751
000010 92 7e ca bc 08 3b b7 3d b4 b2 99 3c be d0 be 3d
       -0.024718557 0.08946806 0.01876197 0.09317158
000020 51 bd 86 3e 00 85 8f bd ff 2f ad 3e eb 9c 72 bd
       0.26316312 -0.070077896 0.3382568 -0.05923168
000030 cd 41 04 be 27 d5 7b be 5b bf c9 bc d3 0f 0b 3e
       -0.12915726 -0.2459303 -0.024627378 0.13580255
000040 b4 04 23 be 7e 7f 35 be 5f 9f 29 3d 3b 04 b5 3c
       -0.15919763 -0.17724416 0.041411754 0.022096744
000050 d0 d0 38 3e 2e 5c fc 3d f4 76 9c bd 5d 8b bc be
       0.18048406 0.123222694 -0.07639876 -0.36825076
000060 65 f6 97 be ed 02 0c bd d0 e7 67 3d 35 f3 4d 3e
       -0.29680172 -0.034182478 0.056617558 0.20112307
000070 23 58 51 3d 3b b4 4d 3e fa 91 3c 3e 63 6b 9f bd
       0.051109444 0.20088284 0.1841506 -0.07784154
000080 84 52 b6 3c 09 25 02 bb 99 18 92 3c 60 f2 2b 3e
       0.022256143 -0.00198585 0.017833995 0.16791677
000090 8a 44 12 3e f6 12 81 3e 0b 9f 2f bb fa ba 15 3d
       0.14283958 0.2520978 -0.0026797678 0.036555268
0000a0 c5 82 af be 6a b0 56 3e a0 92 df 3d d4 0a 74 3d
       -0.34279457 0.20965734 0.109166384 0.05958064
0000b0 a6 b8 3a 3e 70 81 45 3e ed f7 61 3d 25 0f 86 3c
       0.182345 0.19287658 0.05516808 0.016364643
0000c0 92 a4 00 be ce d3 91 3e dc 4e c8 3c 95 42 b3 3e
       -0.12562779 0.28481907 0.024451666 0.35011736
0000d0 bf 87 2b be a0 83 8c be e7 ef bd 3d 0c 6e 1a 3c
       -0.16751002 -0.27444172 0.09274273 0.009425651
0000e0 63 27 10 be 1c e7 60 be 72 d1 35 3e 32 7c b9 bc
       -0.14077525 -0.21963161 0.17755678 -0.022642229
0000f0 fc 1a aa 3c 44 b0 31 3d be f0 b5 be b4 c4 32 be
       0.02076482 0.04338099 -0.35535234 -0.17457849
000100 24 83 cd 3d 20 d2 8d bd 12 c2 7c bd 35 1a a6 bd
       0.10034779 -0.06924844 -0.061708517 -0.08110467
000110 4c 0f 95 3e ca 3c 96 3d 50 80 4c be 70 22 0f bd
       0.29113233 0.07335813 -0.19970822 -0.03494495
000120 07 2e 84 bd cb f8 9f 3e 85 b7 7f 3d 8e 0d 33 be
       -0.064540915 0.312445 0.062430877 -0.1748564
000130 ef c7 20 3e f8 87 a8 3d 1d 9e ae bd e6 e3 2a be
       0.15701269 0.08229059 -0.085262515 -0.16688499
000140 ab 89 34 3d fb 10 6f be 37 45 6b 3c 2e 53 4d bd
       0.044076603 -0.23346321 0.014359764 -0.050128154
000150 7b 63 8d be 8b 8d b8 bd a9 ea 48 3e fc 9e ad 3e
       -0.2761496 -0.09011372 0.19620766 0.33910358
000160 7a 56 b3 3d 52 6a 4f 3e 8d c1 a6 3b d4 11 f3 3d
       0.087567285 0.20255402 0.005088991 0.11868635
000170 ad 49 5a 3d cb a9 30 3e 59 4c 63 3e 01 ca 6c 3d
       0.05329292 0.17252271 0.22197093 0.057809833
000180 e9 d0 06 bd cd 38 1f be 7a b2 8e be b1 98 97 3e
       -0.032914076 -0.15549012 -0.27870542 0.29608682
000190 45 4f 39 be 28 85 5f bd f6 3a 8b be ea ba 68 bd
       -0.18096645 -0.054570347 -0.2719342 -0.05681888
0001a0 52 bb b0 bd 99 a1 83 3e be c8 cd 3d 98 84 63 39
       -0.086294785 0.25709227 0.10048054 0.00021697802
0001b0 8f a1 67 3c 61 66 53 3e b8 ca 33 be 14 c6 87 3d
       0.01413764 0.20644523 -0.175578 0.06629577
0001c0 04 fc 0e bf eb d6 63 bd e4 f2 3c be de 27 88 3e
       -0.55853295 -0.055624884 -0.1845203 0.26592916
0001d0 6a 72 b4 bd 21 70 ed bc 87 42 9b be a6 98 65 bd
       -0.08810885 -0.028984131 -0.30324194 -0.05605378
0001e0 1a 78 82 3e e9 d8 bb bd 0b 39 97 bd 05 ae 8a be
       0.25482255 -0.09172232 -0.07383927 -0.2708589
0001f0 f2 08 43 3e 91 9c 99 3c 07 6f cb bb 91 c4 08 be
       0.19046381 0.018751414 -0.006208304 -0.13356234
000200 da 9e ff bd 30 98 c7 bd 74 44 6c 3d 48 af 82 3e
       -0.124814704 -0.09745824 0.05768247 0.25524354
000210 75 95 0f 3e b1 0b 16 be c5 ee 99 bd 24 f6 2a 3e
       0.14021857 -0.14652897 -0.07516245 0.16695458
000220 f5 2e 83 be ae 6d b8 3c fd b9 40 be d1 68 5f bd
       -0.25621763 0.022513237 -0.18820949 -0.05454332
000230 82 23 5e bd b1 15 44 be 90 16 85 bd c5 dc 15 3e
       -0.05423308 -0.191489 -0.06498444 0.14634998
000240 79 a7 7e 3e 37 c5 8d 3e 83 a1 b7 be f2 e3 46 be
       0.24868573 0.27689525 -0.3586541 -0.19422892
000250 9a 54 52 3e 2d 94 82 be 4b d8 bb 3e 2b 4a 62 bd
       0.20540085 -0.25503674 0.36688456 -0.055246513
000260 96 bb 41 bd 5e be 05 3e 50 b0 33 bd 03 9d b0 3d
       -0.047298037 0.130609 -0.043869317 0.086236976
000270 84 46 a7 bd 06 ba b4 3d de 1a 64 bc 01 93 65 ba
       -0.08167747 0.08824544 -0.013922421 -0.0008757562
000280 e4 76 94 be ef 20 89 be 75 4b fe bd 42 87 82 bb
       -0.28996956 -0.2678294 -0.12416736 -0.003983409
000290 8f f7 ab bd ab ab 3d be 1a 0e 16 be e8 06 0b bc
       -0.083968274 -0.18522517 -0.14653817 -0.008485533
0002a0 97 de 49 3e 18 50 c2 3c 72 3f 18 3d ba 21 18 be
       0.19713818 0.023719832 0.03716988 -0.14856616
0002b0 c6 ce f8 bd 0c 65 54 3c fa 7d 95 bd 2b 2b 40 bc
       -0.12148814 0.012963545 -0.07299419 -0.011729042
0002c0 bb c3 30 bd 60 cb c5 bd d4 b4 b9 bd 5a 95 bb be
       -0.043155413 -0.09657931 -0.09067693 -0.36637384
0002d0 99 af 90 be c5 5e bf be 6e c3 85 bd 1f 11 b6 3d
       -0.2825897 -0.3737699 -0.06531416 0.08889984
0002e0 61 8a 4b be 76 38 7f 3d 0e 06 32 3e 9c d3 12 bc
       -0.19877006 0.062309705 0.17385122 -0.008961584
0002f0 30 4b c5 3d 3a 24 5d 3e d9 91 f5 bd c5 61 83 3d
       0.096334815 0.2159585 -0.11990709 0.064151324
000300 ea c1 2f be c9 5a 90 be a7 da 55 3c e8 5f 25 3e
       -0.17163816 -0.28194264 0.013052619 0.16149867
000310 63 e3 17 3e bb 34 53 bd 92 c1 03 be dd 50 d5 be
       0.14832835 -0.05156396 -0.1286681 -0.41663256
000320 34 72 c4 3d 3d 77 eb bd 4e c9 5c 3d 8c 3b 86 bd
       0.09592095 -0.11497352 0.053902917 -0.065543264
000330 dd c7 8b 3e 66 21 dc bd ec 2a 23 bf 8c e8 46 be
       0.2730092 -0.10748558 -0.6373737 -0.19424647
000340 97 1a 84 bd 1f a1 a7 3d 42 86 f3 bd d1 fd 41 3d
       -0.06450384 0.08185028 -0.11890842 0.0473612
000350 d2 72 0f be 58 8c 9d bd df 51 14 be b2 8a 3e be
       -0.14008644 -0.07692784 -0.14484356 -0.18607596
000360 c1 17 32 3d ab b2 a5 3b 29 90 18 be 96 a9 cb 3d
       0.043479685 0.0050566993 -0.14898743 0.09944455
000370 e1 8e 36 bd e8 3e d2 3d 88 21 1b bd 55 66 90 3e
       -0.044569854 0.10265905 -0.037873775 0.28203073
000380 49 fe 8c 3d c3 74 0f bd 3e 44 b6 be ba 1f 82 3e
       0.068844385 -0.035023462 -0.3559894 0.2541483
000390 35 42 41 bb 50 4b 92 3d 32 72 15 3e 55 a6 60 3e
       -0.0029488925 0.07143271 0.14594343 0.2193845
0003a0 da 64 f6 bd 56 2c 2d bd 64 f8 ac bd 86 33 84 be
       -0.12030955 -0.04227861 -0.08445814 -0.2582056
0003b0 49 46 ca be 8e a9 41 3e bb 43 0f be 4a 59 b7 3c
       -0.39506748 0.18912336 -0.13990681 0.022381444
0003c0 23 f1 ff bc 7f 39 b2 3c 69 61 64 bc 2c 66 ba 3d
       -0.031242913 0.021755932 -0.01393924 0.09101519
0003d0 46 6c 0c 3e c8 96 03 3e ce e9 a0 bd ec 99 80 be
       0.13713178 0.12850487 -0.07857095 -0.25117433
0003e0 e3 92 59 be f6 5f 2f 3d 02 16 cd bd 39 96 00 3c
       -0.21247439 0.042816125 -0.10013963 0.007848316
0003f0 66 d9 04 bf 05 75 b2 3d 5b e7 17 be 3e ec 3d 3e
       -0.51894224 0.08713726 -0.14834349 0.1854715

encoder.state_encoder.1.bias f4 [64]
000000 00 00 00 00 00 00 00 00 00 00 00 00 00 00 00 00
       0.0 0.0 0.0 0.0
000010 00 00 00 00 00 00 00 00 00 00 00 00 00 00 00 00
       0.0 0.0 0.0 0.0
000020 00 00 00 00 00 00 00 00 00 00 00 00 00 00 00 00
       0.0 0.0 0.0 0.0
000030 00 00 00 00 00 00 00 00 00 00 00 00 00 00 00 00
       0.0 0.0 0.0 0.0
000040 00 00 00 00 00 00 00 00 00 00 00 00 00 00 00 00
       0.0 0.0 0.0 0.0
000050 00 00 00 00 00 00 00 00 00 00 00 00 00 00 00 00
       0.0 0.0 0.0 0.0
000060 00 00 00 00 00 00 00 00 00 00 00 00 00 00 00 00
       0.0 0.0 0.0 0.0
000070 00 00 00 00 00 00 00 00 00 00 00 00 00 00 00 00
       0.0 0.0 0.0 0.0
000080 00 00 00 00 00 00 00 00 00 00 00 00 00 00 00 00
       0.0 0.0 0.0 0.0
000090 00 00 00 00 00 00 00 00 00 00 00 00 00 00 00 00
       0.0 0.0 0.0 0.0
0000a0 00 00 00 00 00 00 00 00 00 00 00 00 00 00 00 00
       0.0 0.0 0.0 0.0
0000b0 00 00 00 00 00 00 00 00 00 00 00 00 00 00 00 00
       0.0 0.0 0.0 0.0
0000c0 00 00 00 00 00 00 00 00 00 00 00 00 00 00 00 00
       0.0 0.0 0.0 0.0
0000d0 00 00 00 00 00 00 00 00 00 00 00 00 00 00 00 00
       0.0 0.0 0.0 0.0
0000e0 00 00 00 00 00 00 00 00 00 00 00 00 00 00 00 00
       0.0 0.0 0.0 0.0
0000f0 00 00 00 00 00 00 00 00 00 00 00 00 00 00 00 00
       0.0 0.0 0.0 0.0

encoder.obs_encoder.0.weight f4 [217]
000000 08 17 6d 3f e3 a2 80 3f 9e bf 7d 3f cb 42 7c 3f
       0.9261327 1.0049709 0.9912051 0.9853942
000010 d4 54 75 3f da 80 71 3f 77 1c 79 3f cc 1d 74 3f
       0.9583256 0.94337237 0.9730906 0.95357966
000020 c4 b5 77 3f ae 2e 8d 3f 7f 1c 80 3f 9c 94 8f 3f
       0.9676173 1.102987 1.0008696 1.1217227
000030 90 19 89 3f 28 a3 77 3f 0e 25 55 3f 1b 88 5a 3f
       1.0710926 0.9673333 0.83259666 0.8536393
000040 37 3e 84 3f 2e bc 84 3f 76 f2 7e 3f 25 fe 87 3f
       1.0331486 1.0369928 0.99588716 1.0624434
000050 31 eb 96 3f 20 e8 97 3f a7 1b 8a 3f ea d1 83 3f
       1.1790525 1.1867714 1.0789689 1.0298436
000060 01 00 9a 3f d6 e5 88 3f b0 26 83 3f a7 bd 86 3f
       1.2031251 1.069514 1.0246181 1.0526627
000070 c6 6d 90 3f 57 35 90 3f ca 53 9b 3f ec c7 8a 3f
       1.12835 1.1266278 1.2134945 1.0842261
000080 98 18 39 3f 0b 96 8e 3f e4 1a 8c 3f 6f 7c 95 3f
       0.7230315 1.113954 1.0945706 1.1678599
000090 4b 8a a7 3f a3 e4 77 3f 37 9e 55 3f f3 a3 24 3f
       1.3089079 0.96833247 0.8344454 0.64312667
0000a0 cd 5e 44 3f 48 7b 58 3f fa 3a 70 3f 93 5a 83 3f
       0.76707155 0.8456311 0.9383999 1.0262016
0000b0 3c 1c 8b 3f 88 39 e1 3f 2a 24 52 3f ce 84 88 3f
       1.0867991 1.7595682 0.8208643 1.0665529
0000c0 a4 51 66 3f a6 2d 84 3f 19 ab 6e 3f 54 3d 67 3f
       0.89968324 1.0326431 0.93229824 0.90327954
0000d0 2d 69 88 3f 08 23 23 3f 9b 68 4e 3f cf 07 52 3f
       1.0657097 0.6372533 0.80628365 0.82043165
0000e0 30 3d 75 3f a3 23 83 3f bd d0 7e 3f 5d 3d 6b 3f
       0.9579649 1.024525 0.9953726 0.9189051
0000f0 0a 3f 3c 3f 70 44 42 3f 33 2b 42 3f cc 35 72 3f
       0.7353369 0.7588568 0.75847167 0.9461334
000100 f6 11 80 3f 61 0e 80 3f 8c 41 6d 3f 81 e4 2a 3f
       1.0005481 1.0004388 0.9267814 0.6675492
000110 ba d2 5a 3f 38 61 54 3f 87 57 69 3f da 47 7d 3f
       0.85477793 0.82960844 0.9114918 0.9893776
000120 e8 9e 82 3f 7c e9 6d 3f b1 ca 27 3f 00 4b 4a 3f
       1.0204744 0.92934394 0.6554366 0.7902069
000130 b0 c9 40 3f 47 21 66 3f a9 ce 81 3f 12 fd 72 3f
       0.7530775 0.8989453 1.0141193 0.94917405
000140 e2 ff 5f 3f 92 7f 2b 3f 02 85 42 3f 0f db 46 3f
       0.8749982 0.6699153 0.75984204 0.77678007
000150 2d 0e 86 3f 78 61 81 3f 06 3b 7c 3f c7 bc 72 3f
       1.0473076 1.010787 0.9852756 0.948193
000160 01 15 3b 3f f3 1b 39 3f b5 63 52 3f 89 bf 72 3f
       0.73078924 0.7230827 0.8218339 0.9482351
000170 95 35 80 3f 6a e6 6b 3f ea df 80 3f 24 d5 40 3f
       1.0016352 0.9214846 1.0068333 0.75325227
000180 03 d2 38 3f 2d 9d 49 3f 08 52 7e 3f 66 3d 60 3f
       0.7219545 0.78755456 0.9934392 0.87593687
000190 f0 8c 57 3f 83 2e 6f 3f 5b f8 1c 3f f6 77 3d 3f
       0.8419943 0.93430346 0.6131646 0.7401117
0001a0 86 8c 59 3f e1 b3 5d 3f 3f df 76 3f dd 4d 54 3f
       0.84980047 0.866026 0.96434397 0.8293131
0001b0 d8 35 4e 3f 9f 53 1c 3f 37 bf 4a 3f 4a 23 4d 3f
       0.8055091 0.61065096 0.7919802 0.8013197
0001c0 71 a3 71 3f ac d4 84 3f d6 ab 7c 3f 61 1d 93 3f
       0.94390017 1.0377402 0.986997 1.1493341
0001d0 7f 34 1e 3f 50 11 3b 3f 56 c5 42 3f de b3 99 3f
       0.6179885 0.7307329 0.7608236 1.2008016
0001e0 59 4d 70 3f b4 86 88 3f cf e3 88 3f 94 6c 83 3f
       0.93868023 1.0666108 1.0694522 1.026751
0001f0 dc ec 80 3f 8c 5c 7b 3f 93 f4 85 3f b5 d0 87 3f
       1.0072284 0.9818809 1.0465263 1.0610567
000200 a6 b3 81 3f 7a 9c 85 3f cb 93 80 3f 62 61 83 3f
       1.0132949 1.0438378 1.0045103 1.0264094
000210 ac 85 40 3f ac 43 79 3f 13 ed 63 3f 86 15 53 3f
       0.7520397 0.97368884 0.8903362 0.8245472
000220 e7 24 5f 3f 5e fb 5d 3f df e5 86 3f 95 ca 82 3f
       0.87165684 0.8671168 1.0538901 1.0218073
000230 a1 a1 81 3f 9c e6 89 3f 6d 17 7a 3f 63 91 74 3f
       1.012745 1.0773501 0.97691995 0.9553434
000240 82 da 78 3f c5 4d 7b 3f d8 e3 89 3f 41 22 73 3f
       0.97208416 0.9816554 1.0772657 0.9497414
000250 1c 36 7a 3f 40 ac 6a 3f 3e 9e 5e 3f 99 b3 5f 3f
       0.97738814 0.9166908 0.8696021 0.8738342
000260 12 70 74 3f 00 d5 82 3f d9 68 86 3f 99 8c 95 3f
       0.95483506 1.0221252 1.0500747 1.1683532
000270 d4 55 70 3f e5 a8 39 3f 9f 6c 66 3f f1 53 61 3f
       0.93880963 0.7252334 0.9000949 0.8801871
000280 c4 6c 7e 3f 66 38 85 3f a7 df 7e 3f 2d e7 58 3f
       0.99384713 1.0407836 0.99560016 0.84727746
000290 65 3d 50 3f d1 36 4e 3f 4e a2 70 3f 60 1b 7d 3f
       0.8134368 0.80552393 0.9399766 0.98869896
0002a0 43 8b 7d 3f 8f 49 81 3f ef 99 55 3f b8 03 67 3f
       0.9904062 1.0100573 0.8343801 0.9024005
0002b0 ff b1 5b 3f 4a 88 7c 3f c9 28 81 3f 9c 76 79 3f
       0.85818475 0.9864546 1.0090572 0.9744661
0002c0 d8 bc 92 3f 93 02 50 3f 36 cc 80 3f b2 4b 4b 3f
       1.146388 0.8125393 1.006232 0.79412377
0002d0 95 ea 6c 3f 35 cd 83 3f 98 0c 83 3f d5 5d 78 3f
       0.92545444 1.0296999 1.0238218 0.97018176
0002e0 90 af 60 3f d0 d8 5c 3f 07 27 62 3f b6 25 64 3f
       0.8776789 0.8626833 0.883408 0.8912004
0002f0 73 2a 83 3f 18 9b 80 3f b8 23 89 3f f9 a8 7e 3f
       1.024733 1.0047331 1.0714025 0.9947658
000300 b2 08 84 3f 20 18 68 3f 54 05 65 3f 15 51 7d 3f
       1.0315154 0.9066181 0.89461255 0.98951846
000310 43 8f 7b 3f 11 5d 8d 3f 0f 56 6b 3f cf e3 7e 3f
       0.98265475 1.1044027 0.9192819 0.9956636
000320 12 0c 65 3f 84 c0 6e 3f ed ed 82 3f 1d 09 81 3f
       0.8947154 0.93262506 1.0228859 1.0080906
000330 74 d5 8c 3f d8 30 72 3f 4d 92 56 3f f4 a3 82 3f
       1.1002641 0.9460578 0.8381699 1.0206285
000340 6d b4 68 3f 53 ad 82 3f 65 df 79 3f 4d 1f 68 3f
       0.9090031 1.0209144 0.976065 0.9067276
000350 fb b7 6e 3f 13 19 82 3f 90 eb 67 3f 44 a7 70 3f
       0.9324948 1.0163902 0.90593815 0.9400523
000360 74 14 86 3f
       1.0474992

encoder.obs_encoder.0.bias f4 [217]
000000 b4 d4 ae bd cf fa f5 bc c4 33 55 bc ad 83 1c bc
       -0.08536664 -0.030026821 -0.01301283 -0.009552878
000010 35 a1 3b bd 10 2f 6a bd 82 8d 10 bd 7d 13 36 bd
       -0.045808036 -0.05717379 -0.035291202 -0.04445218
000020 de 8f 73 bd 77 b2 0e 3d e6 3b 61 3b 52 81 0d 3d
       -0.059463374 0.034838166 0.0034367978 0.034547158
000030 07 49 aa 3b 52 84 d2 bc 69 f0 3c bd fc 92 c5 bc
       0.005196694 -0.02569786 -0.04612771 -0.02411794
000040 0b 37 be 3c c2 a1 09 3c 29 3e d6 3c 42 ce c0 3c
       0.023219606 0.0084003825 0.026152687 0.023535851
000050 92 be 9b 3b 40 8e 26 3d e1 ff 06 bd d5 ca 21 bb
       0.0047529424 0.040663004 -0.03295887 -0.0024687548
000060 a8 3a 10 3d 61 ba 3d bc 97 2b d5 3c e3 25 28 bc
       0.03521219 -0.011580081 0.026021762 -0.010262939
000070 6e 2b 9c 3c 75 e0 50 3d 05 a2 9a 3c da 4d 7e 3c
       0.019063678 0.05099531 0.018876085 0.015521491
000080 d1 58 9d 3c 7c c1 fd bc 11 ac dc bc fb 74 42 bc
       0.01920739 -0.03097605 -0.026937516 -0.011868711
000090 ce dd ac 3c 23 32 9d 3c ff cf d4 3b 43 6c 0b 3d
       0.021101858 0.019188946 0.0064945216 0.034038793
0000a0 02 17 05 3d de 58 29 bd ad 34 0e bd ab fc bf 3c
       0.032492645 -0.041344516 -0.034718204 0.023435911
0000b0 3d d8 09 bc 71 50 8e 3c ed d5 e8 3c 8d 6f f5 3b
       -0.008413372 0.017372342 0.02842232 0.0074901045
0000c0 65 58 05 bd 7b 7b 1e bb a7 5f 11 bd 99 c8 85 3c
       -0.032555003 -0.0024182487 -0.03549161 0.016331004
0000d0 af 5f 57 3b eb c1 1b 3d 8c 21 16 3d 99 40 53 bd
       0.0032863428 0.03802673 0.036653087 -0.051575277
0000e0 28 31 fe bc 2e 59 59 bc 22 23 d1 3b a4 4f 66 3c
       -0.031029299 -0.013265891 0.006382362 0.014057074
0000f0 8c 16 20 bb be e1 21 3d 5a a5 0d bd 57 3e 10 bd
       -0.0024427501 0.039521925 -0.03458152 -0.035215702
000100 4e b6 ef bc dc 48 ff 3c 67 d3 3f 3c 2a a0 75 3b
       -0.029261734 0.031162672 0.011708117 0.0037479498
000110 2e b1 2e 3c 44 90 b7 bb c9 a5 67 bd 66 db 00 bc
       0.01066236 -0.0056019146 -0.05655459 -0.007864809
000120 c9 85 21 bc 34 91 92 bb 18 15 04 bd e7 db c7 3c
       -0.009858557 -0.004472876 -0.03224668 0.02439685
000130 6e d7 5f bd 66 d0 74 bd 32 d8 08 bc c4 e6 2d 3d
       -0.05464881 -0.059769057 -0.008352326 0.042456403
000140 f6 e2 a7 bb 6a 04 0f 3d 26 d4 84 3b 84 b8 72 bd
       -0.0051234914 0.03491632 0.0040536104 -0.059258
000150 05 a1 ef bc c3 2e 2f bd fc 97 1e 3b 89 71 9a 3c
       -0.029251585 -0.042769205 0.0024199476 0.018852966
000160 be 8c 4d 3c 47 89 1a 3d 71 4e 81 bd 30 e1 21 bd
       0.012545763 0.037728574 -0.0631379 -0.039521396
000170 ea 06 11 bd df 3f 79 3d c4 b0 58 3c 62 c1 24 3c
       -0.035406984 0.060851928 0.013225738 0.010055872
000180 dc 83 13 3d 21 b1 96 bc d0 51 53 bd 96 a8 02 bd
       0.036014423 -0.018395009 -0.051591694 -0.031899057
000190 80 4b 3d 3c dc ab c3 3c d6 63 fd 3c 44 32 48 3d
       0.011553645 0.02388566 0.030931395 0.048876062
0001a0 ff a1 38 bd 42 fc 12 bd b4 08 58 bc 24 7e c9 3c
       -0.045076367 -0.035885103 -0.013185669 0.024596281
0001b0 b3 58 2d 3b 4e ad e3 3c 86 b2 54 3d 5a ae 01 bd
       0.0026450574 0.027792599 0.051928066 -0.031660415
0001c0 56 9c 36 bd e4 75 50 3b 58 96 8d bb 86 bc ad bb
       -0.044582687 0.003180855 -0.004320901 -0.0053020148
0001d0 12 2f b7 3c 69 7d 1b 3d 53 8b 2a bd ea 0e 96 bc
       0.022361312 0.037961397 -0.041636776 -0.018317658
0001e0 6a 0e 16 bc 3e 6b 65 bc a0 f9 3d bc c6 2d 1d 3d
       -0.00915871 -0.014002619 -0.01159516 0.03837373
0001f0 06 92 96 bc 0e 90 94 3c be 60 f0 bb fe ca 37 bc
       -0.018380176 0.018135097 -0.0073357513 -0.011217831
000200 6b 11 32 3b d4 75 fd bc d2 72 20 bd a3 59 f3 bc
       0.0027171026 -0.030939974 -0.039172 -0.029705828
000210 a4 a2 7e bd 04 64 00 3d f4 26 1e 3d 8d 9b 0b 3d
       -0.062166825 0.031345382 0.038611367 0.03408389
000220 a9 12 74 3d 43 82 8e bd 12 e2 04 bd 76 79 a8 bc
       0.05958811 -0.06958439 -0.03244216 -0.02056573
000230 21 ce cb bb 8c 6f d0 bc 32 8f ca bb dc b7 19 3d
       -0.006219641 -0.025443815 -0.006181621 0.037528858
000240 3c 2c 9d 3c f3 cd 68 bc 42 0f 03 bb 15 cf 2d 3d
       0.019186132 -0.014209258 -0.0019998108 0.042433817
000250 e4 c2 b3 bc b7 fa 1a 3d 67 67 de 3b 2f 48 91 bc
       -0.021943517 0.037836757 0.006787229 -0.017734615
000260 04 f2 dd bc 53 cf 00 bb d2 bb 70 3c d4 30 6f bc
       -0.027092941 -0.0019654825 0.014693217 -0.014599044
000270 10 67 aa 3c 8b 81 3c 3d e0 e2 8e bd 97 9b 3b bd
       0.020801097 0.04602198 -0.06976867 -0.04580268
000280 a1 4e 68 bc a6 c0 1c 3d c5 ca aa 3c 95 37 45 3d
       -0.014178903 0.03826966 0.020848641 0.04814871
000290 3d db 12 3d d8 12 84 bd 03 b9 32 bd dc 20 07 bc
       0.035853613 -0.06448907 -0.043633472 -0.00824758
0002a0 cc 9c ee 3c 07 de 54 3d f2 e5 9b 3c 79 73 97 3c
       0.029127501 0.051969554 0.019030545 0.018487679
0002b0 9c a1 1e bc 97 68 2d bd 36 6e 46 bd d1 38 33 3d
       -0.009682085 -0.042336073 -0.04844495 0.043755356
0002c0 ff b2 be 3c df da 72 3d c1 9c c6 3b 6a 56 c0 bd
       0.023278711 0.059290763 0.006061167 -0.09391482
0002d0 c3 14 dd bc ea 63 9e bc 2e 02 21 3d 2a 64 f1 ba
       -0.026987439 -0.019334752 0.03930872 -0.0018416692
0002e0 5e 2e 6f 3c f6 ac 2b 3d 76 10 bc bc 93 5a 29 bb
       0.014598457 0.041912995 -0.022957068 -0.002584134
0002f0 1a e0 63 3c d4 57 06 3d d0 31 ca 3b 6b 53 14 3d
       0.01390841 0.032798603 0.006170489 0.036212366
000300 e6 05 89 38 8c 1d 9e bd 12 cf 01 bd cf 22 e3 bb
       6.533768e-05 -0.07720479 -0.03169162 -0.0069316397
000310 72 ba 66 3d bf be 01 bc ef ac 7a 3d 3e 7a ca 3c
       0.05633015 -0.007919013 0.06120008 0.024716493
000320 f2 d9 44 bd 07 cf 8b bd 4a e1 9e bc ce 5d 37 3d
       -0.04805941 -0.06826597 -0.019394536 0.044767193
000330 5c af 23 3b 5e a4 2a 3d bc d1 56 3c 89 79 13 bc
       0.0024976349 0.04166066 0.013111528 -0.009001144
000340 e1 03 62 bd 7c aa 9c bb a2 0c 15 3d c6 d7 e6 3c
       -0.05517948 -0.0047810655 0.036389 0.02817906
000350 be 62 0b 3d 37 2c 90 bb a8 44 46 bd 8f d6 17 bd
       0.034029715 -0.004399802 -0.04840532 -0.037069853
000360 02 a6 e3 bc
       -0.02778912

encoder.obs_encoder.1.weight f4 [64, 217]
000000 58 38 e7 3d ac 65 9d 3d 60 c0 df bc b8 36 9b 3d
       0.112900436 0.07685408 -0.027313411 0.07578796
000010 51 c2 47 3d 20 c5 76 3d aa 69 65 3e 0c 89 86 3d
       0.0487693 0.060246587 0.22403589 0.06569108
000020 91 1a 07 3c d7 ae 23 3e 04 27 64 3d 64 93 ba ba
       0.00824608 0.15984665 0.05570127 -0.00142346
000030 f1 4c 05 bd 87 2b b8 3d f7 63 75 bd f2 96 a8 3b
       -0.03254408 0.08992677 -0.059909787 0.005144947
000040 9c 88 ef 3d 20 0e 5c bd 72 44 b9 3c a4 04 d8 bd
       0.11695978 -0.05372441 0.022615645 -0.1054776
000050 cb 5b 89 bc 8c bf e7 3d 3c 15 f7 3d 85 c8 b3 3c
       -0.016767403 0.113158315 0.12064597 0.021946201
000060 46 06 80 bd 41 25 7c 3c 20 3f 13 3d 6a 81 71 3e
       -0.062511966 0.015389741 0.035948873 0.23584524
000070 01 b3 a2 3d 3b 3b e3 3c 2e db 20 be 64 44 33 3d
       0.079442985 0.027738204 -0.1570861 0.043766394
000080 28 1f 9f 3d 4b 0e aa 3c 43 ab 0e be 1b 46 e5 bc
       0.077696145 0.020758769 -0.13932519 -0.02798753
000090 46 d0 45 be 19 42 1e bd 70 23 0b bd cb 29 a3 bd
       -0.19317731 -0.038637254 -0.033969343 -0.07966956
0000a0 30 5f b1 3c dd 78 b2 3d 97 43 12 3e 31 c5 0e be
       0.021651834 0.08714459 0.14283596 -0.1394241
0000b0 71 fd 52 bd 6a 23 2b 3d 23 0b 87 3d 1f d5 be 3d
       -0.05151123 0.04178182 0.06593921 0.093179934
0000c0 82 51 bd 3d e2 fd 16 3d 97 82 cd 3d 06 c0 95 bd
       0.09244062 0.036863215 0.10034674 -0.07312016
0000d0 8d 84 ce bb d0 83 b8 bd 79 5e 44 3d 0f a5 7c 3d
       -0.0063024224 -0.09009516 0.04794166 0.06168085
0000e0 70 73 d5 3b e4 da 0c be ab bd 27 be 83 ab 5e 3e
       0.0065140054 -0.13755375 -0.16380946 0.21745114
0000f0 1c 6c a1 bd 6f 48 6e bd 48 a3 d1 3d 45 7d dc 3d
       -0.07881948 -0.058174547 0.102362216 0.10766081
000100 72 19 c2 bc 3b 98 65 bd e8 fe 22 bd 96 0d 5c 3c
       -0.023693774 -0.05605338 -0.03979388 0.0134309735
000110 05 6b 5e 3e 82 b7 cc 3c d8 75 3c bd 19 aa 42 be
       0.21720512 0.024989847 -0.046010822 -0.190102
000120 aa d8 0a be 2c 35 39 3d 2e c0 c8 3d 62 88 76 3d
       -0.13559213 0.045216724 0.0980228 0.06018866
000130 12 5c be 3b 68 86 71 bd ad f7 81 be d7 6e a0 3d
       0.0058093155 -0.05896607 -0.25384274 0.07833641
000140 6e 77 1b 3e 0b e8 47 ba fc 50 8f 3d 74 04 82 3d
       0.15182278 -0.00076258247 0.069978684 0.063485056
000150 17 82 0d 3e 75 1f 35 be 2a f4 9d 3d 62 e7 19 3e
       0.13819157 -0.17687781 0.07712586 0.15029672
000160 aa 88 3c 3e af f6 15 bc a8 03 62 3d 4d 0a 91 3d
       0.18411508 -0.009153052 0.055179268 0.07082043
000170 fc 54 24 be d4 d3 47 3d 91 ad 1a bb 0a 55 6b bd
       -0.16048044 0.048786 -0.0023601989 -0.057454146
000180 10 4d e2 bd 26 50 83 bc 49 98 0b 3e f0 44 fc 3b
       -0.11049855 -0.016029429 0.13632311 0.0076986477
000190 9e 8d 19 be bd 6d f0 3c dc ce df bd bf 63 91 bc
       -0.14995429 0.029349202 -0.10928127 -0.017747758
0001a0 c8 39 e6 3c 04 89 25 be 15 bb 0f be d0 84 26 3e
       0.028103724 -0.16165549 -0.1403621 0.16261601
0001b0 7c 21 8d bc ac e5 59 3d de 42 d9 3a 84 e5 1d 3d
       -0.01722788 0.053197548 0.0016575714 0.03854896
0001c0 6a 1d 52 3d a3 5a 0f be 3f bb 00 3c ca cf fc bd
       0.051297583 -0.13999419 0.007857143 -0.1234432
0001d0 98 74 8b bc 0b ea a0 3c 0d 70 1c 3c 24 9d 5d 3e
       -0.01702337 0.01964285 0.009548199 0.21641976
0001e0 5c 9f fd 3d 8b 30 12 3e 04 aa c9 3d 68 f2 c3 3e
       0.12383911 0.1427633 0.09846881 0.3827088
0001f0 84 de 34 3e 43 57 3c 3e e5 2b 83 3e ac a6 4d 3d
       0.17663008 0.18392663 0.25619426 0.05020778
000200 7d e2 e9 3d a4 bf b8 3e fc 15 ac bd 0d 04 ce 3c
       0.11420152 0.3608371 -0.08402631 0.025148416
000210 92 5e fa 3d 02 59 64 bd 46 a7 2f 3d bc 65 84 bb
       0.12225069 -0.055748947 0.042884134 -0.004040448
000220 45 a5 82 bc 4f eb 5a bd c0 60 5c 3d 15 0d cb bc
       -0.015947947 -0.053447064 0.053803205 -0.024786511
000230 5c ea 0b 3e 5d 7b ec 3d e2 11 0e 3e ca ed 91 bc
       0.1366362 0.11546967 0.13874009 -0.017813582
000240 3d 0c d8 bd 59 c7 db 3d 55 23 b8 3d 67 1d b4 bd
       -0.10549209 0.10731382 0.08991114 -0.087946706
000250 b3 5a 9f bc 88 84 2b bd c9 ac 03 be 78 fd 97 bc
       -0.019452428 -0.04187444 -0.12858881 -0.01855348
000260 b1 a1 97 3d 6f 63 10 be f5 5c 35 be 99 da 02 be
       0.07403887 -0.14100431 -0.17711242 -0.12778701
000270 fa 36 01 be 41 76 29 bd 1c a8 8b bd c2 5b ad 3d
       -0.12618628 -0.04137254 -0.06819174 0.08464767
000280 27 89 a5 3c a8 70 42 be 47 87 8b 3c bf 1a c4 bd
       0.020207 -0.18988287 0.017032279 -0.09575414
000290 72 b3 17 bc 95 6d 99 3d 9d 92 a5 bd f2 ea ff bd
       -0.009259092 0.07491604 -0.08084605 -0.12495984
0002a0 88 35 76 3e ee 04 47 bd d5 9d f5 3d 66 6c 91 3c
       0.24043858 -0.048588686 0.11992995 0.017751884
0002b0 fe 5e 6c bc d4 72 24 3e 45 9e 09 bd 2b d9 e9 bd
       -0.014426945 0.16059428 -0.033598203 -0.11418375
0002c0 0b ce 8a 3d 3a 40 ab bd 33 fc bd bd 4a 81 13 be
       0.06777581 -0.083618596 -0.09276619 -0.14404789
0002d0 4b 2f 16 3d b9 70 e4 3b a2 eb 66 bb ed c0 8d bc
       0.036666196 0.0069714454 -0.0035235663 -0.017303908
0002e0 ac 8d 4d 3d 86 be 11 be 3e 87 f0 3d 1e 2c 05 3d
       0.050183937 -0.14232835 0.117445454 0.032512777
0002f0 6c 2b 5c 3d b6 b2 10 3e 02 45 1e 3e ae b7 ad 3b
       0.053752348 0.14130673 0.15456012 0.0053014373
000300 5f 7b 3b 3e 60 29 20 bd 7e e6 a2 bd 79 25 33 be
       0.18308781 -0.03910196 -0.07954119 -0.17494763
000310 a7 84 82 bd fd 8b bb bd 87 42 e4 3d a8 76 84 be
       -0.06372958 -0.0915756 0.111455016 -0.25871778
000320 e8 64 57 3c ff 58 cd ba 2b 28 36 bc 4f d0 a0 bd
       0.0131466165 -0.0015666782 -0.011117975 -0.07852232
000330 89 a1 73 3d 6c 3a 2a 3e fc 5e a2 bd 6d ec 84 3c
       0.059480224 0.16623849 -0.07928273 0.016226018
000340 5c 8f ad 3c 34 c8 fa bd ed 1b a1 bc c3 76 47 bd
       0.021186523 -0.12245217 -0.019666636 -0.048697244
000350 37 00 21 be 3b e9 c4 3c 4a ef 4d be 99 00 25 bd
       -0.15722738 0.024036994 -0.20110813 -0.040283773
000360 fc d9 50 be c0 cf 63 bc 0d 9c 19 bd c7 22 a1 bd
       -0.20395654 -0.013904512 -0.037502337 -0.078679614
000370 be 2e 98 3d d8 fa ee bd ef 9c da 3d 39 45 91 3c
       0.0743079 -0.116689384 0.10674464 0.017733203
000380 ee 57 ea bb d6 60 0e be eb c0 0c be d4 73 11 be
       -0.0071515953 -0.13904127 -0.13745467 -0.14204341
000390 19 9e cb 3d 2d 7b ab 3d c4 18 33 be 6c 86 ed bb
       0.09942264 0.08373103 -0.17489916 -0.0072486904
0003a0 b1 6c 9a bd 74 c3 aa be c4 98 b1 bc d9 45 eb 3d
       -0.075402625 -0.33352244 -0.02167929 0.11487932
0003b0 14 f6 55 bd 1f 92 06 be 98 15 1d be d5 16 f9 3d
       -0.05223663 -0.13141678 -0.15340269 0.12162558
0003c0 3b 61 ec 3d 9f 82 79 bd 78 6e c5 3c 72 6c 90 3b
       0.11541983 -0.060915586 0.024100527 0.004407459
0003d0 fd 55 3d be 8c 2e 10 be bb d8 70 3d 53 8f 04 be
       -0.18489833 -0.14080256 0.05880044 -0.12945299
0003e0 11 9f 13 3e 1b 7f ea 3c 6b 50 19 3d 49 78 f1 3d
       0.14416148 0.028625062 0.03743021 0.11790521
0003f0 72 45 d5 3d dd c7 57 be 06 66 17 bd dd 34 8d 3c
       0.10413636 -0.21072336 -0.03696253 0.017237121

encoder.obs_encoder.1.bias f4 [64]
000000 b4 79 63 bb b7 06 85 bb 0e 28 a2 bb 57 cd 87 3c
       -0.0034709992 -0.0040596384 -0.0049486225 0.016577406
000010 67 09 10 3d b8 aa 4f 3c 46 36 89 3b 83 65 05 3d
       0.035165217 0.01267498 0.004187378 0.032567512
000020 22 d1 d2 3c c6 6d 03 3d 74 7d 3c 3d c2 2d 3e 3b
       0.025734488 0.03208711 0.04601808 0.0029018973
000030 d0 90 a7 bc a2 ba d7 bc b2 bc c8 3c a6 5b 68 3b
       -0.020454794 -0.02633411 0.02450404 0.0035455017
000040 ae 61 75 3a d0 2e 56 3c 6c b0 05 3d f8 1c c7 bc
       0.00093605637 0.013072684 0.032638952 -0.024305806
000050 79 50 4b bb 37 ab 1e 3c 58 68 08 bc 86 33 d1 bc
       -0.0031023307 0.0096843755 -0.008325659 -0.025537264
000060 09 7a b2 3b 98 89 74 bd 09 cc 86 ba db 6c 08 3d
       0.0054466766 -0.059701532 -0.0010284196 0.033306938
000070 35 05 cd 3c ab a1 9f 3c 5c f5 93 3c 6e 6d 0d bc
       0.025026897 0.019486269 0.018061332 -0.008632047
000080 06 e6 50 3c f2 d1 d6 3c cb b8 aa 3c e3 76 12 3d
       0.012750154 0.026223157 0.02084007 0.03575791
000090 fb bb 74 3d f6 0a 1e 3c f3 e5 0f bd ce a6 9c 3c
       0.059749585 0.009646168 -0.035131406 0.019122507
0000a0 85 e0 57 3c ae 69 85 bc 82 00 9a 3c 24 bb d1 bc
       0.013176088 -0.016285744 0.01879907 -0.02560193
0000b0 92 4c 72 3a c3 15 88 3c 6a fc b8 3b 7b 99 c5 bc
       0.0009242977 0.01661194 0.0056453245 -0.024121037
0000c0 ba 48 be bc fd ec da 3c 05 53 a5 3c c2 52 e4 3c
       -0.023228038 0.026724333 0.020181188 0.027871493
0000d0 d6 e5 c1 3c e2 d6 cb 3c 11 b5 02 3d 79 6f 88 bb
       0.023669165 0.024882738 0.03191096 -0.004163679
0000e0 f2 0f 8c 3c 9b b0 36 bd 6b 83 88 bc f2 21 e5 3c
       0.017097447 -0.044602018 -0.016664227 0.027970288
0000f0 94 54 35 bd 29 db 28 3c 48 7c 75 bb 67 89 e5 bc
       -0.044270113 0.010306158 -0.003745811 -0.02801962

encoder.ln.weight f4 [64]
000000 27 b6 74 3f 17 dd 7f 3f ee 39 6c 3f 5a a8 85 3f
       0.9559044 0.9994673 0.92275894 1.0442002
000010 48 cb 80 3f 1c 52 7c 3f 36 c4 87 3f 7b b4 87 3f
       1.0062037 0.9856279 1.0606754 1.0601953
000020 c9 6b 80 3f a6 e7 81 3f 85 7c 6e 3f b5 a2 69 3f
       1.0032893 1.0148818 0.9315875 0.91263896
000030 cc 84 80 3f c8 4b 82 3f 13 18 7d 3f c8 39 75 3f
       1.0040526 1.0179377 0.9886486 0.9579129
000040 c7 e3 96 3f 03 da 72 3f e3 ce 83 3f e5 43 75 3f
       1.1788262 0.9486391 1.0297512 0.95806724
000050 96 21 81 3f 76 e8 71 3f ee 61 61 3f ae e5 86 3f
       1.0088375 0.9449533 0.88040054 1.0538843
000060 8a 9c 86 3f c0 17 7c 3f 55 33 82 3f 1d 0f 7d 3f
       1.0516522 0.9847374 1.0171915 0.98851186
000070 51 fe 78 3f 4b 2e 8b 3f 07 4e 75 3f a2 11 8a 3f
       0.97263056 1.0873502 0.95822185 1.0786631
000080 d0 7a 78 3f e9 4b 84 3f 37 a7 78 3f e6 51 77 3f
       0.97062397 1.0335666 0.9713015 0.9660934
000090 af 58 77 3f 9f 31 71 3f d4 4e 7b 3f b3 08 83 3f
       0.96619695 0.9421634 0.9816716 1.023703
0000a0 4f 8d 88 3f 0a 92 89 3f 11 93 5a 3f 1e ee 83 3f
       1.0668124 1.0747693 0.85380656 1.0307043
0000b0 0e 23 82 3f 7e 9b 81 3f 9f 6a 81 3f 13 76 80 3f
       1.0166948 1.0125577 1.0110663 1.0036033
0000c0 75 f0 82 3f e2 29 87 3f 54 d2 87 3f 55 9f 83 3f
       1.0229632 1.0559657 1.0611062 1.0282999
0000d0 8a 5d 78 3f fd 0d 72 3f a4 b1 84 3f 9e 47 7f 3f
       0.9701773 0.94552594 1.0366712 0.99718654
0000e0 36 d2 81 3f aa 5c 79 3f dc ec 7a 3f 52 08 82 3f
       1.0142276 0.9740702 0.9801767 1.0158789
0000f0 55 f1 6a 3f f4 10 76 3f dc 27 84 3f 1d 8d 87 3f
       0.91774493 0.9611962 1.0324664 1.0589939

encoder.ln.bias f4 [64]
000000 fa d6 90 bc ef c8 87 bc c2 38 c4 3b 80 c1 2a bb
       -0.017680634 -0.016575305 0.0059882114 -0.0026055276
000010 1a 4a 7e 3c 34 30 3d 3c d6 4b d4 bc 61 e5 15 3c
       0.015520597 0.011547137 -0.025915068 0.0091489265
000020 df 83 50 3c 1d 74 3b 3c c1 93 06 3d 5d ec 0f 3c
       0.012726753 0.011441258 0.032855753 0.008784381
000030 01 3e da bc 0a d4 91 bc e8 50 7d 3c d5 11 99 3b
       -0.026640894 -0.017801303 0.015461184 0.004671315
000040 cd 2e af bc 18 0d b9 bb 58 22 4c bc e7 00 36 3d
       -0.021384621 -0.005647313 -0.01245936 0.044434454
000050 66 f8 52 bc 49 93 1c 3c c7 fc cb 3c de b2 34 bd
       -0.012876606 0.0095566 0.024900807 -0.044115894
000060 98 51 99 bc b4 9e 5c 3c d3 45 88 bc 50 5c 91 ba
       -0.018715665 0.013465572 -0.016634857 -0.0011090133
000070 96 17 5e 3c bd 59 c3 3c c9 0d 40 3c 8c da 4a bc
       0.013555428 0.023846501 0.011722037 -0.012381207
000080 c7 87 d8 3c 14 4c 1e 3c ac b5 9d bc 2e e7 90 3c
       0.026431931 0.009661693 -0.019251667 0.01768836
000090 6f e5 5e 3d d6 7a b8 bb ff 91 39 3b 1a 29 89 3c
       0.054418024 -0.0056298776 0.002831578 0.016743232
0000a0 4e 55 60 3c 28 7e 82 bc 7e 9c 70 ba 11 45 0f bb
       0.013692213 -0.015929297 -0.00091785926 -0.0021861235
0000b0 54 8a 16 bd 90 d4 7f 3c d5 47 3f 3c 20 8d f0 bb
       -0.036753014 0.015614644 0.011674841 -0.007341042
0000c0 0f 2c cd bc 8b 87 bc 3a 6d df ce 3b 26 77 17 3b
       -0.025045423 0.0014383657 0.0063132555 0.002311179
0000d0 24 e8 49 bc 48 ac 9e 3c 6b d4 4f 3c e9 db 75 3b
       -0.012323413 0.01936926 0.012684922 0.003751511
0000e0 2c 93 97 3c 0c 30 b9 3c bf 85 8e 3c 9c 6e 87 3c
       0.018502794 0.022605918 0.01739776 0.016532235
0000f0 bc 32 11 3d 4e ad da 3a 47 c1 3d bc 80 c3 a6 bb
       0.035448775 0.0016683729 -0.011581725 -0.0050892234

encoder.blocks.0.ln1.weight f4 [64]
000000 f5 59 7c 3f bd f8 82 3f e0 a2 79 3f 3f b8 80 3f
       0.98574764 1.0232159 0.9751415 1.0056227
000010 c5 40 78 3f 4c 84 82 3f 41 ba 88 3f 78 63 80 3f
       0.9697383 1.0196624 1.068184 1.0030355
000020 af 04 5f 3f 04 4a 84 3f f1 6b 7b 3f 0a db 44 3f
       0.8711652 1.0335088 0.9821158 0.7689673
000030 f9 d6 81 3f 3b a9 84 3f 61 44 7c 3f 17 d8 78 3f
       1.014373 1.0364145 0.9854184 0.97204727
000040 c8 38 82 3f 55 69 82 3f 95 2f 84 3f 8d d6 71 3f
       1.0173578 1.0188395 1.0327021 0.94468004
000050 45 d4 69 3f 4a 26 6f 3f 3e bf 67 3f d9 b7 88 3f
       0.9133952 0.934178 0.9052619 1.0681106
000060 38 f0 88 3f 8c 4b 7e 3f 2c 7a 84 3f e3 3b 75 3f
       1.0698309 0.99334025 1.0349784 0.95794505
000070 a4 8f 7c 3f fe 02 8d 3f b0 e4 79 3f d9 da 87 3f
       0.9865668 1.1016538 0.97614574 1.0613662
000080 5c 5e 73 3f 26 fa 84 3f 6d 13 7e 3f 81 4a 81 3f
       0.95065856 1.0388839 0.9924839 1.0100862
000090 15 b2 76 3f fc 1f 79 3f 88 b4 78 3f 3b 0b 83 3f
       0.9636548 0.9731443 0.9715047 1.0237802
0000a0 1b 34 88 3f b5 f5 8a 3f 7d 36 6d 3f a5 06 82 3f
       1.0640901 1.0856234 0.9266127 1.0158278
0000b0 b5 b9 83 3f 68 1b 83 3f 2a de 81 3f 62 33 66 3f
       1.0291048 1.0242739 1.0145924 0.89922154
0000c0 10 73 85 3f dc a4 8d 3f 1d a3 84 3f 46 78 81 3f
       1.0425739 1.1065936 1.0362278 1.011483
0000d0 07 8d 82 3f 2e bd 63 3f f4 32 82 3f 84 9b 81 3f
       1.0199288 0.8896054 1.01718 1.0125585
0000e0 df 4e 7d 3f 0d 19 78 3f f2 0c 7b 3f 56 b3 6d 3f
       0.9894847 0.96913224 0.9806663 0.9285177
0000f0 d1 f7 6f 3f a3 19 7f 3f 80 e1 80 3f 78 23 84 3f
       0.9373751 0.99648494 1.0068817 1.0323324

encoder.blocks.0.ln1.bias f4 [64]
000000 cc c2 4a bc 7c 10 a7 bc 5f 4e a9 3c 99 79 ae bc
       -0.012375545 -0.020393603 0.020667253 -0.021298217
000010 f0 ff 8f 3c 1a 1e 47 3c 0b 4a ce bc da 1e 21 3b
       0.017578095 0.012153173 -0.02518179 0.002458504
000020 cb 82 1a 3d 78 c8 ca 3b 46 0f 17 3d 6f e2 78 3d
       0.03772239 0.0061884485 0.0368798 0.06076282
000030 32 e8 9c bc 32 f4 86 bc f8 7b 77 3b 84 a4 c7 3c
       -0.019153688 -0.016473863 0.00377631 0.02437044
000040 81 1f ee bc eb 71 b4 3b ce 3f b0 bb 72 06 41 3d
       -0.029067757 0.005506744 -0.0053787 0.047125287
000050 4b 09 50 bc 6d 67 91 bb 4e 75 17 3d ce 33 4d bd
       -0.012697528 -0.004437378 0.036977105 -0.050098233
000060 d0 ef 24 bd 4a 3f c1 b9 ec 6c d8 bb 6f 18 13 3c
       -0.040267766 -0.00036858983 -0.0066047814 0.008977993
000070 25 fc 12 3b 68 20 2e 3d 10 64 d8 bb 79 18 a0 bc
       0.0022428122 0.042511374 -0.0066037253 -0.01954292
000080 58 ad 9d 3c d5 ce d7 3c 19 a4 b4 bb 2f d4 9a 3c
       0.019247696 0.026343742 -0.005512726 0.018900005
000090 75 d1 32 3d e5 d3 2d bc 24 97 d8 39 e0 8c ab 3c
       0.043656785 -0.010609602 0.0004131134 0.020941198
0000a0 a0 17 9c 3b e2 32 32 bd 53 ef 56 3c a4 aa b9 3b
       0.0047635585 -0.043505557 0.013118583 0.005666094
0000b0 bc a3 1e bd be dc a8 3c e0 d7 00 3d d6 79 90 3c
       -0.038730368 0.02061307 0.031455874 0.01763622
0000c0 f3 2c 63 bc 25 f1 5d bc de 21 0b 3c 62 55 5b bc
       -0.013865697 -0.013546263 0.008491961 -0.013387056
0000d0 6c e0 48 bc 68 55 05 3d 91 5d 04 3d be a5 00 3c
       -0.012260538 0.032552153 0.032315794 0.007852016
0000e0 d8 6e bd 3c 55 a4 18 3d 27 97 b3 3c 15 0e f1 ba
       0.023124143 0.037266094 0.021922661 -0.0018391038
0000f0 bd 6e d9 3c e9 dc 9a 3b 67 80 be bb 63 43 05 ba
       0.026542062 0.0047260416 -0.0058136466 -0.0005083589

encoder.blocks.0.ln2.weight f4 [64]
000000 b9 cc 7b 3f bc c8 76 3f 73 d4 74 3f 47 0f 86 3f
       0.98359257 0.96400046 0.9563667 1.0473412
000010 39 5c 70 3f a0 06 86 3f aa 30 82 3f ce 1e 81 3f
       0.9389072 1.0470772 1.0171101 1.0087526
000020 81 4f 6d 3f 26 38 84 3f 48 87 7c 3f fd be 72 3f
       0.9269944 1.0329635 0.9864392 0.94822675
000030 9b 98 80 3f a8 d7 83 3f 4c a8 7f 3f 65 bf 81 3f
       1.0046571 1.0300188 0.99866176 1.0136534
000040 fd 1f 80 3f 50 d7 82 3f 34 99 82 3f 17 42 75 3f
       1.0009762 1.0221958 1.0203004 0.9580397
000050 13 a6 6a 3f c7 1d 7e 3f 77 48 74 3f ae 4d 88 3f
       0.9165966 0.99264187 0.9542307 1.0648706
000060 12 6b 82 3f a3 a4 7b 3f 26 4a 87 3f e0 18 6c 3f
       1.0188925 0.9829809 1.0569503 0.92225456
000070 01 64 78 3f 7d 88 8a 3f 90 82 77 3f 5d 99 83 3f
       0.97027594 1.0822903 0.966836 1.0281178
000080 e4 30 6f 3f 61 65 86 3f 54 a4 6b 3f 2d 77 86 3f
       0.93433976 1.0499688 0.9204762 1.050512
000090 09 47 84 3f 3d 6c 74 3f e6 c1 76 3f cf 99 8a 3f
       1.0334178 0.9547766 0.96389616 1.0828189
0000a0 1f 7e 8c 3f 82 cb 8b 3f 1c 07 79 3f 51 02 7f 3f
       1.0975989 1.0921481 0.97276473 0.9961291
0000b0 e7 8f 83 3f 7c 3c 82 3f b5 e2 81 3f ae e5 74 3f
       1.027829 1.0174708 1.014731 0.95662963
0000c0 93 2d 85 3f 1c 7a 88 3f 5d 22 82 3f f6 27 8b 3f
       1.0404533 1.0662265 1.0166737 1.087157
0000d0 84 30 81 3f e2 c8 61 3f 68 ba 7b 3f d5 03 69 3f
       1.0092931 0.8819715 0.9833131 0.9102147
0000e0 40 ac 7e 3f c9 c9 84 3f 3f 51 7d 3f 42 5a 78 3f
       0.9948158 1.037408 0.98952097 0.9701272
0000f0 20 3e 6e 3f 8c c4 7d 3f 04 de 87 3f e3 b0 85 3f
       0.93063545 0.9912803 1.0614629 1.0444607

encoder.blocks.0.ln2.bias f4 [64]
000000 04 df 37 3b 95 c0 22 bc 81 ce af 3c 5b 0c b6 bc
       0.0028056512 -0.00993361 0.021460773 -0.022222688
000010 56 f0 90 3b bd 50 1b bb 01 6d 0b bd 1e 62 e8 ba
       0.0044231815 -0.0023699247 -0.0340395 -0.0017729437
000020 e4 dc 3b bb 56 82 e2 3c a7 bb a2 3c 9a b5 48 3c
       -0.0028665597 0.02765004 0.01986487 0.012250328
000030 1e 94 6d bb d4 95 a2 ba f5 21 12 3c 79 6f 39 3d
       -0.0036251615 -0.0012404271 0.008919229 0.045272324
000040 9b 21 23 bd c8 ab 0d bc 74 aa 29 bc 68 01 d8 bb
       -0.03982697 -0.008646913 -0.010355581 -0.0065919645
000050 b3 04 02 bd df a7 e2 3c 0c 88 f8 bb 90 8d 6d bd
       -0.031742763 0.027667938 -0.0075845774 -0.057996333
000060 c2 c3 f4 bc 39 e4 c7 bb 49 8c 55 3b 59 6a f9 bc
       -0.0298785 -0.0061002043 0.0032584837 -0.030446218
000070 e6 7b 36 3b 79 87 17 3c 01 8c a3 3c 26 e4 54 bc
       0.0027844845 0.009248608 0.01996422 -0.012993848
000080 c0 67 69 3c b8 9c 4d 3d 41 85 ab bb 25 2d ca 3c
       0.014245927 0.050198287 -0.005234391 0.02467973
000090 57 79 20 3b da 4d 3b bc b0 16 d4 3b 92 8e 32 bc
       0.0024486387 -0.0114321355 0.006472431 -0.010898249
0000a0 ff f1 11 3c f2 44 4b bd df 0f fe 3c 18 77 10 3c
       0.008907794 -0.0496263 0.031013427 0.008817457
0000b0 fc b6 c9 bc f5 38 81 3c 56 50 98 3c e0 f0 12 3c
       -0.024623387 0.01577423 0.018592995 0.008968562
0000c0 0d 0d 25 bc 85 11 4f bc eb 57 8f bc 72 4f df bc
       -0.010073912 -0.012638454 -0.017497977 -0.027259562
0000d0 fc 65 f0 bb 88 48 df 3c 02 95 39 3a 7e a2 59 3b
       -0.0073363762 0.027256265 0.0007079394 0.0033208425
0000e0 4e 75 bb 3c d8 85 43 bc bc 1c b0 3c 29 da 76 3b
       0.022883084 -0.011933766 0.021498077 0.0037666655
0000f0 92 4a cf 3c 7d af 51 3c 8e 63 1d bd ca 8d 08 3c
       0.025304113 0.012798187 -0.03842502 0.008334586

encoder.blocks.0.attn.mask f4 [1, 1, 12, 12]
000000 00 00 80 3f 00 00 00 00 00 00 00 00 00 00 00 00
       1.0 0.0 0.0 0.0
000010 00 00 00 00 00 00 00 00 00 00 00 00 00 00 00 00
       0.0 0.0 0.0 0.0
000020 00 00 00 00 00 00 00 00 00 00 00 00 00 00 00 00
       0.0 0.0 0.0 0.0
000030 00 00 80 3f 00 00 80 3f 00 00 00 00 00 00 00 00
       1.0 1.0 0.0 0.0
000040 00 00 00 00 00 00 00 00 00 00 00 00 00 00 00 00
       0.0 0.0 0.0 0.0
000050 00 00 00 00 00 00 00 00 00 00 00 00 00 00 00 00
       0.0 0.0 0.0 0.0
000060 00 00 80 3f 00 00 80 3f 00 00 80 3f 00 00 00 00
       1.0 1.0 1.0 0.0
000070 00 00 00 00 00 00 00 00 00 00 00 00 00 00 00 00
       0.0 0.0 0.0 0.0
000080 00 00 00 00 00 00 00 00 00 00 00 00 00 00 00 00
       0.0 0.0 0.0 0.0
000090 00 00 80 3f 00 00 80 3f 00 00 80 3f 00 00 80 3f
       1.0 1.0 1.0 1.0
0000a0 00 00 00 00 00 00 00 00 00 00 00 00 00 00 00 00
       0.0 0.0 0.0 0.0
0000b0 00 00 00 00 00 00 00 00 00 00 00 00 00 00 00 00
       0.0 0.0 0.0 0.0
0000c0 00 00 80 3f 00 00 80 3f 00 00 80 3f 00 00 80 3f
       1.0 1.0 1.0 1.0
0000d0 00 00 80 3f 00 00 00 00 00 00 00 00 00 00 00 00
       1.0 0.0 0.0 0.0
0000e0 00 00 00 00 00 00 00 00 00 00 00 00 00 00 00 00
       0.0 0.0 0.0 0.0
0000f0 00 00 80 3f 00 00 80 3f 00 00 80 3f 00 00 80 3f
       1.0 1.0 1.0 1.0
000100 00 00 80 3f 00 00 80 3f 00 00 00 00 00 00 00 00
       1.0 1.0 0.0 0.0
000110 00 00 00 00 00 00 00 00 00 00 00 00 00 00 00 00
       0.0 0.0 0.0 0.0
000120 00 00 80 3f 00 00 80 3f 00 00 80 3f 00 00 80 3f
       1.0 1.0 1.0 1.0
000130 00 00 80 3f 00 00 80 3f 00 00 80 3f 00 00 00 00
       1.0 1.0 1.0 0.0
000140 00 00 00 00 00 00 00 00 00 00 00 00 00 00 00 00
       0.0 0.0 0.0 0.0
000150 00 00 80 3f 00 00 80 3f 00 00 80 3f 00 00 80 3f
       1.0 1.0 1.0 1.0
000160 00 00 80 3f 00 00 80 3f 00 00 80 3f 00 00 80 3f
       1.0 1.0 1.0 1.0
000170 00 00 00 00 00 00 00 00 00 00 00 00 00 00 00 00
       0.0 0.0 0.0 0.0
000180 00 00 80 3f 00 00 80 3f 00 00 80 3f 00 00 80 3f
       1.0 1.0 1.0 1.0
000190 00 00 80 3f 00 00 80 3f 00 00 80 3f 00 00 80 3f
       1.0 1.0 1.0 1.0
0001a0 00 00 80 3f 00 00 00 00 00 00 00 00 00 00 00 00
       1.0 0.0 0.0 0.0
0001b0 00 00 80 3f 00 00 80 3f 00 00 80 3f 00 00 80 3f
       1.0 1.0 1.0 1.0
0001c0 00 00 80 3f 00 00 80 3f 00 00 80 3f 00 00 80 3f
       1.0 1.0 1.0 1.0
0001d0 00 00 80 3f 00 00 80 3f 00 00 00 00 00 00 00 00
       1.0 1.0 0.0 0.0
0001e0 00 00 80 3f 00 00 80 3f 00 00 80 3f 00 00 80 3f
       1.0 1.0 1.0 1.0
0001f0 00 00 80 3f 00 00 80 3f 00 00 80 3f 00 00 80 3f
       1.0 1.0 1.0 1.0
000200 00 00 80 3f 00 00 80 3f 00 00 80 3f 00 00 00 00
       1.0 1.0 1.0 0.0
000210 00 00 80 3f 00 00 80 3f 00 00 80 3f 00 00 80 3f
       1.0 1.0 1.0 1.0
000220 00 00 80 3f 00 00 80 3f 00 00 80 3f 00 00 80 3f
       1.0 1.0 1.0 1.0
000230 00 00 80 3f 00 00 80 3f 00 00 80 3f 00 00 80 3f
       1.0 1.0 1.0 1.0
