trainer/results/football/11_vs_11_stochastic/mat/check/run1/models/transformer_0.pt (torch, 467660 bytes, 73 tensors)

encoder.state_encoder.0.weight f4 [37]
000000 00 00 80 3f 00 00 80 3f 00 00 80 3f 00 00 80 3f
       1.0 1.0 1.0 1.0
000010 00 00 80 3f 00 00 80 3f 00 00 80 3f 00 00 80 3f
       1.0 1.0 1.0 1.0
000020 00 00 80 3f 00 00 80 3f 00 00 80 3f 00 00 80 3f
       1.0 1.0 1.0 1.0
000030 00 00 80 3f 00 00 80 3f 00 00 80 3f 00 00 80 3f
       1.0 1.0 1.0 1.0
000040 00 00 80 3f 00 00 80 3f 00 00 80 3f 00 00 80 3f
       1.0 1.0 1.0 1.0
000050 00 00 80 3f 00 00 80 3f 00 00 80 3f 00 00 80 3f
       1.0 1.0 1.0 1.0
000060 00 00 80 3f 00 00 80 3f 00 00 80 3f 00 00 80 3f
       1.0 1.0 1.0 1.0
000070 00 00 80 3f 00 00 80 3f 00 00 80 3f 00 00 80 3f
       1.0 1.0 1.0 1.0
000080 00 00 80 3f 00 00 80 3f 00 00 80 3f 00 00 80 3f
       1.0 1.0 1.0 1.0
000090 00 00 80 3f
       1.0

encoder.state_encoder.0.bias f4 [37]
000000 00 00 00 00 00 00 00 00 00 00 00 00 00 00 00 00
       0.0 0.0 0.0 0.0
000010 00 00 00 00 00 00 00 00 00 00 00 00 00 00 00 00
       0.0 0.0 0.0 0.0
000020 00 00 00 00 00 00 00 00 00 00 00 00 00 00 00 00
       0.0 0.0 0.0 0.0
000030 00 00 00 00 00 00 00 00 00 00 00 00 00 00 00 00
       0.0 0.0 0.0 0.0
000040 00 00 00 00 00 00 00 00 00 00 00 00 00 00 00 00
       0.0 0.0 0.0 0.0
000050 00 00 00 00 00 00 00 00 00 00 00 00 00 00 00 00
       0.0 0.0 0.0 0.0
000060 00 00 00 00 00 00 00 00 00 00 00 00 00 00 00 00
       0.0 0.0 0.0 0.0
000070 00 00 00 00 00 00 00 00 00 00 00 00 00 00 00 00
       0.0 0.0 0.0 0.0
000080 00 00 00 00 00 00 00 00 00 00 00 00 00 00 00 00
       0.0 0.0 0.0 0.0
000090 00 00 00 00
       0.0

encoder.state_encoder.1.weight f4 [64, 37]
000000 53 32 ea 3e b7 63 44 3e ec 88 ef 3d 43 bc 0e bd
       0.4574152 0.19178663 0.11696038 -0.03484751
000010 92 7e ca bc 08 3b b7 3d b4 b2 99 3c be d0 be 3d
       -0.024718557 0.08946806 0.01876197 0.09317158
000020 51 bd 86 3e 00 85 8f bd ff 2f ad 3e eb 9c 72 bd
       0.26316312 -0.070077896 0.3382568 -0.05923168
000030 cd 41 04 be 27 d5 7b be 5b bf c9 bc d3 0f 0b 3e
       -0.12915726 -0.2459303 -0.024627378 0.13580255
000040 b4 04 23 be 7e 7f 35 be 5f 9f 29 3d 3b 04 b5 3c
       -0.15919763 -0.17724416 0.041411754 0.022096744
000050 d0 d0 38 3e 2e 5c fc 3d f4 76 9c bd 5d 8b bc be
       0.18048406 0.123222694 -0.07639876 -0.36825076
000060 65 f6 97 be ed 02 0c bd d0 e7 67 3d 35 f3 4d 3e
       -0.29680172 -0.034182478 0.056617558 0.20112307
000070 23 58 51 3d 3b b4 4d 3e fa 91 3c 3e 63 6b 9f bd
       0.051109444 0.20088284 0.1841506 -0.07784154
000080 84 52 b6 3c 09 25 02 bb 99 18 92 3c 60 f2 2b 3e
       0.022256143 -0.00198585 0.017833995 0.16791677
000090 8a 44 12 3e f6 12 81 3e 0b 9f 2f bb fa ba 15 3d
       0.14283958 0.2520978 -0.0026797678 0.036555268
0000a0 c5 82 af be 6a b0 56 3e a0 92 df 3d d4 0a 74 3d
       -0.34279457 0.20965734 0.109166384 0.05958064
0000b0 a6 b8 3a 3e 70 81 45 3e ed f7 61 3d 25 0f 86 3c
       0.182345 0.19287658 0.05516808 0.016364643
0000c0 92 a4 00 be ce d3 91 3e dc 4e c8 3c 95 42 b3 3e
       -0.12562779 0.28481907 0.024451666 0.35011736
0000d0 bf 87 2b be a0 83 8c be e7 ef bd 3d 0c 6e 1a 3c
       -0.16751002 -0.27444172 0.09274273 0.009425651
0000e0 63 27 10 be 1c e7 60 be 72 d1 35 3e 32 7c b9 bc
       -0.14077525 -0.21963161 0.17755678 -0.022642229
0000f0 fc 1a aa 3c 44 b0 31 3d be f0 b5 be b4 c4 32 be
       0.02076482 0.04338099 -0.35535234 -0.17457849
000100 24 83 cd 3d 20 d2 8d bd 12 c2 7c bd 35 1a a6 bd
       0.10034779 -0.06924844 -0.061708517 -0.08110467
000110 4c 0f 95 3e ca 3c 96 3d 50 80 4c be 70 22 0f bd
       0.29113233 0.07335813 -0.19970822 -0.03494495
000120 07 2e 84 bd cb f8 9f 3e 85 b7 7f 3d 8e 0d 33 be
       -0.064540915 0.312445 0.062430877 -0.1748564
000130 ef c7 20 3e f8 87 a8 3d 1d 9e ae bd e6 e3 2a be
       0.15701269 0.08229059 -0.085262515 -0.16688499
000140 ab 89 34 3d fb 10 6f be 37 45 6b 3c 2e 53 4d bd
       0.044076603 -0.23346321 0.014359764 -0.050128154
000150 7b 63 8d be 8b 8d b8 bd a9 ea 48 3e fc 9e ad 3e
       -0.2761496 -0.09011372 0.19620766 0.33910358
000160 7a 56 b3 3d 52 6a 4f 3e 8d c1 a6 3b d4 11 f3 3d
       0.087567285 0.20255402 0.005088991 0.11868635
000170 ad 49 5a 3d cb a9 30 3e 59 4c 63 3e 01 ca 6c 3d
       0.05329292 0.17252271 0.22197093 0.057809833
000180 e9 d0 06 bd cd 38 1f be 7a b2 8e be b1 98 97 3e
       -0.032914076 -0.15549012 -0.27870542 0.29608682
000190 45 4f 39 be 28 85 5f bd f6 3a 8b be ea ba 68 bd
       -0.18096645 -0.054570347 -0.2719342 -0.05681888
0001a0 52 bb b0 bd 99 a1 83 3e be c8 cd 3d 98 84 63 39
       -0.086294785 0.25709227 0.10048054 0.00021697802
0001b0 8f a1 67 3c 61 66 53 3e b8 ca 33 be 14 c6 87 3d
       0.01413764 0.20644523 -0.175578 0.06629577
0001c0 04 fc 0e bf eb d6 63 bd e4 f2 3c be de 27 88 3e
       -0.55853295 -0.055624884 -0.1845203 0.26592916
0001d0 6a 72 b4 bd 21 70 ed bc 87 42 9b be a6 98 65 bd
       -0.08810885 -0.028984131 -0.30324194 -0.05605378
0001e0 1a 78 82 3e e9 d8 bb bd 0b 39 97 bd 05 ae 8a be
       0.25482255 -0.09172232 -0.07383927 -0.2708589
0001f0 f2 08 43 3e 91 9c 99 3c 07 6f cb bb 91 c4 08 be
       0.19046381 0.018751414 -0.006208304 -0.13356234
000200 da 9e ff bd 30 98 c7 bd 74 44 6c 3d 48 af 82 3e
       -0.124814704 -0.09745824 0.05768247 0.25524354
000210 75 95 0f 3e b1 0b 16 be c5 ee 99 bd 24 f6 2a 3e
       0.14021857 -0.14652897 -0.07516245 0.16695458
000220 f5 2e 83 be ae 6d b8 3c fd b9 40 be d1 68 5f bd
       -0.25621763 0.022513237 -0.18820949 -0.05454332
000230 82 23 5e bd b1 15 44 be 90 16 85 bd c5 dc 15 3e
       -0.05423308 -0.191489 -0.06498444 0.14634998
000240 79 a7 7e 3e 37 c5 8d 3e 83 a1 b7 be f2 e3 46 be
       0.24868573 0.27689525 -0.3586541 -0.19422892
000250 9a 54 52 3e 2d 94 82 be 4b d8 bb 3e 2b 4a 62 bd
       0.20540085 -0.25503674 0.36688456 -0.055246513
000260 96 bb 41 bd 5e be 05 3e 50 b0 33 bd 03 9d b0 3d
       -0.047298037 0.130609 -0.043869317 0.086236976
000270 84 46 a7 bd 06 ba b4 3d de 1a 64 bc 01 93 65 ba
       -0.08167747 0.08824544 -0.013922421 -0.0008757562
000280 e4 76 94 be ef 20 89 be 75 4b fe bd 42 87 82 bb
       -0.28996956 -0.2678294 -0.12416736 -0.003983409
000290 8f f7 ab bd ab ab 3d be 1a 0e 16 be e8 06 0b bc
       -0.083968274 -0.18522517 -0.14653817 -0.008485533
0002a0 97 de 49 3e 18 50 c2 3c 72 3f 18 3d ba 21 18 be
       0.19713818 0.023719832 0.03716988 -0.14856616
0002b0 c6 ce f8 bd 0c 65 54 3c fa 7d 95 bd 2b 2b 40 bc
       -0.12148814 0.012963545 -0.07299419 -0.011729042
0002c0 bb c3 30 bd 60 cb c5 bd d4 b4 b9 bd 5a 95 bb be
       -0.043155413 -0.09657931 -0.09067693 -0.36637384
0002d0 99 af 90 be c5 5e bf be 6e c3 85 bd 1f 11 b6 3d
       -0.2825897 -0.3737699 -0.06531416 0.08889984
0002e0 61 8a 4b be 76 38 7f 3d 0e 06 32 3e 9c d3 12 bc
       -0.19877006 0.062309705 0.17385122 -0.008961584
0002f0 30 4b c5 3d 3a 24 5d 3e d9 91 f5 bd c5 61 83 3d
       0.096334815 0.2159585 -0.11990709 0.064151324
000300 ea c1 2f be c9 5a 90 be a7 da 55 3c e8 5f 25 3e
       -0.17163816 -0.28194264 0.013052619 0.16149867
000310 63 e3 17 3e bb 34 53 bd 92 c1 03 be dd 50 d5 be
       0.14832835 -0.05156396 -0.1286681 -0.41663256
000320 34 72 c4 3d 3d 77 eb bd 4e c9 5c 3d 8c 3b 86 bd
       0.09592095 -0.11497352 0.053902917 -0.065543264
000330 dd c7 8b 3e 66 21 dc bd ec 2a 23 bf 8c e8 46 be
       0.2730092 -0.10748558 -0.6373737 -0.19424647
000340 97 1a 84 bd 1f a1 a7 3d 42 86 f3 bd d1 fd 41 3d
       -0.06450384 0.08185028 -0.11890842 0.0473612
000350 d2 72 0f be 58 8c 9d bd df 51 14 be b2 8a 3e be
       -0.14008644 -0.07692784 -0.14484356 -0.18607596
000360 c1 17 32 3d ab b2 a5 3b 29 90 18 be 96 a9 cb 3d
       0.043479685 0.0050566993 -0.14898743 0.09944455
000370 e1 8e 36 bd e8 3e d2 3d 88 21 1b bd 55 66 90 3e
       -0.044569854 0.10265905 -0.037873775 0.28203073
000380 49 fe 8c 3d c3 74 0f bd 3e 44 b6 be ba 1f 82 3e
       0.068844385 -0.035023462 -0.3559894 0.2541483
000390 35 42 41 bb 50 4b 92 3d 32 72 15 3e 55 a6 60 3e
       -0.0029488925 0.07143271 0.14594343 0.2193845
0003a0 da 64 f6 bd 56 2c 2d bd 64 f8 ac bd 86 33 84 be
       -0.12030955 -0.04227861 -0.08445814 -0.2582056
0003b0 49 46 ca be 8e a9 41 3e bb 43 0f be 4a 59 b7 3c
       -0.39506748 0.18912336 -0.13990681 0.022381444
0003c0 23 f1 ff bc 7f 39 b2 3c 69 61 64 bc 2c 66 ba 3d
       -0.031242913 0.021755932 -0.01393924 0.09101519
0003d0 46 6c 0c 3e c8 96 03 3e ce e9 a0 bd ec 99 80 be
       0.13713178 0.12850487 -0.07857095 -0.25117433
0003e0 e3 92 59 be f6 5f 2f 3d 02 16 cd bd 39 96 00 3c
       -0.21247439 0.042816125 -0.10013963 0.007848316
0003f0 66 d9 04 bf 05 75 b2 3d 5b e7 17 be 3e ec 3d 3e
       -0.51894224 0.08713726 -0.14834349 0.1854715

encoder.state_encoder.1.bias f4 [64]
000000 00 00 00 00 00 00 00 00 00 00 00 00 00 00 00 00
       0.0 0.0 0.0 0.0
000010 00 00 00 00 00 00 00 00 00 00 00 00 00 00 00 00
       0.0 0.0 0.0 0.0
000020 00 00 00 00 00 00 00 00 00 00 00 00 00 00 00 00
       0.0 0.0 0.0 0.0
000030 00 00 00 00 00 00 00 00 00 00 00 00 00 00 00 00
       0.0 0.0 0.0 0.0
000040 00 00 00 00 00 00 00 00 00 00 00 00 00 00 00 00
       0.0 0.0 0.0 0.0
000050 00 00 00 00 00 00 00 00 00 00 00 00 00 00 00 00
       0.0 0.0 0.0 0.0
000060 00 00 00 00 00 00 00 00 00 00 00 00 00 00 00 00
       0.0 0.0 0.0 0.0
000070 00 00 00 00 00 00 00 00 00 00 00 00 00 00 00 00
       0.0 0.0 0.0 0.0
000080 00 00 00 00 00 00 00 00 00 00 00 00 00 00 00 00
       0.0 0.0 0.0 0.0
000090 00 00 00 00 00 00 00 00 00 00 00 00 00 00 00 00
       0.0 0.0 0.0 0.0
0000a0 00 00 00 00 00 00 00 00 00 00 00 00 00 00 00 00
       0.0 0.0 0.0 0.0
0000b0 00 00 00 00 00 00 00 00 00 00 00 00 00 00 00 00
       0.0 0.0 0.0 0.0
0000c0 00 00 00 00 00 00 00 00 00 00 00 00 00 00 00 00
       0.0 0.0 0.0 0.0
0000d0 00 00 00 00 00 00 00 00 00 00 00 00 00 00 00 00
       0.0 0.0 0.0 0.0
0000e0 00 00 00 00 00 00 00 00 00 00 00 00 00 00 00 00
       0.0 0.0 0.0 0.0
0000f0 00 00 00 00 00 00 00 00 00 00 00 00 00 00 00 00
       0.0 0.0 0.0 0.0

encoder.obs_encoder.0.weight f4 [217]
000000 8f 84 7e 3f b2 6a 80 3f 70 32 7f 3f cb 5c 7e 3f
       0.9942102 1.0032561 0.99686337 0.9936034
000010 52 49 7e 3f ab 80 7e 3f e1 89 7f 3f 65 b6 7e 3f
       0.9933063 0.9941508 0.9981976 0.9949706
000020 89 7e 80 3f 27 c9 7e 3f 17 65 7f 3f f0 95 80 3f
       1.0038615 0.99525684 0.99763626 1.0045757
000030 2f b0 80 3f 76 8b 7f 3f 5b 70 7e 3f b3 47 7e 3f
       1.0053767 0.99822176 0.9939019 0.99328154
000040 77 05 7f 3f f4 a0 80 3f ac b3 7e 3f c6 ec 80 3f
       0.99617714 1.0049119 0.9949291 1.0072258
000050 84 47 80 3f a6 53 7e 3f 2a f8 80 3f 82 99 7f 3f
       1.0021825 0.9934639 1.0075734 0.9984361
000060 7d e2 7f 3f 2b a9 80 3f 63 71 7e 3f ff e3 80 3f
       0.9995497 1.0051626 0.99391764 1.0069579
000070 98 f0 80 3f c2 cb 7e 3f 82 e3 80 3f 43 c5 80 3f
       1.0073423 0.9952966 1.006943 1.00602
000080 66 79 7e 3f f0 d9 80 3f 5b c1 80 3f c1 8f 7e 3f
       0.9940399 1.0066509 1.0059007 0.994381
000090 56 4d 7f 3f 44 29 80 3f d5 90 80 3f e2 73 80 3f
       0.9972738 1.0012593 1.0044199 1.0035365
0000a0 cd bf 80 3f 8b 25 80 3f 82 5f 7f 3f 2b 85 7e 3f
       1.0058533 1.0011457 0.9975511 0.9942195
0000b0 89 b0 7e 3f f0 54 7f 3f cf f5 7e 3f dd a6 7f 3f
       0.9948812 0.9973898 0.99593824 0.9986399
0000c0 60 2a 80 3f 9f 3b 7e 3f 73 a5 80 3f a9 1e 7f 3f
       1.0012932 0.99309725 1.0050491 0.9965616
0000d0 59 db 80 3f d9 9d 7e 3f 9a 3c 7e 3f 30 75 7f 3f
       1.006694 0.99459606 0.9931122 0.9978819
0000e0 21 4b 7e 3f fc c6 80 3f f6 75 80 3f d6 ba 80 3f
       0.9933339 1.0060725 1.0035999 1.0057018
0000f0 3b 43 80 3f 4f f2 7e 3f e6 3a 80 3f eb 6e 7e 3f
       1.0020517 0.99588484 1.0017974 0.99388
000100 b4 e5 7f 3f e0 9b 80 3f 82 5b 7e 3f 4f ec 7f 3f
       0.99959874 1.0047569 0.9935838 0.99969953
000110 fe a5 80 3f 6e bd 80 3f 25 4a 7f 3f 1b 18 80 3f
       1.0050657 1.0057809 0.9972251 1.0007356
000120 23 d5 80 3f 4f ce 7f 3f f6 7b 7e 3f 05 7a 7e 3f
       1.0065044 0.99924177 0.994079 0.9940494
000130 ce c0 7f 3f 39 78 7e 3f 23 6e 7f 3f e3 43 7f 3f
       0.9990357 0.99402195 0.9977743 0.9971296
000140 8e ee 80 3f d9 7a 7e 3f ca 3e 7e 3f 94 ec 7e 3f
       1.0072801 0.994062 0.9931456 0.9957974
000150 46 af 7e 3f 09 cb 80 3f 49 e6 80 3f 5f 9d 7e 3f
       0.99486196 1.0061961 1.0070277 0.9945888
000160 34 64 7e 3f bc 01 80 3f 3a 92 80 3f cd 41 7e 3f
       0.9937165 1.0000529 1.0044625 0.99319154
000170 6b c5 80 3f ea 49 7e 3f ab e2 80 3f 96 3e 7f 3f
       1.0060247 0.99331534 1.0069174 0.99704874
000180 f5 af 7e 3f 49 2a 7f 3f 2e d7 7f 3f 7d cd 80 3f
       0.9948724 0.996739 0.99937713 1.006271
000190 1b d7 7f 3f 0c 15 7f 3f 80 2f 7e 3f 12 6e 80 3f
       0.999376 0.9964149 0.9929123 1.0033591
0001a0 47 69 80 3f 0a e5 80 3f 58 58 80 3f 7c 8a 7e 3f
       1.0032128 1.0069897 1.002696 0.9943006
0001b0 b4 91 80 3f c2 47 7e 3f 03 61 7e 3f 75 72 80 3f
       1.0044465 0.99328244 0.9936678 1.003493
0001c0 19 73 7e 3f 78 fb 7e 3f 83 74 7f 3f c3 da 80 3f
       0.99394375 0.9960246 0.9978716 1.0066761
0001d0 a2 f3 7e 3f 94 4b 7e 3f 74 8c 7e 3f a6 d3 7e 3f
       0.99590504 0.99334073 0.99433064 0.995417
0001e0 eb 2a 80 3f ea 92 7e 3f ab a3 7e 3f 87 97 7e 3f
       1.0013098 0.99442923 0.9946849 0.9944996
0001f0 aa 88 7e 3f 79 d3 7e 3f 68 3f 80 3f 0d bc 80 3f
       0.9942728 0.9954143 1.001935 1.0057389
000200 55 9e 7e 3f e2 35 80 3f 52 94 80 3f 65 fd 7e 3f
       0.99460346 1.0016444 1.0045264 0.996054
000210 22 92 7e 3f 45 e1 80 3f 46 0a 80 3f 99 e1 7e 3f
       0.9944173 1.0068747 1.0003135 0.99562985
000220 76 6b 7e 3f 79 59 7e 3f f8 5f 80 3f 57 00 80 3f
       0.9938272 0.99355274 1.0029287 1.0000104
000230 2b b4 7f 3f 85 c3 7e 3f 81 e8 80 3f 8b 32 7e 3f
       0.9988429 0.9951709 1.0070955 0.9929587
000240 c6 c0 7f 3f 18 b7 7f 3f cf 26 7f 3f f5 60 7f 3f
       0.99903524 0.99888754 0.9966859 0.9975732
000250 7c a4 7e 3f d1 75 7f 3f 0e bd 80 3f 90 c1 80 3f
       0.99469733 0.9978915 1.0057695 1.005907
000260 48 40 80 3f cd 88 80 3f 51 e6 80 3f af 00 7f 3f
       1.0019617 1.0041748 1.0070287 0.9961042
000270 bd 51 80 3f fa 55 7e 3f 2f 6d 7e 3f 97 11 80 3f
       1.0024945 0.9934994 0.9938535 1.0005368
000280 67 14 80 3f d7 f0 80 3f cf b1 80 3f f1 2e 7e 3f
       1.0006226 1.0073498 1.0054263 0.99290377
000290 f0 4d 7f 3f 1e ac 7e 3f a1 a3 7f 3f 24 6a 7e 3f
       0.997283 0.9948138 0.9985905 0.9938071
0002a0 ef 8b 7e 3f dc b2 80 3f d8 e3 80 3f dd d8 80 3f
       0.9943227 1.0054584 1.0069532 1.0066181
0002b0 97 f2 80 3f f5 06 80 3f 31 05 80 3f a5 bf 80 3f
       1.0074033 1.0002123 1.0001584 1.0058485
0002c0 ca 30 80 3f 52 43 7e 3f 47 c1 80 3f a9 2e 7e 3f
       1.0014889 0.9932147 1.0058984 0.9928995
0002d0 52 d3 80 3f e0 ba 80 3f 2b b9 7e 3f 8a 80 80 3f
       1.006449 1.005703 0.99501294 1.0039227
0002e0 ca 67 7e 3f 88 83 7e 3f c2 94 80 3f ed 2f 7e 3f
       0.9937712 0.9941945 1.0045397 0.9929188
0002f0 5e 01 80 3f ff 4a 7e 3f ab 86 7e 3f cb 70 80 3f
       1.0000417 0.99333185 0.99424237 1.0034422
000300 1c 42 80 3f 7a 46 7e 3f 52 36 7e 3f 38 b2 7e 3f
       1.0020175 0.9932629 0.99301636 0.9949069
000310 63 e9 80 3f eb 36 80 3f 55 88 7e 3f fd b6 80 3f
       1.0071224 1.001676 0.99426776 1.0055844
000320 03 2e 80 3f eb 04 80 3f 45 60 80 3f 64 d9 80 3f
       1.0014042 1.0001501 1.0029379 1.0066342
000330 65 5e 7e 3f a1 2e 7e 3f ac 6d 80 3f 34 d9 7e 3f
       0.99362785 0.992899 1.0033469 0.99550176
000340 99 4e 7e 3f 4b a3 80 3f 12 d8 80 3f f2 3f 7e 3f
       0.9933868 1.0049833 1.006594 0.9931632
000350 07 dc 80 3f 0d 09 80 3f b9 30 7f 3f 7d 41 7e 3f
       1.0067147 1.0002762 0.9968372 0.9931868
000360 d9 76 80 3f
       1.003627

encoder.obs_encoder.0.bias f4 [217]
000000 91 06 b5 bb ad a9 7f 3b 7b 4e 2f bb 0e 07 cd bb
       -0.0055244644 0.0039011047 -0.002674966 -0.0062569445
000010 e0 1b d8 bb a9 02 b3 bb 4a e1 07 3a cc ce a8 bb
       -0.00659512 -0.0054629636 0.0005183412 -0.0051516052
000020 56 31 83 3b b2 bd 47 3b 1e 25 f7 3a f2 e3 ba bb
       0.004003684 0.0030478057 0.0018855666 -0.0057034427
000030 fa ce c7 bb 83 13 54 ba e2 74 c6 bb 26 77 8c bb
       -0.0060976716 -0.00080900657 -0.006056414 -0.0042866645
000040 f2 6d ae 3b 53 2b 8f bb dc 68 da 3b 92 72 69 3b
       0.005323165 -0.0043691783 0.0066653322 0.0035621268
000050 4c 4f 83 3b 8d ca 6e 3b de 7f a8 bb 7a 02 a4 3b
       0.0040072557 0.0036436648 -0.005142196 0.005005178
000060 bd 3b ac 3a 70 72 a1 bb 2f 63 e0 3b f1 e6 c5 bb
       0.0013140362 -0.004926972 0.006847761 -0.0060394933
000070 f6 bc 7a 39 30 e5 59 3b 11 6d 43 3a ec 3b a0 3b
       0.00023912251 0.0033248179 0.0007454912 0.0048899557
000080 22 85 16 bb 24 9e c0 bb b6 85 bd bb 20 d6 ed 3b
       -0.0022967537 -0.005878227 -0.005783762 0.0072581917
000090 60 71 bd 3b fd 2e c3 ba 1c 87 b5 bb 70 81 d2 bb
       0.0057813376 -0.0014891323 -0.005539788 -0.0064241216
0000a0 9f 08 da bb 25 c9 50 bb 46 ef a6 bb a0 46 de 3b
       -0.0066538597 -0.0031858173 -0.0050944416 0.0067833215
0000b0 5c dc b0 3b 70 3b 3e bb d3 1d e5 3b 79 b5 49 3a
       0.0053973626 -0.0029027127 0.0069920807 0.0007694583
0000c0 dc 12 fc b9 04 05 b1 bb 7b a1 50 bb f1 e6 c6 bb
       -0.00048079237 -0.0054022092 -0.003183453 -0.006070011
0000d0 94 34 58 bb 4b 69 b1 3b dd 7d da 3b fb a0 a0 3b
       -0.0032990323 0.005414163 0.006667836 0.004902003
0000e0 cd c0 94 bb ce 58 92 bb 49 72 35 3b 83 7f d9 bb
       -0.004539585 -0.0044661527 0.0027686527 -0.006637515
0000f0 4a 3a 8c bb d3 30 9c 3b 21 cc db 3b 49 70 9c bb
       -0.0042794095 0.0047665625 0.0067076837 -0.0047741276
000100 04 d4 81 ba 03 67 b6 bb 98 79 bb ba bf 4a d2 bb
       -0.0009905105 -0.005566479 -0.0014303206 -0.006417602
000110 15 a0 0e bb 6a 1f d7 3b 46 82 94 bb c9 1f 99 ba
       -0.0021762897 0.006565024 -0.0045321314 -0.0011682446
000120 af bd c8 bb eb 4f 85 bb e3 bd d9 bb 75 ba e0 3b
       -0.0061261277 -0.004068365 -0.0066449507 0.006858165
000130 f2 ff c1 3b e5 8b c9 bb d6 67 cd bb aa 64 11 3b
       0.0059204036 -0.00615071 -0.0062684817 0.0022185245
000140 57 52 b6 bb 5f 91 99 3b 56 8c e3 3b 0c c5 d9 bb
       -0.005564015 0.004686519 0.0069442196 -0.0066458043
000150 ae c0 8e bb 92 e0 da bb b4 27 e0 bb 4d 1e 19 3b
       -0.0043564653 -0.006679603 -0.0068406705 0.0023364008
000160 63 e0 3a 3b ab f2 10 3a 6b db b6 3b 0c 43 e9 bb
       0.0028515093 0.00055293244 0.005580356 -0.0071185883
000170 14 5b db bb 67 6e db 3b ac 59 e0 bb fe 5f 72 ba
       -0.006694207 0.0066965106 -0.006846627 -0.00092458713
000180 e9 62 5c b8 c7 e0 b9 bb ff 5f c2 ba 4a 75 c2 bb
       -5.2544205e-05 -0.0056725475 -0.0014829634 -0.005934392
000190 ed 91 34 3b 4b a2 e7 bb 82 28 e7 3b 27 ad 46 3b
       0.00275528 -0.0070689074 0.0070543895 0.003031561
0001a0 9b 52 d3 3b 36 8b d8 3b bc 12 8f bb 3e 3d cf 3b
       0.0064490563 0.006608392 -0.004366247 0.0063244393
0001b0 19 ed cd 3b d6 95 be 3b 65 b4 45 3b d7 c3 88 3b
       0.0062843678 0.0058162017 0.0030167338 0.0041737366
0001c0 8f 52 43 ba 6e 78 0c b8 28 6d 20 3a d2 dd d4 bb
       -0.0007450962 -3.349076e-05 0.0006119781 -0.0064961696
0001d0 fe f3 53 3b fa b9 8c 3b 2f 72 ae bb d0 94 44 3b
       0.0032341476 0.004294631 -0.0053236703 0.0029995926
0001e0 5f 5e 18 3a 25 9b 75 3b 7b 67 a6 bb 75 fd dd 3b
       0.0005812402 0.0037476507 -0.005078254 0.006774599
0001f0 06 6f 4c bb cc 61 ab 3b 1e b6 8e bb 1a d4 bb bb
       -0.0031194105 0.005230164 -0.004355206 -0.0057320716
000200 bb 38 0f 3b 44 cb 89 3a 02 d4 b3 bb 4f d8 65 3b
       0.0021853882 0.0010512848 -0.00548792 0.0035071557
000210 2f 96 7d 3b ce 22 ba bb b6 33 7e bb 57 dc b2 3b
       0.0038694253 -0.0056804186 -0.0038788146 0.0054583955
000220 21 0b 52 3b 86 cb d7 bb 30 c7 24 bb cd b0 3b 3b
       0.003205009 -0.006585541 -0.002514314 0.0028639317
000230 b4 e4 7f ba 08 00 8a 3b 0c 55 c7 bb 84 5f ec 3b
       -0.00097615574 0.0042114295 -0.0060831364 0.007213535
000240 1b 0f c7 bb 69 c4 e4 b7 8e 05 99 3b 5b 2d bd 3b
       -0.0060747988 -2.7271179e-05 0.0046698516 0.005773229
000250 09 39 e9 3b 69 20 60 ba 44 78 94 bb c3 e6 8b 3b
       0.007117395 -0.00085497514 -0.0045309383 0.0042694523
000260 4c ee a8 3b c0 7e 0d bb e2 7c 52 bb 50 21 84 3b
       0.0051553603 -0.0021590441 -0.0032117893 0.0040322915
000270 de 86 4d 3b 96 a4 eb 3b 94 be 8e bb 6b 05 f7 3a
       0.0031360905 0.007191251 -0.004356215 0.0018846219
000280 28 e3 90 3b 1a 74 1d 3b 03 32 90 bb 2f 3f b1 3b
       0.0044216104 0.00240255 -0.004400493 0.0054091434
000290 da b6 19 3b 02 5d b7 bb f1 b6 b0 ba ef b5 b2 3b
       0.0023454935 -0.005595804 -0.0013482255 0.005453817
0002a0 e5 fa 28 3b 1f 47 b9 bb a1 3e 4a bb b1 1c c8 bb
       0.002578431 -0.0056542302 -0.0030860084 -0.006106936
0002b0 84 a2 80 3b 52 97 f1 3a 2d 6b 93 bb cf bb e0 3b
       0.0039256234 0.0018431938 -0.0044988603 0.006858326
0002c0 a3 e1 a3 3b a5 8f a8 3b ac ae a8 bb 81 ed db bb
       0.005001263 0.005144077 -0.0051477756 -0.0067116623
0002d0 ae 6d 33 bb e1 a7 8a 3b d9 9a 9e 3b 3e 20 dc bb
       -0.0027378607 0.0042314385 0.0048402366 -0.0067177108
0002e0 2b df 81 bb 8b e8 e0 3b e6 25 cb 3b 74 c5 ab bb
       -0.0039633713 0.006863659 0.006199586 -0.005242044
0002f0 9f f0 a3 3b 9f b9 7b bb 7d 7b cc 3b 54 fb 70 bb
       0.0050030495 -0.00384102 0.006240307 -0.0036770897
000300 cf cf a4 bb c5 4a c7 bb 9e 23 de bb da 51 a4 3b
       -0.0050296555 -0.0060819113 -0.0067791482 0.0050146403
000310 9d 99 9e 3b a2 4d 12 bb 34 8b 8c bb 4c b3 91 bb
       0.0048400895 -0.0022324105 -0.0042890552 -0.0044464227
000320 2e 31 be bb c1 d5 56 3b 68 dc ac 3a be 37 de 3a
       -0.0058042025 0.0032781216 0.0013188245 0.0016953868
000330 01 fa d7 3b 41 de 9e 3b ff 3e 02 bb 39 51 2e ba
       0.006591082 0.004848272 -0.0019873974 -0.00066496764
000340 30 2f df bb 16 f7 d2 ba 5f c2 47 3b b6 e5 b2 3b
       -0.006811045 -0.0016095366 0.0030480844 0.0054595126
000350 3f 99 a9 bb 72 6e 68 b9 f7 58 c2 bb 50 7f e2 bb
       -0.005175739 -0.00022166388 -0.0059310156 -0.0069121495
000360 27 56 87 bb
       -0.004130143

encoder.obs_encoder.1.weight f4 [64, 217]
000000 dd 9a 9f 3d 03 e9 33 3d a2 11 78 bd 25 06 2d 3d
       0.0779321 0.04392339 -0.06056369 0.042242188
000010 d4 a8 7d 3c cb dc dd 3c 57 41 43 3e 33 72 01 3d
       0.015482146 0.027082821 0.19067894 0.03160305
000020 47 48 ce bc 45 ba 07 3e 61 c8 13 3d ac d5 dd bc
       -0.025180949 0.1325465 0.036079768 -0.027079426
000030 4a 05 03 be 72 b7 67 3d 2d ad 01 be 29 b1 53 3a
       -0.12794986 0.05657143 -0.12663718 0.000807541
000040 d4 c4 9c 3d bf 8d 96 bd 07 61 b4 bc e8 9e d1 bd
       0.076547295 -0.07351255 -0.022018922 -0.10235387
000050 ac c6 a2 3d d8 fc cf 3d 76 2e 3c 3d ed 56 08 3d
       0.0794805 0.10155648 0.045942746 0.033286024
000060 72 23 44 be 3a 25 92 bd ca d5 fc bc ae a6 9f 3d
       -0.19154146 -0.07136007 -0.030863661 0.077954635
000070 84 c0 42 3d 0d 05 a0 3d 84 5e b4 bd f7 81 ec 3d
       0.04754688 0.07813463 -0.0880709 0.11548226
000080 cd a8 5b 3e ab 3e 7a 3e 8a 7d 80 bd 30 00 f1 bd
       0.21451111 0.24437968 -0.06273945 -0.11767614
000090 b8 84 4a bd f8 07 2b bd b1 dd 04 bc cc de 26 bd
       -0.049442977 -0.041755646 -0.008109496 -0.04073982
0000a0 2a e6 1b bd 5b 5f 1c 3e 2e 82 0a 3e 78 53 49 bd
       -0.0380613 0.1527075 0.13526222 -0.049151868
0000b0 23 1e 51 bd f2 bb 23 3d fd 62 ed 3d 64 f1 d0 3d
       -0.05105413 0.03997416 0.11591146 0.102022916
0000c0 07 cf 1e 3d 90 35 8e 3c 8b 3a 36 3e af 60 00 be
       0.038771655 0.017359525 0.1779577 -0.12536882
0000d0 d0 53 11 bc ed a6 7c bd 2e 97 c8 bc 62 a9 e6 bb
       -0.00887008 -0.06168263 -0.02448615 -0.007039235
0000e0 ff dc bb bd 60 e1 57 bd 00 ad 1a be 72 47 3e 3e
       -0.09173011 -0.05270517 -0.15105057 0.18581942
0000f0 aa a5 de bd 2d 72 e1 bd e0 18 d1 3d 0c f2 a3 3d
       -0.10871442 -0.110081054 0.10209823 0.08005151
000100 1d 39 75 3d d2 c3 6d bd 3d db 2d 3d d2 01 6b 3d
       0.05986892 -0.058048077 0.04244541 0.057374783
000110 eb dc 46 3e c0 59 28 3c 30 bb 20 be 29 50 cd bd
       0.19420211 0.010275304 -0.15696406 -0.10025055
000120 3c 17 28 be 69 dc e6 3d eb cc e5 3c e4 35 af 3c
       -0.16415113 0.11272509 0.028051814 0.021388002
000130 b9 9e 63 3d cf 55 93 bd da ff 2d be 67 2d ad 3d
       0.05557129 -0.07194101 -0.16992131 0.084559254
000140 0c cd 0d 3e 09 78 0c bd 76 dd e1 3c 75 78 e2 3c
       0.1384775 -0.034294162 0.027571421 0.027645329
000150 51 e4 a4 3d ce c5 b3 bd 5b d6 01 3e 3f 4b c4 3d
       0.080513604 -0.087779626 0.12679426 0.095846646
000160 2d 24 37 3e 68 2d 18 3d a6 f5 22 3d cb 59 9f 3c
       0.17884894 0.037152678 0.03978505 0.019451996
000170 c0 ef a1 bd 09 99 8d 3c b8 6c 9a 3d ae f0 80 bd
       -0.07907057 0.017284887 0.07540268 -0.06295906
000180 b6 2f 45 be 51 63 82 bc 2e ed e5 3d ea 45 be 3d
       -0.19256482 -0.015916498 0.11226879 0.09290679
000190 5e 30 50 be 7e 2d 03 3b 03 b1 0b be 5d e0 0b bd
       -0.2033095 0.002001613 -0.13641743 -0.034149516
0001a0 27 3a b4 3c e0 e6 52 be 53 d0 6a bd eb b9 19 3e
       0.022000385 -0.20595884 -0.05732758 0.15012328
0001b0 08 b5 63 3b 83 7c 33 3d 80 23 48 3d d6 e4 ef 3b
       0.0034745354 0.043819916 0.04886198 0.0073209805
0001c0 7f 07 3a 3c 1e e6 6b bd 26 a4 25 3b d6 ae 1f be
       0.011354326 -0.057592504 0.0025274842 -0.15594038
0001d0 0a de 0b bd ee 03 01 bd 08 10 24 3d 89 ad 0e 3c
       -0.0341473 -0.03149789 0.04005435 0.008708366
0001e0 68 1a 74 3d 6b 8d 28 bc bf b9 d2 bd 45 06 90 3e
       0.059595495 -0.010287623 -0.102893345 0.28129783
0001f0 4f 9f be 3c a1 68 49 3d 3e 81 52 3e 6f 99 2c bd
       0.023269324 0.049172048 0.20557114 -0.042138513
000200 dc e4 aa bd 38 af 96 3e 4b de 8d 3b 87 51 7a bc
       -0.08344433 0.29430556 0.004329478 -0.015278227
000210 59 b4 f1 3d 81 e3 02 bd 47 b8 40 3d 72 9e b0 ba
       0.11801977 -0.031955246 0.04705074 -0.0013474955
000220 86 fe 4f bd 5d 14 6d bd f2 c3 f7 bc 1e b4 8d 3d
       -0.05077984 -0.057880748 -0.030244801 0.0691912
000230 d1 42 0a 3e 8c c4 b0 3c 72 aa 50 3e 6c 95 d3 bd
       0.13502051 0.021578096 0.2037752 -0.10331234
000240 c7 25 e7 bd 03 35 c0 3d 92 20 78 3d aa 7d 1d bd
       -0.11286502 0.09385111 0.060577936 -0.03844992
000250 93 4b b9 3c 75 bb 22 bd 36 ad 5e bd b7 82 4c bb
       0.022619044 -0.039729554 -0.054364406 -0.0031205842
000260 fa 2c db 3c d8 4c 4f bd e7 37 62 bb 8c f3 e8 bd
       0.026754845 -0.050610393 -0.0034518184 -0.11374578
000270 ea 47 13 bd 92 dd 4b 3d 84 59 f8 bd 0b a2 ed 3d
       -0.035957254 0.049771853 -0.12126449 0.11603173
000280 22 80 d0 3d 08 3d 80 bd 69 a7 0b 3c b7 a8 02 be
       0.101806894 -0.06261641 0.0085238 -0.12759672
000290 30 3f 14 3b a7 9a d5 3b f3 b0 be bd 3e 82 4d bd
       0.002262067 0.00651868 -0.09311094 -0.050173037
0002a0 6e fc e0 3d ff 77 ca 3c 80 9e 11 3d 8e 24 e1 3d
       0.10985647 0.024715422 0.035551548 0.109933004
0002b0 ec f4 d9 bd b3 5d a7 3d 33 40 6c 3d 31 2d 29 be
       -0.10642418 0.081721686 0.057678413 -0.16521145
0002c0 bf 33 1e 3d 9e cd 7c bd 4f 9b c7 3c 1d 55 0a be
       0.038623568 -0.06171953 0.02436605 -0.1350903
0002d0 74 b3 49 3b ab e4 c4 3d 45 d2 e5 3d 56 d2 1a 3d
       0.0030777128 0.096139275 0.11221746 0.03779825
0002e0 39 15 d9 3d 21 3a 67 bd 12 0b f4 3d f6 ee 95 3d
       0.10599751 -0.05645192 0.11916174 0.07320969
0002f0 fe ba 0e 3e f2 c3 25 3e 9d d0 da 3d 96 a6 a2 3c
       0.1393852 0.16188028 0.10684321 0.019854825
000300 3b 30 1f 3d 33 5d 2a bc 3b 94 17 be 28 81 b7 bd
       0.038864356 -0.010398197 -0.14802639 -0.089601815
000310 1f 8e b0 bd 51 7b 2a bd 0f d9 0a 3e ce 2a ba 3c
       -0.086208574 -0.04162151 0.13559364 0.022725489
000320 5b 95 cc 3d e1 c8 3d bc 4c 94 b4 3d 9f 6c 7a bd
       0.09989425 -0.011583538 0.08817348 -0.061138745
000330 53 82 68 3d 0e c4 31 3e e6 de b4 bd af 66 20 3d
       0.05676491 0.17359945 -0.08831577 0.039160427
000340 ab 06 7b bc ad 72 08 bd 4a 28 3e bd 31 e1 14 bd
       -0.015321414 -0.03331249 -0.04642514 -0.03634757
000350 16 62 16 be 9a f5 c3 bd d6 67 83 be ca 20 89 bb
       -0.14685854 -0.09568329 -0.25665158 -0.004184817
000360 81 c7 f0 bd dd a0 a1 bc 25 bc 37 bd a1 c8 b1 bd
       -0.11756802 -0.019730026 -0.044857163 -0.08680845
000370 0e 77 87 3d 66 87 ff bd 98 07 cb 3d c4 79 1d 3c
       0.06614505 -0.12476997 0.09913558 0.009611551
000380 2b 58 7a bc 19 21 16 be d6 6c d0 bd 83 03 de bd
       -0.01527981 -0.14661063 -0.10177009 -0.108405136
000390 9c 07 0b 3e 8a 13 84 3d ae 80 3b be d9 a0 70 bc
       0.13577121 0.06449039 -0.18310806 -0.014686787
0003a0 07 30 24 be e4 b9 a2 be d1 2d 61 3b 83 b9 e9 3d
       -0.16033946 -0.31782448 0.0034359584 0.11412337
0003b0 0f 9a 6e 3c ca 12 ab bd 88 b4 a3 be 0f 25 de 3d
       0.014563098 -0.08353193 -0.31973672 0.10846912
0003c0 e8 b6 d1 bc 03 0b 18 bb b1 74 b5 3b 92 13 c7 bb
       -0.025599912 -0.0023199923 0.0055375923 -0.006075331
0003d0 87 68 eb bd 28 e5 6b bd f3 18 66 3d 3b 0d ae 3c
       -0.114945464 -0.057591587 0.056176137 0.021246543
0003e0 95 e8 4b 3d b7 1b 73 3d 05 81 22 bc 55 3d 26 3e
       0.049782354 0.059352603 -0.009918456 0.16234334
0003f0 c6 a9 3f bd b2 c1 2b bc 9b cc 9a bc 75 a0 e0 3c
       -0.046792768 -0.010483192 -0.018896392 0.027420262

encoder.obs_encoder.1.bias f4 [64]
000000 3c 8f 4d 3b 4e 6d 77 bb 03 c0 9e 3b f7 18 d5 b9
       0.0031365892 -0.003775436 0.004844667 -0.00040645126
000010 5a 9e db 3b 49 83 84 3a 53 45 43 b9 0f 63 a5 39
       0.0067022266 0.0010109927 -0.00018622474 0.00031545057
000020 73 fd d4 bb b6 1d 39 3b 26 a1 e6 3b 22 f2 8f bb
       -0.00649994 0.002824647 0.0070382534 -0.004392878
000030 cf eb bc bb 79 82 f1 bb 25 fe 94 bb f3 83 95 3b
       -0.0057654153 -0.00737029 -0.004546898 0.0045628487
000040 3e 00 24 ba 22 e2 41 bb 12 da ab 3b 52 20 71 3b
       -0.00062561396 -0.0029584249 0.005244502 0.0036792946
000050 85 5d c0 3a 81 a1 91 bb aa 30 9c bb 7f 6d ab bb
       0.0014676308 -0.0044443016 -0.0047665434 -0.005231559
000060 5a c0 5e bb ba 13 8e bb ae 68 dc 3b af 84 dd 3a
       -0.0033989162 -0.0043358477 0.006726346 0.0016900505
000070 e3 2c 3f bb 64 e1 36 bb 59 36 d4 3b fc 98 cc bb
       -0.0029171042 -0.002790534 0.0064762053 -0.006243823
000080 e2 0f c4 3b aa f6 2b ba 61 89 be 3b 70 97 2c bb
       0.0059833387 -0.0006559888 0.0058147167 -0.002633538
000090 ab 88 15 3a 50 03 a4 3b d8 ee a8 3b b2 cd 3b 3a
       0.0005704264 0.0050052777 0.0051554255 0.0007164135
0000a0 e8 32 12 bb bb 96 aa bb 6a 70 44 bb c9 11 8c bb
       -0.0022308175 -0.0052059568 -0.002997423 -0.004274581
0000b0 66 b3 60 3b 16 43 19 39 92 e2 be 3b 5c c9 e2 bb
       0.0034286617 0.00014616209 0.005825349 -0.0069209766
0000c0 a6 7f 58 bb b4 91 4c bb 1c 74 c1 3b e5 16 63 bb
       -0.0033035069 -0.0031214776 0.005903734 -0.0034651097
0000d0 d3 ce 91 ba 33 87 12 b9 57 97 d4 3b 85 03 f0 b9
       -0.001112426 -0.0001397401 0.0064877677 -0.0004577899
0000e0 99 8d aa bb 7f e6 a0 3b cd 49 ef bb cd 8f 89 b8
       -0.005204868 0.00491029 -0.007302499 -6.559454e-05
0000f0 f3 e5 e0 bb 6d 8b ac 3b df ac 97 ba 3e ca 5a bb
       -0.0068633496 0.0052656443 -0.0011571905 -0.0033384706

encoder.ln.weight f4 [64]
000000 67 5b 80 3f 14 c2 80 3f 13 9e 7e 3f 3c 36 7e 3f
       1.0027894 1.0059228 0.9945995 0.99301505
000010 80 56 80 3f 75 d9 80 3f 29 e6 80 3f c9 78 7e 3f
       1.0026398 1.0066363 1.0070239 0.99403054
000020 41 8b 7f 3f 6e e4 80 3f f6 23 7f 3f 38 ff 7e 3f
       0.9982186 1.0069711 0.9966425 0.9960818
000030 87 6c 7f 3f 7d 1a 7e 3f 5d a9 7f 3f 04 c5 7e 3f
       0.99774975 0.9925917 0.998678 0.9951937
000040 ef 27 80 3f 1e 17 7f 3f ce ec 80 3f 73 45 7e 3f
       1.0012187 0.9964465 1.0072267 0.9932472
000050 15 94 7f 3f b5 9b 80 3f 84 5b 7e 3f 56 bd 7f 3f
       0.9983533 1.0047518 0.9935839 0.9989828
000060 6b 28 7e 3f 46 3a 80 3f 85 e5 80 3f c0 67 7f 3f
       0.9928042 1.0017784 1.0070044 0.99767685
000070 07 7a 80 3f 00 b9 80 3f 27 24 80 3f 88 4d 80 3f
       1.003724 1.0056458 1.0011033 1.0023661
000080 33 85 7e 3f 12 74 7e 3f 00 ea 80 3f d9 6f 80 3f
       0.99421996 0.9939586 1.0071411 1.0034133
000090 ae 10 80 3f 78 8d 7e 3f 50 36 7e 3f 4f e2 80 3f
       1.000509 0.99434614 0.99301624 1.0069064
0000a0 6f e2 7e 3f a4 5c 7e 3f 6d c0 7e 3f fb c5 80 3f
       0.9956426 0.9936011 0.9951237 1.0060419
0000b0 fb ec 80 3f 2b 9a 80 3f a1 a0 7e 3f 06 24 7e 3f
       1.0072321 1.0047048 0.9946385 0.9927372
0000c0 9a 93 7e 3f ad 32 7e 3f 7f 94 80 3f 6c 63 7e 3f
       0.9944397 0.99296075 1.0045317 0.99370456
0000d0 c3 cd 80 3f a3 d2 80 3f b6 a5 80 3f 6d b3 80 3f
       1.0062793 1.0064281 1.0050571 1.0054756
0000e0 1c b0 7f 3f b0 60 7e 3f 1e 40 7e 3f 8e 03 80 3f
       0.99878097 0.99366283 0.99316585 1.0001085
0000f0 86 ea 7e 3f e1 e2 80 3f df 73 7f 3f a7 69 7e 3f
       0.99576604 1.0069238 0.9978618 0.9937996

encoder.ln.bias f4 [64]
000000 66 0b 5c 3b 67 28 9c bb b6 28 bd 3b 80 53 dc 3b
       0.003357613 -0.0047655585 0.0057726754 0.006723821
000010 8a 06 42 39 50 9e 0c bb 44 ec e2 bb e5 9d c6 3b
       0.00018503718 -0.0021456666 -0.0069251377 0.006061303
000020 ee 5e ef 3a 8d 6f cb bb 46 75 d3 3b fe 4f cb ba
       0.0018262544 -0.0062083662 0.006453189 -0.001551151
000030 f8 51 a9 bb a0 43 f0 bb b1 bb 5d 3b e1 45 b1 3b
       -0.005167242 -0.0073322803 0.0033833797 0.0054099415
000040 68 51 a2 bb 51 f4 0a bb a2 0b e2 bb 2b 6f e3 3b
       -0.004953552 -0.0021202753 -0.0068983594 0.0069407425
000050 97 0b 9c 3a 63 d3 b1 bb a0 58 9c ba 9d 77 3d bb
       0.001190531 -0.0054268106 -0.0011928268 -0.0028910406
000060 d3 30 d6 3b 15 15 81 bb 85 ef fe 39 57 93 1b 3b
       0.006536582 -0.0039392808 0.0004862511 0.0023738944
000070 57 6f d0 bb c7 d6 be bb bb 21 da 3b 83 ed af bb
       -0.006360929 -0.0058239433 0.006656853 -0.00536889
000080 4c 2e d2 3b 3f b1 db 3b 3d 66 e3 bb 01 a7 82 bb
       0.0064142104 0.006704479 -0.006939678 -0.0039871936
000090 5c 95 49 39 ba 60 e6 3b 9a e2 e8 3b 4f 86 98 bb
       0.00019224494 0.0070305737 0.007107091 -0.0046546827
0000a0 7b 6f c5 3b ba fa 87 bb 49 0a 8b 3b c2 c4 1a bb
       0.0060252524 -0.004149762 0.0042431694 -0.0023615812
0000b0 b8 98 e7 bb d7 35 5c bb 68 6b ad 3b b3 d2 c1 bb
       -0.007067766 -0.0033601427 0.005292345 -0.00591501
0000c0 59 b3 76 bb 0c a6 ec 3b 50 3f 1e b6 c4 55 db 3b
       -0.003764352 0.007221943 -2.3580687e-06 0.0066935737
0000d0 ad 3a d2 bb 8f e1 87 bb a0 db c7 b9 76 d7 a1 bb
       -0.006415686 -0.0041467617 -0.0003811987 -0.004939015
0000e0 30 52 b2 bb a5 60 dd 3b 9b 6b 44 3b 23 d7 32 ba
       -0.0054419264 0.0067559057 0.0029971364 -0.0006822219
0000f0 50 f2 a8 bb ee 9e 0a bb 52 9d 06 3b fe db 50 bb
       -0.005155839 -0.0021151858 0.0020540548 -0.0031869407

encoder.blocks.0.ln1.weight f4 [64]
000000 16 59 80 3f be c3 80 3f 08 9d 7e 3f 41 36 7e 3f
       1.0027187 1.0059736 0.9945836 0.99301535
000010 7e 5d 80 3f bd d9 80 3f 47 e6 80 3f 29 7a 7e 3f
       1.0028532 1.0066448 1.0070275 0.9940515
000020 8b 8e 7f 3f af e4 80 3f cc 2b 7f 3f 81 05 7f 3f
       0.9982688 1.0069789 0.99676204 0.99617773
000030 54 68 7f 3f 11 1a 7e 3f df b9 7f 3f aa cf 7e 3f
       0.9976857 0.99258524 0.9989299 0.9953562
000040 e0 29 80 3f 31 19 7f 3f 0a ed 80 3f d8 46 7e 3f
       1.0012779 0.99647814 1.0072339 0.9932685
000050 7c 95 7f 3f c9 9f 80 3f cb 59 7e 3f c2 c6 7f 3f
       0.9983747 1.0048763 0.99355763 0.99912655
000060 69 28 7e 3f e4 3c 80 3f 82 e4 80 3f da 6e 7f 3f
       0.9928041 1.0018582 1.0069735 0.9977852
000070 e1 79 80 3f 64 b9 80 3f af 2d 80 3f bd 50 80 3f
       1.0037194 1.0056577 1.0013942 1.0024639
000080 81 89 7e 3f 29 75 7e 3f 5d ea 80 3f a2 70 80 3f
       0.99428564 0.9939752 1.0071522 1.0034373
000090 53 15 80 3f b7 90 7e 3f a4 36 7e 3f 81 e2 80 3f
       1.0006508 0.9943957 0.99302125 1.0069124
0000a0 15 e7 7e 3f 3c 5e 7e 3f 10 c5 7e 3f eb c5 80 3f
       0.99571353 0.9936254 0.99519444 1.00604
0000b0 f5 ec 80 3f 77 9a 80 3f 9e a0 7e 3f 0f 24 7e 3f
       1.0072314 1.0047139 0.9946383 0.9927377
0000c0 a8 93 7e 3f 1a 33 7e 3f f9 94 80 3f a4 65 7e 3f
       0.99444056 0.99296725 1.0045463 0.9937384
0000d0 0c ce 80 3f 41 d3 80 3f c9 a5 80 3f 62 b3 80 3f
       1.006288 1.006447 1.0050594 1.0054743
0000e0 52 bf 7f 3f 2f 63 7e 3f c8 40 7e 3f d2 04 80 3f
       0.99901307 0.9937009 0.993176 1.0001471
0000f0 df ec 7e 3f e8 e2 80 3f 62 75 7f 3f 47 6a 7e 3f
       0.99580187 1.0069246 0.99788487 0.99380916

encoder.blocks.0.ln1.bias f4 [64]
000000 55 b7 53 3b 66 5e 9d bb bc db bb 3b 43 46 dc 3b
       0.003230532 -0.004802513 0.0057329815 0.006722243
000010 36 d0 a5 38 71 d5 0e bb 92 a2 e3 bb 55 30 c6 3b
       7.9065954e-05 -0.0021794701 -0.00694687 0.006048242
000020 69 c6 ea 3a 36 0d cc bb 6d 25 d3 3b 60 37 ef ba
       0.0017911914 -0.006227161 0.0064436705 -0.0018250756
000030 82 78 a9 bb 39 53 f0 bb f7 0d 51 3b 3e f7 af 3b
       -0.0051718364 -0.0073341397 0.0031899193 0.0053700497
000040 89 65 a3 bb 1e 67 19 bb 25 39 e2 bb 58 c2 e2 3b
       -0.004986469 -0.002340741 -0.006903785 0.0069201402
000050 0e a4 84 3a 01 d2 b4 bb c9 80 a6 ba 0f 2e 42 bb
       0.0010119693 -0.0055181985 -0.0012703176 -0.0029629504
000060 df e4 d5 3b 19 00 82 bb 68 5d 76 39 b2 75 15 3b
       0.0065275277 -0.003967297 0.00023495185 0.0022805748
000070 7e 28 d1 bb 36 de be bb b8 68 d9 3b b2 88 b1 bb
       -0.006383001 -0.0058248295 0.006634798 -0.0054179067
000080 28 50 d2 3b 65 6b db 3b 1f 0b e4 bb 27 1a 83 bb
       0.006418247 0.006696152 -0.0069593336 -0.0040009203
000090 ef a6 78 37 f4 56 e6 3b 14 be e8 3b 65 e8 9a bb
       1.4820819e-05 0.0070294086 0.007102737 -0.0047274106
0000a0 d4 52 c4 3b a3 25 89 bb ba ce 87 3b a7 2c 2d bb
       0.005991319 -0.004185395 0.004144517 -0.002642432
0000b0 5a d2 e7 bb 75 76 5a bb 7d 28 ad 3b 60 2f c4 bb
       -0.0070746364 -0.0033334766 0.0052843676 -0.005987093
0000c0 58 2e 79 bb 1d 9b ec 3b 92 6c 9c b8 47 b5 da 3b
       -0.0038022008 0.0072206394 -7.4588825e-05 0.006674442
0000d0 a3 8e d2 bb b4 08 8a bb 0a 6b c8 b9 a5 61 a2 bb
       -0.006425695 -0.0042124633 -0.00038226723 -0.004955488
0000e0 4e fc b4 bb 66 93 dc 3b c1 42 43 3b be 30 55 ba
       -0.005523241 0.0067314385 0.0029794427 -0.00081325683
0000f0 58 41 ac bb 53 62 0d bb 26 cf 04 3b 4d fb 5b bb
       -0.005256813 -0.0021573498 0.0020265072 -0.0033566535

encoder.blocks.0.ln2.weight f4 [64]
000000 d6 6a 80 3f 7f c1 80 3f f7 57 7f 3f de 35 7e 3f
       1.0032604 1.005905 0.997436 0.99300945
000010 ff 05 80 3f 27 e1 80 3f 9c e5 80 3f e1 63 7e 3f
       1.000183 1.0068711 1.0070071 0.99371153
000020 70 71 7f 3f 24 e5 80 3f 15 24 7f 3f 21 86 7e 3f
       0.99782467 1.0069928 0.9966443 0.99423414
000030 2f 76 7f 3f 05 1e 7e 3f a3 aa 7f 3f f8 14 7f 3f
       0.9978971 0.99264556 0.99869746 0.9964137
000040 41 0d 80 3f 60 e4 7e 3f 80 ed 80 3f 78 44 7e 3f
       1.0004045 0.9956722 1.0072479 0.99323225
000050 9d ba 7f 3f fa 9f 80 3f 43 38 7e 3f 73 90 7f 3f
       0.99894124 1.0048821 0.993046 0.99829787
000060 82 2b 7e 3f 05 38 80 3f a3 d6 80 3f 3e 6c 7f 3f
       0.9928514 1.0017096 1.0065502 0.9977454
000070 61 6f 80 3f fb 90 80 3f bd 5f 80 3f 7c 4a 80 3f
       1.003399 1.0044245 1.0029217 1.0022731
000080 76 b4 7e 3f 13 61 7e 3f 98 ea 80 3f 45 5c 80 3f
       0.9949411 0.99366874 1.0071592 1.0028158
000090 51 c4 7f 3f 4e b4 7e 3f 8c 38 7e 3f 73 e2 80 3f
       0.9990893 0.99493873 0.99305034 1.0069107
0000a0 da cf 7e 3f ec 8a 7e 3f d9 c0 7e 3f b1 df 80 3f
       0.99535906 0.9943073 0.9951301 1.0068265
0000b0 f3 ed 80 3f 19 91 80 3f df 8c 7e 3f 00 24 7e 3f
       1.0072616 1.004428 0.994337 0.9927368
0000c0 ee aa 7e 3f 1b 34 7e 3f c7 83 80 3f 6e 70 7e 3f
       0.9947957 0.99298257 1.0040215 0.99390304
0000d0 fa c9 80 3f 28 cb 80 3f 1e 9d 80 3f f9 aa 80 3f
       1.0061638 1.0061998 1.0047948 1.0052177
0000e0 fb 7e 7f 3f 8f 72 7e 3f 65 49 7e 3f d5 01 80 3f
       0.9980313 0.9939355 0.9933074 1.0000559
0000f0 47 c4 7e 3f d5 e3 80 3f 7d 57 7f 3f 52 7b 7e 3f
       0.99518245 1.0069529 0.9974287 0.9940692

encoder.blocks.0.ln2.bias f4 [64]
000000 f6 6c 69 3b ab 84 8b bb 7b cb cb 3b 53 ea e3 3b
       0.0035617924 -0.0042577586 0.006219325 0.006955424
000010 62 66 ef 3a 00 85 95 ba 96 ab e0 bb fe 97 d6 3b
       0.0018264765 -0.0011407435 -0.006856392 0.0065488806
000020 40 ad 21 3b 1d 5a cb bb 5a b6 d8 3b e2 24 a8 3b
       0.0024669915 -0.0062058107 0.006613535 0.00513135
000030 ba 87 a4 bb 8f c2 ee bb 8d dc 65 3b e8 ba b9 3b
       -0.0050210627 -0.007286377 0.0035074085 0.005668033
000040 1f 72 a6 bb 41 d9 28 3a e2 56 e2 bb 97 eb e7 3b
       -0.0050795223 0.0006441065 -0.00690733 0.007077645
000050 62 f1 b7 3a 1b 70 b2 bb ed d3 78 3a ea 30 3f bb
       0.001403373 -0.005445493 0.00094920286 -0.0029173442
000060 14 25 df 3b 92 fb 58 bb 8d 66 42 3b a9 9b 8c 3b
       0.00680984 -0.0033108932 0.0029663176 0.004291017
000070 48 8a da bb 4b 1e 8f bb ff 53 d3 3b d6 7a b5 bb
       -0.0066693164 -0.004367625 0.006449222 -0.005538325
000080 df 4d e0 3b 41 32 df 3b 70 35 d7 bb b7 b9 69 bb
       0.0068452205 0.0068114107 -0.0065676495 -0.0035663673
000090 b8 d7 eb 3a f5 3a e8 3b 64 af e8 3b 4e 53 89 bb
       0.0017993366 0.0070871064 0.0071009863 -0.004190839
0000a0 d5 47 d0 3b 74 f7 7e bb cf c8 88 3b da 59 17 b9
       0.0063562193 -0.0038904818 0.004174329 -0.00014433954
0000b0 a1 28 e5 bb 1f c6 75 bb 13 06 c4 3b c2 e1 aa bb
       -0.0069933687 -0.0037502123 0.0059821694 -0.0052149007
0000c0 b9 0d 6a bb 54 1b ee 3b 1e b3 b8 3a 84 ac d9 3b
       -0.0035713746 0.0072664414 0.0014091467 0.00664288
0000d0 c3 22 cd bb ad 52 51 bb 32 66 07 3a 80 70 82 bb
       -0.0062602474 -0.0031940148 0.00051650696 -0.003980696
0000e0 d0 26 8d bb 9d dc e0 3b 2d 99 5a 3b 76 98 3d ba
       -0.0043076053 0.0068622367 0.003335546 -0.0007232496
0000f0 cc e1 b3 bb d9 4b 25 bb 40 6a 31 3b f4 15 f4 ba
       -0.0054895636 -0.002522221 0.0027071387 -0.0018622265

encoder.blocks.0.attn.mask f4 [1, 1, 12, 12]
000000 00 00 80 3f 00 00 00 00 00 00 00 00 00 00 00 00
       1.0 0.0 0.0 0.0
000010 00 00 00 00 00 00 00 00 00 00 00 00 00 00 00 00
       0.0 0.0 0.0 0.0
000020 00 00 00 00 00 00 00 00 00 00 00 00 00 00 00 00
       0.0 0.0 0.0 0.0
000030 00 00 80 3f 00 00 80 3f 00 00 00 00 00 00 00 00
       1.0 1.0 0.0 0.0
000040 00 00 00 00 00 00 00 00 00 00 00 00 00 00 00 00
       0.0 0.0 0.0 0.0
000050 00 00 00 00 00 00 00 00 00 00 00 00 00 00 00 00
       0.0 0.0 0.0 0.0
000060 00 00 80 3f 00 00 80 3f 00 00 80 3f 00 00 00 00
       1.0 1.0 1.0 0.0
000070 00 00 00 00 00 00 00 00 00 00 00 00 00 00 00 00
       0.0 0.0 0.0 0.0
000080 00 00 00 00 00 00 00 00 00 00 00 00 00 00 00 00
       0.0 0.0 0.0 0.0
000090 00 00 80 3f 00 00 80 3f 00 00 80 3f 00 00 80 3f
       1.0 1.0 1.0 1.0
0000a0 00 00 00 00 00 00 00 00 00 00 00 00 00 00 00 00
       0.0 0.0 0.0 0.0
0000b0 00 00 00 00 00 00 00 00 00 00 00 00 00 00 00 00
       0.0 0.0 0.0 0.0
0000c0 00 00 80 3f 00 00 80 3f 00 00 80 3f 00 00 80 3f
       1.0 1.0 1.0 1.0
0000d0 00 00 80 3f 00 00 00 00 00 00 00 00 00 00 00 00
       1.0 0.0 0.0 0.0
0000e0 00 00 00 00 00 00 00 00 00 00 00 00 00 00 00 00
       0.0 0.0 0.0 0.0
0000f0 00 00 80 3f 00 00 80 3f 00 00 80 3f 00 00 80 3f
       1.0 1.0 1.0 1.0
000100 00 00 80 3f 00 00 80 3f 00 00 00 00 00 00 00 00
       1.0 1.0 0.0 0.0
000110 00 00 00 00 00 00 00 00 00 00 00 00 00 00 00 00
       0.0 0.0 0.0 0.0
000120 00 00 80 3f 00 00 80 3f 00 00 80 3f 00 00 80 3f
       1.0 1.0 1.0 1.0
000130 00 00 80 3f 00 00 80 3f 00 00 80 3f 00 00 00 00
       1.0 1.0 1.0 0.0
000140 00 00 00 00 00 00 00 00 00 00 00 00 00 00 00 00
       0.0 0.0 0.0 0.0
000150 00 00 80 3f 00 00 80 3f 00 00 80 3f 00 00 80 3f
       1.0 1.0 1.0 1.0
000160 00 00 80 3f 00 00 80 3f 00 00 80 3f 00 00 80 3f
       1.0 1.0 1.0 1.0
000170 00 00 00 00 00 00 00 00 00 00 00 00 00 00 00 00
       0.0 0.0 0.0 0.0
000180 00 00 80 3f 00 00 80 3f 00 00 80 3f 00 00 80 3f
       1.0 1.0 1.0 1.0
000190 00 00 80 3f 00 00 80 3f 00 00 80 3f 00 00 80 3f
       1.0 1.0 1.0 1.0
0001a0 00 00 80 3f 00 00 00 00 00 00 00 00 00 00 00 00
       1.0 0.0 0.0 0.0
0001b0 00 00 80 3f 00 00 80 3f 00 00 80 3f 00 00 80 3f
       1.0 1.0 1.0 1.0
0001c0 00 00 80 3f 00 00 80 3f 00 00 80 3f 00 00 80 3f
       1.0 1.0 1.0 1.0
0001d0 00 00 80 3f 00 00 80 3f 00 00 00 00 00 00 00 00
       1.0 1.0 0.0 0.0
0001e0 00 00 80 3f 00 00 80 3f 00 00 80 3f 00 00 80 3f
       1.0 1.0 1.0 1.0
0001f0 00 00 80 3f 00 00 80 3f 00 00 80 3f 00 00 80 3f
       1.0 1.0 1.0 1.0
000200 00 00 80 3f 00 00 80 3f 00 00 80 3f 00 00 00 00
       1.0 1.0 1.0 0.0
000210 00 00 80 3f 00 00 80 3f 00 00 80 3f 00 00 80 3f
       1.0 1.0 1.0 1.0
000220 00 00 80 3f 00 00 80 3f 00 00 80 3f 00 00 80 3f
       1.0 1.0 1.0 1.0
000230 00 00 80 3f 00 00 80 3f 00 00 80 3f 00 00 80 3f
       1.0 1.0 1.0 1.0
