trainer/results/football/11_vs_11_stochastic/mat/check/run1/models/transformer_1500.pt (torch, 467894 bytes, 73 tensors)

encoder.state_encoder.0.weight f4 [37]
1.0 1.0 1.0 1.0 1.0 1.0 1.0 1.0
1.0 1.0 1.0 1.0 1.0 1.0 1.0 1.0
1.0 1.0 1.0 1.0 1.0 1.0 1.0 1.0
1.0 1.0 1.0 1.0 1.0 1.0 1.0 1.0
1.0 1.0 1.0 1.0 1.0
00000000: 0000 803f 0000 803f 0000 803f 0000 803f
00000010: 0000 803f 0000 803f 0000 803f 0000 803f
00000020: 0000 803f 0000 803f 0000 803f 0000 803f
00000030: 0000 803f 0000 803f 0000 803f 0000 803f
00000040: 0000 803f 0000 803f 0000 803f 0000 803f
00000050: 0000 803f 0000 803f 0000 803f 0000 803f
00000060: 0000 803f 0000 803f 0000 803f 0000 803f
00000070: 0000 803f 0000 803f 0000 803f 0000 803f
00000080: 0000 803f 0000 803f 0000 803f 0000 803f
00000090: 0000 803f

encoder.state_encoder.0.bias f4 [37]
0.0 0.0 0.0 0.0 0.0 0.0 0.0 0.0
0.0 0.0 0.0 0.0 0.0 0.0 0.0 0.0
0.0 0.0 0.0 0.0 0.0 0.0 0.0 0.0
0.0 0.0 0.0 0.0 0.0 0.0 0.0 0.0
0.0 0.0 0.0 0.0 0.0
00000000: 0000 0000 0000 0000 0000 0000 0000 0000
00000010: 0000 0000 0000 0000 0000 0000 0000 0000
00000020: 0000 0000 0000 0000 0000 0000 0000 0000
00000030: 0000 0000 0000 0000 0000 0000 0000 0000
00000040: 0000 0000 0000 0000 0000 0000 0000 0000
00000050: 0000 0000 0000 0000 0000 0000 0000 0000
00000060: 0000 0000 0000 0000 0000 0000 0000 0000
00000070: 0000 0000 0000 0000 0000 0000 0000 0000
00000080: 0000 0000 0000 0000 0000 0000 0000 0000
00000090: 0000 0000

encoder.state_encoder.1.weight f4 [64, 37]
0.4574152 0.19178663 0.11696038 -0.03484751 -0.024718557 0.08946806 0.01876197 0.09317158
0.26316312 -0.070077896 0.3382568 -0.05923168 -0.12915726 -0.2459303 -0.024627378 0.13580255
-0.15919763 -0.17724416 0.041411754 0.022096744 0.18048406 0.123222694 -0.07639876 -0.36825076
-0.29680172 -0.034182478 0.056617558 0.20112307 0.051109444 0.20088284 0.1841506 -0.07784154
0.022256143 -0.00198585 0.017833995 0.16791677 0.14283958 0.2520978 -0.0026797678 0.036555268
-0.34279457 0.20965734 0.109166384 0.05958064 0.182345 0.19287658 0.05516808 0.016364643
-0.12562779 0.28481907 0.024451666 0.35011736 -0.16751002 -0.27444172 0.09274273 0.009425651
-0.14077525 -0.21963161 0.17755678 -0.022642229 0.02076482 0.04338099 -0.35535234 -0.17457849
0.10034779 -0.06924844 -0.061708517 -0.08110467 0.29113233 0.07335813 -0.19970822 -0.03494495
-0.064540915 0.312445 0.062430877 -0.1748564 0.15701269 0.08229059 -0.085262515 -0.16688499
0.044076603 -0.23346321 0.014359764 -0.050128154 -0.2761496 -0.09011372 0.19620766 0.33910358
0.087567285 0.20255402 0.005088991 0.11868635 0.05329292 0.17252271 0.22197093 0.057809833
-0.032914076 -0.15549012 -0.27870542 0.29608682 -0.18096645 -0.054570347 -0.2719342 -0.05681888
-0.086294785 0.25709227 0.10048054 0.00021697802 0.01413764 0.20644523 -0.175578 0.06629577
-0.55853295 -0.055624884 -0.1845203 0.26592916 -0.08810885 -0.028984131 -0.30324194 -0.05605378
0.25482255 -0.09172232 -0.07383927 -0.2708589 0.19046381 0.018751414 -0.006208304 -0.13356234
-0.124814704 -0.09745824 0.05768247 0.25524354 0.14021857 -0.14652897 -0.07516245 0.16695458
-0.25621763 0.022513237 -0.18820949 -0.05454332 -0.05423308 -0.191489 -0.06498444 0.14634998
0.24868573 0.27689525 -0.3586541 -0.19422892 0.20540085 -0.25503674 0.36688456 -0.055246513
-0.047298037 0.130609 -0.043869317 0.086236976 -0.08167747 0.08824544 -0.013922421 -0.0008757562
-0.28996956 -0.2678294 -0.12416736 -0.003983409 -0.083968274 -0.18522517 -0.14653817 -0.008485533
0.19713818 0.023719832 0.03716988 -0.14856616 -0.12148814 0.012963545 -0.07299419 -0.011729042
-0.043155413 -0.09657931 -0.09067693 -0.36637384 -0.2825897 -0.3737699 -0.06531416 0.08889984
-0.19877006 0.062309705 0.17385122 -0.008961584 0.096334815 0.2159585 -0.11990709 0.064151324
-0.17163816 -0.28194264 0.013052619 0.16149867 0.14832835 -0.05156396 -0.1286681 -0.41663256
0.09592095 -0.11497352 0.053902917 -0.065543264 0.2730092 -0.10748558 -0.6373737 -0.19424647
-0.06450384 0.08185028 -0.11890842 0.0473612 -0.14008644 -0.07692784 -0.14484356 -0.18607596
0.043479685 0.0050566993 -0.14898743 0.09944455 -0.044569854 0.10265905 -0.037873775 0.28203073
0.068844385 -0.035023462 -0.3559894 0.2541483 -0.0029488925 0.07143271 0.14594343 0.2193845
-0.12030955 -0.04227861 -0.08445814 -0.2582056 -0.39506748 0.18912336 -0.13990681 0.022381444
-0.031242913 0.021755932 -0.01393924 0.09101519 0.13713178 0.12850487 -0.07857095 -0.25117433
-0.21247439 0.042816125 -0.10013963 0.007848316 -0.51894224 0.08713726 -0.14834349 0.1854715
00000000: 5332 ea3e b763 443e ec88 ef3d 43bc 0ebd
00000010: 927e cabc 083b b73d b4b2 993c bed0 be3d
00000020: 51bd 863e 0085 8fbd ff2f ad3e eb9c 72bd
00000030: cd41 04be 27d5 7bbe 5bbf c9bc d30f 0b3e
00000040: b404 23be 7e7f 35be 5f9f 293d 3b04 b53c
00000050: d0d0 383e 2e5c fc3d f476 9cbd 5d8b bcbe
00000060: 65f6 97be ed02 0cbd d0e7 673d 35f3 4d3e
00000070: 2358 513d 3bb4 4d3e fa91 3c3e 636b 9fbd
00000080: 8452 b63c 0925 02bb 9918 923c 60f2 2b3e
00000090: 8a44 123e f612 813e 0b9f 2fbb faba 153d
000000a0: c582 afbe 6ab0 563e a092 df3d d40a 743d
000000b0: a6b8 3a3e 7081 453e edf7 613d 250f 863c
000000c0: 92a4 00be ced3 913e dc4e c83c 9542 b33e
000000d0: bf87 2bbe a083 8cbe e7ef bd3d 0c6e 1a3c
000000e0: 6327 10be 1ce7 60be 72d1 353e 327c b9bc
000000f0: fc1a aa3c 44b0 313d bef0 b5be b4c4 32be
00000100: 2483 cd3d 20d2 8dbd 12c2 7cbd 351a a6bd
00000110: 4c0f 953e ca3c 963d 5080 4cbe 7022 0fbd
00000120: 072e 84bd cbf8 9f3e 85b7 7f3d 8e0d 33be
00000130: efc7 203e f887 a83d 1d9e aebd e6e3 2abe
00000140: ab89 343d fb10 6fbe 3745 6b3c 2e53 4dbd
00000150: 7b63 8dbe 8b8d b8bd a9ea 483e fc9e ad3e
00000160: 7a56 b33d 526a 4f3e 8dc1 a63b d411 f33d
00000170: ad49 5a3d cba9 303e 594c 633e 01ca 6c3d
00000180: e9d0 06bd cd38 1fbe 7ab2 8ebe b198 973e
00000190: 454f 39be 2885 5fbd f63a 8bbe eaba 68bd
000001a0: 52bb b0bd 99a1 833e bec8 cd3d 9884 6339
000001b0: 8fa1 673c 6166 533e b8ca 33be 14c6 873d
000001c0: 04fc 0ebf ebd6 63bd e4f2 3cbe de27 883e
000001d0: 6a72 b4bd 2170 edbc 8742 9bbe a698 65bd
000001e0: 1a78 823e e9d8 bbbd 0b39 97bd 05ae 8abe
000001f0: f208 433e 919c 993c 076f cbbb 91c4 08be
00000200: da9e ffbd 3098 c7bd 7444 6c3d 48af 823e
00000210: 7595 0f3e b10b 16be c5ee 99bd 24f6 2a3e
00000220: f52e 83be ae6d b83c fdb9 40be d168 5fbd
00000230: 8223 5ebd b115 44be 9016 85bd c5dc 153e
00000240: 79a7 7e3e 37c5 8d3e 83a1 b7be f2e3 46be
00000250: 9a54 523e 2d94 82be 4bd8 bb3e 2b4a 62bd
00000260: 96bb 41bd 5ebe 053e 50b0 33bd 039d b03d
00000270: 8446 a7bd 06ba b43d de1a 64bc 0193 65ba
00000280: e476 94be ef20 89be 754b febd 4287 82bb
00000290: 8ff7 abbd abab 3dbe 1a0e 16be e806 0bbc
000002a0: 97de 493e 1850 c23c 723f 183d ba21 18be
000002b0: c6ce f8bd 0c65 543c fa7d 95bd 2b2b 40bc
000002c0: bbc3 30bd 60cb c5bd d4b4 b9bd 5a95 bbbe
000002d0: 99af 90be c55e bfbe 6ec3 85bd 1f11 b63d
000002e0: 618a 4bbe 7638 7f3d 0e06 323e 9cd3 12bc
000002f0: 304b c53d 3a24 5d3e d991 f5bd c561 833d
00000300: eac1 2fbe c95a 90be a7da 553c e85f 253e
00000310: 63e3 173e bb34 53bd 92c1 03be dd50 d5be
00000320: 3472 c43d 3d77 ebbd 4ec9 5c3d 8c3b 86bd
00000330: ddc7 8b3e 6621 dcbd ec2a 23bf 8ce8 46be
00000340: 971a 84bd 1fa1 a73d 4286 f3bd d1fd 413d
00000350: d272 0fbe 588c 9dbd df51 14be b28a 3ebe
00000360: c117 323d abb2 a53b 2990 18be 96a9 cb3d
00000370: e18e 36bd e83e d23d 8821 1bbd 5566 903e
00000380: 49fe 8c3d c374 0fbd 3e44 b6be ba1f 823e
00000390: 3542 41bb 504b 923d 3272 153e 55a6 603e
000003a0: da64 f6bd 562c 2dbd 64f8 acbd 8633 84be
000003b0: 4946 cabe 8ea9 413e bb43 0fbe 4a59 b73c
000003c0: 23f1 ffbc 7f39 b23c 6961 64bc 2c66 ba3d
000003d0: 466c 0c3e c896 033e cee9 a0bd ec99 80be
000003e0: e392 59be f65f 2f3d 0216 cdbd 3996 003c
000003f0: 66d9 04bf 0575 b23d 5be7 17be 3eec 3d3e

encoder.state_encoder.1.bias f4 [64]
0.0 0.0 0.0 0.0 0.0 0.0 0.0 0.0
0.0 0.0 0.0 0.0 0.0 0.0 0.0 0.0
0.0 0.0 0.0 0.0 0.0 0.0 0.0 0.0
0.0 0.0 0.0 0.0 0.0 0.0 0.0 0.0
0.0 0.0 0.0 0.0 0.0 0.0 0.0 0.0
0.0 0.0 0.0 0.0 0.0 0.0 0.0 0.0
0.0 0.0 0.0 0.0 0.0 0.0 0.0 0.0
0.0 0.0 0.0 0.0 0.0 0.0 0.0 0.0
00000000: 0000 0000 0000 0000 0000 0000 0000 0000
00000010: 0000 0000 0000 0000 0000 0000 0000 0000
00000020: 0000 0000 0000 0000 0000 0000 0000 0000
00000030: 0000 0000 0000 0000 0000 0000 0000 0000
00000040: 0000 0000 0000 0000 0000 0000 0000 0000
00000050: 0000 0000 0000 0000 0000 0000 0000 0000
00000060: 0000 0000 0000 0000 0000 0000 0000 0000
00000070: 0000 0000 0000 0000 0000 0000 0000 0000
00000080: 0000 0000 0000 0000 0000 0000 0000 0000
00000090: 0000 0000 0000 0000 0000 0000 0000 0000
000000a0: 0000 0000 0000 0000 0000 0000 0000 0000
000000b0: 0000 0000 0000 0000 0000 0000 0000 0000
000000c0: 0000 0000 0000 0000 0000 0000 0000 0000
000000d0: 0000 0000 0000 0000 0000 0000 0000 0000
000000e0: 0000 0000 0000 0000 0000 0000 0000 0000
000000f0: 0000 0000 0000 0000 0000 0000 0000 0000

encoder.obs_encoder.0.weight f4 [217]
0.8595744 0.9351321 0.95139945 0.9352165 0.91434485 0.8357031 0.9290813 0.8951337
0.88942826 1.2042005 1.1258318 1.2642407 1.1685764 0.91534257 0.5689768 0.426371
1.1838253 1.1443685 1.0264187 1.153219 1.9578583 1.0950794 1.0225693 1.031656
1.226152 1.1618813 1.1184036 1.2670202 1.2912966 1.444131 1.3343021 1.5558258
0.390166 1.3532051 1.3038069 1.3990307 1.4829152 0.8892935 0.6627601 0.27687
0.4342951 0.58188885 0.9965467 0.95377415 1.2043641 2.212383 0.92931676 1.3023894
0.72612786 1.2122656 0.79658777 0.6136522 1.0274501 0.0846882 0.45228362 0.36246252
0.77838075 0.983666 0.84907293 0.8008222 0.19036093 0.28723672 0.38992155 0.68680835
0.8673702 0.8866873 0.5845903 0.17802146 0.31133047 0.4110166 0.8704045 0.8805133
0.86152095 0.6885898 0.21077022 0.46867457 0.33698723 0.8676534 0.90767133 0.7281997
0.6013239 0.093530156 0.40082335 0.34824824 0.98177063 0.9300987 0.81801087 0.5007061
0.09823192 0.44648215 0.48355958 0.8185239 0.8902368 0.6155831 0.81311023 0.24028763
0.35804436 0.45288998 0.7836347 0.77017534 0.41688004 0.6091303 0.17289676 0.310418
0.42385003 0.68241656 0.9079334 0.4910849 0.41762677 0.14066693 0.3829931 0.46121213
0.7675463 0.8653148 0.9140609 1.0997722 0.60793096 0.58059454 0.53147495 1.4191823
0.7963772 1.0201006 0.99853253 1.1132212 0.91593224 0.9317509 1.2111182 1.1065931
1.059698 1.0594463 0.98597354 1.0073318 0.38225865 0.81529725 0.7912576 0.5213656
0.8955656 0.6006458 1.0369942 0.90767926 1.0037854 1.1004887 0.99260837 0.9942098
0.99498117 0.90288514 1.2208114 0.8405063 0.7870628 0.57617384 0.5690029 0.67263407
0.8411444 0.94596684 0.8813447 1.0108848 0.5194617 0.5143622 0.59856373 0.7203235
0.8898228 0.75483066 0.95114213 0.39181757 0.48719496 0.49852493 0.7976193 0.9169387
0.6929035 0.92790055 0.4120094 0.5650907 0.59017783 0.96064246 0.88163686 0.7264628
0.97686064 0.3138342 0.47785994 0.47875115 0.70315766 0.9152531 0.8406738 0.94724256
0.46729764 0.47458035 0.447071 0.66598 0.93466866 0.8805336 1.0960256 0.74995875
0.7840472 0.614481 0.82496095 0.9427675 0.89045006 1.0409139 0.61868167 0.9347285
0.63562256 0.9552746 0.9863159 1.0103886 1.2038388 0.8970864 0.85575336 0.9455474
0.8143125 0.8489283 0.90092623 0.80035496 0.76947635 0.89225596 0.64750534 0.85520476
0.9778643
00000000: 110d 5c3f d164 6f3f ea8e 733f 596a 6f3f
00000010: 8112 6a3f a3f0 553f 46d8 6d3f 7b27 653f
00000020: 92b1 633f 3e23 9a3f 421b 903f a4d2 a13f
00000030: e993 953f e453 6a3f 77a8 113f 4d4d da3e
00000040: 9687 973f ab7a 923f b061 833f ae9c 933f
00000050: 1a9b fa3f 902b 8c3f 8de3 823f 4e0d 843f
00000060: 8cf2 9c3f 87b8 943f d927 8f3f b82d a23f
00000070: 3549 a53f 49d9 b83f 69ca aa3f 4d25 c73f
00000080: d7c3 c73e d335 ad3f 25e3 a63f 7013 b33f
00000090: 2ad0 bd3f bda8 633f a5aa 293f e8c1 8d3e
000000a0: ed5b de3e abf6 143f af1d 7f3f 8b2a 743f
000000b0: 9a28 9a3f af97 0d40 b4e7 6d3f b2b4 a63f
000000c0: 84e3 393f 852b 9b3f 2ded 4b3f 5018 1d3f
000000d0: 7c83 833f 0271 ad3d b891 e73e b094 b93e
000000e0: f643 473f 89d1 7b3f d85c 593f af02 4d3f
000000f0: faed 423e b110 933e cca3 c73e acd2 2f3f
00000100: f90b 5e3f f0fd 623f b6a7 153f 424b 363e
00000110: b566 9f3e c570 d23e d4d2 5e3f 5269 613f
00000120: a38c 5c3f 6c47 303f 26d4 573e 1df6 ef3e
00000130: 9789 ac3e 891e 5e3f 265d 683f 4c6b 3a3f
00000140: 5df0 193f bd8c bf3d b838 cd3e 984d b23e
00000150: 5255 7b3f f31a 6e3f 2969 513f 462e 003f
00000160: d12d c93d 4f99 e43e 1f95 f73e c88a 513f
00000170: 8fe6 633f db96 1d3f fe27 503f f60d 763e
00000180: 9751 b73e 32e1 e73e 499c 483f 362a 453f
00000190: 4d71 d53e f7ef 1b3f d90b 313e 1cef 9e3e
000001a0: df02 d93e dab2 2e3f 536e 683f 7b6f fb3e
000001b0: 2dd3 d53e fe0a 103e ac17 c43e ff23 ec3e
000001c0: ea7d 443f 4585 5d3f e5ff 693f 56c5 8c3f
000001d0: 5da1 1b3f d8a1 143f be0e 083f c4a7 b53f
000001e0: 60df 4b3f a892 823f d49f 7f3f 087e 8e3f
000001f0: 897a 6a3f 3a87 6e3f ec05 9b3f d8a4 8d3f
00000200: 2fa4 873f f09b 873f c368 7c3f 40f0 803f
00000210: 68b7 c33e 52b7 503f dc8f 4a3f 3778 053f
00000220: ca43 653f ecc3 193f 3abc 843f ab5d 683f
00000230: 0a7c 803f d0dc 8c3f 951b 7e3f 8984 7e3f
00000240: 16b7 7e3f 7b23 673f 8c43 9c3f 6c2b 573f
00000250: f37c 493f 2180 133f 2daa 113f bf31 2c3f
00000260: 3d55 573f e22a 723f ce9f 613f ac64 813f
00000270: 71fb 043f 3ead 033f 793b 193f 1f67 383f
00000280: 6dcb 633f 953c 413f 0d7e 733f 509c c83e
00000290: 9e71 f93e a93e ff3e c730 4c3f 7fbc 6a3f
000002a0: 2062 313f e48a 6d3f e5f2 d23e c9a9 103f
000002b0: e515 173f aaec 753f f4b2 613f 77f9 393f
000002c0: 8a13 7a3f e0ae a03e 0faa f43e df1e f53e
000002d0: 2402 343f 074e 6a3f 6636 573f 7d7e 723f
000002e0: a341 ef3e 32fc f23e 7de6 e43e aa7d 2a3f
000002f0: 7246 6f3f a66a 613f 914a 8c3f 4cfd 3f3f
00000300: 51b7 483f a04e 1d3f a430 533f 3659 713f
00000310: 89f4 633f ab3c 853f ec61 1e3f 5e4a 6f3f
00000320: 29b8 223f e08c 743f 337f 7c3f 6a54 813f
00000330: 6417 9a3f 74a7 653f a712 5b3f 650f 723f
00000340: c976 503f 5d53 593f 1aa3 663f 10e4 4c3f
00000350: 67fc 443f e36a 643f e9c2 253f b3ee 5a3f
00000360: 5155 7a3f

encoder.obs_encoder.0.bias f4 [217]
-0.18983147 -0.12929744 -0.07389733 -0.07378576 -0.12526883 -0.17925994 -0.12487324 -0.14474615
-0.14914621 0.083251104 0.052966587 0.08236402 0.039990235 -0.09137423 -0.20945552 -0.12512642
0.060422268 0.03046151 0.06956895 0.04317282 0.010755899 0.096278295 -0.08229599 -0.022109495
0.15588872 0.005983974 0.069252364 0.05504172 0.04900853 0.08428065 0.03773338 0.037592635
0.050931215 -0.11405831 -0.12796432 -0.025624631 0.033283718 0.053718433 0.06578212 0.049657114
0.11542784 -0.1363819 -0.073076986 -0.032309078 0.018221749 0.0368534 0.03268225 0.051109448
-0.08212863 -0.028618144 -0.080432095 0.11158253 0.058939006 0.042968746 0.11180433 -0.13867454
-0.0855288 -0.04106547 0.053453583 0.06168713 0.020948544 0.07605928 -0.1462345 -0.11870428
-0.088195376 0.12921718 0.00095344783 0.018951757 0.08129969 -0.07421917 -0.07797721 -0.07018369
0.10664845 0.031789098 0.0024227933 0.0774319 -0.14486225 -0.09995477 -0.085748404 0.14883383
0.04815507 0.048581257 0.0915889 -0.16368903 -0.05288534 -0.097926036 0.08265535 0.038677886
0.021916147 0.09572647 -0.1592183 -0.09696239 -0.08941058 0.13963261 0.08584563 0.047925774
0.10050342 -0.1447264 -0.16906779 -0.081734054 -0.016355388 0.08473065 0.055158067 0.11853373
-0.15914957 -0.15872888 -0.037855655 0.036034092 -0.0007891375 0.043700684 0.13121079 -0.1576921
-0.14018507 -0.05868841 0.051817983 -0.003694166 0.070652194 0.10835569 -0.17796192 0.005793123
-0.01752825 0.017274726 0.005629987 0.0718623 -0.025549218 0.054056227 -0.0037022093 0.02206093
0.014359004 -0.055091903 -0.0915491 0.016744558 -0.16212177 0.13216455 0.11820435 0.14788936
0.13276279 -0.21642362 -0.07130977 -0.11231912 -0.076030165 0.020752426 0.06643501 0.086457714
0.045875657 -0.10385661 0.012580028 0.117783695 -0.040609214 0.1063958 0.060372494 -0.10952551
-0.08194952 -0.08129024 0.043618932 0.011844558 0.081823505 0.042540435 -0.1498319 -0.16615824
-0.09304891 0.10056255 0.08261651 0.13454132 0.08075517 -0.17054366 -0.12586895 -0.060907647
0.06551749 0.14019826 0.11111589 0.049902007 -0.06347048 -0.07612726 -0.13358872 0.21296497
0.036168665 0.20202145 0.06898017 -0.2036225 -0.13093233 -0.14317459 0.102221645 0.06552382
0.13079083 0.059585426 -0.16499478 -0.11038116 -0.026929367 0.16136244 0.056950975 0.15800859
0.061058305 -0.22018884 -0.09880625 -0.057649247 0.13787495 -0.07727837 0.18307544 0.049616978
-0.16744421 -0.1191852 -0.08234738 0.13813195 0.017263703 0.16927397 0.00035480762 -0.1267826
-0.1662304 -0.10328632 0.09165233 0.07664719 0.15104051 0.045365687 -0.20573668 -0.07645442
-0.121029675
00000000: 2e63 42be 8c66 04be 7c57 97bd fd1c 97bd
00000010: 7946 00be eb8f 37be 8bbd ffbd 5638 14be
00000020: c9b9 18be 8e7f aa3d 7ef3 583d 78ae a83d
00000030: cdcc 233d 6a22 bbbd 827b 56be 2421 00be
00000040: 577d 773d 6b8a f93c 2a7a 8e3d fcd5 303d
00000050: 8339 303c 8e2d c53d cd8a a8bd f91e b5bc
00000060: 4ba1 1f3e 3615 c43b 2fd4 8d3d 6d73 613d
00000070: 2bbd 483d 559b ac3d 518e 1a3d bcfa 193d
00000080: 409d 503d 6797 e9bd 1409 03be bfea d1bc
00000090: 8254 083d dc07 5c3d c7b8 863d 4265 4b3d
000000a0: 6e65 ec3d b2a7 0bbe 63a9 95bd 8656 04bd
000000b0: c745 953c 97f3 163d d3dd 053d 2458 513d
000000c0: 0e33 a8bd 9970 eabc 95b9 a4bd 6285 e43d
000000d0: 076a 713d ffff 2f3d abf9 e43d b300 0ebe
000000e0: b929 afbd 4434 28bd 25f2 5a3d a5ab 7c3d
000000f0: 489c ab3c f8c4 9b3d 7fbe 15be 3b1b f3bd
00000100: c79f b4bd 8251 043e cdf0 793a b740 9b3c
00000110: 7480 a63d 3800 98bd 84b2 9fbd 77bc 8fbd
00000120: 816a da3d 4935 023d bac7 1e3b 9e94 9e3d
00000130: c556 14be 16b5 ccbd dc9c afbd e567 183e
00000140: 403e 453d 24fd 463d f692 bb3d 199e 27be
00000150: 4c9e 58bd 728d c8bd 3547 a93d b46c 1e3d
00000160: 7e89 b33c 3d0c c43d 1f0a 23be 3894 c6bd
00000170: e51c b7bd dafb 0e3e d5cf af3d d14d 443d
00000180: bdd4 cd3d 2833 14be 1b20 2dbe 2f64 a7bd
00000190: bcfb 85bc 4387 ad3d 6ded 613d d0c1 f23d
000001a0: 1bf8 22be d389 22be 880e 1bbd 7c98 133d
000001b0: 1fde 4eba 7dff 323d 1f5c 063e 0a7a 21be
000001c0: ad8c 0fbe 4263 70bd 183f 543d d219 72bb
000001d0: 19b2 903d 97e9 dd3d a63b 36be 3dd4 bd3b
000001e0: 6897 8fbc ba83 8d3c c17b b83b 8b2c 933d
000001f0: 984c d1bc 106a 5d3d c4a0 72bb 20b9 b43c
00000200: 0742 6b3c 0ca8 61bd 187e bbbd e22b 893c
00000210: 4003 26be 2556 073e 1f15 f23d 4f70 173e
00000220: f8f2 073e 279e 5dbe db0a 92bd 9107 e6bd
00000230: b4b5 9bbd fe00 aa3c 140f 883d be10 b13d
00000240: 1de8 3b3d c6b2 d4bd 761c 4e3c 9438 f13d
00000250: d955 26bd 0be6 d93d 2649 773d e94e e0bd
00000260: 26d5 a7bd 7f7b a6bd c4a9 323d ad0f 423c
00000270: 1593 a73d e13e 2e3d 896d 19be 6325 2abe
00000280: 6d90 bebd bdf3 cd3d d832 a93d 33c5 093e
00000290: f762 a53d ffa2 2ebe cae3 00be 4c7a 79bd
000002a0: 092e 863d 2290 0f3e ba90 e33d 0c66 4c3d
000002b0: d0fc 81bd 9ce8 9bbd 7bcb 08be 7d13 5a3e
000002c0: 9825 143d b6de 4e3e 7a45 8d3d 6b82 50be
000002d0: 2013 06be 5c9c 12be 9559 d13d 5a31 863d
000002e0: 08ee 053e d90f 743d 64f4 28be 850f e2bd
000002f0: fa9a dcbc 323c 253e 6d45 693d 01cd 213e
00000300: 4618 7a3d 2f79 61be ee5a cabd 9e21 6cbd
00000310: 172f 0d3e 1f44 9ebd 2178 3b3e 2c3b 4b3d
00000320: 7f76 2bbe 5f17 f4bd bea5 a8bd 7672 0d3e
00000330: 9c6c 8d3c 2856 2d3e 7905 ba39 4cd3 01be
00000340: 4d38 2abe c787 d3bd 37b4 bb3d 34f9 9c3d
00000350: 5daa 1a3e 5fd1 393d a3ac 52be 2394 9cbd
00000360: 68de f7bd

encoder.obs_encoder.1.weight f4 [64, 217]
0.10920599 0.08888994 -0.012951544 0.09008619 0.062207498 0.07293654 0.2369339 0.079353765
0.01965648 0.17482932 0.06748673 0.0119589185 0.026052907 0.10382982 -0.027051004 0.0011840803
0.12600894 0.02120515 0.0023469885 -0.08675352 -0.05365816 0.08741625 0.10100247 0.04257592
0.016356628 0.042655945 0.170467 0.28944921 0.13969539 0.043726884 -0.047888227 -0.014157706
0.07314345 -0.022993768 -0.12495549 0.060976457 -0.28079146 -0.011964242 0.035657756 -0.027571231
0.02946494 0.05881958 -0.12130959 -0.11746385 -0.036628578 -0.008561387 -0.059041798 0.034559406
0.19164976 -0.017714372 0.11868912 -0.18918562 -0.014497131 -0.09190325 0.060378388 0.06031095
-0.027904257 -0.105406485 -0.27291095 0.17076729 -0.10323542 0.041964952 0.10985225 0.14302166
0.0066296374 -0.09272667 -0.12661575 0.03776794 0.15851815 0.059422057 -0.026054839 -0.16120866
-0.15934798 -0.1242966 -0.020424869 -0.014430089 0.032245375 -0.029396601 -0.21734463 0.020478375
0.10886749 0.047835838 0.050417077 0.037152816 0.15948707 -0.15207887 0.10223076 0.075697444
0.17182793 -0.003993069 -0.024592824 0.10003995 -0.1345968 0.048174504 0.022689972 -0.062066983
-0.1087537 -0.02795913 0.13358335 0.0416857 -0.09461174 0.035397757 0.010204228 -0.03871841
-0.04519925 -0.15899469 -0.09895772 0.23670322 -0.13581179 0.044942904 0.017925723 0.08571813
0.010924122 -0.11474235 0.004363881 -0.11702248 -0.019057639 0.0147768855 -0.0690276 0.28737786
0.2950662 0.28069398 0.1432387 0.44795632 0.2147925 0.23814803 0.24307762 0.10268429
0.13723631 0.36995286 -0.061418887 0.0037930203 0.09175985 -0.032684103 -0.049506288 0.06331258
0.10585539 -0.064692564 -0.13399208 -0.024955422 0.100626186 0.15159519 0.06774645 -0.040567588
0.015805215 0.09297281 0.18090647 -0.18452889 -0.092894174 -0.03708896 -0.09035181 -0.019298235
0.12796783 -0.13829161 -0.23773059 -0.14442168 -0.15321714 -0.031627655 -0.08577267 -0.0022869185
0.02465318 -0.13815762 -0.025206985 -0.06254562 0.07884766 0.036887962 -0.030016365 -0.12824152
0.29947114 -0.045487214 0.21271129 0.11099347 0.018883688 0.16278899 -0.02811513 -0.12208863
0.19188358 -0.11929371 -0.023249593 -0.17570022 0.15050682 0.0101119615 -0.10693684 0.015493727
-0.00036994892 -0.18474843 0.14943627 -0.0016852923 0.049366117 0.13384745 0.11622778 0.032523442
0.24867901 -0.026512608 -0.01506528 -0.15422595 -0.07325778 -0.16995712 0.12278898 -0.29540783
-0.01407153 0.10284177 -0.022900706 -0.16453116 0.085148975 0.16895577 -0.029684212 -0.08258861
0.096756466 -0.11441618 -0.042589854 0.014820212 -0.13261527 0.0593978 -0.22138831 0.07571286
-0.18908669 -0.030702638 -0.054446973 -0.09565453 0.05835358 -0.13445129 0.088768564 0.002128714
-0.022908404 -0.1553461 -0.22025603 -0.21502222 0.015295393 0.04767855 -0.19140348 -0.05674909
-0.032733995 -0.41468284 -0.08667701 0.06414679 -0.090932205 0.096399516 -0.2629613 0.13153051
-0.012030382 -0.12810597 -0.0065757167 -0.03742837 -0.19600815 -0.23702395 0.14645278 -0.16116998
0.43495345 0.08153689 0.050694082 0.12550718 0.07047772 -0.26652277 0.0345887 0.08537605
00000000: 64a7 df3d ee0b b63d b632 54bc 1c7f b83d
00000010: 4acd 7e3d c15f 953d cd9e 723e 3a84 a23d
00000020: a006 a13c 7506 333e 7c36 8a3d 57ef 433c
00000030: e86c d53c bba4 d43d 119a ddbc 2433 9b3a
00000040: 7d08 013e 6cb6 ad3c efcf 193b d4ab b1bd
00000050: a9c8 5bbd 4a07 b33d 62da ce3d 1664 2e3d
00000060: 56fe 853c 00b8 2e3d e78e 2e3e b032 943e
00000070: 4f0c 0f3e f61a 333d 7226 44bd b9f5 67bc
00000080: 3ccc 953d 6d5d bcbc aae8 ffbd 73c2 793d
00000090: e6c3 8fbe ab05 44bc de0d 123d 10dd e1bc
000000a0: 7560 f13c cdec 703d 2a71 f8bd e390 f0bd
000000b0: d907 16bd 0f45 0cbc d0d5 71bd 2a8e 0d3d
000000c0: d63f 443e bb1d 91bc 4813 f33d e0b9 41be
000000d0: 6085 6dbc c537 bcbd 544f 773d 9d08 773d
000000e0: 7897 e4bc 5bdf d7bd fcba 8bbe 9fdd 2e3e
000000f0: 186d d3bd 71e3 2b3d 37fa e03d 4574 123e
00000100: 6e3d d93b 7be7 bdbd 8fa7 01be 8eb2 1a3d
00000110: 9552 223e 8b64 733d f570 d5bc e213 25be
00000120: 1e2c 23be 378f febd 0e52 a7bc 2e6c 6cbc
00000130: ba13 043d 24d1 f0bc 978f 5ebe 44c2 a73c
00000140: ebf5 de3d 83ef 433d 2382 4e3d 8d2d 183d
00000150: 9450 233e 90ba 1bbe 5c5e d13d 4307 9b3d
00000160: a9f3 2f3e 4ad8 82bb e476 c9bc bfe1 cc3d
00000170: bed3 09be a152 453d 52e0 b93c f339 7ebd
00000180: 43ba debd 8c0a e5bc 13ca 083e a0be 2a3d
00000190: cdc3 c1bd 3dfd 103d a22f 273c 3297 1ebd
000001a0: d922 39bd 81cf 22be 58aa cabd 5462 723e
000001b0: 3f12 0bbe 0d16 383d f7d8 923c fd8c af3d
000001c0: 17fb 323c 0afe eabd e3fe 8e3b 7ba9 efbd
000001d0: c41e 9cbc c01a 723c 585e 8dbd 3123 933e
000001e0: eb12 973e 1fb7 8f3e 2aad 123e 885a e53e
000001f0: 91f2 5b3e 14dd 733e 57e9 783e 244c d23d
00000200: ad87 0c3e 766a bd3e 5f92 7bbd 5294 783b
00000210: 97ec bb3d c4df 05bd 1bc7 4abd 07aa 813d
00000220: b6ca d83d 897d 84bd 3835 09be 506f ccbc
00000230: 1a15 ce3d c53b 1b3e a7be 8a3d 332a 26bd
00000240: f079 813c 8768 be3d 8c3f 393e 24f5 3cbe
00000250: 4d3f bebd 98ea 17bd 5f0a b9bd 5517 9ebc
00000260: 000a 033e 519c 0dbe a66f 73be 47e3 13be
00000270: f4e4 1cbe 008c 01bd 95a9 afbd 20e0 15bb
00000280: 77f5 c93c 3179 0dbe e17e cebc eb17 80bd
00000290: e27a a13d d517 173d e1e4 f5bc bf51 03be
000002a0: 4854 993e cd50 3abd fdd0 593e 8b50 e33d
000002b0: f7b1 9a3c 28b2 263e b351 e6bc 9b09 fabd
000002c0: 217d 443e 4350 f4bd ee75 bebc c2ea 33be
000002d0: 761e 1a3e a4ac 253c b401 dbbd 67d9 7d3c
000002e0: b4f5 c1b9 b12e 3dbe d205 193e 07e5 dcba
000002f0: 2034 4a3d 4e0f 093e d508 ee3d 4d37 053d
00000300: b6a5 7e3e f830 d9bc 5dd4 76bc 68ed 1dbe
00000310: 2d08 96bd 3d09 2ebe ca78 fb3d b23f 97be
00000320: 468c 66bc b59e d23d 439a bbbc db7a 28be
00000330: 9662 ae3d be02 2d3e 4e2c f3bc 3824 a9bd
00000340: 4128 c63d 0853 eabd b372 2ebd 79d0 723c
00000350: 4ccc 07be 1c4b 733d 9eb3 62be 580f 9b3d
00000360: f19f 41be 1984 fbbc ca03 5fbd 86e6 c3bd
00000370: 2a04 6f3d 99ad 09be 4bcc b53d e581 0b3b
00000380: 68aa bbbc 0c13 1fbe cc8a 61be c92e 5cbe
00000390: 8799 7a3c 954a 433d 46ff 43be bc71 68bd
000003a0: 1514 06bd 4f51 d4be b783 b1bd 645f 833d
000003b0: aa3a babd 1c6d c53d dda2 86be efaf 063e
000003c0: 141b 45bc 362e 03be 1c79 d7bb 7e4e 19bd
000003d0: 5cb6 48be 68b6 72be b8f7 153e be09 25be
000003e0: 38b2 de3e d0fc a63d 99a4 4f3d f484 003e
000003f0: 9f56 903d ac75 88be e1ac 0d3d a3d9 ae3d

encoder.obs_encoder.1.bias f4 [64]
0.024838772 -0.029967874 -0.025165234 0.015625086 0.06197834 -0.004048998 0.0058522373 0.031050447
0.03827902 0.043780945 0.12107501 -0.014490437 -0.06136432 -0.015761476 0.036174852 -0.02347197
0.007391777 0.061656807 0.0080739735 0.077586144 0.010632832 0.012923845 -0.022730153 0.010544413
0.043768473 -0.06873423 0.005555399 0.068552285 -0.003622581 -2.2683747e-05 0.0404462 0.05040951
0.119867094 0.07247296 0.0010125248 0.05039611 0.095413335 0.052195188 -0.061409503 0.07119913
0.04590375 -0.04823079 0.050859854 -0.04919488 0.02939377 0.042642012 -0.0129791675 -0.04684124
-0.06718783 -0.004853178 0.00035734184 0.046492174 0.021438282 0.02598159 0.0074814265 -0.0059116045
-0.009567231 -0.16198185 -0.062715724 0.015993552 -0.07926389 0.047749426 -0.010201043 -0.028095607
00000000: ae7a cb3c 307f f5bc 5227 cebc 2e00 803c
00000010: 00dd 7d3d 75ad 84bb 20c4 bf3b 825d fe3c
00000020: 76ca 1c3d a653 333d 2df6 f73d 4c69 6dbc
00000030: 2759 7bbd 361e 81bc 152c 143d 4a48 c0bc
00000040: b836 f23b d98b 7c3d b348 043c 7ce5 9e3d
00000050: 5435 2e3c 89be 533c 9634 babc 79c2 2c3c
00000060: 9246 333d 88c4 8cbd 110a b63b 2465 8c3d
00000070: d368 6dbb fa48 beb7 eaaa 253d 347a 4e3d
00000080: e17c f53d b46c 943d b2b6 843a 276c 4e3d
00000090: 1168 c33d 9fca 553d 8888 7bbd d9d0 913d
000000a0: 9205 3c3d a68d 45bd 6c52 503d 9280 49bd
000000b0: 34cb f03c 64a9 2e3d 93a6 54bc 9adc 3fbd
000000c0: c699 89bd 6807 9fbb 9c59 bb39 946e 3e3d
000000d0: 569f af3c 58d7 d43c c126 f53b 22b6 c1bb
000000e0: e0bf 1cbc 92de 25be 1a71 80bd e904 833c
000000f0: 1b55 a2bd e794 433d 4722 27bc c228 e6bc

encoder.ln.weight f4 [64]
0.82785124 0.8526116 0.7952923 0.95613146 0.85752594 0.8691543 1.1011301 1.0403775
0.9756724 1.0055717 0.74472964 0.7247 0.92887676 1.0371832 0.92501163 0.7915533
1.2957194 0.83284163 1.0750649 0.8197005 1.0390402 0.8741864 0.7240947 1.0330801
0.95969373 0.9656721 0.9754714 0.97607374 1.1166788 1.1048656 0.9265977 1.186288
0.9306133 1.0174671 0.8816826 0.9305837 0.95663667 0.9694829 0.8923893 1.1089815
1.1248529 1.0010766 0.75363034 1.0002288 0.9980648 1.0990372 0.9672044 0.91710854
1.0212612 1.0925938 1.0226185 1.2035522 0.92176133 0.8570689 0.9361706 0.9195169
1.0000637 0.9392473 0.87779784 0.97364515 0.8681371 0.8539653 1.0327917 0.9871294
00000000: 0fee 533f c144 5a3f 4798 4b3f 08c5 743f
00000010: d286 5b3f e580 5e3f d5f1 8c3f 172b 853f
00000020: abc5 793f 93b6 803f 9aa6 3e3f f085 393f
00000030: deca 6d3f 6bc2 843f 90cd 6c3f 3da3 4a3f
00000040: 22da a53f 1c35 553f ba9b 893f e4d7 513f
00000050: 45ff 843f aeca 5f3f 455e 393f f83b 843f
00000060: 7dae 753f 4936 773f 7eb8 793f f8df 793f
00000070: 55ef 8e3f 3c6c 8d3f 8235 6d3f 49d8 973f
00000080: ac3c 6e3f 5d3c 823f f3b5 613f bc3a 6e3f
00000090: 24e6 743f 0830 783f a073 643f 1bf3 8d3f
000000a0: 2efb 8f3f 4723 803f ebed 403f 7f07 803f
000000b0: 2d81 7f3f 40ad 8c3f b59a 773f a0c7 6a3f
000000c0: b0b8 823f 1dda 8b3f 2ae5 823f 000e 9a3f
000000d0: 8df8 6b3f de68 5b3f e0a8 6f3f 7665 6b3f
000000e0: 1602 803f 8372 703f 5cb7 603f cf40 793f
000000f0: 3c3e 5e3f 789d 5a3f 8532 843f 83b4 7c3f

encoder.ln.bias f4 [64]
-0.10104575 -0.004421106 -0.007650073 0.01686156 0.049378887 0.045992855 -0.044014204 0.0013361207
0.021826267 -0.009560913 0.09201864 0.0075355014 -0.0528566 -0.054452058 0.020966345 -0.057297137
-0.026951833 -0.07252219 0.0011858417 0.16911979 -0.015596244 0.029092403 0.031112576 -0.0022586305
0.0069230706 0.05217422 -0.09977517 0.0010300807 0.052832797 0.0034758914 0.04927897 0.0045544226
0.124507464 -0.01623579 -0.058530986 0.040107835 0.111777835 -0.056760464 0.07217605 0.058421217
0.058458917 -0.013812367 -0.08183698 -0.041788083 -0.087324634 0.06861078 0.011025137 0.049350277
-0.080805846 0.032575488 0.0069652754 0.014179557 0.0067156265 0.033307113 0.028141253 0.026100997
0.025702454 0.07468825 0.08349839 0.037205696 0.110809274 0.04440651 0.01913322 0.017775593
00000000: 13f1 cebd edde 90bb 77ad fabb 4121 8a3c
00000010: 8441 4a3d 0163 3c3d 3d48 34bd c520 af3a
00000020: 00cd b23c 60a5 1cbc 4574 bc3d 5eec f63b
00000030: 2a80 58bd 1f09 5fbd 9dc1 ab3c 67b0 6abd
00000040: 17ca dcbc 8486 94bd 3f6e 9b3a bd2d 2d3e
00000050: 6387 7fbc 3153 ee3c cddf fe3c 8805 14bb
00000060: edda e23b a3b4 553d ed56 ccbd c603 873a
00000070: 3467 583d c8cb 633b bfd8 493d 443d 953b
00000080: c5fd fe3d eb00 85bc 30be 6fbd 1d48 243d
00000090: c7eb e43d a97d 68bd 09d1 933d 164b 6f3d
000000a0: 9e72 6f3d 444d 62bc 269a a7bd fb29 2bbd
000000b0: 42d7 b2bd cf83 8c3d c7a2 343c 8423 4a3d
000000c0: 897d a5bd e06d 053d f73c e43b 5f51 683c
000000d0: c20e dc3b 0a6d 083d 7c88 e63c c2d1 d53c
000000e0: f48d d23c 27f6 983d 3401 ab3d 0065 183d
000000f0: f9ef e23d 9ae3 353d 45bd 9c3c 1f9e 913c

encoder.blocks.0.ln1.weight f4 [64]
0.94026357 0.9450112 0.91676325 0.88706946 0.8294446 0.9465624 1.1288949 1.0376761
0.7612597 1.0699445 0.96541035 0.6958234 1.0118335 1.1174252 0.9850593 0.84940666
1.0068423 1.008001 1.1120231 0.8329153 0.8796507 0.8612092 0.7835744 1.0585012
1.0468385 0.9949184 1.0931119 1.0437832 1.2081686 1.2445277 1.003575 1.1865317
0.8980152 1.0423093 0.97738737 1.1370839 1.0084208 1.0750415 0.8387984 1.0812575
0.9174212 0.977387 0.82809997 1.0305375 1.0526394 1.07423 0.9920838 0.7079421
1.1363933 1.1478531 1.0012928 1.1235825 1.0130655 0.80133134 0.9891243 0.8828488
1.1040397 0.9361029 0.8988671 0.79097474 0.9057386 0.9218142 0.9075502 0.97542316
00000000: 1db5 703f 41ec 713f ffb0 6a3f fc16 633f
00000010: 7b56 543f ea51 723f a17f 903f 92d2 843f
00000020: eae1 423f f1f3 883f 2225 773f 7b21 323f
00000030: c383 813f ca07 8f3f d92c 7c3f b772 593f
00000040: 35e0 803f 2d06 813f c656 8e3f f039 553f
00000050: ca30 613f 3578 5c3f 5598 483f f87c 873f
00000060: cefe 853f f9b2 7e3f 17eb 8b3f b09a 853f
00000070: 45a5 9a3f af4c 9f3f 2575 803f 45e0 973f
00000080: 53e4 653f 646a 853f 0f36 7a3f f78b 913f
00000090: ef13 813f f69a 893f 7ebb 563f a566 8a3f
000000a0: 1edc 6a3f 0936 7a3f 5cfe 533f a7e8 833f
000000b0: e3bc 863f 5e80 893f 34f9 7d3f b23b 353f
000000c0: 5675 913f daec 923f 5d2a 803f 8dd1 8f3f
000000d0: 21ac 813f 0d24 4d3f 4037 7d3f 6102 623f
000000e0: 2c51 8d3f 71a4 6f3f 271c 663f 527d 4a3f
000000f0: 7cde 673f 04fc 6b3f 3655 683f 55b5 793f

encoder.blocks.0.ln1.bias f4 [64]
-0.04097991 -0.046215862 0.08020961 -0.109946206 0.10207099 0.06484018 -0.018233586 0.0073300507
0.011095294 0.02971453 0.11423217 0.0891306 -0.015211589 -0.005025369 -0.018273737 0.04031128
-0.098184876 0.019507803 0.038116444 0.09064663 -0.050671287 -0.016309343 0.08303374 -0.06482775
-0.089253075 -0.028195858 -0.013304148 0.10170154 -0.016603153 0.07032513 -0.11572365 -0.023520086
0.03615555 -0.0069734855 -0.0066930098 0.05635037 0.06965029 -0.050152406 0.06339142 0.055530567
0.024521032 -0.0643533 -0.09441588 0.00049600715 -0.08264667 0.12524937 0.06423179 0.13545199
-0.0066499747 -0.029857095 0.07456546 -0.043693334 0.019086335 0.07781615 0.17266966 -0.0193698
0.060589246 0.04390953 0.009039673 0.001957101 0.018563416 0.03382738 0.022723455 -0.00043539036
00000000: 8dda 27bd d84c 3dbd f044 a43d 7a2b e1bd
00000010: 980a d13d eeca 843d 9a5e 95bc ec30 f03b
00000020: 09c9 353c e36b f33c 8ef2 e93d 1b8a b63d
00000030: 073a 79bc daab a4bb ceb2 95bc 711d 253d
00000040: 2715 c9bd d4ce 9f3c fd1f 1c3d f1a4 b93d
00000050: b28c 4fbd 2c9b 85bc 980d aa3d 69c4 84bd
00000060: 51ca b6bd 00fb e6bc a4f9 59bc e648 d03d
00000070: 5603 88bc 9f06 903d 8500 edbd 32ad c0bc
00000080: d817 143d d681 e4bb 0951 dbbb a5cf 663d
00000090: d0a4 8e3d 9c6c 4dbd 5cd3 813d 0574 633d
000000a0: 55e0 c83c aacb 83bd 1d5d c1bd 7a06 023a
000000b0: a842 a9bd 5f41 003e f58b 833d edb3 0a3e
000000c0: 08e8 d9bb de96 f4bc c7b5 983d c8f7 32bd
000000d0: f25a 9c3c 135e 9f3d 51d0 303e 6aad 9ebc
000000e0: 6e2c 783d 7bda 333d 231b 143c b542 003b
000000f0: 4e12 983c 948e 0a3d 8a26 ba3c 1b45 e4b9

encoder.blocks.0.ln2.weight f4 [64]
0.9638954 0.90423 0.9089361 1.0387396 0.90274876 1.0250597 1.0675795 1.0244629
0.8977712 1.1421036 1.0051713 0.91643095 0.9560099 1.0170829 1.0812117 0.92545587
1.0092015 1.0142665 1.1077266 0.82459736 0.9388772 0.93562454 0.90631 1.0086929
1.0312207 0.9175615 1.049181 0.8527761 1.0824972 1.0385102 1.0298676 1.049569
1.0241133 1.06948 1.038118 1.1558813 1.0961167 0.98756075 0.84772056 1.1433715
1.0199398 1.1743717 1.0426004 1.0118098 1.0817482 1.1249895 1.0998982 0.80242884
0.95672446 1.1144168 1.079192 1.243551 0.9307051 0.9171864 0.91691685 0.86550516
1.0095195 1.0819712 0.95433944 0.9341757 0.94595844 1.0715382 1.1683211 1.0417851
00000000: d9c1 763f 9e7b 673f 09b0 683f 6bf5 843f
00000010: 8b1a 673f 2835 833f 72a6 883f 9a21 833f
00000020: 55d4 653f 7330 923f 74a9 803f 389b 6a3f
00000030: 11bd 743f c62f 823f 2565 8a3f adea 6c3f
00000040: 842d 813f 7cd3 813f fcc9 8d3f d018 533f
00000050: 425a 703f 1785 6f3f ef03 683f d91c 813f
00000060: 0aff 833f 4fe5 6a3f 904b 863f 894f 5a3f
00000070: 458f 8a3f e7ed 843f b4d2 833f 4758 863f
00000080: 2516 833f b8e4 883f 0de1 843f ebf3 933f
00000090: 8d4d 8c3f c8d0 7c3f 3704 593f ff59 923f
000000a0: 638d 823f d051 963f ee73 853f fc82 813f
000000b0: ba76 8a3f a8ff 8f3f 77c9 8c3f fa6b 4d3f
000000c0: e5eb 743f 36a5 8e3f f722 8a3f ae2c 9f3f
000000d0: b042 6e3f bacc 6a3f 10bb 6a3f bf91 5d3f
000000e0: ef37 813f 087e 8a3f 974f 743f 2426 6f3f
000000f0: 552a 723f 2a28 893f 8c8b 953f 3759 853f

encoder.blocks.0.ln2.bias f4 [64]
-0.025044473 0.0022430376 0.042331047 -0.053044777 0.006652717 0.052847635 -0.07109859 0.008347267
-0.04024485 0.0821227 0.073447496 0.023054762 0.0015777674 0.0023743738 -0.026424764 0.021563685
-0.13366362 -0.009732805 0.009088707 -0.01931603 -0.087646805 0.0232788 -0.0023836992 -0.032562073
-0.052883945 -0.010971334 -0.005488572 -0.06214597 0.011995393 0.055968996 0.013777528 0.006203495
0.038643822 0.050754454 0.029404117 0.07098214 0.03569604 -0.03215152 -0.005695972 -0.016736051
0.04991339 -0.070420384 0.04529791 -0.0066234805 -0.05773468 0.054198217 0.08887788 0.028436372
0.010627996 -0.03565679 -0.00062934554 -0.071490556 -0.011730142 0.048590835 0.005434292 0.00969405
0.03744012 -0.034222 0.010379853 0.04651514 0.046789486 0.059644733 -0.13144797 0.005916124
00000000: 112a cdbc edff 123b 5263 2d3d 7b45 59bd
00000010: 09ff d93b c376 583d 239c 91bd fac2 083c
00000020: c9d7 24bd f22f a83d a46b 963d 57dd bc3c
00000030: 17cd ce3a 629b 1b3b bf78 d8bc 53a6 b03c
00000040: 1edf 08be 5876 1fbc cde8 143c a73c 9ebc
00000050: 2b80 b3bd 2fb3 be3c d637 1cbb cf5f 05bd
00000060: d69c 58bd 1cc1 33bc 7bd9 b3bb c68c 7ebd
00000070: 5388 443c bf3f 653d 24bb 613c b046 cb3b
00000080: fc48 1e3d e7e3 4f3d e7e0 f03c 165f 913d
00000090: 0336 123d 50b1 03bd 47a5 babb 0b1a 89bc
000000a0: fc71 4c3d 9038 90bd 4d8a 393d c809 d9bb
000000b0: 337b 6cbd f3fe 5d3d 9b05 b63d 65f3 e83c
000000c0: 0c21 2e3c db0c 12bd aafa 24ba a469 92bd
000000d0: c82f 40bc 2f07 473d 2512 b23b cbd3 1e3c
000000e0: d05a 193d 5e2c 0cbd 4210 2a3c a986 3e3d
000000f0: 55a6 3f3d 094e 743d 4c9a 06be 0cdc c13b

encoder.blocks.0.attn.mask f4 [1, 1, 12, 12]
1.0 0.0 0.0 0.0 0.0 0.0 0.0 0.0
0.0 0.0 0.0 0.0 1.0 1.0 0.0 0.0
0.0 0.0 0.0 0.0 0.0 0.0 0.0 0.0
1.0 1.0 1.0 0.0 0.0 0.0 0.0 0.0
0.0 0.0 0.0 0.0 1.0 1.0 1.0 1.0
0.0 0.0 0.0 0.0 0.0 0.0 0.0 0.0
1.0 1.0 1.0 1.0 1.0 0.0 0.0 0.0
0.0 0.0 0.0 0.0 1.0 1.0 1.0 1.0
1.0 1.0 0.0 0.0 0.0 0.0 0.0 0.0
1.0 1.0 1.0 1.0 1.0 1.0 1.0 0.0
0.0 0.0 0.0 0.0 1.0 1.0 1.0 1.0
1.0 1.0 1.0 1.0 0.0 0.0 0.0 0.0
1.0 1.0 1.0 1.0 1.0 1.0 1.0 1.0
1.0 0.0 0.0 0.0 1.0 1.0 1.0 1.0
1.0 1.0 1.0 1.0 1.0 1.0 0.0 0.0
1.0 1.0 1.0 1.0 1.0 1.0 1.0 1.0
1.0 1.0 1.0 0.0 1.0 1.0 1.0 1.0
1.0 1.0 1.0 1.0 1.0 1.0 1.0 1.0
00000000: 0000 803f 0000 0000 0000 0000 0000 0000
00000010: 0000 0000 0000 0000 0000 0000 0000 0000
00000020: 0000 0000 0000 0000 0000 0000 0000 0000
00000030: 0000 803f 0000 803f 0000 0000 0000 0000
00000040: 0000 0000 0000 0000 0000 0000 0000 0000
00000050: 0000 0000 0000 0000 0000 0000 0000 0000
00000060: 0000 803f 0000 803f 0000 803f 0000 0000
00000070: 0000 0000 0000 0000 0000 0000 0000 0000
00000080: 0000 0000 0000 0000 0000 0000 0000 0000
00000090: 0000 803f 0000 803f 0000 803f 0000 803f
000000a0: 0000 0000 0000 0000 0000 0000 0000 0000
000000b0: 0000 0000 0000 0000 0000 0000 0000 0000
000000c0: 0000 803f 0000 803f 0000 803f 0000 803f
000000d0: 0000 803f 0000 0000 0000 0000 0000 0000
000000e0: 0000 0000 0000 0000 0000 0000 0000 0000
000000f0: 0000 803f 0000 803f 0000 803f 0000 803f
00000100: 0000 803f 0000 803f 0000 0000 0000 0000
00000110: 0000 0000 0000 0000 0000 0000 0000 0000
00000120: 0000 803f 0000 803f 0000 803f 0000 803f
00000130: 0000 803f 0000 803f 0000 803f 0000 0000
00000140: 0000 0000 0000 0000 0000 0000 0000 0000
00000150: 0000 803f 0000 803f 0000 803f 0000 803f
00000160: 0000 803f 0000 803f 0000 803f 0000 803f
00000170: 0000 0000 0000 0000 0000 0000 0000 0000
00000180: 0000 803f 0000 803f 0000 803f 0000 803f
00000190: 0000 803f 0000 803f 0000 803f 0000 803f
000001a0: 0000 803f 0000 0000 0000 0000 0000 0000
000001b0: 0000 803f 0000 803f 0000 803f 0000 803f
000001c0: 0000 803f 0000 803f 0000 803f 0000 803f
000001d0: 0000 803f 0000 803f 0000 0000 0000 0000
000001e0: 0000 803f 0000 803f 0000 803f 0000 803f
000001f0: 0000 803f 0000 803f 0000 803f 0000 803f
00000200: 0000 803f 0000 803f 0000 803f 0000 0000
00000210: 0000 803f 0000 803f 0000 803f 0000 803f
00000220: 0000 803f 0000 803f 0000 803f 0000 803f
00000230: 0000 803f 0000 803f 0000 803f 0000 803f

encoder.blocks.0.attn.key.weight f4 [64, 64]
0.029874625 0.021628663 -0.090095066 0.030236121 0.072905466 0.067494065 0.10053902 -0.074633695
-0.20006394 -0.027906105 -0.057596028 0.039518524 0.018619318 0.028679393 -0.0026851553 0.15679944
-0.1726101 0.0637211 0.043056678 0.01700599 0.038069844 -0.13298695 0.043529082 0.00041742375
0.0443234 0.030232135 0.0953444 -0.028699586 0.08492918 -0.10655897 0.05368861 -0.05317327
-0.029890142 -0.033452097 -0.0073364517 -0.007998541 -0.053899467 -0.033216633 -0.019490106 0.08046869
-0.06274897 0.06352359 -0.013280526 0.059582468 -0.06392052 -0.006542081 0.0061359527 0.147408
-0.05709643 -0.04623101 0.030328427 -0.2902305 0.072630346 -0.018382117 -0.05731874 -0.159866
-0.027579967 0.034630217 0.038768172 -0.002061276 0.12524882 0.03866488 -0.090398654 0.243901
0.03450871 -0.013151091 0.14440915 -0.030640297 0.026943332 0.15532944 0.036728363 -0.101299636
0.14196514 -0.0452925 0.013031122 -0.05785192 0.08392276 0.04562717 0.031452242 0.13217719
0.3679509 -0.013434735 -0.0053401166 0.061474137 -0.07555323 -0.059286356 -0.032773603 -0.11662113
-0.024673225 -0.12937228 0.13688068 0.05291565 -0.046842683 -0.028370855 0.10648367 0.06703145
-0.19061705 -0.0062239827 -0.0009054888 0.07731022 0.048968364 -0.02210104 -0.067604445 -0.116368964
0.19444196 -0.06261614 -0.008746836 0.1625362 0.18802722 -0.11593474 0.036172535 -0.0877781
-0.07330803 0.0020012858 -0.08042424 0.27759555 -0.08279254 0.033865962 -0.069549926 0.21383794
-0.11568536 -0.09520405 -0.1394524 -0.10650046 -0.09356416 -0.13444789 0.18091445 -0.1357711
-0.09566577 -0.10236579 -0.13883495 -0.0051065534 -0.061786838 -0.11766027 -0.102445915 0.03878601
0.09064871 0.14056772 0.092159495 0.01663533 -0.047559973 -0.18257989 -0.12341063 -0.23382755
-0.22288997 0.08196233 -0.006165062 -0.031337544 0.104471624 0.0768342 0.09965992 0.16150045
0.0722829 0.16014072 -0.1844485 -0.009350264 -0.005777596 0.061765537 -0.15152952 -0.06708724
0.23121749 0.05207004 0.007921144 -0.077964246 -0.020337392 -0.013423109 0.10484968 0.10451182
-0.15479568 0.087733366 0.03916849 -0.2725382 -0.22006801 0.1839615 -0.14376943 -0.06483675
0.13005947 -0.039759412 0.06840983 -0.10222668 0.053735808 -0.025997967 0.08130912 -0.18710215
0.110119626 0.13228442 0.20283972 -0.010168126 0.104434505 0.24080043 -0.11082851 0.10743163
0.076950975 -0.05445977 0.08772424 -0.1095029 -0.09451439 -0.019663936 0.031608764 0.029228456
0.064443454 0.030892052 0.017907035 -0.14848092 -0.02184719 0.15933834 0.037963927 -0.115510166
0.01945981 -0.1083493 -0.05369246 0.031303994 -0.06290732 -0.051354975 -0.025370117 -0.02252035
0.11715737 -0.021852084 0.10919771 0.11715327 -0.15843427 0.10212979 0.012341115 0.08967652
-0.10953165 -0.0301196 -0.07953384 0.017970378 0.14086027 -0.1469834 -0.078625865 -0.02982866
0.111944094 0.0077195074 0.03779864 0.027796114 -0.060996544 0.18986817 -0.1145737 -0.042541075
0.07633237 0.14969704 0.08811685 0.090331346 -0.073017485 -0.005807623 0.025653789 0.05475657
0.025505768 -0.04810463 -0.17177317 -0.0993296 -0.0053200345 0.01816364 0.11505183 -0.06890864
00000000: a1bb f43c 982e b13c c383 b8bd beb1 f73c
00000010: 764f 953d 543a 8a3d 67e7 cd3d 8dd9 98bd
00000020: 90dd 4cbe 589b e4bc d0e9 6bbd 2dde 213d
00000030: 8a87 983c 0cf1 ea3c 6ef9 2fbb 0890 203e
00000040: b4c0 30be 3580 823d 335c 303d 2550 8b3c
00000050: 20ef 1b3d bb2d 08be 8d4b 323d abd9 da39
00000060: 748c 353d 62a9 f73c ed43 c33d 651b ebbc
00000070: 5aef ad3d 973b dabd 97e8 5b3d 37cc 59bd
00000080: 2cdc f4bc 1105 09bd 9e66 f0bb 500c 03bc
00000090: b0c5 5cbd 2a0e 08bd b7a9 9fbc c5cc a43d
000000a0: 8882 80bd a818 823d 9096 59bc bf0c 743d
000000b0: c3e8 82bd f45e d6bb 1a10 c93b 1ff2 163e
000000c0: f2dd 69bd ba5c 3dbd 5273 f83c 1899 94be
000000d0: 38bf 943d 1896 96bc 0ec7 6abd eab3 23be
000000e0: 62ef e1bc 6ad8 0d3d 60cb 1e3d 7916 07bb
000000f0: 3a41 003e 115f 1e3d ee22 b9bd 2fc1 793e
00000100: 0159 0d3d ac77 57bc fedf 133e 5c01 fbbc
00000110: 43b8 dc3c ae0e 1f3e 7b70 163d 2f76 cfbd
00000120: 4f5f 113e a184 39bd 7d80 553c 23f6 6cbd
00000130: b2df ab3d 8ee3 3a3d 11d4 003d 7559 073e
00000140: 0f64 bc3e 5d1d 5cbc 25fc aebb 4ecc 7b3d
00000150: a7bb 9abd 40d6 72bd 9d3d 06bd 0fd7 eebd
00000160: 811f cabc 2b7a 04be 732a 0c3e 15be 583d
00000170: 1dde 3fbd ff69 e8bc 1c14 da3d c947 893d
00000180: 1e31 43be 8df2 cbbb 535e 6dba d254 9e3d
00000190: 0d93 483d 3e0d b5bc 3374 8abd da52 eebd
000001a0: cb1b 473e e43c 80bd e44e 0fbc e46f 263e
000001b0: 358a 403e 316f edbd a729 143d 01c5 b3bd
000001c0: 8522 96bd 0128 033b 77b5 a4bd 0121 8e3e
000001d0: 238f a9bd 09b7 0a3d 3170 8ebd 55f8 5a3e
000001e0: 72ec ecbd 57fa c2bd 9ccc 0ebe ea1c dabd
000001f0: 919e bfbd b5ac 09be a341 393e 9407 0bbe
00000200: 6aec c3bd 28a5 d1bd c02a 0ebe e054 a7bb
00000210: 3214 7dbd def7 f0bd 2acf d1bd 14de 1e3d
00000220: 08a6 b93d fcf0 0f3e 1ebe bc3d d146 883c
00000230: 3fce 42bd 39f6 3abe b6be fcbd 7d70 6fbe
00000240: 453d 64be dedb a73d 4a04 cabb cc5b 00bd
00000250: 38f5 d53d 405b 9d3d 801a cc3d 6060 253e
00000260: 0f09 943d eefb 233e 11e0 3cbe da31 19bc
00000270: fd51 bdbb dcfd 7c3d 8e2a 1bbe 0965 89bd
00000280: 47c4 6c3e 6547 553d b0c7 013c b8ab 9fbd
00000290: 9a9a a6bc 9aec 5bbc 6ebb d63d 4b0a d63d
000002a0: c282 1ebe 8dad b33d 236f 203d 208a 8bbe
000002b0: 8259 61be 6760 3c3e 4b38 13be 21c9 84bd
000002c0: 4f2e 053e c4da 22bd 741a 8c3d 395c d1bd
000002d0: 141a 5c3d b0f9 d4bc 6585 a63d b597 3fbe
000002e0: 6686 e13d 9175 073e 37b5 4f3e 3698 26bc
000002f0: c2e1 d53d 6394 763e 0ffa e2bd 1d05 dc3d
00000300: 7998 9d3d 3511 5fbd c4a8 b33d 0e43 e0bd
00000310: c390 c1bd 4316 a1bc 3178 013d 8470 ef3c
00000320: eefa 833d 5411 fd3c c6b1 923c 620b 18be
00000330: e1f8 b2bc 9729 233e 1080 1b3d 9890 ecbd
00000340: 2e6a 9f3c 3de6 ddbd a0ec 5bbd 9e38 003d
00000350: 8ed5 80bd 9859 52bd fed4 cfbc 997c b8bc
00000360: 34f0 ef3d 2403 b3bc 0da3 df3d 0eee ef3d
00000370: 983c 22be 6c29 d13d 6332 4a3c 53a8 b73d
00000380: 2152 e0bd 61bd f6bc a3e2 a2bd 9d36 933c
00000390: ad3d 103e d182 16be 9906 a1bd 3c5b f4bc
000003a0: f242 e53d ecf3 fc3b bfd2 1a3d adb4 e33c
000003b0: 83d7 79bd cd6c 423e 9ea5 eabd 8d3f 2ebd
000003c0: 2554 9c3d 2e4a 193e 9b76 b43d a4ff b83d
000003d0: 318a 95bd df4d bebb e527 d23c 6d48 603d
000003e0: 79f1 d03c 5c09 45bd 4ee5 2fbe 516d cbbd
000003f0: af53 aebb eacb 943c 4ba0 eb3d f91f 8dbd

encoder.blocks.0.attn.key.bias f4 [64]
2.5325537e-07 -3.589998e-08 1.2890085e-07 4.4270703e-08 3.2711424e-07 7.99799e-08 1.4718232e-08 -1.9388233e-07
1.06948356e-07 -9.7978834e-08 1.1121926e-08 3.1037757e-08 -1.6031095e-07 2.6284289e-08 4.6426376e-08 3.5059763e-08
7.950562e-08 1.4344458e-08 -1.9244733e-07 -1.0695945e-07 2.2678562e-07 5.3846886e-08 -2.8103755e-09 1.1347081e-07
4.0736335e-08 -7.0155494e-08 -3.143379e-08 4.0735e-08 -4.3226277e-07 -6.07381e-08 -3.052908e-07 1.396801e-07
1.0695951e-08 -4.8850758e-08 1.331815e-07 4.5165418e-08 2.9308017e-08 -1.367585e-08 -1.4153196e-07 3.9903323e-08
2.0447538e-07 7.412599e-09 -1.0661572e-07 -5.306979e-08 1.4456008e-07 -1.9666679e-07 4.0728704e-08 2.9601692e-08
2.3605587e-07 -2.6577535e-08 3.71001e-08 1.0056556e-07 -2.448011e-07 -2.31836e-07 -2.45441e-07 -9.2647284e-08
-3.8733592e-08 6.0323266e-08 -1.437745e-08 1.1895576e-07 -8.3332814e-08 6.636747e-08 6.830922e-08 -3.499914e-08
00000000: 27f7 8734 7230 1ab3 ff67 0a34 2724 3e33
00000010: 3d9e af34 6ac1 ab33 78db 7c32 f82d 50b4
00000020: 7bab e533 6f68 d2b3 bf12 3f32 604e 0533
00000030: f021 2cb4 c3c7 e132 5766 4733 9e94 1633
00000040: adbc aa33 986f 7632 85a3 4eb4 94b1 e5b3
00000050: 5b82 7334 4745 6733 a620 41b1 3dad f333
00000060: 13f6 2e33 64a8 96b3 d101 07b3 9bf4 2e33
00000070: be11 e8b4 206f 82b3 d9e6 a3b4 f9fa 1534
00000080: 4ac1 3732 facf 51b3 a700 0f34 e7fb 4133
00000090: 03c1 fb32 06f3 6ab2 02f8 17b4 2b62 2b33
000000a0: c48d 5b34 e9b1 fe31 9df4 e4b3 daee 63b3
000000b0: 5f38 1b34 5b2b 53b4 afed 2e33 cf46 fe32
000000c0: 8b76 7d34 9e4c e4b2 fe57 1f33 80f6 d733
000000d0: 356d 83b4 98ee 78b4 27c5 83b4 62f5 c6b3
000000e0: 095c 26b3 118b 8133 b200 77b2 9f74 ff33
000000f0: b3f4 b2b3 e785 8e33 64b1 9233 f651 16b3
