trainer/results/football/11_vs_11_stochastic/mat/check/run1/models/transformer_700.pt (torch, 467816 bytes, 73 tensors)

encoder.state_encoder.0.weight f4 [37]
000000 00 00 80 3f 00 00 80 3f 00 00 80 3f 00 00 80 3f
       1.0 1.0 1.0 1.0
000010 00 00 80 3f 00 00 80 3f 00 00 80 3f 00 00 80 3f
       1.0 1.0 1.0 1.0
000020 00 00 80 3f 00 00 80 3f 00 00 80 3f 00 00 80 3f
       1.0 1.0 1.0 1.0
000030 00 00 80 3f 00 00 80 3f 00 00 80 3f 00 00 80 3f
       1.0 1.0 1.0 1.0
000040 00 00 80 3f 00 00 80 3f 00 00 80 3f 00 00 80 3f
       1.0 1.0 1.0 1.0
000050 00 00 80 3f 00 00 80 3f 00 00 80 3f 00 00 80 3f
       1.0 1.0 1.0 1.0
000060 00 00 80 3f 00 00 80 3f 00 00 80 3f 00 00 80 3f
       1.0 1.0 1.0 1.0
000070 00 00 80 3f 00 00 80 3f 00 00 80 3f 00 00 80 3f
       1.0 1.0 1.0 1.0
000080 00 00 80 3f 00 00 80 3f 00 00 80 3f 00 00 80 3f
       1.0 1.0 1.0 1.0
000090 00 00 80 3f
       1.0

encoder.state_encoder.0.bias f4 [37]
000000 00 00 00 00 00 00 00 00 00 00 00 00 00 00 00 00
       0.0 0.0 0.0 0.0
000010 00 00 00 00 00 00 00 00 00 00 00 00 00 00 00 00
       0.0 0.0 0.0 0.0
000020 00 00 00 00 00 00 00 00 00 00 00 00 00 00 00 00
       0.0 0.0 0.0 0.0
000030 00 00 00 00 00 00 00 00 00 00 00 00 00 00 00 00
       0.0 0.0 0.0 0.0
000040 00 00 00 00 00 00 00 00 00 00 00 00 00 00 00 00
       0.0 0.0 0.0 0.0
000050 00 00 00 00 00 00 00 00 00 00 00 00 00 00 00 00
       0.0 0.0 0.0 0.0
000060 00 00 00 00 00 00 00 00 00 00 00 00 00 00 00 00
       0.0 0.0 0.0 0.0
000070 00 00 00 00 00 00 00 00 00 00 00 00 00 00 00 00
       0.0 0.0 0.0 0.0
000080 00 00 00 00 00 00 00 00 00 00 00 00 00 00 00 00
       0.0 0.0 0.0 0.0
000090 00 00 00 00
       0.0

encoder.state_encoder.1.weight f4 [64, 37]
000000 53 32 ea 3e b7 63 44 3e ec 88 ef 3d 43 bc 0e bd
       0.4574152 0.19178663 0.11696038 -0.03484751
000010 92 7e ca bc 08 3b b7 3d b4 b2 99 3c be d0 be 3d
       -0.024718557 0.08946806 0.01876197 0.09317158
000020 51 bd 86 3e 00 85 8f bd ff 2f ad 3e eb 9c 72 bd
       0.26316312 -0.070077896 0.3382568 -0.05923168
000030 cd 41 04 be 27 d5 7b be 5b bf c9 bc d3 0f 0b 3e
       -0.12915726 -0.2459303 -0.024627378 0.13580255
000040 b4 04 23 be 7e 7f 35 be 5f 9f 29 3d 3b 04 b5 3c
       -0.15919763 -0.17724416 0.041411754 0.022096744
000050 d0 d0 38 3e 2e 5c fc 3d f4 76 9c bd 5d 8b bc be
       0.18048406 0.123222694 -0.07639876 -0.36825076
000060 65 f6 97 be ed 02 0c bd d0 e7 67 3d 35 f3 4d 3e
       -0.29680172 -0.034182478 0.056617558 0.20112307
000070 23 58 51 3d 3b b4 4d 3e fa 91 3c 3e 63 6b 9f bd
       0.051109444 0.20088284 0.1841506 -0.07784154
000080 84 52 b6 3c 09 25 02 bb 99 18 92 3c 60 f2 2b 3e
       0.022256143 -0.00198585 0.017833995 0.16791677
000090 8a 44 12 3e f6 12 81 3e 0b 9f 2f bb fa ba 15 3d
       0.14283958 0.2520978 -0.0026797678 0.036555268
0000a0 c5 82 af be 6a b0 56 3e a0 92 df 3d d4 0a 74 3d
       -0.34279457 0.20965734 0.109166384 0.05958064
0000b0 a6 b8 3a 3e 70 81 45 3e ed f7 61 3d 25 0f 86 3c
       0.182345 0.19287658 0.05516808 0.016364643
0000c0 92 a4 00 be ce d3 91 3e dc 4e c8 3c 95 42 b3 3e
       -0.12562779 0.28481907 0.024451666 0.35011736
0000d0 bf 87 2b be a0 83 8c be e7 ef bd 3d 0c 6e 1a 3c
       -0.16751002 -0.27444172 0.09274273 0.009425651
0000e0 63 27 10 be 1c e7 60 be 72 d1 35 3e 32 7c b9 bc
       -0.14077525 -0.21963161 0.17755678 -0.022642229
0000f0 fc 1a aa 3c 44 b0 31 3d be f0 b5 be b4 c4 32 be
       0.02076482 0.04338099 -0.35535234 -0.17457849
000100 24 83 cd 3d 20 d2 8d bd 12 c2 7c bd 35 1a a6 bd
       0.10034779 -0.06924844 -0.061708517 -0.08110467
000110 4c 0f 95 3e ca 3c 96 3d 50 80 4c be 70 22 0f bd
       0.29113233 0.07335813 -0.19970822 -0.03494495
000120 07 2e 84 bd cb f8 9f 3e 85 b7 7f 3d 8e 0d 33 be
       -0.064540915 0.312445 0.062430877 -0.1748564
000130 ef c7 20 3e f8 87 a8 3d 1d 9e ae bd e6 e3 2a be
       0.15701269 0.08229059 -0.085262515 -0.16688499
000140 ab 89 34 3d fb 10 6f be 37 45 6b 3c 2e 53 4d bd
       0.044076603 -0.23346321 0.014359764 -0.050128154
000150 7b 63 8d be 8b 8d b8 bd a9 ea 48 3e fc 9e ad 3e
       -0.2761496 -0.09011372 0.19620766 0.33910358
000160 7a 56 b3 3d 52 6a 4f 3e 8d c1 a6 3b d4 11 f3 3d
       0.087567285 0.20255402 0.005088991 0.11868635
000170 ad 49 5a 3d cb a9 30 3e 59 4c 63 3e 01 ca 6c 3d
       0.05329292 0.17252271 0.22197093 0.057809833
000180 e9 d0 06 bd cd 38 1f be 7a b2 8e be b1 98 97 3e
       -0.032914076 -0.15549012 -0.27870542 0.29608682
000190 45 4f 39 be 28 85 5f bd f6 3a 8b be ea ba 68 bd
       -0.18096645 -0.054570347 -0.2719342 -0.05681888
0001a0 52 bb b0 bd 99 a1 83 3e be c8 cd 3d 98 84 63 39
       -0.086294785 0.25709227 0.10048054 0.00021697802
0001b0 8f a1 67 3c 61 66 53 3e b8 ca 33 be 14 c6 87 3d
       0.01413764 0.20644523 -0.175578 0.06629577
0001c0 04 fc 0e bf eb d6 63 bd e4 f2 3c be de 27 88 3e
       -0.55853295 -0.055624884 -0.1845203 0.26592916
0001d0 6a 72 b4 bd 21 70 ed bc 87 42 9b be a6 98 65 bd
       -0.08810885 -0.028984131 -0.30324194 -0.05605378
0001e0 1a 78 82 3e e9 d8 bb bd 0b 39 97 bd 05 ae 8a be
       0.25482255 -0.09172232 -0.07383927 -0.2708589
0001f0 f2 08 43 3e 91 9c 99 3c 07 6f cb bb 91 c4 08 be
       0.19046381 0.018751414 -0.006208304 -0.13356234
000200 da 9e ff bd 30 98 c7 bd 74 44 6c 3d 48 af 82 3e
       -0.124814704 -0.09745824 0.05768247 0.25524354
000210 75 95 0f 3e b1 0b 16 be c5 ee 99 bd 24 f6 2a 3e
       0.14021857 -0.14652897 -0.07516245 0.16695458
000220 f5 2e 83 be ae 6d b8 3c fd b9 40 be d1 68 5f bd
       -0.25621763 0.022513237 -0.18820949 -0.05454332
000230 82 23 5e bd b1 15 44 be 90 16 85 bd c5 dc 15 3e
       -0.05423308 -0.191489 -0.06498444 0.14634998
000240 79 a7 7e 3e 37 c5 8d 3e 83 a1 b7 be f2 e3 46 be
       0.24868573 0.27689525 -0.3586541 -0.19422892
000250 9a 54 52 3e 2d 94 82 be 4b d8 bb 3e 2b 4a 62 bd
       0.20540085 -0.25503674 0.36688456 -0.055246513
000260 96 bb 41 bd 5e be 05 3e 50 b0 33 bd 03 9d b0 3d
       -0.047298037 0.130609 -0.043869317 0.086236976
000270 84 46 a7 bd 06 ba b4 3d de 1a 64 bc 01 93 65 ba
       -0.08167747 0.08824544 -0.013922421 -0.0008757562
000280 e4 76 94 be ef 20 89 be 75 4b fe bd 42 87 82 bb
       -0.28996956 -0.2678294 -0.12416736 -0.003983409
000290 8f f7 ab bd ab ab 3d be 1a 0e 16 be e8 06 0b bc
       -0.083968274 -0.18522517 -0.14653817 -0.008485533
0002a0 97 de 49 3e 18 50 c2 3c 72 3f 18 3d ba 21 18 be
       0.19713818 0.023719832 0.03716988 -0.14856616
0002b0 c6 ce f8 bd 0c 65 54 3c fa 7d 95 bd 2b 2b 40 bc
       -0.12148814 0.012963545 -0.07299419 -0.011729042
0002c0 bb c3 30 bd 60 cb c5 bd d4 b4 b9 bd 5a 95 bb be
       -0.043155413 -0.09657931 -0.09067693 -0.36637384
0002d0 99 af 90 be c5 5e bf be 6e c3 85 bd 1f 11 b6 3d
       -0.2825897 -0.3737699 -0.06531416 0.08889984
0002e0 61 8a 4b be 76 38 7f 3d 0e 06 32 3e 9c d3 12 bc
       -0.19877006 0.062309705 0.17385122 -0.008961584
0002f0 30 4b c5 3d 3a 24 5d 3e d9 91 f5 bd c5 61 83 3d
       0.096334815 0.2159585 -0.11990709 0.064151324
000300 ea c1 2f be c9 5a 90 be a7 da 55 3c e8 5f 25 3e
       -0.17163816 -0.28194264 0.013052619 0.16149867
000310 63 e3 17 3e bb 34 53 bd 92 c1 03 be dd 50 d5 be
       0.14832835 -0.05156396 -0.1286681 -0.41663256
000320 34 72 c4 3d 3d 77 eb bd 4e c9 5c 3d 8c 3b 86 bd
       0.09592095 -0.11497352 0.053902917 -0.065543264
000330 dd c7 8b 3e 66 21 dc bd ec 2a 23 bf 8c e8 46 be
       0.2730092 -0.10748558 -0.6373737 -0.19424647
000340 97 1a 84 bd 1f a1 a7 3d 42 86 f3 bd d1 fd 41 3d
       -0.06450384 0.08185028 -0.11890842 0.0473612
000350 d2 72 0f be 58 8c 9d bd df 51 14 be b2 8a 3e be
       -0.14008644 -0.07692784 -0.14484356 -0.18607596
000360 c1 17 32 3d ab b2 a5 3b 29 90 18 be 96 a9 cb 3d
       0.043479685 0.0050566993 -0.14898743 0.09944455
000370 e1 8e 36 bd e8 3e d2 3d 88 21 1b bd 55 66 90 3e
       -0.044569854 0.10265905 -0.037873775 0.28203073
000380 49 fe 8c 3d c3 74 0f bd 3e 44 b6 be ba 1f 82 3e
       0.068844385 -0.035023462 -0.3559894 0.2541483
000390 35 42 41 bb 50 4b 92 3d 32 72 15 3e 55 a6 60 3e
       -0.0029488925 0.07143271 0.14594343 0.2193845
0003a0 da 64 f6 bd 56 2c 2d bd 64 f8 ac bd 86 33 84 be
       -0.12030955 -0.04227861 -0.08445814 -0.2582056
0003b0 49 46 ca be 8e a9 41 3e bb 43 0f be 4a 59 b7 3c
       -0.39506748 0.18912336 -0.13990681 0.022381444
0003c0 23 f1 ff bc 7f 39 b2 3c 69 61 64 bc 2c 66 ba 3d
       -0.031242913 0.021755932 -0.01393924 0.09101519
0003d0 46 6c 0c 3e c8 96 03 3e ce e9 a0 bd ec 99 80 be
       0.13713178 0.12850487 -0.07857095 -0.25117433
0003e0 e3 92 59 be f6 5f 2f 3d 02 16 cd bd 39 96 00 3c
       -0.21247439 0.042816125 -0.10013963 0.007848316
0003f0 66 d9 04 bf 05 75 b2 3d 5b e7 17 be 3e ec 3d 3e
       -0.51894224 0.08713726 -0.14834349 0.1854715

encoder.state_encoder.1.bias f4 [64]
000000 00 00 00 00 00 00 00 00 00 00 00 00 00 00 00 00
       0.0 0.0 0.0 0.0
000010 00 00 00 00 00 00 00 00 00 00 00 00 00 00 00 00
       0.0 0.0 0.0 0.0
000020 00 00 00 00 00 00 00 00 00 00 00 00 00 00 00 00
       0.0 0.0 0.0 0.0
000030 00 00 00 00 00 00 00 00 00 00 00 00 00 00 00 00
       0.0 0.0 0.0 0.0
000040 00 00 00 00 00 00 00 00 00 00 00 00 00 00 00 00
       0.0 0.0 0.0 0.0
000050 00 00 00 00 00 00 00 00 00 00 00 00 00 00 00 00
       0.0 0.0 0.0 0.0
000060 00 00 00 00 00 00 00 00 00 00 00 00 00 00 00 00
       0.0 0.0 0.0 0.0
000070 00 00 00 00 00 00 00 00 00 00 00 00 00 00 00 00
       0.0 0.0 0.0 0.0
000080 00 00 00 00 00 00 00 00 00 00 00 00 00 00 00 00
       0.0 0.0 0.0 0.0
000090 00 00 00 00 00 00 00 00 00 00 00 00 00 00 00 00
       0.0 0.0 0.0 0.0
0000a0 00 00 00 00 00 00 00 00 00 00 00 00 00 00 00 00
       0.0 0.0 0.0 0.0
0000b0 00 00 00 00 00 00 00 00 00 00 00 00 00 00 00 00
       0.0 0.0 0.0 0.0
0000c0 00 00 00 00 00 00 00 00 00 00 00 00 00 00 00 00
       0.0 0.0 0.0 0.0
0000d0 00 00 00 00 00 00 00 00 00 00 00 00 00 00 00 00
       0.0 0.0 0.0 0.0
0000e0 00 00 00 00 00 00 00 00 00 00 00 00 00 00 00 00
       0.0 0.0 0.0 0.0
0000f0 00 00 00 00 00 00 00 00 00 00 00 00 00 00 00 00
       0.0 0.0 0.0 0.0

encoder.obs_encoder.0.weight f4 [217]
000000 97 fc 6a 3f 57 73 7d 3f cd 65 7e 3f 91 81 7a 3f
       0.9179167 0.9900412 0.99374086 0.9785395
000010 78 47 74 3f 76 64 6c 3f 19 d9 76 3f 4b 3f 71 3f
       0.9542155 0.9234079 0.96425015 0.942372
000020 2a 33 72 3f 76 4c 91 3f 71 a4 88 3f 4d 70 96 3f
       0.9460932 1.1351459 1.0675184 1.1753021
000030 37 04 8d 3f 01 5e 76 3f c6 87 40 3f dc 18 32 3f
       1.1016911 0.9623719 0.75207174 0.6956918
000040 ce 3d 8c 3f a2 6a 8d 3f a4 09 82 3f 07 54 8b 3f
       1.0956361 1.1048167 1.0159192 1.0885018
000050 7d 09 a1 3f cd 7a 99 3f f8 e3 87 3f b5 f5 82 3f
       1.258102 1.1990601 1.0616446 1.0231234
000060 ba a0 9e 3f e5 4b 8d 3f ad 97 86 3f ee cf 93 3f
       1.23928 1.1038786 1.0515038 1.154783
000070 65 25 97 3f 5a bc 9a 3f 81 44 9f 3f e9 7f 9d 3f
       1.1808287 1.208873 1.2442781 1.230466
000080 39 98 1c 3f ee 3c 9d 3f 2d bb 94 3f ad cf 99 3f
       0.61169773 1.2284219 1.1619622 1.2016503
000090 e7 1d aa 3f 48 24 74 3f 90 0c 45 3f dc 47 ee 3e
       1.3290375 0.9536786 0.76972294 0.465392
0000a0 bc f9 25 3f da e9 42 3f 53 ad 70 3f 6c 9b 81 3f
       0.6483419 0.7613808 0.9401447 1.0125556
0000b0 b6 d2 90 3f a4 85 ff 3f 12 6c 64 3f ba 01 b5 3f
       1.1314304 1.9962659 0.892274 1.4141152
0000c0 88 79 65 3f fa 79 8e 3f 51 21 63 3f c6 27 4c 3f
       0.89638567 1.1130974 0.8872271 0.7974819
0000d0 c8 5a 8f 3f 82 59 e1 3e 07 e9 2a 3f f5 72 2b 3f
       1.1199579 0.44013602 0.6676182 0.66972286
0000e0 b5 2e 6f 3f 67 78 81 3f 82 b6 69 3f 9f 29 68 3f
       0.93430644 1.0114869 0.9129411 0.9068851
0000f0 2d 7e fa 3e 87 9e 12 3f 2e 93 1b 3f f7 03 68 3f
       0.4892439 0.57273144 0.60771453 0.9063105
000100 36 c2 79 3f 02 d4 75 3f 9b 57 67 3f 4a 5b b3 3e
       0.9756197 0.96026623 0.9036805 0.35030586
000110 28 85 30 3f 58 ec 30 3f a2 a8 70 3f ad dd 77 3f
       0.6895318 0.6911063 0.94007313 0.96822625
000120 7f 4a 7c 3f b4 4c 56 3f 14 cf be 3e a3 96 1d 3f
       0.9855117 0.8371079 0.37267363 0.6155798
000130 e0 86 25 3f d1 ae 68 3f 3b 72 7e 3f ee 1a 63 3f
       0.6465893 0.9089175 0.9939305 0.88712966
000140 2c c9 34 3f 79 96 e0 3e 00 82 21 3f c8 7b 1a 3f
       0.70619464 0.43864802 0.6308899 0.60345125
000150 1d 7c 85 3f af 3f 7b 3f b8 57 71 3f 71 9d 60 3f
       1.0428501 0.9814405 0.94274473 0.87740237
000160 04 9d ff 3e a7 d7 1d 3f be 6f 28 3f ed 3e 69 3f
       0.4992448 0.61657184 0.65795505 0.9111164
000170 ea b9 76 3f fa c1 59 3f 12 14 78 3f 46 ab de 3e
       0.9637743 0.8506161 0.96905625 0.43490046
000180 98 aa 1a 3f 15 8f 28 3f 84 6d 75 3f 33 94 56 3f
       0.60416555 0.65843326 0.9587023 0.83819884
000190 5d ff 40 3f e1 2f 57 3f 42 0b ba 3e bd da 1b 3f
       0.75389653 0.8405743 0.36336714 0.60880643
0001a0 f7 19 2c 3f ee 11 54 3f ea af 6e 3f 23 d5 34 3f
       0.6722712 0.8283986 0.93237174 0.7063772
0001b0 5f 0d 32 3f 17 34 b9 3e 55 b6 22 3f 71 d2 37 3f
       0.6955165 0.36172554 0.63559467 0.71805483
0001c0 95 e0 63 3f 12 96 7f 3f 5e 5a 79 3f 29 a1 93 3f
       0.8901456 0.99838364 0.97403514 1.1533557
0001d0 9f 89 17 3f a6 99 35 3f fd c5 3d 3f 88 8e 9f 3f
       0.5919437 0.70937574 0.7413023 1.2465372
0001e0 6a 99 67 3f 19 97 82 3f 14 d8 85 3f d8 5b 86 3f
       0.90468466 1.0202361 1.0456567 1.0496778
0001f0 ff b5 73 3f 20 b6 72 3f 88 b0 8c 3f cd 97 89 3f
       0.9519958 0.9480915 1.0991373 1.0749451
000200 79 d1 83 3f 4a 68 86 3f 19 10 82 3f b9 af 83 3f
       1.0298301 1.0500576 1.0161163 1.0288001
000210 f5 67 1d 3f ea ba 6d 3f 3b 0c 50 3f a4 2f 3e 3f
       0.6148675 0.92863333 0.8126866 0.74291444
000220 db 11 4a 3f 1f 27 4c 3f 2d ff 87 3f 72 68 80 3f
       0.78933495 0.79747194 1.0624748 1.0031874
000230 80 97 81 3f 62 31 8a 3f 7b a4 6e 3f 2b ec 77 3f
       1.0124359 1.079632 0.9321973 0.9684474
000240 2a 0d 75 3f c5 27 79 3f 0f bc 90 3f bb 60 6d 3f
       0.9572321 0.9732631 1.1307391 0.92725724
000250 c1 8b 63 3f 26 82 4e 3f 0d 3d 3c 3f eb 6c 55 3f
       0.8888512 0.8066734 0.73530656 0.8336932
000260 f3 ea 6c 3f d7 ea 80 3f bf e2 82 3f 52 3a 86 3f
       0.92546004 1.0071667 1.0225447 1.0486548
000270 ea 99 48 3f c1 28 2c 3f 21 52 53 3f b5 4e 50 3f
       0.78359854 0.67249686 0.82547194 0.813701
000280 50 09 79 3f fd d0 78 3f 77 40 74 3f 24 58 2d 3f
       0.97279835 0.9719389 0.95410866 0.67712617
000290 c8 f6 32 3f 7c 4c 42 3f 31 fa 5b 3f 52 b8 77 3f
       0.6990781 0.75897956 0.85928637 0.96765625
0002a0 9c 65 66 3f a7 f9 7b 3f da 89 2d 3f d8 bb 51 3f
       0.89998794 0.98427814 0.6778847 0.8192725
0002b0 05 0e 51 3f 86 ed 77 3f d7 30 7b 3f 62 d2 68 3f
       0.8166202 0.96846807 0.981214 0.9094602
0002c0 08 17 84 3f c9 e7 22 3f ae 4a 5b 3f c5 37 32 3f
       1.0319529 0.63634926 0.8566083 0.6961635
0002d0 91 0a 5c 3f 0a d5 81 3f c2 be 79 3f ea 0e 71 3f
       0.85953623 1.0143139 0.975567 0.9416338
0002e0 91 f3 40 3f bd 1e 33 3f e6 cf 3f 3f de a8 51 3f
       0.7537165 0.6996878 0.749266 0.81898296
0002f0 4d 37 81 3f a5 8b 7a 3f 73 2a 8c 3f 38 19 6e 3f
       1.0095001 0.9786933 1.0950454 0.9300723
000300 35 1c 79 3f 24 ef 51 3f 4b 0d 63 3f 9a c9 7a 3f
       0.97308666 0.82005525 0.8869216 0.9796387
000310 60 9a 70 3f 00 b7 8b 3f fc 48 52 3f 3c 6a 71 3f
       0.9398556 1.0915222 0.82142615 0.94302726
000320 48 e1 4f 3f 4b 2d 6c 3f 9a 1a 82 3f c9 c6 83 3f
       0.81203127 0.9225661 1.0164368 1.029504
000330 2e f2 8b 3f 50 17 6f 3f 22 1a 55 3f ab 72 7b 3f
       1.0933282 0.9339495 0.83243 0.98221844
000340 77 19 66 3f 77 e4 7d 3f 82 45 72 3f 4e db 5a 3f
       0.89882606 0.99176735 0.9463731 0.8549088
000350 c8 45 5e 3f 67 c3 74 3f cf 29 4d 3f 0d a5 6a 3f
       0.8682523 0.9561066 0.8014192 0.916581
000360 c6 ea 84 3f
       1.0384147

encoder.obs_encoder.0.bias f4 [217]
000000 a1 d1 df bd 5c 42 53 bd 92 79 af bc 4c 8d 8f bc
       -0.109286554 -0.051576957 -0.021420274 -0.01752343
000010 bd 5b 81 bd 21 ef 9c bd 15 1d 54 bd cb df 83 bd
       -0.06316326 -0.07662798 -0.051785547 -0.064391695
000020 b5 63 a1 bd f7 02 5b 3d 0a 46 cd 3c 5e 8d 7b 3d
       -0.07880346 0.053469624 0.025057811 0.061414115
000030 d7 3d ad 3c 53 da 06 bd 19 5a ad bd 0b bf 37 bd
       0.021147652 -0.032923054 -0.084644504 -0.044859927
000040 7e 9c 1d 3d b4 35 86 3c db 11 1f 3d 56 34 fa 3c
       0.03847932 0.01638303 0.038835388 0.030542534
000050 c9 43 3f 3b 78 02 70 3d 52 7d 32 bd 2d 36 25 bc
       0.002918469 0.058596104 -0.043576546 -0.010083717
000060 31 c1 75 3d e8 fb a5 bb 31 7b 1c 3d 41 31 0a 3c
       0.059998695 -0.00506543 0.038203422 0.008434595
000070 d4 3b e5 3c 57 71 91 3d 94 41 c4 3c 03 50 b0 3c
       0.02798263 0.07101696 0.023957051 0.021522528
000080 e8 ab 08 3d 27 19 77 bd e1 4d 2e bd e2 e2 85 bc
       0.033367068 -0.06032672 -0.04255474 -0.016343538
000090 03 3e e5 3c 78 68 a0 3c 7a ee 9f 3c 20 c4 33 3d
       0.027983671 0.019581065 0.019522894 0.04388821
0000a0 74 89 5d 3d 21 22 7c bd 14 e8 1d bd cb f3 1b 3c
       0.054086164 -0.061555985 -0.038551405 0.009518574
0000b0 8d 00 c3 bb 11 51 a7 3c 06 15 0b 3d b6 41 a5 3c
       -0.0059509934 0.020424398 0.033955596 0.020172935
0000c0 e8 b8 2f bd 6a 4b dc bb ec 01 82 bd 1b e3 ff 3c
       -0.04290095 -0.0067228572 -0.06348023 0.031236222
0000d0 7b f3 82 3c f4 de 45 3d 1a 70 92 3d a0 b3 c1 bd
       0.015985241 0.048308328 0.07150288 -0.09458089
0000e0 88 f6 36 bd 5a 94 d7 bc 61 3d f5 3b 10 af f3 3c
       -0.044668704 -0.026315857 0.0074841236 0.029746562
0000f0 78 c3 2a 3c db 08 64 3d 70 1d c2 bd 8a a0 79 bd
       0.01042258 0.055672508 -0.09478271 -0.060944118
000100 ff 25 4c bd 12 a3 42 3d e6 c3 74 3c 55 81 fd 3b
       -0.049840923 0.047518797 0.014939284 0.007736365
000110 41 23 df 3c a9 c1 b4 bc 2b d8 72 bd 33 22 a6 bc
       0.02723849 -0.022065 -0.059288185 -0.02027998
000120 0e 01 94 3b ba c9 d2 3b f5 14 bf bc dc fb ff 3c
       0.0045167273 0.006432739 -0.023325423 0.031248026
000130 b9 2f b4 bd 7a aa 93 bd 41 9f 0c bd c6 ab 7d 3d
       -0.08798165 -0.0721025 -0.034331564 0.061931394
000140 80 28 70 3c 68 9d 33 3d 7c a5 31 3d 59 fa df bd
       0.014658093 0.043851286 0.04337071 -0.10936422
000150 5e 6d 0f bd e9 61 92 bd c3 8c 4f 3c f4 38 ac 3c
       -0.03501641 -0.07147581 0.012667838 0.021023251
000160 0c 77 b8 3c 8f 36 86 3d 9c a5 df bd 4e 5b 5d bd
       0.022517703 0.06553375 -0.10920259 -0.054042153
000170 b4 af 3e bd 37 75 af 3d 04 a7 c6 3c 32 91 ed 3c
       -0.046554282 0.08567279 0.024249561 0.028999899
000180 7c 80 6b 3d 18 bb 8c bd 2e 5a 98 bd 68 2a 53 bd
       0.05749558 -0.06871623 -0.074390754 -0.051554114
000190 04 a8 05 3a 63 58 31 3d f5 99 27 3d 82 a3 93 3d
       0.00050985836 0.043297183 0.04091831 0.07208921
0001a0 aa 82 e5 bd a9 f1 83 bd 3b ae 95 bc c3 3e 9a 3c
       -0.11206563 -0.064425774 -0.018271556 0.018828755
0001b0 3f f0 a3 3a f9 d2 1b 3d 89 a3 a5 3d f2 a2 89 bd
       0.0012507512 0.038042996 0.080878325 -0.067205325
0001c0 ef 98 7f bd a2 c5 97 bc 24 a2 15 3c 9a 29 0e bc
       -0.06240171 -0.018526856 0.009132896 -0.008676911
0001d0 11 8f 03 3d 68 df 4e 3d ed 8d b1 bd b8 fe 72 bc
       0.03211886 0.050506026 -0.08669648 -0.0148312375
0001e0 85 dd 38 bc 68 b3 71 bb f8 2b 16 bc 7e 69 45 3d
       -0.011283283 -0.0036880616 -0.009165756 0.04819631
0001f0 57 fb a6 bc 0d 9f b6 3c 38 74 3a bc e1 9f 7b bb
       -0.02038352 0.022292638 -0.011380248 -0.0038394856
000200 3d 23 d9 3b 3e 30 18 bd 62 c5 6e bd 58 f1 9e bc
       0.006626515 -0.037155382 -0.058293708 -0.019402191
000210 05 40 bb bd b8 d7 59 3d cb 5e a6 3d ba 23 9b 3d
       -0.0914307 0.05318424 0.08123549 0.07575174
000220 d3 0a aa 3d c8 0e c3 bd 1e 2d 1c bd 4b 08 30 bd
       0.08302846 -0.09524304 -0.038128965 -0.04297666
000230 a2 71 c4 bc 4a ea 8e bc 58 84 74 3c 36 a3 56 3d
       -0.023979966 -0.017445702 0.014924131 0.052401744
000240 d5 bc 05 3d 56 2c b2 bc 15 45 2d bb 93 67 61 3d
       0.032650787 -0.021749657 -0.0026438881 0.055030417
000250 80 59 9e bc 33 28 71 3d 02 9f 78 3c c0 47 40 bd
       -0.019329786 0.058876228 0.015174629 -0.046943426
000260 5d ee 2b bd 7e 84 c9 bc b5 fb b1 3c 57 62 2a bc
       -0.041975368 -0.02459931 0.021726469 -0.010399423
000270 d8 ed 05 3d 66 10 2f 3d 05 30 c6 bd b6 0c 90 bd
       0.03269753 0.04274025 -0.09677128 -0.070336744
000280 0d 2f 15 bd 0c 0f 45 3d 59 e2 22 3d e8 cb a2 3d
       -0.036421824 0.048110053 0.039766643 0.07949048
000290 40 2f 6e 3d 42 15 c5 bd 0e 56 8d bd 28 0f 92 bc
       0.05815053 -0.09623195 -0.06901179 -0.017829493
0002a0 d7 3a 29 3d 34 fb 8d 3d 1e d8 3a 3d b5 70 da 3c
       0.04131588 0.06932679 0.04561626 0.026665071
0002b0 f4 68 be bc 10 66 4a bd 57 4d 8c bd 99 cc 8d 3d
       -0.023243405 -0.04941374 -0.06850689 0.069237895
0002c0 ab bc 0c 3d 68 f3 eb 3d 9c 3c ac 3c 65 a2 02 be
       0.034359615 0.115210354 0.021024995 -0.12757261
0002d0 fc 15 6d bd 00 4e 5f bd 91 a5 45 3d cf f0 7d 3c
       -0.057882294 -0.054517746 0.0482536 0.015499308
0002e0 c4 ce 41 3d f9 7c 34 3d 37 c8 80 bd bc e0 d1 bc
       0.047316328 0.044064496 -0.06288188 -0.025619857
0002f0 27 c4 0e 3c a0 b1 81 3d df 8d 72 3c c7 54 9e 3d
       0.008713759 0.063327074 0.0148043325 0.07731014
000300 16 81 23 3c d1 d1 e3 bd 3b bf 3a bd 36 c0 be bc
       0.009979507 -0.11124004 -0.045592528 -0.023285013
000310 3a c2 a6 3d 8b f5 c2 bc 28 df c2 3d 76 16 fc 3c
       0.081425145 -0.023798725 0.0951522 0.030772429
000320 fa 85 9b bd 62 ec c7 bd b0 26 f1 bc 02 18 8c 3d
       -0.075939134 -0.09761883 -0.029437393 0.068405166
000330 ec 3d 92 3b 32 8c 8c 3d 06 11 33 3c 7e 32 e1 bc
       0.004462948 0.06862678 0.010929352 -0.027489897
000340 30 f4 b8 bd cb 7d a8 bc 46 0d 4c 3d 7f a1 21 3d
       -0.0903095 -0.020567795 0.049817346 0.039460655
000350 ab cc 89 3d 3e 1b 0e 3c 91 fc c5 bd 63 c4 57 bd
       0.067284904 0.008673487 -0.09667314 -0.052677523
000360 0a 3a 80 bd
       -0.0626107

encoder.obs_encoder.1.weight f4 [64, 217]
000000 2c 52 f4 3d 61 cb b3 3d 84 ce 82 bc 43 60 b2 3d
       0.119297355 0.08779026 -0.015967615 0.08709767
000010 0a 9f 75 3d d1 25 92 3d 03 c1 70 3e a2 c3 9d 3d
       0.059966125 0.07136119 0.23511128 0.077033296
000020 e0 cc 9c 3c 96 8f 25 3e 87 7f 66 3d e3 a1 43 38
       0.01914066 0.16168055 0.056273963 4.664239e-05
000030 ae b5 a2 bb 38 3e cf 3d ff 70 3e bd ff 59 d7 bb
       -0.0049655056 0.10119289 -0.04649448 -0.0065720077
000040 fc a3 fc 3d e2 c0 08 bd d0 ca f3 3c 95 b9 ae bd
       0.12335965 -0.033387072 0.029759794 -0.08531491
000050 0e f0 84 bc 19 b2 c1 3d bd 37 c1 3d 9e 6c 65 3d
       -0.016227748 0.094577976 0.09434459 0.05601179
000060 53 34 17 bd 8d db 11 3d 1e ae ce 3d b1 b9 90 3e
       -0.036915135 0.03560977 0.10091804 0.2826667
000070 8f 74 0b 3e 90 9b e3 3c 44 8a 0b be 99 ab 9d bd
       0.13618682 0.027784139 -0.13626963 -0.07698745
000080 3e d3 56 3d 69 a7 2f 3c 2e b1 20 be 89 2f e4 3c
       0.05244755 0.010721066 -0.15692589 0.027854698
000090 9b 7b 38 be 55 97 2b bd ef 14 ac 3c 4a ce 2b bd
       -0.18015902 -0.04189237 0.021006076 -0.04194478
0000a0 0a ed cf 3c c8 89 d0 3d 04 28 67 3d 2c 19 17 be
       0.025381584 0.1018253 0.056434646 -0.14755696
0000b0 a1 9a 19 bd e0 73 f3 3c cd 5d 32 3d b8 ac 69 3d
       -0.03750098 0.02971834 0.043546487 0.057049483
0000c0 a1 2a 02 3e 65 e5 73 3c 8a d3 bb 3d 9a 35 bc bd
       0.12711574 0.014886235 0.09171207 -0.09189911
0000d0 73 c2 a2 bc e5 f9 3a bd 16 54 51 3c 80 a5 c6 3d
       -0.019868111 -0.045648474 0.012776395 0.09699535
0000e0 03 69 60 3c 73 33 1b be 81 2b 4e be 57 40 4b 3e
       0.013696912 -0.15156345 -0.20133783 0.19848762
0000f0 a2 44 ab bd db b5 ad bc cc 0b 10 3e 54 f8 10 3e
       -0.083627 -0.02120488 0.14067 0.1415723
000100 58 86 14 bd 75 18 b7 bd 55 08 51 bd 10 84 19 3c
       -0.036260933 -0.08940212 -0.051033337 0.009369865
000110 5d d6 3c 3e 6e 36 a3 3d 7e 46 27 bd 71 5b 4d be
       0.18441148 0.07969366 -0.04083871 -0.20054413
000120 54 b1 1f be 93 10 85 3d 96 c9 6a 3d ff bb 56 3d
       -0.15594989 0.06497302 0.057321154 0.05242538
000130 fc 63 5c 3c b3 05 fa bc a7 68 87 be c4 67 76 3d
       0.0134515725 -0.030520296 -0.2644703 0.060157552
000140 02 c0 36 3e 35 9d 9a bb 20 d4 a3 3d e6 1b df 3d
       0.17846683 -0.0047184476 0.07999444 0.10893993
000150 7c bb 23 3e da 7a 3e be 0c 39 85 3d 4c b3 01 3e
       0.15989488 -0.18601552 0.065050215 0.12666053
000160 d4 64 4d 3e fa 2c 8b 3b 11 80 87 3d ae 23 55 3d
       0.20057994 0.004247305 0.066162236 0.05203598
000170 3b 99 2b be f5 e9 ac bc 4e 41 26 3c e4 bf 57 bd
       -0.16757672 -0.021107653 0.010147406 -0.052673236
000180 49 7e ea bd cf 60 2e 3c 43 e2 bb 3d f7 02 0e bc
       -0.11449868 0.010643198 0.091740154 -0.008667699
000190 f4 6c 51 be cd bf c3 3d bf 4b 30 bd 9b 0d c5 bc
       -0.20451719 0.095580675 -0.043040987 -0.02405434
0001a0 e8 bc 31 3d e2 24 36 be e4 e5 19 be 36 38 13 3e
       0.043393046 -0.17787507 -0.15029103 0.14376912
0001b0 61 0e a5 bd b1 39 01 3d 09 63 ee 3c 6e 8d 48 3d
       -0.08059383 0.03154916 0.029099958 0.048963003
0001c0 23 44 f1 3c 14 38 14 be ac 74 43 bb 7e 1b cc bd
       0.029451435 -0.14474517 -0.002982418 -0.09966181
0001d0 70 1b 8b bb 18 13 b7 3c 4e 51 d1 3c 2d 70 89 3e
       -0.004245214 0.022347972 0.025551464 0.26843396
0001e0 89 a7 38 3e 91 14 4a 3e 4b 43 d5 3d 2e af d3 3e
       0.1803266 0.19734408 0.10413226 0.4134459
0001f0 36 16 71 3e d2 99 4f 3e aa 14 77 3e 56 3f 9a 3d
       0.23543629 0.20273522 0.24128976 0.075316116
000200 80 34 09 3e 00 a0 bf 3e 8d 86 c6 bd 08 0b f0 3c
       0.13398933 0.37426758 -0.09693632 0.029302135
000210 50 20 d0 3d 81 74 8c bd ac 11 68 3d 72 f5 35 3d
       0.10162413 -0.06858159 0.05665748 0.044423528
000220 ed 92 89 3b b8 44 82 bd cc 1e 87 bd b4 54 06 bd
       0.004198423 -0.06360763 -0.06597671 -0.032795623
000230 aa 8a 03 3e 29 d1 0a 3e 27 a5 12 3e 51 db 93 bc
       0.12845865 0.13556351 0.14320813 -0.018048914
000240 80 85 b2 bd 70 60 e2 3d 10 50 0d 3e 1c a3 eb bd
       -0.08716869 0.1105355 0.13800073 -0.1150572
000250 86 7c 5e bd e1 f0 4d bd 1a b1 b6 bd a7 9e d7 bb
       -0.054317974 -0.05027855 -0.08920498 -0.006580192
000260 25 6e a1 3d 1f 59 1b be 32 9f 73 be 1c 65 ec bd
       0.078823365 -0.15170716 -0.23791197 -0.115427226
000270 36 fd 04 be 83 53 7a bd c8 e8 13 bd 63 78 50 3d
       -0.12987217 -0.0611148 -0.03611067 0.05089606
000280 94 e5 1b 3c 12 39 40 be 96 72 fb 3c aa e3 8d bd
       0.009515185 -0.1877177 0.030694287 -0.06928189
000290 86 22 25 bd 10 09 8f 3d a2 94 86 bd ac 7c 0d be
       -0.040316127 0.069841504 -0.06571318 -0.1381709
0002a0 cd 87 48 3e d6 ba 2d bd 1b 0c 13 3e 4f 89 a2 3c
       0.19583054 -0.04241451 0.14360087 0.019840864
0002b0 8d c3 c1 ba ca de 1a 3e a0 fa 2b bd 83 34 0b be
       -0.001478301 0.1512405 -0.04198706 -0.1359425
0002c0 66 f5 40 3e 79 7a db bd 2e 49 8e bd 28 b7 07 be
       0.18843612 -0.10716719 -0.06947552 -0.13253462
0002d0 cb 52 a2 3d 90 46 9a bb 4e 94 7d bc 36 85 19 3a
       0.07925948 -0.0047081187 -0.015477253 0.0005856337
0002e0 57 1e 77 3d ea 96 fd bd 3b 20 c8 3d fb 32 de 3b
       0.06033167 -0.123823 0.097717725 0.0067809797
0002f0 0f 16 1a 3d 09 10 11 3e ee d6 50 3e 0d d6 21 3c
       0.037618693 0.14166273 0.20394489 0.009877694
000300 cf 14 34 3e 63 42 89 bc d8 d4 5f bd de 5c 3d be
       0.17586063 -0.016755288 -0.054646343 -0.18492457
000310 32 11 26 bd 01 98 07 be af 61 d4 3d 8a 53 73 be
       -0.040543742 -0.13241579 0.10370194 -0.23762336
000320 3e 1c d9 bb 88 a4 da bb a9 4a c3 bc 05 6b c9 bd
       -0.006625681 -0.0066724457 -0.023839312 -0.098348655
000330 b3 de f8 3d 86 57 14 3e b9 40 0a be 67 bb 61 3c
       0.121518515 0.14486513 -0.13501252 0.01377759
000340 72 b6 61 bb 78 d6 0b be 97 7d bb bc 09 5f 57 3b
       -0.0034441021 -0.13656032 -0.022887034 0.0032863042
000350 60 9c 10 be a3 b3 f0 3b 7a 7c 39 be 38 32 29 bc
       -0.14122152 0.007345633 -0.1811389 -0.0103269145
000360 c1 eb 5c be 5b 83 65 bc b9 fe 19 bd 27 3e a1 bd
       -0.21574308 -0.014008368 -0.037596438 -0.07873183
000370 8f 9e 98 3d f5 7e ef bd 0f 1c da 3d 2e bc 93 3c
       0.07452118 -0.11694137 0.10649883 0.018034067
000380 dd 6f df bb ee 57 0e be c5 9a 32 be 15 c4 32 be
       -0.006818755 -0.1390073 -0.17441852 -0.17457612
000390 c6 f0 7e 3d ed 04 8e 3d 14 01 33 be 1a 9e e1 bc
       0.06224134 0.06934533 -0.1748088 -0.027541209
0003a0 9d 69 58 bd 0a a9 be be 77 db 57 bd ff 68 cc 3d
       -0.052835096 -0.37238342 -0.052699532 0.09980964
0003b0 02 f2 8f bd b3 ce 9d bd ad 4b 6e be 10 90 06 3e
       -0.07028581 -0.0770544 -0.23271056 0.13140893
0003c0 b8 f8 88 3d 07 87 56 bd 68 fd 34 3c a0 c0 32 bc
       0.06688064 -0.052374866 0.011046745 -0.010910183
0003d0 e4 d2 57 be 47 bb 27 be 47 61 b7 3d 2c 84 03 be
       -0.21076542 -0.16380034 0.08954101 -0.12843388
0003e0 0d 77 57 3e bc 4f 11 3d 2b 00 49 3c ab 4c d7 3d
       0.21041508 0.03547643 0.012268106 0.1051267
0003f0 65 b8 cc 3d 7d 39 6e be d6 d1 04 bd 15 e5 d1 3c
       0.09996108 -0.23264118 -0.032426678 0.02562193

encoder.obs_encoder.1.bias f4 [64]
000000 dc a7 f8 3b 3a 03 07 bc 4a 83 e5 bb 3e fa a0 3c
       0.00758837 -0.008240515 -0.0070041763 0.019650575
000010 63 ed 39 3d 24 22 39 3c d7 7c 82 39 2b 6c 0a 3d
       0.045392405 0.011299644 0.00024888545 0.033794563
000020 0c 5a bb 3c 74 5e 2d 3d d4 0a 83 3d 1b 79 ec ba
       0.022870086 0.042326406 0.0639855 -0.0018041463
000030 40 71 dd bc 30 4a 99 bc 93 5a 07 3d e1 d4 14 bc
       -0.02703154 -0.018712133 0.033045363 -0.009083957
000040 a1 6c 90 ba a8 b2 dc 3c c7 a2 e6 3c 42 d1 7c 3c
       -0.0011018702 0.026940659 0.02815379 0.01543075
000050 29 83 ac bb a7 c1 2b 3c d3 72 3a bb cf 9b 61 3b
       -0.005264659 0.010483182 -0.0028449788 0.0034425145
000060 5d 18 12 3c d3 fb bb bc 55 00 d5 bb 2e fa 33 3d
       0.0089169415 -0.022947228 -0.0065002837 0.04393976
000070 14 06 b3 3c 8b 3f 9b 3c d6 e5 46 3d f2 e3 81 3c
       0.021853484 0.018951198 0.048559032 0.015855763
000080 f8 56 a3 3c 33 c2 39 3d 11 c0 5f 3c cc 4f 39 3d
       0.01993893 0.04535122 0.013656632 0.045242116
000090 6d 6f a1 3d 4d 34 0b 3d 03 68 a1 3c 35 d0 68 3c
       0.07882581 0.033985425 0.019702917 0.014209797
0000a0 23 19 c3 3c e8 5b c2 bc 98 f5 0d 3d 71 03 cf bc
       0.023815697 -0.023725465 0.034658045 -0.025270196
0000b0 da 4f 4b 3b d8 55 93 3c 1a 01 70 3b 4f b0 fe bc
       0.0031022937 0.01798527 0.003662175 -0.03108993
0000c0 df 7c 0e bd 66 6c a9 3c 10 37 8d 3c 70 76 f2 3c
       -0.034787055 0.020681571 0.01723817 0.029597491
0000d0 4e 72 ba 3c 48 c8 f9 3c 65 96 09 3d c9 3f 87 ba
       0.022759583 0.03049101 0.033590693 -0.0010318692
0000e0 12 53 4f 3c 0a 7e d0 bd c5 4d 26 3c 40 a5 cc 3c
       0.012654083 -0.1018029 0.010150378 0.024981141
0000f0 57 94 76 bd 08 1e 08 3d 27 93 f1 bb ba e4 cb bc
       -0.06020006 0.033231765 -0.0073722783 -0.024889339

encoder.ln.weight f4 [64]
000000 cc 6c 71 3f db ac 6f 3f a8 85 6a 3f 72 c3 81 3f
       0.94306636 0.9362313 0.91610193 1.013777
000010 39 99 7b 3f 32 4a 65 3f c2 d3 88 3f 25 ea 86 3f
       0.98280674 0.8956634 1.0689623 1.0540205
000020 8a dd 83 3f 89 ae 81 3f a1 89 63 3f 32 76 59 3f
       1.0301983 1.0131389 0.8888188 0.84945977
000030 6f d4 79 3f 66 b7 83 3f e3 ca 80 3f 6a 9d 6e 3f
       0.9758977 1.0290344 1.0061916 0.93208945
000040 ca 67 a0 3f 41 5d 69 3f b5 bb 85 3f eb e3 6f 3f
       1.2531674 0.9115792 1.0447909 0.9370715
000050 66 d4 82 3f f7 f1 63 3f 98 cb 5f 3f 4c 1d 85 3f
       1.0221069 0.89041084 0.87420034 1.0399566
000060 fd 5c 7c 3f 34 9f 71 3f c8 94 82 3f 64 a5 7b 3f
       0.9857939 0.9438355 1.0201654 0.9829924
000070 0f c2 6f 3f 03 1d 8c 3f ed 93 72 3f c1 ec 8c 3f
       0.93655485 1.0946354 0.94756967 1.1009752
000080 5d 2a 73 3f 49 32 83 3f 05 77 65 3f 90 14 78 3f
       0.94986516 1.0249721 0.89634734 0.96906376
000090 df 63 78 3f 75 04 71 3f 10 2a 7a 3f b9 5c 87 3f
       0.9702739 0.94147426 0.9772043 1.0575172
0000a0 21 8b 86 3f ee 7d 88 3f 26 be 4f 3f 46 ce 83 3f
       1.0511209 1.0663431 0.8114952 1.0297325
0000b0 7c d6 81 3f fe cc 84 3f ed 37 82 3f 6f b0 7b 3f
       1.014358 1.0375059 1.0173317 0.9831609
0000c0 13 05 82 3f 83 16 8b 3f fe 41 8a 3f 4b ac 8d 3f
       1.0157799 1.0866245 1.0801389 1.1068205
0000d0 0a 05 80 3f 45 02 6c 3f fc 9a 7f 3f a0 f2 78 3f
       1.0001538 0.92190963 0.9984586 0.97245216
0000e0 b6 4f 7a 3f b7 dc 75 3f 38 0e 72 3f 8b 92 7d 3f
       0.9777788 0.9603991 0.94552946 0.9905173
0000f0 19 af 66 3f a7 99 6b 3f 58 2b 85 3f c6 c4 88 3f
       0.9011093 0.9203133 1.0403852 1.068505

encoder.ln.bias f4 [64]
000000 ac 8a 1c bd bd cb 57 bc dc c9 b4 3b 43 8c 8b 3b
       -0.038218185 -0.013171134 0.0055172276 0.004258664
000010 89 65 c2 3c b1 06 90 3c 1e 48 11 bd 7b 1a 18 3c
       0.023730056 0.017581316 -0.035469167 0.009283657
000020 d9 fa 70 3c c7 55 13 3c 9e fd b9 3c 14 37 9c bb
       0.014708244 0.008992619 0.022703942 -0.004767308
000030 60 b3 2a bd f0 9d b9 bc 28 0b 87 3c 3a d5 67 bb
       -0.04167497 -0.022658318 0.016484812 -0.0035374896
000040 0c b4 e2 bc 43 7e 16 bc 33 f7 b7 bb 53 67 64 3d
       -0.027673744 -0.009185377 -0.0056141852 0.0557626
000050 40 b0 b2 bc 5b 7d 18 3c 63 4b ed 3c 5a 4d f8 bc
       -0.021812558 0.009307231 0.028966611 -0.030310322
000060 87 13 64 bb b0 54 70 3d 29 5a dc bc 14 84 8b bb
       -0.0034801678 0.058674514 -0.02689846 -0.0042576883
000070 08 ec dc 3c af f6 15 3d 49 89 c4 3c c5 7e ce bb
       0.026968017 0.03661221 0.023991244 -0.006301733
000080 38 d4 4b 3d b5 ab 96 3a ae 29 1a bd 87 3c b4 3c
       0.049762934 0.0011495264 -0.037637405 0.022001518
000090 f9 ca 81 3d 21 2e 65 bc 02 c3 e0 3b 53 54 24 3d
       0.06337542 -0.013988049 0.0068591842 0.04011948
0000a0 5a 6e d8 3c f2 7e 8e bc 73 b5 2d bd dc fe 06 3b
       0.026419807 -0.017394517 -0.04240937 0.0020598685
0000b0 0e 8d 57 bd c8 99 f2 3c 33 54 87 3c e7 e4 28 3c
       -0.052624755 0.029614344 0.016519642 0.010308481
0000c0 a5 19 36 bd bc 67 6b 3c 25 6c 0e 3c 59 a9 79 ba
       -0.04445805 0.014367994 0.008692776 -0.0009523831
0000d0 fd 81 1c bc f6 7f ac 3c f5 93 89 3c 5c fd 2e 3c
       -0.009552476 0.02105711 0.016794184 0.010680523
0000e0 19 1c d6 3c c1 7c 17 3d ec 78 2d 3d 91 cd f1 3c
       0.026136445 0.03698421 0.04235165 0.029516967
0000f0 da f4 61 3d 0f d3 3a 3b 09 24 0c bc 14 d7 d7 bb
       0.05516515 0.0028507148 -0.008553513 -0.0065869186

encoder.blocks.0.ln1.weight f4 [64]
000000 89 46 7b 3f 61 24 7e 3f 1c a8 76 3f 57 5b 73 3f
       0.98154503 0.9927426 0.96350265 0.9506125
000010 1c 45 7c 3f 54 8a 74 3f 60 00 91 3f 8c 4f 80 3f
       0.9854295 0.9552357 1.132824 1.0024276
000020 45 9a 4f 3f 9e ba 87 3f 1c 89 75 3f 6d 6a 38 3f
       0.8109477 1.0603826 0.9591234 0.7203739
000030 f2 dd 81 3f 0c b4 86 3f f9 a8 82 3f 32 d4 74 3f
       1.0145857 1.0523696 1.0207816 0.95636284
000040 94 d5 83 3f 5e 5b 82 3f d5 5f 86 3f 83 3f 70 3f
       1.0299554 1.0184133 1.0497996 0.9384691
000050 ec 17 62 3f 69 51 6a 3f a0 82 65 3f c6 a5 86 3f
       0.8831775 0.9153047 0.8965244 1.051934
000060 d1 57 83 3f 67 67 7c 3f 28 4f 87 3f af 2d 78 3f
       1.0261174 0.9859528 1.0571032 0.9694471
000070 4c 03 7a 3f 69 16 94 3f ae a0 7d 3f 37 14 8a 3f
       0.9766128 1.1569339 0.990733 1.0787419
000080 87 bd 6d 3f c4 8d 84 3f cb 4c 76 3f d5 28 84 3f
       0.9286732 1.0355763 0.96210927 1.0324961
000090 99 0d 7f 3f 93 08 80 3f 90 11 77 3f 4c 6b 84 3f
       0.99630123 1.0002617 0.96511173 1.0345244
0000a0 43 63 83 3f ce 69 88 3f ca 86 61 3f 2a 3e 87 3f
       1.0264667 1.0657289 0.88096297 1.0565846
0000b0 54 0c 85 3f 24 bc 86 3f 38 5e 80 3f f1 9e 58 3f
       1.0394387 1.0526166 1.0028753 0.84617525
0000c0 31 40 86 3f c9 f8 93 3f e8 62 85 3f f6 9f 8c 3f
       1.048834 1.1560298 1.0420809 1.0986316
0000d0 e3 eb 84 3f 6e 7d 56 3f 3a b2 7d 3f 32 e5 7a 3f
       1.0384487 0.8378514 0.9910008 0.98005974
0000e0 1f 14 84 3f c2 be 75 3f e0 da 74 3f ed a0 5e 3f
       1.031864 0.959942 0.95646477 0.86964303
0000f0 af 01 6e 3f 06 bd 7b 3f 32 27 7f 3f 0b 85 81 3f
       0.9297132 0.983353 0.9966918 1.0118726

encoder.blocks.0.ln1.bias f4 [64]
000000 d9 01 ac bc 76 68 63 bc 2f 1f b0 3c b5 61 15 bd
       -0.020996975 -0.013879886 0.021499244 -0.036470134
000010 ae c2 0c 3d e6 48 b9 3c 53 79 0e bd a8 f7 0d ba
       0.03436535 0.022617768 -0.034783673 -0.0005415627
000020 07 4c 2b 3d 77 f7 83 3b a1 cc 41 3d 55 e7 75 3d
       0.041820552 0.004027303 0.04731429 0.06003507
000030 0e 05 bf bc e8 65 6c bc bf 81 73 ba c4 91 d4 3c
       -0.02331784 -0.014428593 -0.0009289048 0.025948413
000040 ca 57 5c bd 4a c2 54 3c cb 17 13 3b a4 8c 2b 3d
       -0.05379466 0.012985775 0.0022444602 0.041882172
000050 81 1d 0a bd c0 76 c3 bb b0 9e e3 3c f1 bb 07 bd
       -0.033719543 -0.005965084 0.027785629 -0.03313822
000060 61 a6 25 bd e9 af 82 3c b4 2c 50 bc 91 78 b1 3c
       -0.040441874 0.015953021 -0.012705971 0.021663936
000070 d2 8f b4 3a 9f cb 93 3d fb e5 ba bc 3d c9 a1 bc
       0.0013775772 0.07216572 -0.022814741 -0.019749278
000080 99 9e 0c 3d 70 a6 a6 3c 3d 5f 65 bc 50 a7 9b 3c
       0.034330938 0.020343035 -0.013999757 0.01900068
000090 a0 ae 35 3d 49 5f a4 bc c4 fe 7a 3b 1e cf 16 3d
       0.04435599 -0.020064967 0.0038298825 0.036818616
0000a0 ba 28 b1 3c 46 15 52 bd 39 53 86 bc 1b 99 41 3c
       0.021625865 -0.05128982 -0.016397106 0.011816288
0000b0 5d e8 46 bd 00 aa 23 3d 1d 59 52 3d 69 ed 59 3d
       -0.048561443 0.039957047 0.051354516 0.053204928
0000c0 d7 24 e9 bc 39 71 ee bb d8 fb 74 3c b2 29 e4 bc
       -0.02845995 -0.007276681 0.014952622 -0.027851913
0000d0 c6 8d d0 bb c2 df dc 3c 20 1b 79 3d 75 7a e3 3b
       -0.006364557 0.026962165 0.060816884 0.0069420883
0000e0 b7 7b 1a 3d 29 4b 5a 3d 2d 70 f9 3c 52 99 64 3c
       0.03771564 0.053294335 0.030448997 0.01395257
0000f0 cb d2 e7 3c 8e ba 53 bb 0c b6 45 bb 9d 17 07 bc
       0.028298756 -0.003230724 -0.0030168323 -0.008245376

encoder.blocks.0.ln2.weight f4 [64]
000000 67 a8 7a 3f 0d 37 70 3f 99 e5 6c 3f cc a8 81 3f
       0.9791321 0.93834 0.9253784 1.0129638
000010 d4 7e 6f 3f fd 5c 83 3f 33 20 88 3f 5a 7f 7f 3f
       0.935529 1.0262753 1.0634826 0.998037
000020 6d 17 66 3f 39 29 88 3f 5b 74 7f 3f 5f 66 68 3f
       0.89879495 1.063758 0.9978692 0.90781206
000030 81 dd 79 3f 3a e2 82 3f eb 6b 7c 3f 76 83 80 3f
       0.97603613 1.0225289 0.9860217 1.0040119
000040 dc e7 79 3f 5e dd 80 3f bd e8 83 3f af 77 6b 3f
       0.97619414 1.0067556 1.0305401 0.919795
000050 64 4a 66 3f b7 19 80 3f 54 f7 6d 3f 93 39 85 3f
       0.8995726 1.0007848 0.9295552 1.0408195
000060 48 b6 83 3f ab 0d 75 3f e8 6b 88 3f b0 9c 67 3f
       1.0290003 0.9572398 1.065793 0.9047346
000070 f4 39 75 3f 03 d9 8d 3f 31 6f 73 3f 2b b8 81 3f
       0.95791554 1.1081852 0.9509154 1.0134329
000080 ec 87 71 3f a0 d8 84 3f ce f6 6a 3f a1 7b 8b 3f
       0.94348025 1.0378609 0.91782844 1.0897104
000090 73 9d 8e 3f d5 b0 74 3f ba 38 73 3f a3 d6 8b 3f
       1.11418 0.95582324 0.9500843 1.0924877
0000a0 76 31 8c 3f a5 ec 8d 3f 83 c2 78 3f 78 4f 83 3f
       1.0952594 1.1087843 0.971718 1.0258627
0000b0 31 0c 86 3f 14 06 86 3f 36 98 85 3f 0f d5 64 3f
       1.047247 1.0470605 1.0437076 0.893876
0000c0 5e ee 7d 3f f8 1a 8b 3f 8a 29 89 3f 17 d2 93 3f
       0.99191844 1.0867605 1.0715802 1.1548489
0000d0 68 0c 7b 3f a9 f6 5d 3f c7 67 70 3f f8 71 62 3f
       0.98065805 0.867045 0.9390835 0.8845515
0000e0 c7 6d 79 3f 7d 4f 87 3f 02 a4 75 3f f9 8b 73 3f
       0.9743313 1.0571133 0.9595338 0.95135456
0000f0 b1 a4 74 3f 70 2d 83 3f 38 7b 8b 3f 65 3e 83 3f
       0.955638 1.0248241 1.0896978 1.0253416

encoder.blocks.0.ln2.bias f4 [64]
000000 12 d1 35 bb 30 56 28 3c d7 bf 9a 3c bf 76 2f bd
       -0.0027743024 0.010274455 0.018890304 -0.042837854
000010 70 e4 93 3c 91 c8 ac 3c 3d 6c 3b bd c8 de c2 3b
       0.018053263 0.021091731 -0.04575752 0.0059469678
000020 55 f2 bb bc bf 97 2c 3d 93 d3 ef 3c 24 dd 28 3c
       -0.022942701 0.042136904 0.029275691 0.01030663
000030 50 df 1b bc d1 a5 60 3b 33 92 fe bb 76 c7 36 3d
       -0.009513691 0.0034278522 -0.007768893 0.044623815
000040 bf da 92 bd d2 51 cb ba 71 50 ce ba 13 9b 01 bc
       -0.07170629 -0.0015512055 -0.0015740526 -0.007910508
000050 84 02 82 bd 3e 99 b8 3c c7 58 14 bc 1c 71 33 bd
       -0.06348136 0.02253401 -0.009054369 -0.04380904
000060 85 ab f8 bc 64 83 6a 3b 8f ee 74 bc cf 04 5a bd
       -0.030355224 0.0035783881 -0.014949455 -0.053227242
000070 a1 b8 71 3c 39 e7 1e 3d 6f 79 d9 3c f0 42 b3 bb
       0.014753492 0.03879473 0.026547162 -0.005470626
000080 f6 b2 11 3d 91 c3 30 3d e5 2a 2f 3b 0f 2e 23 3d
       0.03557106 0.043155257 0.0026728448 0.039838847
000090 c9 a6 4a 3c df 46 78 bc e2 c5 88 3a c9 c9 04 bc
       0.012368866 -0.015153616 0.001043495 -0.00810475
0000a0 4a 36 51 3c 1a 70 7e bd 9a 87 a6 3c 73 b3 8d 3b
       0.012769291 -0.062118627 0.020328332 0.0043243705
0000b0 bf 5d 10 bd f0 b7 f4 3c 2d ac 2f 3d ab 41 50 3c
       -0.035245653 0.029872864 0.04288881 0.012710969
0000c0 11 9d ac bc 1a f9 4e bc 6c e1 a5 bc 46 7b 41 bd
       -0.021070989 -0.012632633 -0.020249091 -0.047236703
0000d0 f9 73 8d bb b5 7c a6 3c 22 7a 35 3c 0e 78 c3 3c
       -0.0043168035 0.020323137 0.011076482 0.023860957
0000e0 db 61 0c 3d 90 83 cc bb 1d fb 94 3c 42 cc d6 3c
       0.03427301 -0.0062412694 0.018186146 0.026220445
0000f0 e3 0f eb 3c 87 f4 85 3c 1a 3f 69 bd ea ea e3 3a
       0.028694099 0.016351951 -0.056944944 0.0017388735

encoder.blocks.0.attn.mask f4 [1, 1, 12, 12]
000000 00 00 80 3f 00 00 00 00 00 00 00 00 00 00 00 00
       1.0 0.0 0.0 0.0
000010 00 00 00 00 00 00 00 00 00 00 00 00 00 00 00 00
       0.0 0.0 0.0 0.0
000020 00 00 00 00 00 00 00 00 00 00 00 00 00 00 00 00
       0.0 0.0 0.0 0.0
000030 00 00 80 3f 00 00 80 3f 00 00 00 00 00 00 00 00
       1.0 1.0 0.0 0.0
000040 00 00 00 00 00 00 00 00 00 00 00 00 00 00 00 00
       0.0 0.0 0.0 0.0
000050 00 00 00 00 00 00 00 00 00 00 00 00 00 00 00 00
       0.0 0.0 0.0 0.0
000060 00 00 80 3f 00 00 80 3f 00 00 80 3f 00 00 00 00
       1.0 1.0 1.0 0.0
000070 00 00 00 00 00 00 00 00 00 00 00 00 00 00 00 00
       0.0 0.0 0.0 0.0
000080 00 00 00 00 00 00 00 00 00 00 00 00 00 00 00 00
       0.0 0.0 0.0 0.0
000090 00 00 80 3f 00 00 80 3f 00 00 80 3f 00 00 80 3f
       1.0 1.0 1.0 1.0
0000a0 00 00 00 00 00 00 00 00 00 00 00 00 00 00 00 00
       0.0 0.0 0.0 0.0
0000b0 00 00 00 00 00 00 00 00 00 00 00 00 00 00 00 00
       0.0 0.0 0.0 0.0
0000c0 00 00 80 3f 00 00 80 3f 00 00 80 3f 00 00 80 3f
       1.0 1.0 1.0 1.0
0000d0 00 00 80 3f 00 00 00 00 00 00 00 00 00 00 00 00
       1.0 0.0 0.0 0.0
0000e0 00 00 00 00 00 00 00 00 00 00 00 00 00 00 00 00
       0.0 0.0 0.0 0.0
0000f0 00 00 80 3f 00 00 80 3f 00 00 80 3f 00 00 80 3f
       1.0 1.0 1.0 1.0
000100 00 00 80 3f 00 00 80 3f 00 00 00 00 00 00 00 00
       1.0 1.0 0.0 0.0
000110 00 00 00 00 00 00 00 00 00 00 00 00 00 00 00 00
       0.0 0.0 0.0 0.0
000120 00 00 80 3f 00 00 80 3f 00 00 80 3f 00 00 80 3f
       1.0 1.0 1.0 1.0
000130 00 00 80 3f 00 00 80 3f 00 00 80 3f 00 00 00 00
       1.0 1.0 1.0 0.0
000140 00 00 00 00 00 00 00 00 00 00 00 00 00 00 00 00
       0.0 0.0 0.0 0.0
000150 00 00 80 3f 00 00 80 3f 00 00 80 3f 00 00 80 3f
       1.0 1.0 1.0 1.0
000160 00 00 80 3f 00 00 80 3f 00 00 80 3f 00 00 80 3f
       1.0 1.0 1.0 1.0
000170 00 00 00 00 00 00 00 00 00 00 00 00 00 00 00 00
       0.0 0.0 0.0 0.0
000180 00 00 80 3f 00 00 80 3f 00 00 80 3f 00 00 80 3f
       1.0 1.0 1.0 1.0
000190 00 00 80 3f 00 00 80 3f 00 00 80 3f 00 00 80 3f
       1.0 1.0 1.0 1.0
0001a0 00 00 80 3f 00 00 00 00 00 00 00 00 00 00 00 00
       1.0 0.0 0.0 0.0
0001b0 00 00 80 3f 00 00 80 3f 00 00 80 3f 00 00 80 3f
       1.0 1.0 1.0 1.0
0001c0 00 00 80 3f 00 00 80 3f 00 00 80 3f 00 00 80 3f
       1.0 1.0 1.0 1.0
0001d0 00 00 80 3f 00 00 80 3f 00 00 00 00 00 00 00 00
       1.0 1.0 0.0 0.0
0001e0 00 00 80 3f 00 00 80 3f 00 00 80 3f 00 00 80 3f
       1.0 1.0 1.0 1.0
0001f0 00 00 80 3f 00 00 80 3f 00 00 80 3f 00 00 80 3f
       1.0 1.0 1.0 1.0
000200 00 00 80 3f 00 00 80 3f 00 00 80 3f 00 00 00 00
       1.0 1.0 1.0 0.0
000210 00 00 80 3f 00 00 80 3f 00 00 80 3f 00 00 80 3f
       1.0 1.0 1.0 1.0
000220 00 00 80 3f 00 00 80 3f 00 00 80 3f 00 00 80 3f
       1.0 1.0 1.0 1.0
000230 00 00 80 3f 00 00 80 3f 00 00 80 3f 00 00 80 3f
       1.0 1.0 1.0 1.0
