trainer/results/football/11_vs_11_stochastic/mat/check/run1/models/transformer_100.pt (torch, 467816 bytes, 73 tensors)

encoder.state_encoder.0.weight f4 [37]
000000 00 00 80 3f 00 00 80 3f 00 00 80 3f 00 00 80 3f
       1.0 1.0 1.0 1.0
000010 00 00 80 3f 00 00 80 3f 00 00 80 3f 00 00 80 3f
       1.0 1.0 1.0 1.0
000020 00 00 80 3f 00 00 80 3f 00 00 80 3f 00 00 80 3f
       1.0 1.0 1.0 1.0
000030 00 00 80 3f 00 00 80 3f 00 00 80 3f 00 00 80 3f
       1.0 1.0 1.0 1.0
000040 00 00 80 3f 00 00 80 3f 00 00 80 3f 00 00 80 3f
       1.0 1.0 1.0 1.0
000050 00 00 80 3f 00 00 80 3f 00 00 80 3f 00 00 80 3f
       1.0 1.0 1.0 1.0
000060 00 00 80 3f 00 00 80 3f 00 00 80 3f 00 00 80 3f
       1.0 1.0 1.0 1.0
000070 00 00 80 3f 00 00 80 3f 00 00 80 3f 00 00 80 3f
       1.0 1.0 1.0 1.0
000080 00 00 80 3f 00 00 80 3f 00 00 80 3f 00 00 80 3f
       1.0 1.0 1.0 1.0
000090 00 00 80 3f
       1.0

encoder.state_encoder.0.bias f4 [37]
000000 00 00 00 00 00 00 00 00 00 00 00 00 00 00 00 00
       0.0 0.0 0.0 0.0
000010 00 00 00 00 00 00 00 00 00 00 00 00 00 00 00 00
       0.0 0.0 0.0 0.0
000020 00 00 00 00 00 00 00 00 00 00 00 00 00 00 00 00
       0.0 0.0 0.0 0.0
000030 00 00 00 00 00 00 00 00 00 00 00 00 00 00 00 00
       0.0 0.0 0.0 0.0
000040 00 00 00 00 00 00 00 00 00 00 00 00 00 00 00 00
       0.0 0.0 0.0 0.0
000050 00 00 00 00 00 00 00 00 00 00 00 00 00 00 00 00
       0.0 0.0 0.0 0.0
000060 00 00 00 00 00 00 00 00 00 00 00 00 00 00 00 00
       0.0 0.0 0.0 0.0
000070 00 00 00 00 00 00 00 00 00 00 00 00 00 00 00 00
       0.0 0.0 0.0 0.0
000080 00 00 00 00 00 00 00 00 00 00 00 00 00 00 00 00
       0.0 0.0 0.0 0.0
000090 00 00 00 00
       0.0

encoder.state_encoder.1.weight f4 [64, 37]
000000 53 32 ea 3e b7 63 44 3e ec 88 ef 3d 43 bc 0e bd
       0.4574152 0.19178663 0.11696038 -0.03484751
000010 92 7e ca bc 08 3b b7 3d b4 b2 99 3c be d0 be 3d
       -0.024718557 0.08946806 0.01876197 0.09317158
000020 51 bd 86 3e 00 85 8f bd ff 2f ad 3e eb 9c 72 bd
       0.26316312 -0.070077896 0.3382568 -0.05923168
000030 cd 41 04 be 27 d5 7b be 5b bf c9 bc d3 0f 0b 3e
       -0.12915726 -0.2459303 -0.024627378 0.13580255
000040 b4 04 23 be 7e 7f 35 be 5f 9f 29 3d 3b 04 b5 3c
       -0.15919763 -0.17724416 0.041411754 0.022096744
000050 d0 d0 38 3e 2e 5c fc 3d f4 76 9c bd 5d 8b bc be
       0.18048406 0.123222694 -0.07639876 -0.36825076
000060 65 f6 97 be ed 02 0c bd d0 e7 67 3d 35 f3 4d 3e
       -0.29680172 -0.034182478 0.056617558 0.20112307
000070 23 58 51 3d 3b b4 4d 3e fa 91 3c 3e 63 6b 9f bd
       0.051109444 0.20088284 0.1841506 -0.07784154
000080 84 52 b6 3c 09 25 02 bb 99 18 92 3c 60 f2 2b 3e
       0.022256143 -0.00198585 0.017833995 0.16791677
000090 8a 44 12 3e f6 12 81 3e 0b 9f 2f bb fa ba 15 3d
       0.14283958 0.2520978 -0.0026797678 0.036555268
0000a0 c5 82 af be 6a b0 56 3e a0 92 df 3d d4 0a 74 3d
       -0.34279457 0.20965734 0.109166384 0.05958064
0000b0 a6 b8 3a 3e 70 81 45 3e ed f7 61 3d 25 0f 86 3c
       0.182345 0.19287658 0.05516808 0.016364643
0000c0 92 a4 00 be ce d3 91 3e dc 4e c8 3c 95 42 b3 3e
       -0.12562779 0.28481907 0.024451666 0.35011736
0000d0 bf 87 2b be a0 83 8c be e7 ef bd 3d 0c 6e 1a 3c
       -0.16751002 -0.27444172 0.09274273 0.009425651
0000e0 63 27 10 be 1c e7 60 be 72 d1 35 3e 32 7c b9 bc
       -0.14077525 -0.21963161 0.17755678 -0.022642229
0000f0 fc 1a aa 3c 44 b0 31 3d be f0 b5 be b4 c4 32 be
       0.02076482 0.04338099 -0.35535234 -0.17457849
000100 24 83 cd 3d 20 d2 8d bd 12 c2 7c bd 35 1a a6 bd
       0.10034779 -0.06924844 -0.061708517 -0.08110467
000110 4c 0f 95 3e ca 3c 96 3d 50 80 4c be 70 22 0f bd
       0.29113233 0.07335813 -0.19970822 -0.03494495
000120 07 2e 84 bd cb f8 9f 3e 85 b7 7f 3d 8e 0d 33 be
       -0.064540915 0.312445 0.062430877 -0.1748564
000130 ef c7 20 3e f8 87 a8 3d 1d 9e ae bd e6 e3 2a be
       0.15701269 0.08229059 -0.085262515 -0.16688499
000140 ab 89 34 3d fb 10 6f be 37 45 6b 3c 2e 53 4d bd
       0.044076603 -0.23346321 0.014359764 -0.050128154
000150 7b 63 8d be 8b 8d b8 bd a9 ea 48 3e fc 9e ad 3e
       -0.2761496 -0.09011372 0.19620766 0.33910358
000160 7a 56 b3 3d 52 6a 4f 3e 8d c1 a6 3b d4 11 f3 3d
       0.087567285 0.20255402 0.005088991 0.11868635
000170 ad 49 5a 3d cb a9 30 3e 59 4c 63 3e 01 ca 6c 3d
       0.05329292 0.17252271 0.22197093 0.057809833
000180 e9 d0 06 bd cd 38 1f be 7a b2 8e be b1 98 97 3e
       -0.032914076 -0.15549012 -0.27870542 0.29608682
000190 45 4f 39 be 28 85 5f bd f6 3a 8b be ea ba 68 bd
       -0.18096645 -0.054570347 -0.2719342 -0.05681888
0001a0 52 bb b0 bd 99 a1 83 3e be c8 cd 3d 98 84 63 39
       -0.086294785 0.25709227 0.10048054 0.00021697802
0001b0 8f a1 67 3c 61 66 53 3e b8 ca 33 be 14 c6 87 3d
       0.01413764 0.20644523 -0.175578 0.06629577
0001c0 04 fc 0e bf eb d6 63 bd e4 f2 3c be de 27 88 3e
       -0.55853295 -0.055624884 -0.1845203 0.26592916
0001d0 6a 72 b4 bd 21 70 ed bc 87 42 9b be a6 98 65 bd
       -0.08810885 -0.028984131 -0.30324194 -0.05605378
0001e0 1a 78 82 3e e9 d8 bb bd 0b 39 97 bd 05 ae 8a be
       0.25482255 -0.09172232 -0.07383927 -0.2708589
0001f0 f2 08 43 3e 91 9c 99 3c 07 6f cb bb 91 c4 08 be
       0.19046381 0.018751414 -0.006208304 -0.13356234
000200 da 9e ff bd 30 98 c7 bd 74 44 6c 3d 48 af 82 3e
       -0.124814704 -0.09745824 0.05768247 0.25524354
000210 75 95 0f 3e b1 0b 16 be c5 ee 99 bd 24 f6 2a 3e
       0.14021857 -0.14652897 -0.07516245 0.16695458
000220 f5 2e 83 be ae 6d b8 3c fd b9 40 be d1 68 5f bd
       -0.25621763 0.022513237 -0.18820949 -0.05454332
000230 82 23 5e bd b1 15 44 be 90 16 85 bd c5 dc 15 3e
       -0.05423308 -0.191489 -0.06498444 0.14634998
000240 79 a7 7e 3e 37 c5 8d 3e 83 a1 b7 be f2 e3 46 be
       0.24868573 0.27689525 -0.3586541 -0.19422892
000250 9a 54 52 3e 2d 94 82 be 4b d8 bb 3e 2b 4a 62 bd
       0.20540085 -0.25503674 0.36688456 -0.055246513
000260 96 bb 41 bd 5e be 05 3e 50 b0 33 bd 03 9d b0 3d
       -0.047298037 0.130609 -0.043869317 0.086236976
000270 84 46 a7 bd 06 ba b4 3d de 1a 64 bc 01 93 65 ba
       -0.08167747 0.08824544 -0.013922421 -0.0008757562
000280 e4 76 94 be ef 20 89 be 75 4b fe bd 42 87 82 bb
       -0.28996956 -0.2678294 -0.12416736 -0.003983409
000290 8f f7 ab bd ab ab 3d be 1a 0e 16 be e8 06 0b bc
       -0.083968274 -0.18522517 -0.14653817 -0.008485533
0002a0 97 de 49 3e 18 50 c2 3c 72 3f 18 3d ba 21 18 be
       0.19713818 0.023719832 0.03716988 -0.14856616
0002b0 c6 ce f8 bd 0c 65 54 3c fa 7d 95 bd 2b 2b 40 bc
       -0.12148814 0.012963545 -0.07299419 -0.011729042
0002c0 bb c3 30 bd 60 cb c5 bd d4 b4 b9 bd 5a 95 bb be
       -0.043155413 -0.09657931 -0.09067693 -0.36637384
0002d0 99 af 90 be c5 5e bf be 6e c3 85 bd 1f 11 b6 3d
       -0.2825897 -0.3737699 -0.06531416 0.08889984
0002e0 61 8a 4b be 76 38 7f 3d 0e 06 32 3e 9c d3 12 bc
       -0.19877006 0.062309705 0.17385122 -0.008961584
0002f0 30 4b c5 3d 3a 24 5d 3e d9 91 f5 bd c5 61 83 3d
       0.096334815 0.2159585 -0.11990709 0.064151324
000300 ea c1 2f be c9 5a 90 be a7 da 55 3c e8 5f 25 3e
       -0.17163816 -0.28194264 0.013052619 0.16149867
000310 63 e3 17 3e bb 34 53 bd 92 c1 03 be dd 50 d5 be
       0.14832835 -0.05156396 -0.1286681 -0.41663256
000320 34 72 c4 3d 3d 77 eb bd 4e c9 5c 3d 8c 3b 86 bd
       0.09592095 -0.11497352 0.053902917 -0.065543264
000330 dd c7 8b 3e 66 21 dc bd ec 2a 23 bf 8c e8 46 be
       0.2730092 -0.10748558 -0.6373737 -0.19424647
000340 97 1a 84 bd 1f a1 a7 3d 42 86 f3 bd d1 fd 41 3d
       -0.06450384 0.08185028 -0.11890842 0.0473612
000350 d2 72 0f be 58 8c 9d bd df 51 14 be b2 8a 3e be
       -0.14008644 -0.07692784 -0.14484356 -0.18607596
000360 c1 17 32 3d ab b2 a5 3b 29 90 18 be 96 a9 cb 3d
       0.043479685 0.0050566993 -0.14898743 0.09944455
000370 e1 8e 36 bd e8 3e d2 3d 88 21 1b bd 55 66 90 3e
       -0.044569854 0.10265905 -0.037873775 0.28203073
000380 49 fe 8c 3d c3 74 0f bd 3e 44 b6 be ba 1f 82 3e
       0.068844385 -0.035023462 -0.3559894 0.2541483
000390 35 42 41 bb 50 4b 92 3d 32 72 15 3e 55 a6 60 3e
       -0.0029488925 0.07143271 0.14594343 0.2193845
0003a0 da 64 f6 bd 56 2c 2d bd 64 f8 ac bd 86 33 84 be
       -0.12030955 -0.04227861 -0.08445814 -0.2582056
0003b0 49 46 ca be 8e a9 41 3e bb 43 0f be 4a 59 b7 3c
       -0.39506748 0.18912336 -0.13990681 0.022381444
0003c0 23 f1 ff bc 7f 39 b2 3c 69 61 64 bc 2c 66 ba 3d
       -0.031242913 0.021755932 -0.01393924 0.09101519
0003d0 46 6c 0c 3e c8 96 03 3e ce e9 a0 bd ec 99 80 be
       0.13713178 0.12850487 -0.07857095 -0.25117433
0003e0 e3 92 59 be f6 5f 2f 3d 02 16 cd bd 39 96 00 3c
       -0.21247439 0.042816125 -0.10013963 0.007848316
0003f0 66 d9 04 bf 05 75 b2 3d 5b e7 17 be 3e ec 3d 3e
       -0.51894224 0.08713726 -0.14834349 0.1854715

encoder.state_encoder.1.bias f4 [64]
000000 00 00 00 00 00 00 00 00 00 00 00 00 00 00 00 00
       0.0 0.0 0.0 0.0
000010 00 00 00 00 00 00 00 00 00 00 00 00 00 00 00 00
       0.0 0.0 0.0 0.0
000020 00 00 00 00 00 00 00 00 00 00 00 00 00 00 00 00
       0.0 0.0 0.0 0.0
000030 00 00 00 00 00 00 00 00 00 00 00 00 00 00 00 00
       0.0 0.0 0.0 0.0
000040 00 00 00 00 00 00 00 00 00 00 00 00 00 00 00 00
       0.0 0.0 0.0 0.0
000050 00 00 00 00 00 00 00 00 00 00 00 00 00 00 00 00
       0.0 0.0 0.0 0.0
000060 00 00 00 00 00 00 00 00 00 00 00 00 00 00 00 00
       0.0 0.0 0.0 0.0
000070 00 00 00 00 00 00 00 00 00 00 00 00 00 00 00 00
       0.0 0.0 0.0 0.0
000080 00 00 00 00 00 00 00 00 00 00 00 00 00 00 00 00
       0.0 0.0 0.0 0.0
000090 00 00 00 00 00 00 00 00 00 00 00 00 00 00 00 00
       0.0 0.0 0.0 0.0
0000a0 00 00 00 00 00 00 00 00 00 00 00 00 00 00 00 00
       0.0 0.0 0.0 0.0
0000b0 00 00 00 00 00 00 00 00 00 00 00 00 00 00 00 00
       0.0 0.0 0.0 0.0
0000c0 00 00 00 00 00 00 00 00 00 00 00 00 00 00 00 00
       0.0 0.0 0.0 0.0
0000d0 00 00 00 00 00 00 00 00 00 00 00 00 00 00 00 00
       0.0 0.0 0.0 0.0
0000e0 00 00 00 00 00 00 00 00 00 00 00 00 00 00 00 00
       0.0 0.0 0.0 0.0
0000f0 00 00 00 00 00 00 00 00 00 00 00 00 00 00 00 00
       0.0 0.0 0.0 0.0

encoder.obs_encoder.0.weight f4 [217]
000000 bc 75 76 3f a8 9b 81 3f 6b c1 80 3f de bf 7e 3f
       0.962734 1.0125628 1.0059026 0.99511516
000010 c9 2e 7e 3f cd 38 7c 3f cd 4b 7d 3f a2 b4 7a 3f
       0.9929014 0.9852417 0.9894379 0.97931874
000020 6f 7b 7c 3f 0a ad 7b 3f 1b 26 7c 3f 04 a4 7c 3f
       0.98625845 0.9831091 0.98495644 0.9868777
000030 ae 6e 81 3f b6 e3 7b 3f f6 fa 73 3f cb a6 74 3f
       1.0111902 0.98394334 0.9530481 0.95567006
000040 43 1d 7f 3f f0 d3 7d 3f 19 d9 7f 3f be df 82 3f
       0.99654025 0.99151516 0.9994064 1.0224531
000050 ab 81 82 3f 4b d9 86 3f 9c 6c 88 3f be 3e 81 3f
       1.0195822 1.0535063 1.0658145 1.0097272
000060 ea 02 88 3f af c1 83 3f 00 46 80 3f 07 e1 83 3f
       1.0625889 1.0293483 1.0021362 1.0303048
000070 a4 0c 85 3f 1d 37 6d 3f 3d fa 93 3f 91 e4 81 3f
       1.0394483 0.9266222 1.1560742 1.0147878
000080 e1 3e 5e 3f 4f d7 88 3f 1f 70 7f 3f 3b 5c 8a 3f
       0.86814696 1.0690707 0.9978046 1.0809397
000090 8b 71 a0 3f 24 3d 7d 3f bc fb 76 3f a5 01 72 3f
       1.253465 0.9892142 0.96477866 0.9453376
0000a0 f4 09 7a 3f a8 5e 73 3f 99 75 80 3f 6e fa 80 3f
       0.9767144 0.9506631 1.0035888 1.0076425
0000b0 c5 c9 84 3f 69 6c 90 3f 01 f7 63 3f 2c 34 7a 3f
       1.0374075 1.1283084 0.89048773 0.9773586
0000c0 5b 81 7c 3f 17 05 81 3f 67 9f 7c 3f 4f f5 78 3f
       0.9863488 1.0079678 0.9868073 0.9724931
0000d0 98 b6 80 3f 04 33 59 3f 4a a2 6e 3f 6d c6 6d 3f
       1.0055723 0.8484347 0.93216383 0.928809
0000e0 ec df 74 3f 84 cc 7f 3f 4d 31 81 3f 3d 29 7a 3f
       0.9565418 0.9992144 1.009317 0.97719175
0000f0 40 15 6c 3f 66 3b 72 3f 86 03 6b 3f 1e 19 73 3f
       0.92219925 0.94621885 0.9180225 0.949602
000100 d5 78 7d 3f 9d cf 80 3f 2a 6b 7a 3f d7 ef 68 3f
       0.990125 1.0063359 0.9781977 0.90990967
000110 01 41 7f 3f 16 46 6f 3f eb b3 70 3f 78 e3 7c 3f
       0.99708563 0.9346632 0.94024533 0.9878459
000120 14 7f 82 3f 9b a0 82 3f 98 4b 60 3f 9d 7d 76 3f
       1.0195031 1.0205263 0.87615347 0.9628542
000130 fb 3b 66 3f 7b 3d 77 3f 00 3c 81 3f c5 19 7e 3f
       0.8993527 0.96578187 1.0096436 0.9925807
000140 9f 1e 7a 3f 61 a2 74 3f d3 0b 6d 3f b6 a8 73 3f
       0.97702974 0.9556027 0.9259617 0.9517931
000150 9c ff 82 3f 11 3c 80 3f 33 d3 81 3f a7 78 82 3f
       1.0234256 1.0018331 1.0142578 1.019307
000160 f2 f8 67 3f 25 4c 68 3f 3e 2a 73 3f 81 d7 7f 3f
       0.90614235 0.9074119 0.9498633 0.9993821
000170 ee 10 81 3f 10 e4 76 3f c3 26 80 3f b3 17 6c 3f
       1.0083292 0.96441746 1.0011829 0.9222366
000180 f7 3d 6e 3f 24 21 6e 3f 06 16 7c 3f 8c c7 7d 3f
       0.930633 0.9301932 0.98471105 0.9913261
000190 d6 fe 78 3f 47 b0 79 3f ba e9 5c 3f 5e 3a 70 3f
       0.9726385 0.975346 0.8629414 0.9383906
0001a0 2a 5f 77 3f e3 d9 7b 3f 2a e5 7b 3f de 1f 6b 3f
       0.96629584 0.98379344 0.9839655 0.918455
0001b0 85 f0 6a 3f ce 73 57 3f a2 47 67 3f 8d 0e 6f 3f
       0.91773254 0.8416108 0.9034368 0.9338158
0001c0 63 6d 76 3f 74 36 84 3f e8 97 7f 3f 4a 13 7f 3f
       0.9626066 1.0329118 0.99841166 0.9963881
0001d0 07 d6 5e 3f 66 76 74 3f dc 22 6c 3f 5a b1 83 3f
       0.8704533 0.9549316 0.9224069 1.0288498
0001e0 e4 f0 7c 3f 81 ab 82 3f e2 ac 81 3f 4b 02 7d 3f
       0.9880507 1.0208589 1.0130885 0.98831624
0001f0 d1 cc 7e 3f f3 b6 7c 3f 0a 30 82 3f 31 c3 84 3f
       0.99531275 0.9871666 1.017091 1.0372068
000200 63 fb 7c 3f 5b c1 82 3f 78 0d 80 3f d3 2b 82 3f
       0.98821086 1.0215257 1.000411 1.0169624
000210 7b 1a 70 3f 4d 5f 80 3f 2c b7 75 3f c2 f4 79 3f
       0.93790406 1.0029083 0.95982623 0.97639096
000220 59 a2 6b 3f a6 06 78 3f 1d 82 88 3f e9 eb 81 3f
       0.920446 0.96885145 1.0664707 1.0150119
000230 87 50 81 3f 12 0b 86 3f 5c ee 83 3f db 29 77 3f
       1.01027 1.0472128 1.0307117 0.9654824
000240 05 a6 79 3f 55 8a 7e 3f 4a 48 85 3f ef 85 80 3f
       0.9751895 0.9942983 1.0412686 1.0040873
000250 d3 aa 83 3f db db 7a 3f f0 f2 76 3f 3d 45 76 3f
       1.0286506 0.9799172 0.96464443 0.961994
000260 e3 a0 7a 3f 9b 06 82 3f 51 37 85 3f 91 4a 95 3f
       0.97901744 1.0158266 1.0407506 1.1663381
000270 25 46 7c 3f 05 92 5a 3f 7b 7b 77 3f 09 e2 7a 3f
       0.9854453 0.8537906 0.9667279 0.9800115
000280 23 7a 7f 3f 58 a8 88 3f 76 c0 7c 3f c9 bd 6d 3f
       0.9979574 1.0676374 0.9873117 0.92867714
000290 59 2a 67 3f 33 bc 76 3f f8 a1 7c 3f 7b 36 7c 3f
       0.9029899 0.9638092 0.98684645 0.9852063
0002a0 57 f1 7b 3f c9 7f 80 3f 7d a4 74 3f 7a 88 77 3f
       0.9841513 1.0038997 0.9556349 0.9669262
0002b0 8f 8e 78 3f 4a 66 7a 3f 98 a0 7d 3f 21 35 81 3f
       0.9709253 0.9781233 0.9907317 1.0094339
0002c0 a2 53 89 3f c4 3c 73 3f 9f eb 81 3f 99 2d 6e 3f
       1.0728648 0.95014596 1.0150031 0.93038327
0002d0 ce b1 7c 3f cc 1f 81 3f ea 4f 7d 3f 36 c2 7d 3f
       0.9870881 1.0087829 0.98950064 0.9912447
0002e0 7f 19 73 3f 24 08 7e 3f 0b b1 78 3f 25 31 80 3f
       0.9496078 0.9923117 0.97145146 1.0014998
0002f0 46 7c 82 3f e3 47 81 3f 97 7d 84 3f 3c 0e 84 3f
       1.0194175 1.0100063 1.0350827 1.0316844
000300 03 3e 7f 3f 9c 0a 75 3f 83 f8 76 3f ff c6 79 3f
       0.99704 0.95719314 0.9647295 0.9756927
000310 fb f5 82 3f 63 de 85 3f 90 63 7c 3f 00 ea 83 3f
       1.0231317 1.0458492 0.9858942 1.0305786
000320 85 c7 7a 3f 22 13 77 3f 9d 47 7e 3f 97 85 81 3f
       0.9796069 0.9651357 0.99328023 1.0118893
000330 ec 11 86 3f ef 98 7f 3f f6 5c 62 3f 0c 27 7f 3f
       1.0474219 0.99842733 0.884231 0.99668956
000340 88 ab 74 3f d8 c4 81 3f 02 3b 82 3f df b8 7b 3f
       0.95574236 1.0138197 1.0174258 0.98328966
000350 12 72 7f 3f 4e cf 83 3f 81 2f 79 3f 60 45 7a 3f
       0.9978343 1.0297639 0.9733811 0.9776211
000360 7d 7e 83 3f
       1.0272976

encoder.obs_encoder.0.bias f4 [217]
000000 ee 4c 26 bd 3f f4 5f bb e1 53 f0 3b 24 0d ea ba
       -0.04060071 -0.0034172682 0.007334218 -0.0017856699
000010 c9 2d f9 bb ab dd 89 bc a2 76 df bb 08 8f 82 bc
       -0.007604335 -0.016829332 -0.006819562 -0.015937343
000020 fa 68 d3 bc 8d 7f 72 3c b8 eb 2f ba 26 33 7a 3b
       -0.025806893 0.014800918 -0.0006710845 0.003817746
000030 2c 42 f7 3b cf e8 1e bc b8 d1 70 bc 4a 76 5d bc
       0.00754573 -0.009699061 -0.014698438 -0.013516972
000040 48 4f c1 3c 91 6c 4b 3b 92 37 8f 3c 52 6e 44 3c
       0.023597375 0.0031040052 0.017482553 0.011989193
000050 49 a6 b1 3b 57 ea 8b 3c 06 04 1a bc 15 4b 69 3b
       0.005421434 0.017079515 -0.009400373 0.003559773
000060 ed 31 9e 3b 87 08 a9 bb d5 ed b7 3c 00 1a 22 bc
       0.004827729 -0.0051584872 0.022452274 -0.009893894
000070 a6 8f 24 3b 2d be 00 3d 63 a1 18 3c 20 f8 58 3b
       0.0025110035 0.031431366 0.009315821 0.0033106878
000080 d1 08 c4 ba c6 82 58 bc b9 b8 cf bb 09 32 19 bb
       -0.0014956241 -0.013214773 -0.0063391593 -0.002337577
000090 16 48 3c 3c be 6a 36 3c 95 d9 ba bb 1b eb 63 3c
       0.011491796 0.011133848 -0.0057022073 0.013911034
0000a0 70 d7 49 bc 3d 82 1f bc ef d9 8c bc 14 b2 d8 3c
       -0.012319431 -0.009735641 -0.017193763 0.026452102
0000b0 1d 1b fa bb 5c 15 83 bb fa 6a 84 3c 9e c6 c8 3a
       -0.0076326267 -0.004000349 0.016164292 0.0015317982
0000c0 74 2a 68 bc 44 18 49 bb 0d fa 60 bc 64 5c 0c 3c
       -0.014170278 -0.003068463 -0.013731492 0.0085669495
0000d0 20 c2 bb ba fd 36 76 3c 91 c5 a5 3c 39 01 79 bb
       -0.0014324822 0.015027759 0.020235809 -0.0037995114
0000e0 fa 8a 0e bc 01 ef c7 bb 66 cf 03 ba 53 bb b2 3a
       -0.008700127 -0.0061014895 -0.0005028158 0.0013636149
0000f0 0c a0 64 bc 65 f5 80 3c d6 52 98 3b 22 7e a2 bc
       -0.013954174 0.015742013 0.0046485467 -0.019835535
000100 dc e1 b2 bc ec 17 cd bb b1 f1 aa 3b 1b 10 0d bc
       -0.021836214 -0.006258955 0.0052168 -0.008609797
000110 dd b8 35 bb e0 42 25 ba 7a 16 19 bd 73 46 24 bc
       -0.0027728595 -0.00063042156 -0.03737495 -0.010026562
000120 fa f0 34 bc a5 f8 17 bc a2 39 10 bd 65 28 14 3c
       -0.011043781 -0.00927559 -0.035211213 0.009042834
000130 b7 ae 3b bc 77 eb d8 bc 3e b6 b1 3a 53 0d 7a 3c
       -0.0114552295 -0.026479466 0.0013558341 0.015261966
000140 b2 33 5c bc 85 a5 f9 3b 70 a5 9c bb 4e c0 16 bc
       -0.0134400595 0.0076186084 -0.004780464 -0.009201122
000150 53 b3 4e bc 2d 47 85 bc 62 17 ff bb f0 e0 7e 3c
       -0.012615996 -0.01626929 -0.00778477 0.015556559
000160 18 be b2 3b a3 0c 1b 3c 36 f4 3d bc 6e 11 58 bc
       0.00545479 0.009463462 -0.011593869 -0.013187749
000170 c3 fa b4 bc 93 fb ac 3c f9 72 5c 3b 01 c1 6f 3b
       -0.022092229 0.021116054 0.0033637865 0.0036583545
000180 ba 0f 00 ba 2b ac c7 3c e9 79 f2 bc 41 4f ee bb
       -0.0004885156 0.024374088 -0.029599147 -0.0072726314
000190 6f 57 9c 3c fd 04 03 3c 1c a7 5d 3c fa ed a3 3c
       0.01908466 0.007996795 0.0135286115 0.020010937
0001a0 c4 6a 1e bb 2d 30 37 3c 09 5b 85 bc 52 b8 6b 3c
       -0.0024172524 0.01118092 -0.01627876 0.014387207
0001b0 2b 4b 63 3a ee 99 57 3c 97 6b 00 3d db ee 21 3c
       0.00086705637 0.013159258 0.031352606 0.009883608
0001c0 87 0a 88 bc a9 08 34 3c 15 bd f4 ba fb fe c7 bb
       -0.016606582 0.010988393 -0.0018672073 -0.006103394
0001d0 8b 00 04 bc cd db 54 3c f5 9d 7a bc 85 21 28 bc
       -0.00805677 0.012991858 -0.015296449 -0.010261898
0001e0 52 50 98 3a 95 e2 01 bc 2c c1 df bb ef a6 0c 3d
       0.0011620617 -0.0079275565 -0.006828448 0.034338888
0001f0 fe 8e 16 bc 11 e5 b4 3c c0 7d 34 39 0e 4e 1d bc
       -0.009189365 0.022081884 0.00017212983 -0.009601129
000200 0c 62 73 3c a7 b2 43 bc 31 53 14 bc 4b fa d1 bc
       0.014854919 -0.0119444495 -0.0090530375 -0.025632044
000210 cd 88 f9 39 3e a4 0d 3a 0b 7f 45 3c 90 ca ef 3b
       0.00047594905 0.0005403197 0.012054215 0.0073178485
000220 73 d4 a8 3c 75 4f 93 bc 99 ac b2 bc c6 69 54 ba
       0.020609116 -0.017982224 -0.021810817 -0.00081029197
000230 83 cb 56 3b 3f a0 bd bc 3a 90 18 bc f7 c7 88 3c
       0.003277511 -0.0231477 -0.00931173 0.016696913
000240 87 6b be 3a 81 0c 3f bb bf bc 6c 3b 78 86 74 3c
       0.0014527895 -0.002915174 0.0036123244 0.014924638
000250 7d 4a 98 bc c9 15 1d 3c 23 0a 1f 3b 86 df 16 bb
       -0.018590206 0.0095877135 0.0024267517 -0.0023021414
000260 b6 0f 15 bc 87 49 54 3a 68 3e 0d 3b 3f 6f fc bb
       -0.009097984 0.00080981146 0.002155209 -0.0077036913
000270 51 b5 4e 3b e6 9f e9 3c a5 29 24 bd e3 e4 18 bc
       0.0031541178 0.028518628 -0.040078778 -0.009331915
000280 96 64 3a bb 69 21 a4 3c b0 85 39 3c ee 44 b3 3c
       -0.0028441302 0.020035462 0.0113233775 0.021883454
000290 13 9b 19 3c 78 15 c0 bb e8 b5 4f bc ad 80 ba bb
       0.0093753515 -0.0058619343 -0.012677647 -0.005691609
0002a0 bb 51 80 3c 8b c6 cb 3c 01 d2 34 bc 93 4d 1c bb
       0.015663972 0.024874946 -0.011036397 -0.0023849949
0002b0 e3 c2 22 3b c9 90 b4 bc 16 5d 27 bd a4 2d 68 3c
       0.00248354 -0.022041695 -0.040860258 0.014171038
0002c0 52 8f 40 3c e4 2e 90 3c 22 cd 83 bb 1f b6 de bc
       0.01175292 0.017600484 -0.0040222565 -0.027186451
0002d0 c9 61 e2 ba a9 7e 7a 3a db 70 9a 3c ad fa 00 bc
       -0.0017271574 0.0009555617 0.018852642 -0.007872266
0002e0 fb 71 14 bc 7e 69 c1 3c fc 21 b7 3b 27 07 c3 bb
       -0.009060378 0.023609873 0.005588768 -0.0059517804
0002f0 12 b2 47 3c 8f b5 c4 ba 7b 88 83 3b 37 2f 97 38
       0.012188451 -0.0015007722 0.0040140725 7.2090355e-05
000300 00 10 e4 bb 57 31 f2 bc e1 38 bb bb a2 bd d6 3a
       -0.006959915 -0.029564543 -0.0057135676 0.0016383419
000310 b5 d5 80 3c 44 41 36 3b 1e 5a aa 3c 5d 39 13 3c
       0.015726903 0.0027809897 0.020794924 0.008985844
000320 30 6f 44 bc 60 79 1b bd 59 cb 20 bc 04 0d 90 3c
       -0.0119894 -0.03795755 -0.009814107 0.017584331
000330 1a 29 ee 3b c1 95 90 3c 34 f4 84 bb f2 7e 1f 3c
       0.0072680833 0.017649533 -0.0040574316 0.009734856
000340 83 66 26 bc cc e7 10 bb d6 88 24 3c ea a1 c0 ba
       -0.010156277 -0.0022110818 0.01004239 -0.0014696692
000350 3d aa 42 ba 52 33 41 bc 24 7c 58 bc 3b f0 57 bc
       -0.000742588 -0.011792021 -0.013213191 -0.013179834
000360 ca 33 64 bb
       -0.0034820908

encoder.obs_encoder.1.weight f4 [64, 217]
000000 33 05 b3 3d c1 92 65 3d fa 5c 45 bd 3b a1 5f 3d
       0.08741226 0.05604816 -0.048184372 0.05459712
000010 ba f0 e2 3c 9f 0f 21 3d e0 d4 4f 3e 13 53 34 3d
       0.027702678 0.039321538 0.20296049 0.04402454
000020 c1 6a 54 bc 55 2e cd 3d f0 fd 6b 3b a0 ec 6d bd
       -0.012964905 0.10018603 0.0036009513 -0.05808699
000030 5f f0 b3 bd a8 12 8d 3d dd 47 b6 bd 78 69 54 3c
       -0.087860815 0.06888324 -0.089004256 0.012964599
000040 17 de cc 3d b2 6e b7 bd 49 1a 6d bb fd ab d3 bd
       0.10003298 -0.0895666 -0.0036178997 -0.103355385
000050 9d 95 58 3d 9e 4b d1 3d 1e 12 58 3d f0 2d 51 3d
       0.052877057 0.10219501 0.052751653 0.0510692
000060 ee 8b ff bd 34 62 09 bd 20 ef bd bc b6 f4 fd 3d
       -0.12477861 -0.03354092 -0.023185313 0.124001905
000070 22 b6 52 3d be af 55 3d ff 05 0d be 7b 75 ab 3d
       0.051443227 0.052169554 -0.13771819 0.08372017
000080 02 6b e2 3d a7 c4 b3 3d 07 e2 93 bd 74 c0 ca bc
       0.11055566 0.08777743 -0.07220846 -0.024749972
000090 4b 4a 54 be b8 71 eb bc 6f e5 82 bb 0b c6 14 bd
       -0.20731466 -0.028740749 -0.003994636 -0.03632168
0000a0 9d 7c 04 bb d0 43 c8 3d 96 a8 23 3e f8 9c a1 bd
       -0.0020215877 0.09778559 0.15982279 -0.078912675
0000b0 c5 12 49 bd d3 b3 09 3c a3 c4 a7 3d f7 dd 80 3d
       -0.049090166 0.00840469 0.08191802 0.062923364
0000c0 9e 50 1d 3d be 9c 18 3d 4f f2 1b 3e d2 6f 91 bd
       0.03840696 0.037258856 0.15229152 -0.07101406
0000d0 81 90 1b 3b 0d 97 f8 bc 16 68 6a bb 5a 44 3c 3c
       0.0023737254 -0.030345464 -0.0035767606 0.011490906
0000e0 4c 06 36 bd a9 e9 a4 bd 96 ff 19 be 76 8d 60 3e
       -0.0444396 -0.0805238 -0.15038905 0.21928963
0000f0 96 30 6c bd 4e f6 9b bd a2 c6 d2 3d 29 97 e5 3d
       -0.057663523 -0.07615338 0.102917925 0.11210472
000100 0b f8 0d 3d b9 fb 44 bd c0 98 8c 3c 15 88 2f 3d
       0.03466038 -0.048091624 0.01716268 0.042854387
000110 4d 15 74 3e a3 ce 99 3c 54 1d e4 bd 00 90 03 be
       0.2383625 0.01877529 -0.111384064 -0.128479
000120 cb 53 15 be ce ea 7e 3d 42 71 bd 3d 66 ca 97 3c
       -0.14582746 0.062235646 0.09250118 0.018529128
000130 55 04 61 3d 70 6b aa bd da 72 4a be 21 f9 be 3d
       0.054935772 -0.08321273 -0.19770375 0.09324861
000140 5f e9 29 3e da 46 36 bd 1b 2d 61 3d b3 05 99 3c
       0.1659293 -0.044501163 0.054974657 0.018679475
000150 99 ea d1 3d 5e 1f f4 bd ac dc f7 3d 49 b7 f1 3d
       0.10249824 -0.11920045 0.12102637 0.11802537
000160 95 2f 53 3e 87 a7 a4 3b a2 d3 53 3d cf 85 1d 3d
       0.2062362 0.0050248536 0.0517155 0.038457688
000170 16 96 d4 bd 60 88 45 3d 0a 6d a6 3d 03 42 e5 bc
       -0.10380189 0.04822576 0.08126266 -0.027985578
000180 38 a2 18 be 98 30 a6 3c 41 a5 e8 3d 65 5e 8b 3d
       -0.14905632 0.020286843 0.11359645 0.06805114
000190 ef 68 25 be d5 00 2e bb 75 ad 48 bd 6f 5b 27 bd
       -0.1615331 -0.002655079 -0.048993547 -0.040858682
0001a0 97 18 b6 3c 41 1e 46 be 3b 76 a8 bd 76 d8 29 3e
       0.022228522 -0.19347478 -0.08225676 0.1658648
0001b0 86 0c e0 bb 46 f7 dd 3c f3 f6 79 3c 27 5a c4 ba
       -0.0068374304 0.027095448 0.015256631 -0.0014980481
0001c0 b9 ee 12 3d 82 71 b2 bd be 7a 2c 3c 46 6f fa bd
       0.035872195 -0.08713056 0.010527311 -0.12228255
0001d0 1e 99 ec ba b1 b6 be b9 ab 03 9f 3c 9e 7e bc 3d
       -0.0018051004 -0.0003637574 0.019410929 0.09203838
0001e0 3b ea 88 3d 03 2e 8c 3d df 50 a8 bc 5d 75 a5 3e
       0.06685301 0.068447135 -0.020546375 0.32316104
0001f0 2d 1b e7 3d 3a f7 ec 3d 2d 61 88 3e 90 fa 24 bb
       0.1128448 0.11570592 0.2663664 -0.002517376
000200 3e 5d 0f bd 62 74 a4 3e c0 60 c6 bc 81 b0 ee 3a
       -0.035001032 0.32120043 -0.024216056 0.0018210561
000210 6c db 00 3e f5 88 25 bd ba ac a4 3d 9d 7b 4f bc
       0.12583703 -0.040413816 0.080407575 -0.012663749
000220 09 b7 7c bc 8b b8 83 bd 2b 20 59 3d 17 cc 02 3d
       -0.015424498 -0.06431683 0.053009193 0.031932916
000230 9e 4f 08 3e 2d e3 81 3d f1 02 0d 3e 76 5e 53 bd
       0.13311622 0.063421585 0.13770653 -0.051603757
000240 31 4b f0 bd 3f c5 c3 3d 57 48 c2 3d 78 d6 b6 bd
       -0.117330916 0.09559106 0.09486454 -0.089276254
000250 cc 7d 30 bc 5f 2a 6e bd 7f 95 8a bd 0a 2c b7 bb
       -0.01077218 -0.058145877 -0.06766795 -0.0055899667
000260 dc b3 4e 3d 08 7e aa bd ff 74 12 be 36 a6 12 be
       0.050464496 -0.0832482 -0.14302443 -0.14321217
000270 1b 00 93 bd 75 7f c2 3c 99 d3 dc bd b8 36 cf 3d
       -0.071777545 0.023742417 -0.107825466 0.10117859
000280 e0 bb 9f 3d 73 8f 1b be cb 32 af 3a ab c0 12 be
       0.07799506 -0.1519144 0.0013366578 -0.1433131
000290 d6 5f f4 b9 cf 47 1c 3d 32 fe ae bd c3 a1 97 bd
       -0.0004661071 0.03815442 -0.08544578 -0.074039005
0002a0 49 46 31 3e 04 28 4f bb 6f fe 72 3d dd 78 61 3d
       0.17311968 -0.0031609545 0.059324678 0.055046905
0002b0 cc 6c 95 bd ea bf 00 3e cd f7 d6 3c 0d ae 41 be
       -0.07296142 0.1257321 0.026241207 -0.18914051
0002c0 f2 fa 0c 3d 53 3e 95 bd 1f c1 04 bd a1 05 13 be
       0.034419008 -0.07287278 -0.032410737 -0.14357616
0002d0 7a f2 0d 3c 38 14 85 3d b8 19 9a 3d b4 83 68 3c
       0.008663768 0.06497997 0.07524437 0.014191557
0002e0 4c eb b8 3d cc 55 af bd a2 3d e8 3d fa 67 bf 3d
       0.09029254 -0.08561286 0.113398805 0.09346004
0002f0 bb ee ed 3d 33 51 13 3e ec 90 11 3e 3a 1e 07 bc
       0.116178 0.14386444 0.1421544 -0.008246953
000300 34 09 e7 3d a6 24 be bc 4d 10 ce bd 63 87 f4 bd
       0.11281052 -0.023210835 -0.10061703 -0.119398855
000310 86 62 b7 bd b8 80 98 bd d6 e8 0a 3e 90 36 f0 bd
       -0.08954339 -0.07446426 0.13565382 -0.11729157
000320 8d d1 40 3d c2 2f 99 bc fd 27 5a 3d 18 42 3c bd
       0.047074843 -0.01869953 0.053260792 -0.04596147
000330 cd 65 69 3d fe ec 43 3e f7 ca 64 bd d6 34 8f 3c
       0.05698185 0.19133374 -0.055857625 0.017481249
000340 b2 1a f4 3b 3a 5b 82 bd 7e aa 44 bd fa 87 00 bd
       0.0074494714 -0.06365056 -0.048014157 -0.031379677
000350 73 b8 1f be ab 1a 22 bd 68 75 8a be 55 af 9f bb
       -0.15597706 -0.039576214 -0.270427 -0.004873196
000360 91 6e 17 be 2f eb 9c bc 3b 0c 31 bd e2 f1 ad bd
       -0.14788271 -0.019155113 -0.043224555 -0.08493401
000370 08 42 8b 3d 8a d6 fb bd 78 70 ce 3d 45 3b 3b 3c
       0.06799704 -0.122967795 0.100800455 0.011427705
000380 e7 d0 5b bc 53 5f 14 be e3 08 e3 bd 88 0a f1 bd
       -0.013416505 -0.14489488 -0.110856794 -0.11769587
000390 92 13 02 3e 31 eb ae 3d e1 9c 39 be b2 2b a5 bb
       0.12702778 0.08540953 -0.18126251 -0.0050406093
0003a0 93 fd 11 be d4 dd 99 be 4f 78 a0 b8 35 29 fd 3d
       -0.14256887 -0.30052054 -7.651804e-05 0.12361375
0003b0 70 f1 19 bc 00 65 90 bd 6e 31 6c be 3f c3 05 3e
       -0.009395942 -0.07050514 -0.23065731 0.13062762
0003c0 df e0 ba bc 48 61 9e bc 35 8d d3 3c 42 f2 eb 3b
       -0.022812305 -0.019333497 0.025824169 0.0072005102
0003d0 a3 c3 d7 bd 23 27 ba bd b2 7c 15 3e c2 a1 c2 bd
       -0.105353616 -0.09089496 0.14598349 -0.09503509
0003e0 66 da 9a 3d 65 0c de 3c e3 fe 4f 3d e7 b3 24 3e
       0.075611874 0.02710552 0.05078019 0.16084252
0003f0 41 9a ed 3c 6c b3 27 be 25 d2 b7 bc e5 e6 44 bc
       0.029004218 -0.16377038 -0.022439072 -0.01201794

encoder.obs_encoder.1.bias f4 [64]
000000 3a c5 09 ba 9f 94 d0 bb fa 9f 04 3c 00 2f 26 3c
       -0.00052555243 -0.0063653733 0.008094782 0.010143042
000010 14 63 92 3c 6e 68 d7 3b 9c b3 23 3c 0c 73 c6 3c
       0.01786951 0.0065737283 0.009991553 0.02422478
000020 0b 7d b4 3c 88 68 7b 3c e4 74 86 3c 01 bc e2 bc
       0.022032281 0.015344746 0.01641316 -0.027677538
000030 12 68 ee bb de d0 37 bc fc 3c ab 3c 02 2b 05 3c
       -0.0072755897 -0.011219231 0.020903103 0.00812793
000040 f0 cd 97 bb 45 e7 20 3c a8 d2 b2 3c 8e f1 7f bc
       -0.004632704 0.009820764 0.021828964 -0.015621556
000050 69 9a eb ba 8b 96 0f 3c 60 9c 63 bc f7 0b b7 bc
       -0.0017975095 0.00876392 -0.013892263 -0.022344572
000060 03 a7 81 bc 83 a0 c2 bc c4 ba ba 3b a1 dc a9 3c
       -0.015826708 -0.023758179 0.0056985337 0.020735087
000070 16 2f 42 3b db 76 9c 3c 5f 3e 46 bb 32 f6 45 bc
       0.0029630116 0.019099643 -0.0030249578 -0.012082623
000080 17 15 1f 3c ee 58 09 3b aa 48 15 3d c8 60 ed 3c
       0.009709618 0.0020957547 0.03644625 0.028976813
000090 0f be fd 3a 5f ec 48 3b 55 76 10 bd f6 af 1a ba
       0.001935901 0.0030658466 -0.0352691 -0.0005900854
0000a0 a2 77 4b 3c 28 c6 84 b8 c6 76 6e 3c d9 9d 85 ba
       0.012418659 -6.33116e-05 0.014554685 -0.0010194137
0000b0 1c 9e 2f 3b b2 e8 94 3a 52 71 db 3c 9b cd 31 bb
       0.0026797121 0.0011360853 0.026787434 -0.0027130607
0000c0 9b ac 38 bc 66 14 ab 3c 74 a8 94 3c 7d 8e c2 3b
       -0.011271621 0.02088375 0.018146731 0.005937396
0000d0 0c e0 84 3c ff f0 6c 3c eb b8 a9 3c fc 3e c7 ba
       0.016220115 0.014461755 0.020718059 -0.0015201266
0000e0 45 9b 81 3c 2c 50 22 bd c2 d2 93 bb 53 c9 95 3c
       0.015821109 -0.03962724 -0.0045112083 0.018284475
0000f0 1d f8 9e bc c1 c6 09 3c 55 b5 11 3b 73 57 e1 bb
       -0.019405419 0.008409203 0.0022233326 -0.00687688

encoder.ln.weight f4 [64]
000000 ee 95 74 3f 98 b3 7a 3f 72 9e 72 3f 2a 8a 86 3f
       0.95541275 0.9793029 0.9477302 1.0510914
000010 cf b9 83 3f 7b 48 81 3f d5 ae 84 3f 3a 3b 88 3f
       1.0291079 1.0100244 1.0365855 1.0643075
000020 04 97 81 3f c8 d2 82 3f fc a8 7b 3f 6b 44 7e 3f
       1.0124211 1.0220575 0.98304725 0.9932315
000030 68 0c 80 3f 16 65 80 3f 97 24 81 3f 03 4e 75 3f
       1.0003786 1.0030849 1.0089291 0.9582216
000040 bb 6f 75 3f 35 9a 7d 3f b8 ad 81 3f ec f1 7c 3f
       0.9587361 0.99063426 1.013114 0.98806643
000050 d6 a7 82 3f e4 eb 75 3f 44 2d 6e 3f 2c 39 83 3f
       1.020747 0.96063066 0.9303782 1.0251822
000060 f5 40 80 3f 73 61 81 3f 19 cf 84 3f b9 e4 7b 3f
       1.0019823 1.0107864 1.0375701 0.9839588
000070 99 cd 7f 3f a7 c0 7b 3f da 2e 7a 3f 82 1a 7d 3f
       0.9992309 0.9834084 0.9772774 0.9886857
000080 46 af 80 3f 4a c3 7c 3f ce 15 7e 3f eb ad 82 3f
       1.0053489 0.9873549 0.9925202 1.0209326
000090 4e c8 76 3f 48 3f 76 3f 3e 04 7a 3f f4 31 81 3f
       0.9639939 0.9619031 0.97662723 1.009337
0000a0 68 f8 7c 3f 4b e8 80 3f e6 a6 73 3f 96 bf 81 3f
       0.9881654 1.007089 0.9517654 1.0136592
0000b0 69 e4 80 3f ee 9b 81 3f 74 2f 7b 3f e7 e6 7b 3f
       1.0069705 1.0125711 0.9811928 0.98399204
0000c0 1b 1b 82 3f de af 81 3f 17 16 83 3f a3 3f 7e 3f
       1.0164522 1.0131795 1.0241116 0.9931585
0000d0 7d 4c 7e 3f 56 f7 83 3f 46 ec 84 3f ee 0a 81 3f
       0.9933546 1.0309856 1.0384605 1.008146
0000e0 f1 42 83 3f 76 88 7d 3f d5 1f 7d 3f 76 1d 84 3f
       1.0254804 0.9903635 0.98876697 1.0321491
0000f0 ef a0 7c 3f 88 6f 80 3f da d6 82 3f 7f 6a 7b 3f
       0.98683065 1.0034037 1.0221817 0.98209375

encoder.ln.bias f4 [64]
000000 91 51 d1 bb 61 8f 4b bc 89 6a 76 3c f5 dc bd bb
       -0.0063878973 -0.012424321 0.015040048 -0.0057941624
000010 e7 a4 db 3b c3 83 b9 39 ab 0f 7e bc 0a 97 d1 3b
       0.0067030075 0.0003538412 -0.015506665 0.006396179
000020 8f ef 24 bc 58 64 50 3a a5 15 87 3c 1e e5 07 bc
       -0.010066881 0.00079495227 0.016489813 -0.008294372
000030 2f 48 9e bb 00 b1 dd bb 73 8a f3 3b d6 6d 0a 3c
       -0.0048303823 -0.006765485 0.007432276 0.0084490385
000040 17 92 4c ba 05 a4 0c bc 63 e1 c0 bb d6 f6 3c 3c
       -0.00078037515 -0.008584027 -0.005886243 0.01153346
000050 ae 0e fe bb 53 de b4 b9 e0 27 f0 b9 be 33 b8 bc
       -0.007753215 -0.0003449792 -0.00045806076 -0.02248561
000060 10 2c 9f bb a4 c6 57 bc 93 37 fd bb 91 48 0c 3b
       -0.0048575476 -0.013169918 -0.007727572 0.0021405558
000070 fa c8 e5 bb 12 ca 9e 3c fa 3c fc 3b da 0f 9d bc
       -0.0070124837 0.019383464 0.0076976987 -0.019172598
000080 cf cc eb 3b 95 b7 79 3c 8c 7d 0a 3b 03 5b 58 3c
       0.007196046 0.015241523 0.002113196 0.013205293
000090 dc 28 16 3d fc e9 13 3c f2 b0 10 3c a6 00 5a ba
       0.03666006 0.009027954 0.00883125 -0.00083161367
0000a0 2f c6 18 3c ee 0b e6 ba 6a 05 e0 3c 38 5a 73 3b
       0.009324594 -0.0017551163 0.027346332 0.0037132632
0000b0 b8 5b a5 bc 6f 53 9b 3a 2e f3 07 3d 9a d7 42 bc
       -0.020185336 0.0011850427 0.0331909 -0.011892224
0000c0 22 ea 69 bc b0 2a be 3a 38 38 46 bb b3 2f 8f 3b
       -0.014277013 0.0014508571 -0.0030245911 0.0043697
0000d0 93 01 45 bc 37 dc ed 3b c6 78 9a 3b 92 08 29 bc
       -0.012024301 0.0072589177 0.0047141043 -0.010316985
0000e0 da a5 8e 3c 2b 02 11 3c 3c 24 60 3c 52 b4 45 3c
       0.017413069 0.008850615 0.013680514 0.0120669175
0000f0 49 22 d6 3a ad 89 e6 bb 39 68 86 bc c5 07 0d bc
       0.0016337122 -0.007035455 -0.01640712 -0.008607809

encoder.blocks.0.ln1.weight f4 [64]
000000 38 f3 75 3f 30 12 7b 3f 08 2f 73 3f bf 96 80 3f
       0.9607425 0.98074627 0.9499364 1.0046004
000010 32 b3 82 3f 76 32 80 3f 1b b5 82 3f 9c 42 85 3f
       1.0210936 1.00154 1.0211519 1.0410953
000020 8b bd 80 3f d2 76 84 3f f6 76 7e 3f 82 16 7b 3f
       1.0057844 1.0348761 0.9940027 0.9808122
000030 98 8e 80 3f 07 a6 7f 3f 22 18 7f 3f 3f 8e 7a 3f
       1.0043516 0.9986271 0.996462 0.978733
000040 9c 39 75 3f b0 92 80 3f fd 3e 81 3f ce 2d 7b 3f
       0.9579103 1.0044765 1.0097347 0.9811677
000050 f1 82 7e 3f df 2d 77 3f a9 dc 6f 3f 60 ab 84 3f
       0.9941855 0.9655437 0.93696076 1.03648
000060 0e 35 80 3f f5 63 81 3f ea 57 85 3f c9 3e 7a 3f
       1.0016191 1.010863 1.0417454 0.9775205
000070 a4 50 7d 3f ed 46 80 3f 09 e9 7a 3f 23 54 80 3f
       0.9895117 1.0021645 0.98011833 1.0025676
000080 bd 66 80 3f b5 87 75 3f 20 54 7d 3f 46 ba 86 3f
       1.0031353 0.959102 0.9895649 1.0525596
000090 01 74 75 3f 76 60 7a 3f a6 66 79 3f a5 95 81 3f
       0.9588013 0.9780344 0.97422254 1.0123793
0000a0 f7 19 7c 3f 06 76 7e 3f 0e 0d 76 3f 26 06 82 3f
       0.9847712 0.9939884 0.9611367 1.0158126
0000b0 bd 94 80 3f db 75 82 3f 03 ca 7e 3f e6 5a 75 3f
       1.0045391 1.0192217 0.99526995 0.95841825
0000c0 be 41 83 3f c6 e4 80 3f 64 66 81 3f eb f1 80 3f
       1.0254438 1.0069816 1.0109372 1.0073828
0000d0 65 80 7e 3f 5b f5 80 3f 38 2c 83 3f 3b 24 83 3f
       0.99414665 1.0074877 1.024787 1.0245432
0000e0 fb 65 83 3f 6c 13 7d 3f f5 85 7c 3f 1c 98 82 3f
       1.0265497 0.9885776 0.986419 1.020267
0000f0 87 3c 7e 3f 47 90 7f 3f bd 14 84 3f 0a 61 7d 3f
       0.9931111 0.99829525 1.0318829 0.98976195

encoder.blocks.0.ln1.bias f4 [64]
000000 84 5d bf bb e2 49 52 bc 79 58 85 3c f3 09 fb bb
       -0.0058400054 -0.012834998 0.016277539 -0.007661098
000010 f7 8d 77 3b 08 1c c5 ba 28 3f 58 bc cb cb f9 3a
       0.0037773827 -0.0015038261 -0.013198651 0.0019057927
000020 bf 73 e4 bb 72 5c 1c bb 59 50 93 3c 0a 29 27 ba
       -0.006971806 -0.0023858813 0.017982649 -0.000637666
000030 56 ac 0f bb 32 d0 e7 bb 60 3f 72 3a cf 66 74 3c
       -0.0021922789 -0.0070743794 0.0009241011 0.01491709
000040 3a 5b 84 bb a3 64 e0 bb 19 3b 9d bb 53 50 72 3c
       -0.0040391954 -0.0068479343 -0.0047983048 0.014789659
000050 d3 75 d8 bb aa 65 96 ba bc 36 4f 3b 92 cb c3 bc
       -0.0066058426 -0.001147439 0.0031618318 -0.02390078
000060 b6 4e 12 bc dc 4b 42 bc 10 42 9a bb 45 59 83 3b
       -0.008929899 -0.011858907 -0.0047075823 0.0040084445
000070 c2 9d 0e bc 41 6b ab 3c 96 15 9a 3b d0 90 9a bc
       -0.008704605 0.020925166 0.0047022803 -0.01886788
000080 2d e4 93 3b 82 9a d5 3c a8 e6 a9 3b e5 b5 47 3c
       0.0045132847 0.026074652 0.005184967 0.012189363
000090 58 9b 15 3d b0 4f db 3b fb ea 1a 3c 9f 0e 92 3a
       0.0365251 0.006692849 0.009455438 0.0011143273
0000a0 71 63 3a 3c ca 5d ab bc ef 35 bc 3c eb 54 b4 3b
       0.011376248 -0.020918746 0.022974936 0.005503287
0000b0 0b 08 ae bc e7 03 ea 3a e6 37 05 3d ba 88 fe bb
       -0.02124407 0.0017853946 0.032524012 -0.007767764
0000c0 0d 71 37 bc 71 be 94 3a db 3a 0d bc 32 b8 be 3a
       -0.011196387 0.001134826 -0.008619989 0.0014550744
0000d0 13 94 68 bc 58 9d 63 3a 58 c2 8d 3b 1b 2b cc bb
       -0.01419546 0.0008682809 0.004326146 -0.0062307245
0000e0 e1 38 96 3c d7 1d 0f 3c 62 7b 61 3c 33 83 41 3c
       0.018337669 0.008735142 0.013762327 0.0118110655
0000f0 b5 2c 10 3b c9 c0 16 bc 63 1c 93 bc 0e 4c 02 bc
       0.0021999304 -0.009201237 -0.017957872 -0.007952703

encoder.blocks.0.ln2.weight f4 [64]
000000 ef ce 75 3f 5b dd 7b 3f 92 ba 78 3f 1d d7 80 3f
       0.9601888 0.98384637 0.97159684 1.0065647
000010 2c ec 80 3f 7a b3 7e 3f 7d 1a 7f 3f 58 72 83 3f
       1.0072074 0.9949261 0.9964979 1.026927
000020 55 da 81 3f 34 2c 84 3f dd 70 7f 3f 19 e5 7f 3f
       1.0144755 1.032599 0.9978159 0.9995895
000030 12 a2 80 3f 30 02 80 3f 7f 2d 7c 3f 06 1d 7e 3f
       1.004946 1.0000668 0.9850692 0.99263036
000040 cf f9 72 3f 4e 79 80 3f 24 0c 81 3f 9a da 79 3f
       0.9491243 1.0037019 1.008183 0.97599185
000050 87 e6 7b 3f 4f b6 76 3f 11 21 74 3f 3c 70 85 3f
       0.9839863 0.9637193 0.95362955 1.0424876
000060 ee f0 7f 3f ed 15 82 3f f2 a2 85 3f f0 5e 7b 3f
       0.99977005 1.0162941 1.0440352 0.9819174
000070 1b 91 7f 3f c3 97 7f 3f 31 e4 79 3f fe 9b 7f 3f
       0.9983079 0.99840945 0.9761382 0.998474
000080 e2 87 7f 3f b6 a0 7f 3f 41 84 7b 3f 30 d0 85 3f
       0.99816716 0.998546 0.9824868 1.0454159
000090 f9 7b 78 3f 6b 90 7a 3f 61 33 79 3f d5 e2 83 3f
       0.9706417 0.97876614 0.97344023 1.0303599
0000a0 b7 7f 7b 3f 6b cd 81 3f bc 07 7b 3f 22 47 82 3f
       0.9824175 1.0140814 0.98058677 1.0177958
0000b0 cf e5 80 3f 77 e9 81 3f 4c 04 80 3f 9b d1 75 3f
       1.0070132 1.0149373 1.0001311 0.9602296
0000c0 8e e6 81 3f 12 3c 80 3f f9 d2 82 3f bf ce 87 3f
       1.0148485 1.0018332 1.0220634 1.0609969
0000d0 df d5 7c 3f db b9 79 3f ee 00 83 3f 05 22 80 3f
       0.9876384 0.9754922 1.0234659 1.0010382
0000e0 8a 7e 81 3f 33 1d 7f 3f c3 a0 7b 3f f0 f3 81 3f
       1.0116742 0.9965393 0.9829218 1.0152569
0000f0 68 21 7b 3f 0b 17 80 3f 19 42 87 3f 29 64 7b 3f
       0.9809785 1.0007032 1.0567046 0.9819971

encoder.blocks.0.ln2.bias f4 [64]
000000 05 9a 9a ba f2 77 95 bc 12 a9 aa 3c 29 c7 c4 bc
       -0.0011795169 -0.018245671 0.020832572 -0.024020748
000010 43 a3 33 39 dd 55 83 bb 02 e9 7a bc 66 65 54 39
       0.0001713159 -0.0040080384 -0.015314342 0.0002025567
000020 18 05 92 bc 0b 3c ab 3a 99 e8 8f 3c 28 1a ac ba
       -0.017824695 0.0013064159 0.017566966 -0.0013130354
000030 18 f1 11 3b 68 7a ef 3a 43 30 21 bb 7a 45 b5 3c
       0.0022268947 0.0018270733 -0.0024595417 0.022127856
000040 8d 14 cd bb e4 a8 06 bc 64 e8 12 bc 3a dc f4 3b
       -0.0062585534 -0.008218978 -0.008966539 0.007472542
000050 51 f6 aa bc 56 cf 21 3c 29 09 61 bc 3f a1 01 bd
       -0.020869406 0.009876093 -0.013735094 -0.031647917
000060 b4 b2 24 bb 34 79 91 bc cd 86 89 3a f0 ac 57 ba
       -0.002513093 -0.01775799 0.0010492444 -0.0008227369
000070 b7 8d 41 bc 65 52 c5 3c 82 d0 01 3c f2 a1 88 bc
       -0.011813573 0.02408714 0.007923247 -0.016678784
000080 fb af a2 3b 75 f3 de 3c c2 b1 25 3c 9d e4 5a 3c
       0.004964826 0.027215699 0.010113182 0.01336017
000090 a6 d4 f7 3c a5 cc 9e bb 11 17 2d 3c 00 fb 24 bc
       0.030252766 -0.004846173 0.0105645815 -0.010069609
0000a0 7e 2b 04 3c ff d8 95 bc 27 83 f6 3c c6 e1 1b 3c
       0.00806701 -0.018291948 0.030091835 0.009514278
0000b0 65 ad 85 bc 9f b5 37 3b 2c 8b ec 3c ab 76 a8 ba
       -0.016318033 0.0028031839 0.028874956 -0.0012852749
0000c0 46 e4 d8 bb 08 73 fc 3a 62 18 92 bc 41 5a 4f ba
       -0.006619009 0.0019260356 -0.017833892 -0.0007909872
0000d0 d4 82 e7 bb 13 87 f2 ba 68 25 78 3b 57 6c 9d 3b
       -0.0070651565 -0.001850339 0.0037864093 0.004804175
0000e0 38 7d 70 3c 8a c8 fe 3b db 13 88 3c 42 9d bb 3b
       0.014678292 0.007775371 0.01661103 0.0057255337
0000f0 5b 93 e0 3b b1 d9 26 bc a6 66 f1 bc 18 d0 70 38
       0.0068535036 -0.010183738 -0.029467892 5.741426e-05

encoder.blocks.0.attn.mask f4 [1, 1, 12, 12]
000000 00 00 80 3f 00 00 00 00 00 00 00 00 00 00 00 00
       1.0 0.0 0.0 0.0
000010 00 00 00 00 00 00 00 00 00 00 00 00 00 00 00 00
       0.0 0.0 0.0 0.0
000020 00 00 00 00 00 00 00 00 00 00 00 00 00 00 00 00
       0.0 0.0 0.0 0.0
000030 00 00 80 3f 00 00 80 3f 00 00 00 00 00 00 00 00
       1.0 1.0 0.0 0.0
000040 00 00 00 00 00 00 00 00 00 00 00 00 00 00 00 00
       0.0 0.0 0.0 0.0
000050 00 00 00 00 00 00 00 00 00 00 00 00 00 00 00 00
       0.0 0.0 0.0 0.0
000060 00 00 80 3f 00 00 80 3f 00 00 80 3f 00 00 00 00
       1.0 1.0 1.0 0.0
000070 00 00 00 00 00 00 00 00 00 00 00 00 00 00 00 00
       0.0 0.0 0.0 0.0
000080 00 00 00 00 00 00 00 00 00 00 00 00 00 00 00 00
       0.0 0.0 0.0 0.0
000090 00 00 80 3f 00 00 80 3f 00 00 80 3f 00 00 80 3f
       1.0 1.0 1.0 1.0
0000a0 00 00 00 00 00 00 00 00 00 00 00 00 00 00 00 00
       0.0 0.0 0.0 0.0
0000b0 00 00 00 00 00 00 00 00 00 00 00 00 00 00 00 00
       0.0 0.0 0.0 0.0
0000c0 00 00 80 3f 00 00 80 3f 00 00 80 3f 00 00 80 3f
       1.0 1.0 1.0 1.0
0000d0 00 00 80 3f 00 00 00 00 00 00 00 00 00 00 00 00
       1.0 0.0 0.0 0.0
0000e0 00 00 00 00 00 00 00 00 00 00 00 00 00 00 00 00
       0.0 0.0 0.0 0.0
0000f0 00 00 80 3f 00 00 80 3f 00 00 80 3f 00 00 80 3f
       1.0 1.0 1.0 1.0
000100 00 00 80 3f 00 00 80 3f 00 00 00 00 00 00 00 00
       1.0 1.0 0.0 0.0
000110 00 00 00 00 00 00 00 00 00 00 00 00 00 00 00 00
       0.0 0.0 0.0 0.0
000120 00 00 80 3f 00 00 80 3f 00 00 80 3f 00 00 80 3f
       1.0 1.0 1.0 1.0
000130 00 00 80 3f 00 00 80 3f 00 00 80 3f 00 00 00 00
       1.0 1.0 1.0 0.0
000140 00 00 00 00 00 00 00 00 00 00 00 00 00 00 00 00
       0.0 0.0 0.0 0.0
000150 00 00 80 3f 00 00 80 3f 00 00 80 3f 00 00 80 3f
       1.0 1.0 1.0 1.0
000160 00 00 80 3f 00 00 80 3f 00 00 80 3f 00 00 80 3f
       1.0 1.0 1.0 1.0
000170 00 00 00 00 00 00 00 00 00 00 00 00 00 00 00 00
       0.0 0.0 0.0 0.0
000180 00 00 80 3f 00 00 80 3f 00 00 80 3f 00 00 80 3f
       1.0 1.0 1.0 1.0
000190 00 00 80 3f 00 00 80 3f 00 00 80 3f 00 00 80 3f
       1.0 1.0 1.0 1.0
0001a0 00 00 80 3f 00 00 00 00 00 00 00 00 00 00 00 00
       1.0 0.0 0.0 0.0
0001b0 00 00 80 3f 00 00 80 3f 00 00 80 3f 00 00 80 3f
       1.0 1.0 1.0 1.0
0001c0 00 00 80 3f 00 00 80 3f 00 00 80 3f 00 00 80 3f
       1.0 1.0 1.0 1.0
0001d0 00 00 80 3f 00 00 80 3f 00 00 00 00 00 00 00 00
       1.0 1.0 0.0 0.0
0001e0 00 00 80 3f 00 00 80 3f 00 00 80 3f 00 00 80 3f
       1.0 1.0 1.0 1.0
0001f0 00 00 80 3f 00 00 80 3f 00 00 80 3f 00 00 80 3f
       1.0 1.0 1.0 1.0
000200 00 00 80 3f 00 00 80 3f 00 00 80 3f 00 00 00 00
       1.0 1.0 1.0 0.0
000210 00 00 80 3f 00 00 80 3f 00 00 80 3f 00 00 80 3f
       1.0 1.0 1.0 1.0
000220 00 00 80 3f 00 00 80 3f 00 00 80 3f 00 00 80 3f
       1.0 1.0 1.0 1.0
000230 00 00 80 3f 00 00 80 3f 00 00 80 3f 00 00 80 3f
       1.0 1.0 1.0 1.0
