trainer/results/football/11_vs_11_stochastic/mat/check/run1/models/transformer_1561.pt (torch, 467894 bytes, 73 tensors)

encoder.state_encoder.0.weight f4 [37]
1.0 1.0 1.0 1.0 1.0 1.0 1.0 1.0
1.0 1.0 1.0 1.0 1.0 1.0 1.0 1.0
1.0 1.0 1.0 1.0 1.0 1.0 1.0 1.0
1.0 1.0 1.0 1.0 1.0 1.0 1.0 1.0
1.0 1.0 1.0 1.0 1.0
00000000: 0000 803f 0000 803f 0000 803f 0000 803f
00000010: 0000 803f 0000 803f 0000 803f 0000 803f
00000020: 0000 803f 0000 803f 0000 803f 0000 803f
00000030: 0000 803f 0000 803f 0000 803f 0000 803f
00000040: 0000 803f 0000 803f 0000 803f 0000 803f
00000050: 0000 803f 0000 803f 0000 803f 0000 803f
00000060: 0000 803f 0000 803f 0000 803f 0000 803f
00000070: 0000 803f 0000 803f 0000 803f 0000 803f
00000080: 0000 803f 0000 803f 0000 803f 0000 803f
00000090: 0000 803f

encoder.state_encoder.0.bias f4 [37]
0.0 0.0 0.0 0.0 0.0 0.0 0.0 0.0
0.0 0.0 0.0 0.0 0.0 0.0 0.0 0.0
0.0 0.0 0.0 0.0 0.0 0.0 0.0 0.0
0.0 0.0 0.0 0.0 0.0 0.0 0.0 0.0
0.0 0.0 0.0 0.0 0.0
00000000: 0000 0000 0000 0000 0000 0000 0000 0000
00000010: 0000 0000 0000 0000 0000 0000 0000 0000
00000020: 0000 0000 0000 0000 0000 0000 0000 0000
00000030: 0000 0000 0000 0000 0000 0000 0000 0000
00000040: 0000 0000 0000 0000 0000 0000 0000 0000
00000050: 0000 0000 0000 0000 0000 0000 0000 0000
00000060: 0000 0000 0000 0000 0000 0000 0000 0000
00000070: 0000 0000 0000 0000 0000 0000 0000 0000
00000080: 0000 0000 0000 0000 0000 0000 0000 0000
00000090: 0000 0000

encoder.state_encoder.1.weight f4 [64, 37]
0.4574152 0.19178663 0.11696038 -0.03484751 -0.024718557 0.08946806 0.01876197 0.09317158
0.26316312 -0.070077896 0.3382568 -0.05923168 -0.12915726 -0.2459303 -0.024627378 0.13580255
-0.15919763 -0.17724416 0.041411754 0.022096744 0.18048406 0.123222694 -0.07639876 -0.36825076
-0.29680172 -0.034182478 0.056617558 0.20112307 0.051109444 0.20088284 0.1841506 -0.07784154
0.022256143 -0.00198585 0.017833995 0.16791677 0.14283958 0.2520978 -0.0026797678 0.036555268
-0.34279457 0.20965734 0.109166384 0.05958064 0.182345 0.19287658 0.05516808 0.016364643
-0.12562779 0.28481907 0.024451666 0.35011736 -0.16751002 -0.27444172 0.09274273 0.009425651
-0.14077525 -0.21963161 0.17755678 -0.022642229 0.02076482 0.04338099 -0.35535234 -0.17457849
0.10034779 -0.06924844 -0.061708517 -0.08110467 0.29113233 0.07335813 -0.19970822 -0.03494495
-0.064540915 0.312445 0.062430877 -0.1748564 0.15701269 0.08229059 -0.085262515 -0.16688499
0.044076603 -0.23346321 0.014359764 -0.050128154 -0.2761496 -0.09011372 0.19620766 0.33910358
0.087567285 0.20255402 0.005088991 0.11868635 0.05329292 0.17252271 0.22197093 0.057809833
-0.032914076 -0.15549012 -0.27870542 0.29608682 -0.18096645 -0.054570347 -0.2719342 -0.05681888
-0.086294785 0.25709227 0.10048054 0.00021697802 0.01413764 0.20644523 -0.175578 0.06629577
-0.55853295 -0.055624884 -0.1845203 0.26592916 -0.08810885 -0.028984131 -0.30324194 -0.05605378
0.25482255 -0.09172232 -0.07383927 -0.2708589 0.19046381 0.018751414 -0.006208304 -0.13356234
-0.124814704 -0.09745824 0.05768247 0.25524354 0.14021857 -0.14652897 -0.07516245 0.16695458
-0.25621763 0.022513237 -0.18820949 -0.05454332 -0.05423308 -0.191489 -0.06498444 0.14634998
0.24868573 0.27689525 -0.3586541 -0.19422892 0.20540085 -0.25503674 0.36688456 -0.055246513
-0.047298037 0.130609 -0.043869317 0.086236976 -0.08167747 0.08824544 -0.013922421 -0.0008757562
-0.28996956 -0.2678294 -0.12416736 -0.003983409 -0.083968274 -0.18522517 -0.14653817 -0.008485533
0.19713818 0.023719832 0.03716988 -0.14856616 -0.12148814 0.012963545 -0.07299419 -0.011729042
-0.043155413 -0.09657931 -0.09067693 -0.36637384 -0.2825897 -0.3737699 -0.06531416 0.08889984
-0.19877006 0.062309705 0.17385122 -0.008961584 0.096334815 0.2159585 -0.11990709 0.064151324
-0.17163816 -0.28194264 0.013052619 0.16149867 0.14832835 -0.05156396 -0.1286681 -0.41663256
0.09592095 -0.11497352 0.053902917 -0.065543264 0.2730092 -0.10748558 -0.6373737 -0.19424647
-0.06450384 0.08185028 -0.11890842 0.0473612 -0.14008644 -0.07692784 -0.14484356 -0.18607596
0.043479685 0.0050566993 -0.14898743 0.09944455 -0.044569854 0.10265905 -0.037873775 0.28203073
0.068844385 -0.035023462 -0.3559894 0.2541483 -0.0029488925 0.07143271 0.14594343 0.2193845
-0.12030955 -0.04227861 -0.08445814 -0.2582056 -0.39506748 0.18912336 -0.13990681 0.022381444
-0.031242913 0.021755932 -0.01393924 0.09101519 0.13713178 0.12850487 -0.07857095 -0.25117433
-0.21247439 0.042816125 -0.10013963 0.007848316 -0.51894224 0.08713726 -0.14834349 0.1854715
00000000: 5332 ea3e b763 443e ec88 ef3d 43bc 0ebd
00000010: 927e cabc 083b b73d b4b2 993c bed0 be3d
00000020: 51bd 863e 0085 8fbd ff2f ad3e eb9c 72bd
00000030: cd41 04be 27d5 7bbe 5bbf c9bc d30f 0b3e
00000040: b404 23be 7e7f 35be 5f9f 293d 3b04 b53c
00000050: d0d0 383e 2e5c fc3d f476 9cbd 5d8b bcbe
00000060: 65f6 97be ed02 0cbd d0e7 673d 35f3 4d3e
00000070: 2358 513d 3bb4 4d3e fa91 3c3e 636b 9fbd
00000080: 8452 b63c 0925 02bb 9918 923c 60f2 2b3e
00000090: 8a44 123e f612 813e 0b9f 2fbb faba 153d
000000a0: c582 afbe 6ab0 563e a092 df3d d40a 743d
000000b0: a6b8 3a3e 7081 453e edf7 613d 250f 863c
000000c0: 92a4 00be ced3 913e dc4e c83c 9542 b33e
000000d0: bf87 2bbe a083 8cbe e7ef bd3d 0c6e 1a3c
000000e0: 6327 10be 1ce7 60be 72d1 353e 327c b9bc
000000f0: fc1a aa3c 44b0 313d bef0 b5be b4c4 32be
00000100: 2483 cd3d 20d2 8dbd 12c2 7cbd 351a a6bd
00000110: 4c0f 953e ca3c 963d 5080 4cbe 7022 0fbd
00000120: 072e 84bd cbf8 9f3e 85b7 7f3d 8e0d 33be
00000130: efc7 203e f887 a83d 1d9e aebd e6e3 2abe
00000140: ab89 343d fb10 6fbe 3745 6b3c 2e53 4dbd
00000150: 7b63 8dbe 8b8d b8bd a9ea 483e fc9e ad3e
00000160: 7a56 b33d 526a 4f3e 8dc1 a63b d411 f33d
00000170: ad49 5a3d cba9 303e 594c 633e 01ca 6c3d
00000180: e9d0 06bd cd38 1fbe 7ab2 8ebe b198 973e
00000190: 454f 39be 2885 5fbd f63a 8bbe eaba 68bd
000001a0: 52bb b0bd 99a1 833e bec8 cd3d 9884 6339
000001b0: 8fa1 673c 6166 533e b8ca 33be 14c6 873d
000001c0: 04fc 0ebf ebd6 63bd e4f2 3cbe de27 883e
000001d0: 6a72 b4bd 2170 edbc 8742 9bbe a698 65bd
000001e0: 1a78 823e e9d8 bbbd 0b39 97bd 05ae 8abe
000001f0: f208 433e 919c 993c 076f cbbb 91c4 08be
00000200: da9e ffbd 3098 c7bd 7444 6c3d 48af 823e
00000210: 7595 0f3e b10b 16be c5ee 99bd 24f6 2a3e
00000220: f52e 83be ae6d b83c fdb9 40be d168 5fbd
00000230: 8223 5ebd b115 44be 9016 85bd c5dc 153e
00000240: 79a7 7e3e 37c5 8d3e 83a1 b7be f2e3 46be
00000250: 9a54 523e 2d94 82be 4bd8 bb3e 2b4a 62bd
00000260: 96bb 41bd 5ebe 053e 50b0 33bd 039d b03d
00000270: 8446 a7bd 06ba b43d de1a 64bc 0193 65ba
00000280: e476 94be ef20 89be 754b febd 4287 82bb
00000290: 8ff7 abbd abab 3dbe 1a0e 16be e806 0bbc
000002a0: 97de 493e 1850 c23c 723f 183d ba21 18be
000002b0: c6ce f8bd 0c65 543c fa7d 95bd 2b2b 40bc
000002c0: bbc3 30bd 60cb c5bd d4b4 b9bd 5a95 bbbe
000002d0: 99af 90be c55e bfbe 6ec3 85bd 1f11 b63d
000002e0: 618a 4bbe 7638 7f3d 0e06 323e 9cd3 12bc
000002f0: 304b c53d 3a24 5d3e d991 f5bd c561 833d
00000300: eac1 2fbe c95a 90be a7da 553c e85f 253e
00000310: 63e3 173e bb34 53bd 92c1 03be dd50 d5be
00000320: 3472 c43d 3d77 ebbd 4ec9 5c3d 8c3b 86bd
00000330: ddc7 8b3e 6621 dcbd ec2a 23bf 8ce8 46be
00000340: 971a 84bd 1fa1 a73d 4286 f3bd d1fd 413d
00000350: d272 0fbe 588c 9dbd df51 14be b28a 3ebe
00000360: c117 323d abb2 a53b 2990 18be 96a9 cb3d
00000370: e18e 36bd e83e d23d 8821 1bbd 5566 903e
00000380: 49fe 8c3d c374 0fbd 3e44 b6be ba1f 823e
00000390: 3542 41bb 504b 923d 3272 153e 55a6 603e
000003a0: da64 f6bd 562c 2dbd 64f8 acbd 8633 84be
000003b0: 4946 cabe 8ea9 413e bb43 0fbe 4a59 b73c
000003c0: 23f1 ffbc 7f39 b23c 6961 64bc 2c66 ba3d
000003d0: 466c 0c3e c896 033e cee9 a0bd ec99 80be
000003e0: e392 59be f65f 2f3d 0216 cdbd 3996 003c
000003f0: 66d9 04bf 0575 b23d 5be7 17be 3eec 3d3e

encoder.state_encoder.1.bias f4 [64]
0.0 0.0 0.0 0.0 0.0 0.0 0.0 0.0
0.0 0.0 0.0 0.0 0.0 0.0 0.0 0.0
0.0 0.0 0.0 0.0 0.0 0.0 0.0 0.0
0.0 0.0 0.0 0.0 0.0 0.0 0.0 0.0
0.0 0.0 0.0 0.0 0.0 0.0 0.0 0.0
0.0 0.0 0.0 0.0 0.0 0.0 0.0 0.0
0.0 0.0 0.0 0.0 0.0 0.0 0.0 0.0
0.0 0.0 0.0 0.0 0.0 0.0 0.0 0.0
00000000: 0000 0000 0000 0000 0000 0000 0000 0000
00000010: 0000 0000 0000 0000 0000 0000 0000 0000
00000020: 0000 0000 0000 0000 0000 0000 0000 0000
00000030: 0000 0000 0000 0000 0000 0000 0000 0000
00000040: 0000 0000 0000 0000 0000 0000 0000 0000
00000050: 0000 0000 0000 0000 0000 0000 0000 0000
00000060: 0000 0000 0000 0000 0000 0000 0000 0000
00000070: 0000 0000 0000 0000 0000 0000 0000 0000
00000080: 0000 0000 0000 0000 0000 0000 0000 0000
00000090: 0000 0000 0000 0000 0000 0000 0000 0000
000000a0: 0000 0000 0000 0000 0000 0000 0000 0000
000000b0: 0000 0000 0000 0000 0000 0000 0000 0000
000000c0: 0000 0000 0000 0000 0000 0000 0000 0000
000000d0: 0000 0000 0000 0000 0000 0000 0000 0000
000000e0: 0000 0000 0000 0000 0000 0000 0000 0000
000000f0: 0000 0000 0000 0000 0000 0000 0000 0000

encoder.obs_encoder.0.weight f4 [217]
0.8605146 0.92487395 0.94746786 0.9292956 0.90578526 0.8298898 0.92459923 0.89456993
0.881761 1.2002357 1.1173103 1.2553105 1.1729243 0.9181915 0.5498342 0.37284774
1.1835923 1.1441251 1.0252649 1.1596433 1.9940933 1.0940824 1.0088522 1.0453339
1.227157 1.1634744 1.1158289 1.3290677 1.2917461 1.4524206 1.3366835 1.5537608
0.36804646 1.36259 1.2996995 1.4171762 1.4945759 0.8639868 0.66718245 0.29060772
0.4227525 0.56571203 0.99809575 0.9608605 1.2014418 2.2337747 0.96726716 1.2359432
0.76127845 1.210418 0.7888279 0.5975301 1.010967 0.121124245 0.41229355 0.35768238
0.76932704 0.9837524 0.80789435 0.8093656 0.16567035 0.29224452 0.37132126 0.6911059
0.8694284 0.86745733 0.583555 0.12475573 0.33330956 0.37559754 0.8677088 0.8766265
0.84782577 0.6854375 0.17278513 0.45016956 0.3306713 0.85662436 0.9108948 0.7192399
0.59486693 0.08589842 0.38523054 0.36646202 0.97684157 0.91882765 0.8186307 0.53741145
0.09771766 0.43126503 0.46553817 0.80139875 0.8681602 0.5930227 0.8160261 0.16884682
0.36416477 0.44415805 0.78462577 0.7504146 0.382306 0.61466104 0.16982214 0.29584482
0.40054712 0.6933256 0.9003722 0.49644876 0.41203836 0.16399325 0.35781494 0.47023824
0.7676373 0.85997915 0.9035164 1.104719 0.620801 0.5832424 0.534479 1.4102536
0.82293653 1.0177186 1.0005826 1.1174687 0.9076171 0.9298699 1.208366 1.1060503
1.0716047 1.0527683 0.99231416 1.001602 0.359664 0.81891006 0.7941094 0.51845556
0.8722634 0.5945993 1.0341264 0.9083837 1.006062 1.1007214 1.0009205 0.9950812
0.9853014 0.89798504 1.2351884 0.84403926 0.7703691 0.5619774 0.5830937 0.6502107
0.8381735 0.93820906 0.87725484 1.0289137 0.48919916 0.49963355 0.5763226 0.70562655
0.8927526 0.7220497 0.9600736 0.38143545 0.45228788 0.49199292 0.78768915 0.91492814
0.65524673 0.92626256 0.37977552 0.5573511 0.52852213 0.96475697 0.8744579 0.71447
0.9719259 0.3045131 0.46077886 0.47047254 0.70410997 0.917937 0.83928245 0.98102236
0.44166857 0.44622612 0.436043 0.6547783 0.9388607 0.88384837 1.0936372 0.7331909
0.78263736 0.5998078 0.8312564 0.94771755 0.8864417 1.0171106 0.6255115 0.90299886
0.63433516 0.9542203 0.99128354 1.004346 1.2219427 0.89868575 0.89457256 0.94092494
0.80837464 0.8381914 0.90242606 0.78249085 0.7624237 0.87740624 0.65123415 0.8606701
0.97819614
00000000: af4a 5c3f 8ac4 6c3f 418d 723f 51e6 6d3f
00000010: 8be1 673f a873 543f 89b2 6c3f 8902 653f
00000020: 17bb 613f 53a1 993f 0604 8f3f 04ae a03f
00000030: 6222 963f 990e 6b3f efc1 0c3f e6e5 be3e
00000040: f47f 973f b172 923f e13b 833f 316f 943f
00000050: 733e ff3f e40a 8c3f 1222 813f 80cd 853f
00000060: 7b13 9d3f bbec 943f 7bd3 8e3f e41e aa3f
00000070: f057 a53f ebe8 b93f 7218 ab3f a2e1 c63f
00000080: 9670 bc3e 5969 ae3f 8e5c a63f 0866 b53f
00000090: 434e bf3f 3d2e 5d3f 78cc 2a3f 89ca 943e
000000a0: 0473 d83e 81d2 103f 3483 7f3f f4fa 753f
000000b0: d8c8 993f 2af6 0e40 d29e 773f 6333 9e3f
000000c0: 25e3 423f faee 9a3f a0f0 493f bcf7 183f
000000d0: 5e67 813f fd0f f83d 2418 d33e 2522 b73e
000000e0: 9ef2 443f 33d7 7b3f 2ad2 4e3f 9532 4f3f
000000f0: 7da5 293e 13a1 953e d21d be3e 51ec 303f
00000100: dc92 5e3f af11 5e3f dc63 153f ef7f ff3d
00000110: 8da7 aa3e 524e c03e 2a22 5e3f 986a 603f
00000120: 1c0b 593f d578 2f3f 96ee 303e a07c e63e
00000130: c04d a93e bc4b 5b3f 6730 693f 1b20 383f
00000140: 3349 183f 83eb af3d f03c c53e e9a0 bb3e
00000150: 4a12 7a3f 4a38 6b3f c891 513f cc93 093f
00000160: 3220 c83d c5ce dc3e 055b ee3e 7828 4d3f
00000170: bf3f 5e3f 56d0 173f 16e7 503f 2ee6 2c3e
00000180: ce73 ba3e af68 e33e 3cdd 483f 2c1b 403f
00000190: 9dbd c33e 6d5a 1d3f dbe5 2d3e f978 973e
000001a0: 8314 cd3e c97d 313f cb7e 663f 882e fe3e
000001b0: b1f6 d23e d9ed 273e 8533 b73e 11c3 f03e
000001c0: e183 443f 9827 5c3f da4c 673f 6f67 8d3f
000001d0: d0ec 1e3f 604f 153f 9ed3 083f 3183 b43f
000001e0: f8ab 523f 9a44 823f 1713 803f 3709 8f3f
000001f0: 9859 683f f40b 6e3f bdab 9a3f 0e93 8d3f
00000200: 582a 893f 1dc1 863f 4d08 7e3f 7f34 803f
00000210: e125 b83e 17a4 513f c14a 4b3f 81b9 043f
00000220: a74c 5f3f a937 183f 415e 843f d68b 683f
00000230: a4c6 803f 70e4 8c3f 2a1e 803f a4bd 7e3f
00000240: b63c 7c3f 59e2 653f a71a 9e3f f512 583f
00000250: e936 453f c0dd 0f3f a145 153f 3574 263f
00000260: 8a92 563f 782e 703f c693 603f 72b3 833f
00000270: 5078 fa3e f8cf ff3e e189 133f f1a3 343f
00000280: 6f8b 643f 40d8 383f 62c7 753f 824b c33e
00000290: 4792 e73e 7fe6 fb3e ffa5 493f bb38 6a3f
000002a0: 40be 273f 8b1f 6d3f f071 c23e 90ae 0e3f
000002b0: 3a4d 073f 50fa 763f 79dc 5f3f 82e7 363f
000002c0: 23d0 783f 24e9 9b3e 35eb eb3e c7e1 f03e
000002d0: 8d40 343f ebfd 6a3f 37db 563f 4824 7b3f
000002e0: 6222 e23e c077 e43e 0741 df3e 8d9f 273f
000002f0: 2d59 703f e343 623f 4efc 8b3f 66b2 3b3f
00000300: ec5a 483f 018d 193f 38cd 543f 9e9d 723f
00000310: d8ed 623f ae30 823f 8621 203f ef2a 673f
00000320: ca63 223f c847 743f c2c4 7d3f 698e 803f
00000330: 9e68 9c3f 4510 663f b502 653f 75e0 703f
00000340: a4f1 4e3f b693 563f 6505 673f 5251 483f
00000350: 332e 433f b29d 603f 48b7 263f e054 5c3f
00000360: 106b 7a3f

encoder.obs_encoder.0.bias f4 [217]
-0.18551075 -0.14065486 -0.076823905 -0.07652817 -0.13358752 -0.1899274 -0.12435792 -0.13925108
-0.15776181 0.09056048 0.060919445 0.088936344 0.037425432 -0.08817548 -0.22584356 -0.115734346
0.065247096 0.03254752 0.071811825 0.04832219 0.008609999 0.10101494 -0.08728542 -0.018723663
0.15197583 0.00698954 0.06996612 0.048652753 0.054228052 0.08048252 0.044527844 0.03540798
0.046172023 -0.11406616 -0.14331958 -0.029304102 0.038263764 0.06688578 0.063444935 0.040669136
0.11633339 -0.1441396 -0.07304808 -0.029152265 0.01875572 0.037827887 0.038638093 0.05527718
-0.09328079 -0.028690955 -0.08054438 0.1267263 0.06422351 0.039965283 0.11095888 -0.1379518
-0.09364609 -0.04293417 0.06395078 0.058220517 0.019980337 0.070753366 -0.14707296 -0.1275633
-0.08554249 0.15267225 -0.0028695904 0.014366499 0.081429444 -0.075922005 -0.086283445 -0.069034435
0.10946413 0.02791495 -0.0021134345 0.07136932 -0.1381813 -0.11055223 -0.08757578 0.1496103
0.048310116 0.042818848 0.093277566 -0.1609746 -0.062646516 -0.09738031 0.090343595 0.025227377
0.0129335355 0.09908147 -0.1583626 -0.109449 -0.08642404 0.1423287 0.08733896 0.032287043
0.09342357 -0.1477795 -0.16230196 -0.08568959 -0.016786793 0.08234708 0.047516357 0.11619767
-0.17299712 -0.17057663 -0.037716214 0.043047592 -0.0016562406 0.040711552 0.13115959 -0.16287087
-0.14239462 -0.05878074 0.060225233 -0.0019335657 0.07065748 0.1023609 -0.17757723 0.0076718074
-0.02056934 0.017273145 0.0024745385 0.068976924 -0.028585505 0.053340834 -0.005622934 0.021823602
0.012432307 -0.062832676 -0.091203615 0.017320015 -0.16410819 0.13569677 0.11529378 0.14867409
0.12945582 -0.22635247 -0.07319063 -0.106160894 -0.077040166 0.019405892 0.069482215 0.087556
0.048676908 -0.106981784 0.010979139 0.12548758 -0.047191743 0.11511937 0.052104343 -0.10713133
-0.09352362 -0.088277996 0.052643064 0.008127699 0.08984146 0.038758386 -0.14549157 -0.17133622
-0.089711405 0.100402094 0.077388875 0.13455896 0.0822512 -0.16174687 -0.12567155 -0.06345997
0.057767216 0.14058897 0.10783208 0.05249225 -0.06520323 -0.08100038 -0.13913128 0.21821555
0.031964615 0.21064676 0.0657376 -0.20385787 -0.1354812 -0.14201146 0.1091696 0.062098052
0.14091885 0.05163714 -0.16881004 -0.11214545 -0.024084285 0.16079149 0.051281042 0.17403543
0.058808222 -0.22186957 -0.10629142 -0.054979015 0.14676927 -0.07778511 0.19406408 0.05373367
-0.17163196 -0.12114397 -0.08125153 0.14215237 0.010416951 0.1790978 -0.0007484288 -0.12779205
-0.1702699 -0.10348317 0.09358922 0.08004125 0.15957308 0.045663908 -0.20670007 -0.07897785
-0.12146933
00000000: 88f6 3dbe d407 10be da55 9dbd cdba 9cbd
00000010: 2bcb 08be 547c 42be 5daf febd d697 0ebe
00000020: 508c 21be c677 b93d ab86 793d 4224 b63d
00000030: 694b 193d 5995 b4bd 8943 67be 2106 edbd
00000040: 45a0 853d 8c50 053d 1412 933d 7ded 453d
00000050: f410 0d3c ece0 ce3d b3c2 b2bd 5e62 99bc
00000060: 8d9f 1b3e 8308 e53b 664a 8f3d 1c48 473d
00000070: 3c1e 5e3d 05d4 a43d d462 363d f507 113d
00000080: e01e 3d3d 859b e9bd 5ec2 12be 280f f0bc
00000090: 77ba 1c3d 69fb 883d 6bef 813d ae94 263d
000000a0: 3340 ee3d 5599 13be 3b9a 95bd bbd0 eebc
000000b0: 99a5 993c 6af1 1a3d fa42 1e3d 536a 623d
000000c0: 000a bfbd 4b09 ebbc 74f4 a4bd 8ac4 013e
000000d0: 9e87 833d a3b2 233d 693e e33d 3d43 0dbe
000000e0: 85c9 bfbd bedb 2fbd a0f8 823d a378 6e3d
000000f0: cead a33c 24e7 903d 4b9a 16be f49f 02be
00000100: e730 afbd 1d56 1c3e bd0f 3cbb 7761 6b3c
00000110: 7bc4 a63d ff7c 9bbd 60b5 b0bd ed61 8dbd
00000120: bb2e e03d e5ad e43c 8c81 0abb 142a 923d
00000130: 667f 0dbe 3569 e2bd ee5a b3bd 7133 193e
00000140: d4e0 453d d162 2f3d 4f08 bf3d 87d6 24be
00000150: d14c 80bd 546f c7bd 1006 b93d a5a9 ce3c
00000160: 2ee7 533c 3aeb ca3d ce29 22be cc26 e0bd
00000170: 16ff b0bd 9dbe 113e c5de b23d 6b3f 043d
00000180: db54 bf3d 8253 17be 7c32 26be 067e afbd
00000190: 7584 89bc 96a5 a83d 83a0 423d 0bf9 ed3d
000001a0: 2826 31be a4ab 2ebe 517c 1abd ac52 303d
000001b0: 3616 d9ba 28c1 263d b34e 063e 9fc7 26be
000001c0: e5cf 11be 13c4 70bd bcae 763d b36f fdba
000001d0: deb4 903d 97a2 d13d ced6 35be c963 fb3b
000001e0: 0881 a8bc 6980 8d3c de2b 223b c643 8d3d
000001f0: 262c eabc eb7b 5a3d 9740 b8bb 69c7 b23c
00000200: e0b0 4b3c 6bae 80bd f6c8 babd b4e2 8d3c
00000210: fa0b 28be 18f4 0a3e 251f ec3d 053e 183e
00000220: 1190 043e f1c8 67be f8e4 95bd e26a d9bd
00000230: 3cc7 9dbd 1bf9 9e3c b14c 8e3d 8f50 b33d
00000240: 7061 473d 4419 dbbd d9e1 333c d17f 003e
00000250: 214c 41bd b4c3 eb3d 5d6b 553d ac67 dbbd
00000260: 5089 bfbd 18cb b4bd 41a0 573d 0a2a 053c
00000270: cdfe b73d 1dc1 1e3d befb 14be c372 2fbe
00000280: 9dba b7bd 9d9f cd3d 0f7e 9e3d d3c9 093e
00000290: 5173 a83d f9a0 25be 0bb0 00be 4df7 81bd
000002a0: 519d 6c3d 8ef6 0f3e 11d7 dc3d 1d02 573d
000002b0: 4589 85bd 87e3 a5bd 6e78 0ebe e673 5f3e
000002c0: 54ed 023d c9b3 573e 6fa1 863d 1ec0 50be
000002d0: 95bb 0abe 746b 11be 5094 df3d 875a 7e3d
000002e0: 084d 103e 7781 533d 8adc 2cbe 84ac e5bd
000002f0: 684c c5bc 86a6 243e 120c 523d 5836 323e
00000300: e4e0 703d c731 63be 51af d9bd ad31 61bd
00000310: af4a 163e cd4d 9fbd bcb8 463e d617 5c3d
00000320: 4ac0 2fbe 541a f8bd 3467 a6bd 6490 113e
00000330: dcab 2a3c 6a65 373e 3532 44ba ebdb 02be
00000340: 3c5b 2ebe fcee d3bd b4ab bf3d abec a33d
00000350: 2067 233e 140a 3b3d 2fa9 53be 24bf a1bd
00000360: e9c4 f8bd

encoder.obs_encoder.1.weight f4 [64, 217]
0.10360823 0.084855124 -0.017058114 0.0859553 0.05824727 0.06926817 0.2329207 0.075399585
0.01570508 0.16350251 0.05751757 0.00082322274 0.028044228 0.099740185 -0.028870953 -0.029969659
0.12599818 0.01965205 -0.0010723987 -0.086335495 -0.06900996 0.10404098 0.06683097 0.07379571
0.015868077 0.043889254 0.16006118 0.32376313 0.1314481 0.025069442 -0.023624258 -0.002501812
0.021850327 -0.05578851 -0.116303615 0.062918805 -0.2678934 0.0013280169 0.025757268 0.0061958246
0.06367195 0.12797828 -0.14595252 -0.1165784 -0.039271206 -0.011413171 -0.09430449 0.04423433
0.1955752 -0.015556223 0.116791755 -0.1835206 -0.021970278 -0.099503614 0.041916363 0.13303514
-0.013814721 -0.104238786 -0.24639381 0.1810825 -0.11599468 0.0533379 0.1460128 0.15321101
0.009153132 -0.08815069 -0.15424378 0.028415207 0.18797602 0.08945706 -0.018560695 -0.16023983
-0.16623315 -0.1194591 0.013889137 -0.021665193 0.08489065 -0.04131969 -0.21635471 0.01251669
0.10699501 0.07931022 0.063853554 0.111428134 0.15737393 -0.15431689 0.13980846 0.0067621684
0.23090391 0.03201589 -0.009218448 0.10514991 -0.13338292 0.03674834 0.030376991 -0.07376589
-0.11883326 -0.053635664 0.10826875 0.044900537 -0.110063925 0.037256584 0.0065913773 -0.010674593
-0.09545669 -0.18475445 -0.10013057 0.28219733 -0.17795382 0.09585206 0.038689654 0.12208163
0.010286208 -0.111369304 0.01717919 -0.115617484 0.0015968904 0.043020412 -0.030862126 0.2643948
0.30104068 0.2993015 0.15299048 0.44938278 0.22753116 0.23675461 0.24516578 0.10482047
0.11968705 0.3654576 -0.059280653 0.0019100627 0.057285257 -0.016658582 -0.05562389 0.06866859
0.07677461 -0.056501526 -0.13199286 -0.027603472 0.09318963 0.15273458 0.077493005 -0.04452389
0.004562928 0.082299076 0.20603256 -0.18447399 -0.1395698 -0.04035977 -0.12015791 -0.004154247
0.118686825 -0.1404289 -0.2316544 -0.107785724 -0.121371344 -0.060905375 -0.087571174 -0.00065845106
0.023991825 -0.105946116 -0.0003703517 -0.0744378 0.038098402 0.058981515 -0.046876263 -0.12851925
0.30435497 -0.0409686 0.17724395 0.08945137 0.024342475 0.15337622 -0.024660017 -0.11139657
0.19685763 -0.124803185 -0.0500416 -0.16445741 0.16434361 0.0043318425 -0.119286485 0.0017937061
0.021804571 -0.18242587 0.15400057 -0.0014900558 0.047992855 0.13796097 0.12322828 0.052560262
0.2382981 -0.06242014 -0.0039905473 -0.15738341 -0.06898585 -0.18011886 0.12975013 -0.30046377
-0.034807812 0.10581561 -0.026333349 -0.15826043 0.07250947 0.17677072 0.015538747 -0.08808631
0.09897165 -0.11698878 -0.0457636 0.03340227 -0.11810142 0.03613088 -0.23599198 0.09137958
-0.18971962 -0.026388898 -0.050294556 -0.09148867 0.062682554 -0.13031708 0.09296573 0.006492364
-0.018544147 -0.15100019 -0.2269557 -0.22139132 0.008588861 0.043939557 -0.18711849 -0.055305034
-0.064662784 -0.4186093 -0.092696115 0.060258273 -0.09169943 0.09782386 -0.26265347 0.13492602
-0.0013353373 -0.12743726 -0.010209757 -0.041018642 -0.21703744 -0.2387372 0.12965316 -0.16747811
0.40869814 0.08997793 0.05941046 0.12668645 0.07725305 -0.2790136 0.031905852 0.07972649
00000000: 8d30 d43d 86c8 ad3d 75bd 8bbc 5509 b03d
00000010: b094 6e3d 78dc 8d3d c482 6e3e 196b 9a3d
00000020: f1a7 803c 346d 273e 8b97 6b3d 8bcd 573a
00000030: 02bd e53c 9544 cc3d c782 ecbc ee82 f5bc
00000040: ab05 013e 56fd a03c bb8f 8cba aad0 b0bd
00000050: 1855 8dbd 7013 d53d adde 883d 3522 973d
00000060: c5fd 813c 38c5 333d 14e7 233e 48c4 a53e
00000070: 559a 063e 6e5e cd3c a987 c1bc 71f5 23bb
00000080: 75ff b23c 7e82 64bd 9730 eebd 93db 803d
00000090: 5329 89be da10 ae3a e800 d33c 5806 cb3b
000000a0: 7066 823d bd0c 033e 9474 15be a8c0 eebd
000000b0: d8da 20bd 4ffe 3abc b622 c1bd 0f2f 353d
000000c0: dd44 483e 87df 7ebc 8430 ef3d d3ec 3bbe
000000d0: 03fb b3bc 8dc8 cbbd 7eb0 2b3d 5d3a 083e
000000e0: 2457 62bc 257b d5bd a94e 7cbe b16d 393e
000000f0: 9e8e edbd d878 5a3d 6184 153e 59e3 1c3e
00000100: 05f7 153c 5988 b4bd 15f2 1dbe 02c7 e83c
00000110: c97c 403e 4335 b73d 990c 98bc e915 24be
00000120: 0639 2abe f9a6 f4bd 438f 633c 347b b1bc
00000130: 26db ad3d d63e 29bd 178c 5dbe ce12 4d3c
00000140: 3320 db3d 666d a23d a7c5 823d 6f34 e43d
00000150: a226 213e 3f05 1ebe f329 0f3e 2e95 dd3b
00000160: 1372 6c3e 1823 033d f908 17bc d658 d73d
00000170: 8895 08be 6d85 163d 2bd9 f83c 9212 97bd
00000180: da5e f3bd 12b1 5bbd 02bc dd3d a0e9 373d
00000190: 3269 e1bd 5c9a 183d 7bfc d73b 7de4 2ebc
000001a0: cc7e c3bd 4530 3dbe 4211 cdbd 2b7c 903e
000001b0: 8739 36be 164e c43d 0b79 1e3d ef05 fa3d
000001c0: 7c87 283c 9715 e4bd 5fbb 8c3c dcc8 ecbd
000001d0: c04e d13a 2c36 303d 92d2 fcbc c15e 873e
000001e0: 0122 9a3e 0c3e 993e 89a9 1c3e 8015 e63e
000001f0: eefd 683e cd6f 723e bd0c 7b3e 1dac d63d
00000200: 7c1e f53d 421d bb3e 45d0 72bd 125b fa3a
00000210: f2a3 6a3d 9477 88bc e0d5 63bd 1ea2 8c3d
00000220: 023c 9d3d 256e 67bd 2329 07be ad20 e2bc
00000230: 34da be3d 7466 1c3e a7b4 9e3d af5e 36bd
00000240: 9d84 953b 6b8c a83d 33fa 523e c0e6 3cbe
00000250: 63eb 0ebe 4950 25bd 5a15 f6bd 5a20 88bb
00000260: 1412 f33d 98cc 0fbe d036 6dbe c3be dcbd
00000270: 8a91 f8bd ea77 79bd 8458 b3bd e79b 2cba
00000280: 818a c43c 47fa d8bd c42b c2b9 d872 98bd
00000290: 120d 1c3d 9a96 713d 5301 40bd 8d9a 03be
000002a0: 6ad4 9b3e b1ce 27bd 707f 353e 4832 b73d
000002b0: df69 c73c a80e 1d3e ce03 cabc e323 e4bd
000002c0: 0c95 493e d098 ffbd 6cf8 4cbd 8667 28be
000002d0: b149 283e 21f2 8d3b 794c f4bd ca1a eb3a
000002e0: 809f b23c d9cd 3abe 53b2 1d3e fa4d c3ba
000002f0: 2894 443d a445 0d3e 1c5f fc3d 6e49 573d
00000300: 6b04 743e 43ac 7fbd 23c3 82bb 1e29 21be
00000310: 7448 8dbd 1471 38be 38dd 043e 63d6 99be
00000320: a392 0ebd dbb5 d83d 09b9 d7bc 060f 22be
00000330: d87f 943d 6203 353e 3b96 7e3c 9866 b4bd
00000340: a6b1 ca3d d097 efbd 9d72 3bbd d2d0 083d
00000350: 28df f1bd f9fd 133d e2a7 71be 3825 bb3d
00000360: dc45 42be 882d d8bc aa01 4ebd 695e bbbd
00000370: b65f 803d d771 05be d164 be3d e6bd d43b
00000380: e5e9 97bc cb9f 1abe 1367 68be 68b4 62be
00000390: 4bb8 0c3c f7f9 333d fd9b 3fbe 8887 62bd
000003a0: ec6d 84bd f553 d6be 76d7 bdbd 61d1 763d
000003b0: e9cc bbbd e057 c83d 847a 86be 0c2a 0a3e
000003c0: 7c06 afba ea7e 02be d346 27bc 2a03 28bd
000003d0: 103f 5ebe 8677 74be ccc3 043e 627f 2bbe
000003e0: e240 d13e 5946 b83d 6258 733d 18ba 013e
000003f0: d936 9e3d dfda 8ebe b6af 023d a447 a33d

encoder.obs_encoder.1.bias f4 [64]
0.018624907 -0.027119603 -0.024945103 0.015963944 0.06188892 -0.0002031468 0.0034282086 0.032685004
0.040358216 0.046612237 0.1255935 -0.019047111 -0.05931245 -0.015067034 0.025751714 -0.02505514
0.0019211486 0.0626781 0.007853085 0.06739734 0.0089326855 0.015084476 -0.026380371 -0.011673497
0.05402329 -0.05168176 0.009941622 0.07650229 0.00062959496 0.0006565317 0.050835237 0.063592255
0.12723039 0.06883929 0.0039423285 0.047783855 0.095322445 0.046972238 -0.06805735 0.07252235
0.037332933 -0.05387926 0.047959477 -0.057695545 0.022840872 0.050434835 -0.01559338 -0.05232395
-0.06640649 0.0041288896 0.0028408621 0.042399842 0.023458535 0.026523247 0.0095858555 0.0059836786
-0.013924494 -0.15463325 -0.05303399 0.011055825 -0.06982408 0.05544208 -0.020271504 -0.03230412
00000000: 4393 983c ee29 debc ac59 ccbc d1c6 823c
00000010: 3c7f 7d3d ce03 55b9 ccab 603b b6e0 053d
00000020: a84e 253d 79ec 3e3d 959b 003e b008 9cbc
00000030: 9df1 72bd b9db 76bc 42f5 d23c 7040 cdbc
00000040: 0dcf fb3a 605d 803d 3aaa 003c 9e07 8a3d
00000050: 665a 123c e124 773c a61b d8bc 3242 3fbc
00000060: 8647 5d3d 41b0 53bd 2fe2 223c 3cad 9c3d
00000070: 670b 253a 191b 2c3a 9c38 503d a83c 823d
00000080: af48 023e 9dfb 8c3d a62e 813b 01b9 433d
00000090: 6a38 c33d f665 403d a761 8bbd 9986 943d
000000a0: 6bea 183d 80b0 5cbd 2871 443d 2a52 6cbd
000000b0: c81c bb3c c294 4e3d 607b 7fbc a351 56bd
000000c0: 2000 88bd a34b 873b c22d 3a3b 75ab 2d3d
000000d0: 1d2c c03c 4847 d93c fe0d 1d3c bc12 c43b
000000e0: 9023 64bc 2e58 1ebe 2b3a 59bd 7e23 353c
000000f0: edff 8ebd 3c17 633d 6d10 a6bc 5351 04bd

encoder.ln.weight f4 [64]
0.8192634 0.84453094 0.80145425 0.95791936 0.82156366 0.8701849 1.0886377 1.0243561
0.96321523 1.0062946 0.77511305 0.7592909 0.9247604 1.0371032 0.926966 0.7831155
1.3059685 0.8341305 1.064878 0.8011351 1.0506611 0.86544263 0.72911185 1.0336696
0.9323272 0.9613041 0.99512315 0.9648289 1.1392664 1.1194963 0.9225811 1.192767
0.94097996 1.0147053 0.886392 0.94307536 0.93476206 0.96754605 0.8879226 1.1137959
1.1239306 1.0106643 0.7435174 1.029315 0.9924 1.1163317 0.9543229 0.9166629
1.0085665 1.0763922 1.0056167 1.204871 0.9279485 0.8438985 0.9393193 0.90998584
0.9671856 0.94066954 0.89271677 0.95393664 0.8707731 0.8573036 1.0273442 1.0021062
00000000: 3fbb 513f 2e33 583f 1b2c 4d3f 343a 753f
00000010: ff51 523f 70c4 5e3f 7b58 8b3f 1a1e 833f
00000020: 4695 763f 43ce 803f cf6d 463f e360 423f
00000030: 19bd 6c3f ccbf 843f a54d 6d3f 427a 483f
00000040: fa29 a73f 9489 553f ec4d 883f 3117 4d3f
00000050: 107c 863f a68d 5d3f 13a7 3a3f 494f 843f
00000060: ffac 6e3f 0718 763f 64c0 7e3f 07ff 763f
00000070: 7bd3 913f a84b 8f3f 462e 6c3f 97ac 983f
00000080: 10e4 703f dde1 813f 96ea 623f 636d 713f
00000090: 914c 6f3f 19b1 773f e54e 633f dd90 8e3f
000000a0: f5dc 8f3f 735d 813f 2857 3e3f 98c0 833f
000000b0: ed0d 7e3f f5e3 8e3f 814e 743f 6baa 6a3f
000000c0: b518 813f 38c7 893f 0cb8 803f 3739 9a3f
000000d0: 088e 6d3f bb09 583f 3b77 703f d5f4 683f
000000e0: 7a99 773f b8cf 703f 1689 643f 3135 743f
000000f0: fcea 5e3f 4078 5b3f 0480 833f 0445 803f

encoder.ln.bias f4 [64]
-0.108080424 0.0020770305 -0.007200507 0.014998055 0.051518258 0.042041525 -0.04310396 0.0006370045
0.02381707 -0.009646912 0.096451305 0.012585063 -0.049947888 -0.058832854 0.016329175 -0.058972925
-0.026945407 -0.07241151 0.0058002183 0.16961458 -0.016203314 0.028834043 0.028219305 -0.0023056027
0.022589592 0.051921815 -0.089569926 0.00041589464 0.04710245 0.006448056 0.050158065 0.0020208086
0.12812796 -0.01940407 -0.05899677 0.04037255 0.12103756 -0.065725 0.07622114 0.05960754
0.06385352 -0.017384749 -0.08650999 -0.048243046 -0.09299763 0.069335096 0.007413318 0.050406434
-0.07548938 0.030567884 0.0052440213 0.017953902 0.0067452723 0.037450694 0.026994873 0.03754694
0.027440889 0.073203325 0.08462281 0.039609473 0.108250305 0.04550995 0.024242511 0.01986244
00000000: 4559 ddbd ca1e 083b 3bf2 ebbb 67ba 753c
00000010: cf04 533d bc33 2c3d c78d 30bd a6fc 263a
00000020: 041c c33c 150e 1ebc 4388 c53d 9531 4e3c
00000030: 2896 4cbd b8fa 70bd c3c4 853c 988d 71bd
00000040: 9dbc dcbc 7c4c 94bd c20f be3b 72af 2d3e
00000050: d0bc 84bc 5f35 ec3c 2c2c e73c 9819 17bb
00000060: cf0d b93c f8ab 543d 7070 b7bd 6f0c da39
00000070: 80ee 403d 374a d33b 8b72 4d3d 8b6f 043b
00000080: fa33 033e 49f5 9ebc 99a6 71bd b05d 253d
00000090: 8ae2 f73d d49a 86bd d419 9c3d 0927 743d
000000a0: a2c5 823d 766a 8ebc 262c b1bd 809a 45bd
000000b0: 8b75 bebd 8fff 8d3d 6beb f23b fa76 4e3d
000000c0: 2d9a 9abd 8069 fa3c 0ad6 ab3b 1014 933c
000000d0: 7207 dd3b e665 193d 5a24 dd3c d2ca 193d
000000e0: b7cb e03c a0eb 953d b94e ad3d 8b3d 223d
000000f0: 56b2 dd3d a468 3a3d 3b98 c63c 8eb6 a23c

encoder.blocks.0.ln1.weight f4 [64]
0.9260955 0.953779 0.9241586 0.8970057 0.8091936 0.94156116 1.0989764 1.023572
0.7378798 1.0725169 0.9781147 0.70807904 1.0060244 1.1156758 0.99921656 0.85135275
1.009662 1.0075414 1.101916 0.8133597 0.87293094 0.8590616 0.7755014 1.0601221
1.0184848 0.9869382 1.0942014 1.046589 1.2162496 1.2660899 0.9727965 1.1972386
0.93866247 1.0321984 0.980284 1.1310261 1.0074377 1.0764374 0.8379614 1.0826218
0.9133393 1.0075524 0.8420317 1.0518599 1.0412208 1.0672084 0.97675675 0.70486176
1.1137842 1.1347915 0.98926306 1.1149989 1.0165617 0.79950833 0.97598964 0.87923306
1.0974976 0.94093555 0.91358066 0.8084015 0.90947336 0.91135645 0.89720273 0.9831552
00000000: 9814 6d3f dc2a 743f a895 6c3f 2aa2 653f
00000010: 5027 4f3f 270a 713f 42ab 8c3f 6804 833f
00000020: b1e5 3c3f 3c48 893f ba65 7a3f ab44 353f
00000030: 68c5 803f 77ce 8e3f a8cc 7f3f 41f2 593f
00000040: 9b3c 813f 1ef7 803f 950b 8d3f 5738 503f
00000050: 6778 5f3f 76eb 5b3f 4287 463f 15b2 873f
00000060: b65d 823f fba7 7c3f cb0e 8c3f a1f6 853f
00000070: 11ae 9b3f 3c0f a23f 3109 793f 1d3f 993f
00000080: 2f4c 703f 141f 843f e4f3 7a3f 77c5 903f
00000090: b8f3 803f b3c8 893f a384 563f 5a93 8a3f
000000a0: 9bd0 693f 7af7 803f 648f 573f 58a3 863f
000000b0: b946 853f 499a 883f bb0c 7a3f d271 343f
000000c0: 7b90 8e3f d940 913f 5840 7d3f 49b8 8e3f
000000d0: b21e 823f 94ac 4c3f 75da 793f 6b15 613f
000000e0: cd7a 8c3f 27e1 703f 6ce0 693f 67f3 4e3f
000000f0: 3fd3 683f a84e 693f 14af 653f 0fb0 7b3f

encoder.blocks.0.ln1.bias f4 [64]
-0.041497298 -0.042852934 0.086283535 -0.116546646 0.10570433 0.05673684 -0.01496094 0.0019321337
0.003717901 0.02902808 0.11846899 0.09135709 -0.0073471684 -0.00665689 -0.028027473 0.038895357
-0.100996695 0.022319911 0.04250359 0.090385206 -0.055465598 -0.021862892 0.08491125 -0.072178505
-0.07062356 -0.032155514 0.0056187133 0.1049186 -0.029767776 0.07668126 -0.12260265 -0.029317738
0.030937996 -0.014719454 -0.0046341363 0.054774217 0.07829697 -0.065054424 0.06382093 0.054971956
0.018938035 -0.07462781 -0.11414504 -0.004767175 -0.08746457 0.121362634 0.05578355 0.13333458
0.00033895913 -0.036287166 0.07578051 -0.044955175 0.015930992 0.08250802 0.17239545 -0.004492417
0.05889481 0.037270494 0.0023001817 0.012912125 0.0094441455 0.030828476 0.024699738 0.0002588867
00000000: 12f9 29bd 8f86 2fbd 6cb5 b03d 02b0 eebd
00000010: 837b d83d e464 683d bb1e 75bc a63f fd3a
00000020: 07a8 733b 4ccc ed3c df9f f23d 6d19 bb3d
00000030: 84c0 f0bb 0a22 dabb df99 e5bc bd50 1f3d
00000040: 5bd7 cebd 3fd8 b63c 3f18 2e3d e11b b93d
00000050: e52f 63bd cf19 b3bc f3e5 ad3d 53d2 93bd
00000060: 16a3 90bd 80b5 03bd 2f1d b83b 90df d63d
00000070: 8ddb f3bc 100b 9d3d 1917 fbbd c12b f0bc
00000080: ae71 fd3c dd29 71bc f4d9 97bb ee5a 603d
00000090: 295a a03d 413b 85bd 8cb4 823d 462a 613d
000000a0: f023 9b3c 77d6 98bd e0c4 e9bd f635 9cbb
000000b0: a020 b3bd f98c f83d 4b7d 643d dc88 083e
000000c0: 53b6 b139 daa1 14bd d032 9b3d eb22 38bd
000000d0: b681 823c f7f9 a83d 6f88 303e 2035 93bb
000000e0: af3b 713d f2a8 183d a5be 163b 618d 533c
000000f0: 9ebb 1a3c 008c fc3c 1b57 ca3c 2fbb 8739

encoder.blocks.0.ln2.weight f4 [64]
0.96843374 0.8850941 0.9215681 1.0338498 0.8989486 0.9930127 1.0449418 1.0068624
0.8776096 1.1474942 1.0092133 0.9170277 0.93996316 1.0172421 1.055383 0.8921438
0.9995591 1.0229763 1.0989404 0.79431504 0.9277262 0.91407764 0.9024365 1.0034931
1.0062882 0.9086822 1.0553962 0.8572873 1.1226025 1.05809 1.0346693 1.0433307
1.0332559 1.0556959 1.0595345 1.158746 1.0962647 1.0206395 0.85139066 1.1423651
1.0571864 1.18304 1.0627698 1.0282904 1.0655274 1.1445093 1.1057179 0.81455433
0.970113 1.1177081 1.0767151 1.271952 0.9202374 0.91402894 0.9049602 0.8521383
1.0107137 1.0964853 0.9491401 0.9458842 0.94877857 1.0666347 1.166788 1.0461773
00000000: 46eb 773f 8795 623f e3eb 6b3f 3155 843f
00000010: 7f21 663f 1536 7e3f a7c0 853f dee0 803f
00000020: 06ab 603f 17e1 923f e72d 813f 54c2 6a3f
00000030: 6da1 703f fd34 823f ca16 873f 8963 643f
00000040: 1be3 7f3f e3f0 823f 14aa 8c3f 3b58 4b3f
00000050: 777f 6d3f fe00 6a3f 1406 673f 7672 803f
00000060: 0dce 803f 669f 683f 3917 873f 2e77 5b3f
00000070: 70b1 8f3f 7e6f 873f 0b70 843f dc8b 853f
00000080: bb41 843f 0b21 873f d49e 873f ca51 943f
00000090: 6752 8c3f 51a4 823f bdf4 593f 0539 923f
000000a0: e251 873f db6d 973f d708 883f 059f 833f
000000b0: 3463 883f 487f 923f 2a88 8d3f a286 503f
000000c0: 5359 783f 0f11 8f3f cdd1 893f 53cf a23f
000000d0: ae94 6b3f cdfd 693f 79ab 673f bc25 5a3f
000000e0: 115f 813f a159 8c3f d8fa 723f 7825 723f
000000f0: 27e3 723f 7c87 883f 4f59 953f 23e9 853f

encoder.blocks.0.ln2.bias f4 [64]
-0.026380548 0.0067955446 0.04302495 -0.040045165 0.019710822 0.0527073 -0.06865491 0.002897174
-0.04164988 0.100228585 0.07566697 0.018903857 0.0078559425 0.0047634034 -0.025946513 0.019301672
-0.12408714 -0.006939708 0.011808542 -0.03122202 -0.082714625 0.016791077 -0.0068353484 -0.027918773
-0.03997551 -0.014503726 -0.0048060315 -0.066992365 0.025016723 0.057310987 0.013425825 0.0107660545
0.033361264 0.050372586 0.03963792 0.074237205 0.031304657 -0.042401444 0.0046831607 -0.013861876
0.062158518 -0.06827826 0.029930301 -0.014236769 -0.06506021 0.05324603 0.086204596 0.009895515
0.00466724 -0.022750217 0.006553797 -0.08347418 -0.0020630974 0.04581354 -0.0003329734 0.007237707
0.031135745 -0.048887182 0.009482299 0.059288528 0.039069798 0.0580186 -0.14192079 0.0027314122
00000000: 051c d8bc 29ad de3b ee3a 303d 6606 24bd
00000010: 9778 a13c 9ce3 573d f29a 8cbd 84de 3d3b
00000020: 1199 2abd a544 cd3d 49f7 9a3d 43dc 9a3c
00000030: 36b6 003c 5316 9c3b c88d d4bc 8a1e 9e3c
00000040: 6621 febd 7d66 e3bb 9d78 413c 52c5 ffbc
00000050: 4966 a9bd 718d 893c 0ffb dfbb e9b5 e4bc
00000060: 5cbd 23bd 09a1 6dbc ea7b 9dbb 4b33 89bd
00000070: dfef cc3c edbe 6a3d fef7 5b3c 1b64 303c
00000080: d2a5 083d 7c53 4e3d 5f5b 223d ad09 983d
00000090: 5039 003d 23ad 2dbd 3375 993b ec1c 63bc
000000a0: ee99 7e3d 79d5 8bbd 6430 f53c 5641 69bc
000000b0: 4a3e 85bd 8218 5a3d 098c b03d cc20 223c
000000c0: a6ef 983b aa5e babc 3cc1 d63b 83f4 aabd
000000d0: 0835 07bb fba6 3b3d ef92 aeb9 492a ed3b
000000e0: 6410 ff3c ed3d 48bd a55b 1b3c 87d8 723d
000000f0: a707 203d e9a4 6d3d af53 11be 7e01 333b

encoder.blocks.0.attn.mask f4 [1, 1, 12, 12]
1.0 0.0 0.0 0.0 0.0 0.0 0.0 0.0
0.0 0.0 0.0 0.0 1.0 1.0 0.0 0.0
0.0 0.0 0.0 0.0 0.0 0.0 0.0 0.0
1.0 1.0 1.0 0.0 0.0 0.0 0.0 0.0
0.0 0.0 0.0 0.0 1.0 1.0 1.0 1.0
0.0 0.0 0.0 0.0 0.0 0.0 0.0 0.0
1.0 1.0 1.0 1.0 1.0 0.0 0.0 0.0
0.0 0.0 0.0 0.0 1.0 1.0 1.0 1.0
1.0 1.0 0.0 0.0 0.0 0.0 0.0 0.0
1.0 1.0 1.0 1.0 1.0 1.0 1.0 0.0
0.0 0.0 0.0 0.0 1.0 1.0 1.0 1.0
1.0 1.0 1.0 1.0 0.0 0.0 0.0 0.0
1.0 1.0 1.0 1.0 1.0 1.0 1.0 1.0
1.0 0.0 0.0 0.0 1.0 1.0 1.0 1.0
1.0 1.0 1.0 1.0 1.0 1.0 0.0 0.0
1.0 1.0 1.0 1.0 1.0 1.0 1.0 1.0
1.0 1.0 1.0 0.0 1.0 1.0 1.0 1.0
1.0 1.0 1.0 1.0 1.0 1.0 1.0 1.0
00000000: 0000 803f 0000 0000 0000 0000 0000 0000
00000010: 0000 0000 0000 0000 0000 0000 0000 0000
00000020: 0000 0000 0000 0000 0000 0000 0000 0000
00000030: 0000 803f 0000 803f 0000 0000 0000 0000
00000040: 0000 0000 0000 0000 0000 0000 0000 0000
00000050: 0000 0000 0000 0000 0000 0000 0000 0000
00000060: 0000 803f 0000 803f 0000 803f 0000 0000
00000070: 0000 0000 0000 0000 0000 0000 0000 0000
00000080: 0000 0000 0000 0000 0000 0000 0000 0000
00000090: 0000 803f 0000 803f 0000 803f 0000 803f
000000a0: 0000 0000 0000 0000 0000 0000 0000 0000
000000b0: 0000 0000 0000 0000 0000 0000 0000 0000
000000c0: 0000 803f 0000 803f 0000 803f 0000 803f
000000d0: 0000 803f 0000 0000 0000 0000 0000 0000
000000e0: 0000 0000 0000 0000 0000 0000 0000 0000
000000f0: 0000 803f 0000 803f 0000 803f 0000 803f
00000100: 0000 803f 0000 803f 0000 0000 0000 0000
00000110: 0000 0000 0000 0000 0000 0000 0000 0000
00000120: 0000 803f 0000 803f 0000 803f 0000 803f
00000130: 0000 803f 0000 803f 0000 803f 0000 0000
00000140: 0000 0000 0000 0000 0000 0000 0000 0000
00000150: 0000 803f 0000 803f 0000 803f 0000 803f
00000160: 0000 803f 0000 803f 0000 803f 0000 803f
00000170: 0000 0000 0000 0000 0000 0000 0000 0000
00000180: 0000 803f 0000 803f 0000 803f 0000 803f
00000190: 0000 803f 0000 803f 0000 803f 0000 803f
000001a0: 0000 803f 0000 0000 0000 0000 0000 0000
000001b0: 0000 803f 0000 803f 0000 803f 0000 803f
000001c0: 0000 803f 0000 803f 0000 803f 0000 803f
000001d0: 0000 803f 0000 803f 0000 0000 0000 0000
000001e0: 0000 803f 0000 803f 0000 803f 0000 803f
000001f0: 0000 803f 0000 803f 0000 803f 0000 803f
00000200: 0000 803f 0000 803f 0000 803f 0000 0000
00000210: 0000 803f 0000 803f 0000 803f 0000 803f
00000220: 0000 803f 0000 803f 0000 803f 0000 803f
00000230: 0000 803f 0000 803f 0000 803f 0000 803f

encoder.blocks.0.attn.key.weight f4 [64, 64]
0.05394259 0.017722165 -0.048232015 0.037620954 0.07975104 0.08719375 0.089864865 -0.07385392
-0.20098227 -0.018500578 -0.058076423 0.034955084 0.014359891 0.014645203 -0.01052781 0.1342556
-0.16698065 0.037142254 0.048962932 -0.010376867 0.03478355 -0.17820342 0.05389426 -0.0013595374
0.055146664 0.034494843 0.07091979 -0.051079407 0.08088947 -0.10639089 0.049163308 -0.0399952
-0.050263647 -0.044215754 -0.0068117147 -0.019922601 -0.046919115 -0.031120874 -0.021249084 0.055134475
-0.06088504 0.06342448 -0.011270932 0.06254313 -0.07567873 -0.037401337 0.013220901 0.1476044
-0.063504264 -0.025040291 0.030519921 -0.29129335 0.09239373 -0.003179024 -0.054130297 -0.16293961
-0.02408173 0.032588065 0.04750108 0.014294311 0.1218294 -0.0045258515 -0.080954164 0.2503521
0.05960359 -0.017870924 0.13871697 -0.022577375 0.03591907 0.16675524 0.038467955 -0.10242958
0.13584307 -0.037540503 0.007604024 -0.102774896 0.0715304 0.06375691 0.046393704 0.13398458
0.36559016 -0.014759118 -0.019019967 0.04045473 -0.081630774 -0.038514987 -0.04203222 -0.12105772
-0.023232322 -0.13221318 0.17617847 0.056915868 -0.025034433 -0.029843394 0.11661459 0.07624594
-0.19561905 -0.009395567 -0.009801965 0.0805672 0.033406448 -0.03796972 -0.072655894 -0.12405834
0.18531568 -0.059758708 -0.010865328 0.15714425 0.1854576 -0.111695476 0.012353895 -0.08526262
-0.054795045 -0.016537748 -0.06308337 0.28050384 -0.08646343 0.03775815 -0.06247659 0.2109043
-0.10971618 -0.100437336 -0.14992173 -0.09768974 -0.10141683 -0.1307774 0.17937142 -0.13116056
-0.13182047 -0.10432253 -0.13107245 -0.02130519 -0.06972017 -0.13315894 -0.0987946 0.039110895
0.10466217 0.13802837 0.11398487 0.065469265 -0.03786958 -0.20419598 -0.12687191 -0.21629295
-0.22100988 0.09210972 0.019184807 -0.022778874 0.11100832 0.053170193 0.1151383 0.16243406
0.06919874 0.15420868 -0.20424373 -0.0060197534 -0.032984763 0.06198401 -0.1550695 -0.08423789
0.22747055 0.0527626 0.021181053 -0.06730498 -0.0038524717 -0.009664769 0.107772574 0.11465983
-0.13450512 0.08393383 0.03728214 -0.26342806 -0.22349703 0.17953192 -0.12629817 -0.076589026
0.11225098 -0.05174829 0.047579996 -0.101680115 0.052206453 -0.022945708 0.07720706 -0.1854884
0.11120949 0.13542451 0.21799482 -0.025764385 0.11467526 0.24181776 -0.11248945 0.0953181
0.08124929 -0.060975824 0.09770406 -0.10161129 -0.075937435 -0.015578537 0.032921728 0.037518352
0.07878312 0.033015262 0.010873998 -0.16357319 -0.030645568 0.15791832 0.031041099 -0.11111271
0.034332942 -0.10455352 -0.042991403 0.023637924 -0.07312333 -0.06563751 -0.0131213935 -0.03390009
0.14518957 -0.04534016 0.10472242 0.10560681 -0.17457555 0.07710671 0.0102032805 0.07710622
-0.08234165 -0.046789795 -0.07891821 0.0034798179 0.12866767 -0.16627869 -0.08909502 -0.03890192
0.10387119 0.013979625 0.030850958 0.036368188 -0.053546723 0.18361194 -0.09819711 -0.049064822
0.06734479 0.14243118 0.09543306 0.072309464 -0.098319605 0.01036727 0.03864077 0.045482468
0.03664345 -0.059066754 -0.17595147 -0.09059494 -0.018118484 0.016940553 0.1190851 -0.07489829
00000000: e8f2 5c3d 132e 913c ef8e 45bd 6e18 1a3d
00000010: 8354 a33d a392 b23d 120b b83d b940 97bd
00000020: 4cce 4dbe 868e 97bc 8be1 6dbd 102d 0f3d
00000030: c045 6b3c 6ff2 6f3c d67c 2cbc 4d7a 093e
00000040: fafc 2abe 7a22 183d 5b8d 483d bc03 2abc
00000050: 3279 0e3d f57a 36be 3ac0 5c3d 8132 b2ba
00000060: 78e1 613d 774a 0d3d 653e 913d a438 51bd
00000070: 61a9 a53d 78e3 d9bd 775f 493d 02d2 23bd
00000080: 41e1 4dbd 941b 35bd ce34 dfbb b934 a3bc
00000090: 422e 40bd 34f1 febc 8f12 aebc b0d4 613d
000000a0: 9762 79bd b2e4 813d b7a9 38bc 9d16 803d
000000b0: 73fd 9abd 2532 19bd 7a9c 583c 9c25 173e
000000c0: 860e 82bd 4c21 cdbc ea04 fa3c 6724 95be
000000d0: ed38 bd3d 2c57 50bb bbb7 5dbd a4d9 26be
000000e0: 0c47 c5bc 107b 053d 7e90 423d b032 6a3c
000000f0: b181 f93d 984d 94bb 4ccb a5bd 272e 803e
00000100: e522 743d 0b66 92bc d20b 0e3e 30f4 b8bc
00000110: e01f 133d e3c1 2a3e 9390 1d3d 9ac6 d1bd
00000120: 721a 0b3e 12c4 19bd 2d2b f93b a57b d2bd
00000130: 887e 923d fc92 823d 5307 3e3d 4133 093e
00000140: a22e bb3e 3ad0 71bc c3cf 9bbc dcb3 253d
00000150: 092e a7bd e4c1 1dbd fa29 2cbd 1ced f7bd
00000160: b651 bebc e462 07be 2168 343e 9d20 693d
00000170: 0315 cdbc 227a f4bc a1d3 ee3d d526 9c3d
00000180: 5c50 48be ddef 19bc 6c98 20bc 6b00 a53d
00000190: 33d5 083d 2386 1bbd 9dcc 94bd 4d12 febd
000001a0: 65c3 3d3e 8cc5 74bd 7d04 32bc 6cea 203e
000001b0: 99e8 3d3e 99c0 e4bd fe67 4a3c 2b9e aebd
000001c0: c570 60bd 2c7a 87bc db31 81bd 339e 8f3e
000001d0: bd13 b1bd 4aa8 1a3d 74e7 7fbd 4cf7 573e
000001e0: e0b2 e0bd 17b2 cdbd 1585 19be 8f11 c8bd
000001f0: a1b3 cfbd 83ea 05be 24ad 373e f44e 06be
00000200: f2fb 06be 0da7 d5bd db37 06be 3988 aebc
00000210: 73c9 8ebd d15a 08be d354 cabd bf32 203d
00000220: 1f59 d63d 4f57 0d3e e670 e93d c014 863d
00000230: 221d 1bbd c018 51be b6ea 01be e67b 5dbe
00000240: 6a50 62be 05a4 bc3d 7529 9d3c c39a babc
00000250: 5458 e33d fdc8 593d a1cd eb3d 1d55 263e
00000260: 12b8 8d3d e1e8 1d3e 4525 51be 5a41 c5bb
00000270: 081b 07bd f2e2 7d3d 8aca 1ebe ea84 acbd
00000280: 0aee 683e 991d 583d e383 ad3c 31d7 89bd
00000290: c079 7cbb fb58 1ebc deb7 dc3d c6d2 ea3d
000002a0: b6bb 09be 80e5 ab3d 28b5 183d 0be0 86be
000002b0: 68dc 64be 37d7 373e 4f54 01be b5da 9cbd
000002c0: d8e3 e53d 04f6 53bd 3ee3 423d aa3d d0bd
000002d0: 6fd6 553d a3f8 bbbc bc1e 9e3d acf0 3dbe
000002e0: cdc1 e33d b9ac 0a3e 093a 5f3e d50f d3bc
000002f0: ddda ea3d 139f 773e de60 e6bd 2336 c33d
00000300: 0766 a63d c9c1 79bd 1119 c83d 9419 d0bd
00000310: 1685 9bbd 1f3d 7fbc efd8 063d d8ac 193d
00000320: 0b59 a13d 033b 073d da28 323c bb7f 27be
00000330: 6a0c fbbc 57b5 213e e749 fe3c 0f8f e3bd
00000340: b3a0 0c3d 2820 d6bd c117 30bd 52a4 c13c
00000350: afc1 95bd f56c 86bd 1dfb 56bc d2da 0abd
00000360: 93ac 143e 9bb6 39bd b578 d63d 6248 d83d
00000370: efc3 32be 1fea 9d3d a92b 273c dee9 9d3d
00000380: bda2 a8bd a8a6 3fbd df9f a1bd a80d 643b
00000390: 75c1 033e f644 2abe 7377 b6bd 9f57 1fbd
000003a0: 6bba d43d cc0a 653c 26bb fc3c cff6 143d
000003b0: cf53 5bbd c504 3c3e 911b c9bd 32f8 48bd
000003c0: 11ec 893d 7bd9 113e 6872 c33d fc16 943d
000003d0: ca5b c9bd 7bdb 293c c945 1e3d d34b 3a3d
000003e0: 7117 163d fbef 71bd 9f2c 34be d789 b9bd
000003f0: 376d 94bc eac6 8a3c e4e2 f33d 4664 99bd

encoder.blocks.0.attn.key.bias f4 [64]
2.357729e-07 -3.57277e-08 1.1731498e-07 3.2395874e-08 2.9349627e-07 6.687463e-08 2.0249882e-08 -1.667377e-07
1.1297081e-07 -1.1810415e-07 2.0009246e-08 4.4360103e-08 -1.5370594e-07 1.2561664e-08 3.1968145e-08 3.8191697e-08
1.040509e-07 -9.19339e-10 -2.1880103e-07 -9.914141e-08 1.6867196e-07 5.512766e-08 4.1334378e-08 1.4928209e-07
2.5266464e-08 -7.8323566e-08 -3.387254e-08 2.5783079e-08 -4.4380087e-07 -5.5061115e-08 -3.3576714e-07 1.7857644e-07
-1.4861232e-08 -3.77661e-08 1.1882773e-07 2.8019004e-08 4.743763e-08 -3.0289737e-08 -1.4904015e-07 6.236669e-08
2.186744e-07 2.6316814e-08 -1.0146556e-07 -4.2808036e-08 1.3728278e-07 -1.8562183e-07 3.1183905e-08 -1.6569365e-08
2.3057528e-07 1.30839455e-08 1.5114807e-08 1.0111786e-07 -2.443307e-07 -3.1332704e-07 -2.5056917e-07 -8.82511e-08
-6.5286606e-08 5.999666e-08 9.541212e-09 1.158786e-07 -7.602712e-08 3.4085275e-08 5.998698e-08 -3.9212253e-08
00000000: c328 7d34 0673 19b3 98ee fb33 a423 0b33
00000010: d291 9d34 b79c 8f33 f6f1 ad32 8308 33b4
00000020: 5c9a f233 71a0 fdb3 cce0 ab32 7386 3e33
00000030: 5e0a 25b4 c8ce 5732 594d 0933 3708 2433
00000040: 9672 df33 bbb4 7cb0 92ef 6ab4 91e7 d4b3
00000050: 321c 3534 81c5 6c33 a187 3133 594a 2034
00000060: 8b09 d932 d632 a8b3 407b 11b3 9779 dd32
00000070: 8743 eeb4 567c 6cb3 7c43 b4b4 b8be 3f34
00000080: 6450 7fb2 4434 22b3 3c2e ff33 71ae f032
00000090: 3abe 4b33 eb17 02b3 d807 20b4 73ee 8533
000000a0: c3cc 6a34 490f e232 48e5 d9b3 efdb 37b3
000000b0: 0168 1334 574f 47b4 11ef 0533 6b54 8eb2
000000c0: 0d94 7734 cdc7 6032 d0d5 8132 2226 d933
000000d0: 8e2c 83b4 5737 a8b4 f785 86b4 8e84 bdb3
000000e0: b133 8cb3 83d7 8033 b2ea 2332 efd8 f833
000000f0: 5a44 a3b3 2865 1233 31d2 8033 546a 28b3
