trainer/results/football/11_vs_11_stochastic/mat/check/run1/models/transformer_200.pt (torch, 467816 bytes, 73 tensors)

encoder.state_encoder.0.weight f4 [37]
0	0x3f800000	1.0
1	0x3f800000	1.0
2	0x3f800000	1.0
3	0x3f800000	1.0
4	0x3f800000	1.0
5	0x3f800000	1.0
6	0x3f800000	1.0
7	0x3f800000	1.0
8	0x3f800000	1.0
9	0x3f800000	1.0
10	0x3f800000	1.0
11	0x3f800000	1.0
12	0x3f800000	1.0
13	0x3f800000	1.0
14	0x3f800000	1.0
15	0x3f800000	1.0
16	0x3f800000	1.0
17	0x3f800000	1.0
18	0x3f800000	1.0
19	0x3f800000	1.0
20	0x3f800000	1.0
21	0x3f800000	1.0
22	0x3f800000	1.0
23	0x3f800000	1.0
24	0x3f800000	1.0
25	0x3f800000	1.0
26	0x3f800000	1.0
27	0x3f800000	1.0
28	0x3f800000	1.0
29	0x3f800000	1.0
30	0x3f800000	1.0
31	0x3f800000	1.0
32	0x3f800000	1.0
33	0x3f800000	1.0
34	0x3f800000	1.0
35	0x3f800000	1.0
36	0x3f800000	1.0

encoder.state_encoder.0.bias f4 [37]
0	0x00000000	0.0
1	0x00000000	0.0
2	0x00000000	0.0
3	0x00000000	0.0
4	0x00000000	0.0
5	0x00000000	0.0
6	0x00000000	0.0
7	0x00000000	0.0
8	0x00000000	0.0
9	0x00000000	0.0
10	0x00000000	0.0
11	0x00000000	0.0
12	0x00000000	0.0
13	0x00000000	0.0
14	0x00000000	0.0
15	0x00000000	0.0
16	0x00000000	0.0
17	0x00000000	0.0
18	0x00000000	0.0
19	0x00000000	0.0
20	0x00000000	0.0
21	0x00000000	0.0
22	0x00000000	0.0
23	0x00000000	0.0
24	0x00000000	0.0
25	0x00000000	0.0
26	0x00000000	0.0
27	0x00000000	0.0
28	0x00000000	0.0
29	0x00000000	0.0
30	0x00000000	0.0
31	0x00000000	0.0
32	0x00000000	0.0
33	0x00000000	0.0
34	0x00000000	0.0
35	0x00000000	0.0
36	0x00000000	0.0

encoder.state_encoder.1.weight f4 [64, 37]
0	0x3eea3253	0.4574152
1	0x3e4463b7	0.19178663
2	0x3def88ec	0.11696038
3	0xbd0ebc43	-0.03484751
4	0xbcca7e92	-0.024718557
5	0x3db73b08	0.08946806
6	0x3c99b2b4	0.01876197
7	0x3dbed0be	0.09317158
8	0x3e86bd51	0.26316312
9	0xbd8f8500	-0.070077896
10	0x3ead2fff	0.3382568
11	0xbd729ceb	-0.05923168
12	0xbe0441cd	-0.12915726
13	0xbe7bd527	-0.2459303
14	0xbcc9bf5b	-0.024627378
15	0x3e0b0fd3	0.13580255
16	0xbe2304b4	-0.15919763
17	0xbe357f7e	-0.17724416
18	0x3d299f5f	0.041411754
19	0x3cb5043b	0.022096744
20	0x3e38d0d0	0.18048406
21	0x3dfc5c2e	0.123222694
22	0xbd9c76f4	-0.07639876
23	0xbebc8b5d	-0.36825076
24	0xbe97f665	-0.29680172
25	0xbd0c02ed	-0.034182478
26	0x3d67e7d0	0.056617558
27	0x3e4df335	0.20112307
28	0x3d515823	0.051109444
29	0x3e4db43b	0.20088284
30	0x3e3c91fa	0.1841506
31	0xbd9f6b63	-0.07784154
32	0x3cb65284	0.022256143
33	0xbb022509	-0.00198585
34	0x3c921899	0.017833995
35	0x3e2bf260	0.16791677
36	0x3e12448a	0.14283958
37	0x3e8112f6	0.2520978
38	0xbb2f9f0b	-0.0026797678
39	0x3d15bafa	0.036555268
40	0xbeaf82c5	-0.34279457
41	0x3e56b06a	0.20965734
42	0x3ddf92a0	0.109166384
43	0x3d740ad4	0.05958064
44	0x3e3ab8a6	0.182345
45	0x3e458170	0.19287658
46	0x3d61f7ed	0.05516808
47	0x3c860f25	0.016364643
48	0xbe00a492	-0.12562779
49	0x3e91d3ce	0.28481907
50	0x3cc84edc	0.024451666
51	0x3eb34295	0.35011736
52	0xbe2b87bf	-0.16751002
53	0xbe8c83a0	-0.27444172
54	0x3dbdefe7	0.09274273
55	0x3c1a6e0c	0.009425651
56	0xbe102763	-0.14077525
57	0xbe60e71c	-0.21963161
58	0x3e35d172	0.17755678
59	0xbcb97c32	-0.022642229
60	0x3caa1afc	0.02076482
61	0x3d31b044	0.04338099
62	0xbeb5f0be	-0.35535234
63	0xbe32c4b4	-0.17457849
64	0x3dcd8324	0.10034779
65	0xbd8dd220	-0.06924844
66	0xbd7cc212	-0.061708517
67	0xbda61a35	-0.08110467
68	0x3e950f4c	0.29113233
69	0x3d963cca	0.07335813
70	0xbe4c8050	-0.19970822
71	0xbd0f2270	-0.03494495
72	0xbd842e07	-0.064540915
73	0x3e9ff8cb	0.312445
74	0x3d7fb785	0.062430877
75	0xbe330d8e	-0.1748564
76	0x3e20c7ef	0.15701269
77	0x3da887f8	0.08229059
78	0xbdae9e1d	-0.085262515
79	0xbe2ae3e6	-0.16688499
80	0x3d3489ab	0.044076603
81	0xbe6f10fb	-0.23346321
82	0x3c6b4537	0.014359764
83	0xbd4d532e	-0.050128154
84	0xbe8d637b	-0.2761496
85	0xbdb88d8b	-0.09011372
86	0x3e48eaa9	0.19620766
87	0x3ead9efc	0.33910358
88	0x3db3567a	0.087567285
89	0x3e4f6a52	0.20255402
90	0x3ba6c18d	0.005088991
91	0x3df311d4	0.11868635
92	0x3d5a49ad	0.05329292
93	0x3e30a9cb	0.17252271
94	0x3e634c59	0.22197093
95	0x3d6cca01	0.057809833
96	0xbd06d0e9	-0.032914076
97	0xbe1f38cd	-0.15549012
98	0xbe8eb27a	-0.27870542
99	0x3e9798b1	0.29608682
100	0xbe394f45	-0.18096645
101	0xbd5f8528	-0.054570347
102	0xbe8b3af6	-0.2719342
103	0xbd68baea	-0.05681888
104	0xbdb0bb52	-0.086294785
105	0x3e83a199	0.25709227
106	0x3dcdc8be	0.10048054
107	0x39638498	0.00021697802
108	0x3c67a18f	0.01413764
109	0x3e536661	0.20644523
110	0xbe33cab8	-0.175578
111	0x3d87c614	0.06629577
112	0xbf0efc04	-0.55853295
113	0xbd63d6eb	-0.055624884
114	0xbe3cf2e4	-0.1845203
115	0x3e8827de	0.26592916
116	0xbdb4726a	-0.08810885
117	0xbced7021	-0.028984131
118	0xbe9b4287	-0.30324194
119	0xbd6598a6	-0.05605378
120	0x3e82781a	0.25482255
121	0xbdbbd8e9	-0.09172232
122	0xbd97390b	-0.07383927
123	0xbe8aae05	-0.2708589
124	0x3e4308f2	0.19046381
125	0x3c999c91	0.018751414
126	0xbbcb6f07	-0.006208304
127	0xbe08c491	-0.13356234
128	0xbdff9eda	-0.124814704
129	0xbdc79830	-0.09745824
130	0x3d6c4474	0.05768247
131	0x3e82af48	0.25524354
132	0x3e0f9575	0.14021857
133	0xbe160bb1	-0.14652897
134	0xbd99eec5	-0.07516245
135	0x3e2af624	0.16695458
136	0xbe832ef5	-0.25621763
137	0x3cb86dae	0.022513237
138	0xbe40b9fd	-0.18820949
139	0xbd5f68d1	-0.05454332
140	0xbd5e2382	-0.05423308
141	0xbe4415b1	-0.191489
142	0xbd851690	-0.06498444
143	0x3e15dcc5	0.14634998
144	0x3e7ea779	0.24868573
145	0x3e8dc537	0.27689525
146	0xbeb7a183	-0.3586541
147	0xbe46e3f2	-0.19422892
148	0x3e52549a	0.20540085
149	0xbe82942d	-0.25503674
150	0x3ebbd84b	0.36688456
151	0xbd624a2b	-0.055246513
152	0xbd41bb96	-0.047298037
153	0x3e05be5e	0.130609
154	0xbd33b050	-0.043869317
155	0x3db09d03	0.086236976
156	0xbda74684	-0.08167747
157	0x3db4ba06	0.08824544
158	0xbc641ade	-0.013922421
159	0xba659301	-0.0008757562
160	0xbe9476e4	-0.28996956
161	0xbe8920ef	-0.2678294
162	0xbdfe4b75	-0.12416736
163	0xbb828742	-0.003983409
164	0xbdabf78f	-0.083968274
165	0xbe3dabab	-0.18522517
166	0xbe160e1a	-0.14653817
167	0xbc0b06e8	-0.008485533
168	0x3e49de97	0.19713818
169	0x3cc25018	0.023719832
170	0x3d183f72	0.03716988
171	0xbe1821ba	-0.14856616
172	0xbdf8cec6	-0.12148814
173	0x3c54650c	0.012963545
174	0xbd957dfa	-0.07299419
175	0xbc402b2b	-0.011729042
176	0xbd30c3bb	-0.043155413
177	0xbdc5cb60	-0.09657931
178	0xbdb9b4d4	-0.09067693
179	0xbebb955a	-0.36637384
180	0xbe90af99	-0.2825897
181	0xbebf5ec5	-0.3737699
182	0xbd85c36e	-0.06531416
183	0x3db6111f	0.08889984
184	0xbe4b8a61	-0.19877006
185	0x3d7f3876	0.062309705
186	0x3e32060e	0.17385122
187	0xbc12d39c	-0.008961584
188	0x3dc54b30	0.096334815
189	0x3e5d243a	0.2159585
190	0xbdf591d9	-0.11990709
191	0x3d8361c5	0.064151324
192	0xbe2fc1ea	-0.17163816
193	0xbe905ac9	-0.28194264
194	0x3c55daa7	0.013052619
195	0x3e255fe8	0.16149867
196	0x3e17e363	0.14832835
197	0xbd5334bb	-0.05156396
198	0xbe03c192	-0.1286681
199	0xbed550dd	-0.41663256
200	0x3dc47234	0.09592095
201	0xbdeb773d	-0.11497352
202	0x3d5cc94e	0.053902917
203	0xbd863b8c	-0.065543264
204	0x3e8bc7dd	0.2730092
205	0xbddc2166	-0.10748558
206	0xbf232aec	-0.6373737
207	0xbe46e88c	-0.19424647
208	0xbd841a97	-0.06450384
209	0x3da7a11f	0.08185028
210	0xbdf38642	-0.11890842
211	0x3d41fdd1	0.0473612
212	0xbe0f72d2	-0.14008644
213	0xbd9d8c58	-0.07692784
214	0xbe1451df	-0.14484356
215	0xbe3e8ab2	-0.18607596
216	0x3d3217c1	0.043479685
217	0x3ba5b2ab	0.0050566993
218	0xbe189029	-0.14898743
219	0x3dcba996	0.09944455
220	0xbd368ee1	-0.044569854
221	0x3dd23ee8	0.10265905
222	0xbd1b2188	-0.037873775
223	0x3e906655	0.28203073
224	0x3d8cfe49	0.068844385
225	0xbd0f74c3	-0.035023462
226	0xbeb6443e	-0.3559894
227	0x3e821fba	0.2541483
228	0xbb414235	-0.0029488925
229	0x3d924b50	0.07143271
230	0x3e157232	0.14594343
231	0x3e60a655	0.2193845
232	0xbdf664da	-0.12030955
233	0xbd2d2c56	-0.04227861
234	0xbdacf864	-0.08445814
235	0xbe843386	-0.2582056
236	0xbeca4649	-0.39506748
237	0x3e41a98e	0.18912336
238	0xbe0f43bb	-0.13990681
239	0x3cb7594a	0.022381444
240	0xbcfff123	-0.031242913
241	0x3cb2397f	0.021755932
242	0xbc646169	-0.01393924
243	0x3dba662c	0.09101519
244	0x3e0c6c46	0.13713178
245	0x3e0396c8	0.12850487
246	0xbda0e9ce	-0.07857095
247	0xbe8099ec	-0.25117433
248	0xbe5992e3	-0.21247439
249	0x3d2f5ff6	0.042816125
250	0xbdcd1602	-0.10013963
251	0x3c009639	0.007848316
252	0xbf04d966	-0.51894224
253	0x3db27505	0.08713726
254	0xbe17e75b	-0.14834349
255	0x3e3dec3e	0.1854715

encoder.state_encoder.1.bias f4 [64]
0	0x00000000	0.0
1	0x00000000	0.0
2	0x00000000	0.0
3	0x00000000	0.0
4	0x00000000	0.0
5	0x00000000	0.0
6	0x00000000	0.0
7	0x00000000	0.0
8	0x00000000	0.0
9	0x00000000	0.0
10	0x00000000	0.0
11	0x00000000	0.0
12	0x00000000	0.0
13	0x00000000	0.0
14	0x00000000	0.0
15	0x00000000	0.0
16	0x00000000	0.0
17	0x00000000	0.0
18	0x00000000	0.0
19	0x00000000	0.0
20	0x00000000	0.0
21	0x00000000	0.0
22	0x00000000	0.0
23	0x00000000	0.0
24	0x00000000	0.0
25	0x00000000	0.0
26	0x00000000	0.0
27	0x00000000	0.0
28	0x00000000	0.0
29	0x00000000	0.0
30	0x00000000	0.0
31	0x00000000	0.0
32	0x00000000	0.0
33	0x00000000	0.0
34	0x00000000	0.0
35	0x00000000	0.0
36	0x00000000	0.0
37	0x00000000	0.0
38	0x00000000	0.0
39	0x00000000	0.0
40	0x00000000	0.0
41	0x00000000	0.0
42	0x00000000	0.0
43	0x00000000	0.0
44	0x00000000	0.0
45	0x00000000	0.0
46	0x00000000	0.0
47	0x00000000	0.0
48	0x00000000	0.0
49	0x00000000	0.0
50	0x00000000	0.0
51	0x00000000	0.0
52	0x00000000	0.0
53	0x00000000	0.0
54	0x00000000	0.0
55	0x00000000	0.0
56	0x00000000	0.0
57	0x00000000	0.0
58	0x00000000	0.0
59	0x00000000	0.0
60	0x00000000	0.0
61	0x00000000	0.0
62	0x00000000	0.0
63	0x00000000	0.0

encoder.obs_encoder.0.weight f4 [217]
0	0x3f71b26a	0.94412863
1	0x3f813dec	1.0097022
2	0x3f803c21	1.001835
3	0x3f7e5385	0.9934619
4	0x3f7bb8d9	0.9832893
5	0x3f79a742	0.9752084
6	0x3f7b9f61	0.9829007
7	0x3f780433	0.9688141
8	0x3f7a0aa8	0.9767251
9	0x3f82f3b8	1.0230627
10	0x3f7a3d71	0.9775
11	0x3f83d02c	1.0297904
12	0x3f84f6f1	1.038786
13	0x3f7a9baa	0.97893775
14	0x3f6d700f	0.9274911
15	0x3f736ccf	0.95087904
16	0x3f7f3f95	0.99706393
17	0x3f7cb59b	0.9871461
18	0x3f809c2c	1.004766
19	0x3f84d60e	1.0377824
20	0x3f8563c4	1.0421071
21	0x3f92742d	1.1441704
22	0x3f8b06a6	1.0861404
23	0x3f86011c	1.0469089
24	0x3f908f51	1.1293737
25	0x3f863fcb	1.0488218
26	0x3f81bd36	1.0135868
27	0x3f8574eb	1.0426306
28	0x3f887b00	1.0662537
29	0x3f783083	0.96949023
30	0x3f980f8c	1.1879745
31	0x3f84b58a	1.0367901
32	0x3f51b537	0.81917137
33	0x3f8c9a91	1.098467
34	0x3f86dfd4	1.0537057
35	0x3f8fd23a	1.1236031
36	0x3fa451ad	1.2837425
37	0x3f7dbca4	0.9911597
38	0x3f7110e6	0.9416641
39	0x3f5eeecd	0.8708313
40	0x3f6e8c32	0.9318267
41	0x3f736e6f	0.95090383
42	0x3f77326c	0.9656131
43	0x3f82ee89	1.0229045
44	0x3f8707e8	1.0549288
45	0x3fa2a719	1.2707244
46	0x3f6bd498	0.9212127
47	0x3f7466ed	0.9546955
48	0x3f756dd8	0.95870733
49	0x3f81dd12	1.014559
50	0x3f72e47d	0.94879895
51	0x3f785d74	0.970176
52	0x3f76e161	0.9643765
53	0x3f4b2733	0.7935669
54	0x3f6c812c	0.923846
55	0x3f67ddd7	0.90572876
56	0x3f710a55	0.9415639
57	0x3f826f17	1.0190152
58	0x3f81f8df	1.0154074
59	0x3f761a0f	0.9613351
60	0x3f607c13	0.8768932
61	0x3f625ec9	0.8842588
62	0x3f5b4ca5	0.85663825
63	0x3f7d1f08	0.98875475
64	0x3f7fb46d	0.9988468
65	0x3f7f0048	0.99609804
66	0x3f6f6643	0.93515414
67	0x3f5876b8	0.8455615
68	0x3f6e9a03	0.93203753
69	0x3f6259b0	0.884181
70	0x3f6e5591	0.93099314
71	0x3f7d666e	0.9898442
72	0x3f82b96d	1.0212837
73	0x3f7e819e	0.9941653
74	0x3f50f078	0.81616926
75	0x3f65ec1e	0.8981341
76	0x3f5a15aa	0.85189307
77	0x3f71cb83	0.9445116
78	0x3f82290a	1.0168774
79	0x3f765c92	0.96235
80	0x3f747163	0.95485514
81	0x3f5ef8e1	0.8709851
82	0x3f5f881d	0.8731707
83	0x3f67e1d6	0.90578973
84	0x3f828553	1.0196937
85	0x3f808c82	1.004288
86	0x3f808a66	1.0042236
87	0x3f812799	1.0090209
88	0x3f5bd1df	0.8586711
89	0x3f5b135b	0.8557641
90	0x3f698f3e	0.91234195
91	0x3f7e28de	0.9928111
92	0x3f816ae9	1.0110751
93	0x3f7053d5	0.9387792
94	0x3f7f57ff	0.99743646
95	0x3f5ab1e9	0.8542772
96	0x3f606c2b	0.8766505
97	0x3f624203	0.88381976
98	0x3f7efeab	0.9960734
99	0x3f6fb45e	0.93634593
100	0x3f73bf12	0.95213425
101	0x3f79751c	0.9744432
102	0x3f48ea7d	0.784828
103	0x3f612c5a	0.879583
104	0x3f6b74bc	0.91975
105	0x3f733eaf	0.9501752
106	0x3f79f1a9	0.9763437
107	0x3f64ecba	0.89423716
108	0x3f54153d	0.8284491
109	0x3f48aeba	0.7839161
110	0x3f5b925e	0.85770214
111	0x3f648868	0.8927064
112	0x3f782759	0.9693504
113	0x3f84dc3c	1.037971
114	0x3f7d9ac4	0.9906428
115	0x3f87fa94	1.0623345
116	0x3f4c6716	0.79844797
117	0x3f67b196	0.9050535
118	0x3f5fb32e	0.8738278
119	0x3f8b913b	1.0903696
120	0x3f8261a7	1.0186051
121	0x3f877543	1.058266
122	0x3f86f586	1.0543678
123	0x3f81b5d2	1.0133612
124	0x3f80c1f2	1.0059187
125	0x3f7cb966	0.98720396
126	0x3f81a094	1.012713
127	0x3f86b67b	1.0524439
128	0x3f80ab4c	1.0052276
129	0x3f840ac0	1.0315781
130	0x3f7f6654	0.99765515
131	0x3f83dea8	1.0302324
132	0x3f60bf51	0.87791926
133	0x3f7d24d4	0.9888432
134	0x3f723744	0.9461558
135	0x3f70ce57	0.9406485
136	0x3f639288	0.88895464
137	0x3f6dbc9a	0.9286591
138	0x3f893200	1.0718384
139	0x3f831cba	1.0243142
140	0x3f817a21	1.0115396
141	0x3f88855c	1.0665698
142	0x3f857375	1.042586
143	0x3f77ca6e	0.9679326
144	0x3f7eebad	0.9957836
145	0x3f7ce771	0.9879065
146	0x3f86605b	1.0498155
147	0x3f7b6e74	0.98215413
148	0x3f849f9c	1.0361209
149	0x3f7b3d4d	0.9814041
150	0x3f74facf	0.95695204
151	0x3f6c9cc6	0.9242672
152	0x3f79f091	0.976327
153	0x3f82a685	1.0207068
154	0x3f870f3e	1.0551527
155	0x3f92faa9	1.1482745
156	0x3f7ce275	0.98783046
157	0x3f43bc0c	0.7645881
158	0x3f768ae9	0.9630571
159	0x3f7e5670	0.99350643
160	0x3f80da1a	1.0066559
161	0x3f870d7e	1.0550992
162	0x3f7f3b8b	0.9970023
163	0x3f6a9151	0.91627985
164	0x3f5b2a25	0.8561118
165	0x3f6d3c98	0.92670584
166	0x3f75b864	0.9598448
167	0x3f7d643d	0.98981076
168	0x3f820146	1.0156639
169	0x3f80a9bd	1.00518
170	0x3f6b7019	0.9196792
171	0x3f6e321d	0.93045217
172	0x3f78bbf4	0.97161794
173	0x3f77084d	0.9649704
174	0x3f8089b0	1.0042019
175	0x3f7ea541	0.9947091
176	0x3f9056f0	1.1276531
177	0x3f6b0d03	0.9181673
178	0x3f870329	1.0547839
179	0x3f5dd817	0.8665785
180	0x3f74b61d	0.9559038
181	0x3f837994	1.0271478
182	0x3f7cfb30	0.9882078
183	0x3f7bc071	0.9834052
184	0x3f680fbf	0.90649027
185	0x3f773ea1	0.9657994
186	0x3f6e30e7	0.9304337
187	0x3f7a6436	0.9780916
188	0x3f83fb1c	1.0311007
189	0x3f8219dd	1.0164143
190	0x3f86017b	1.0469202
191	0x3f8323c9	1.0245296
192	0x3f831e89	1.0243694
193	0x3f73b0c2	0.95191586
194	0x3f7279d3	0.9471714
195	0x3f7aa4d5	0.97907764
196	0x3f816a84	1.0110631
197	0x3f882fd0	1.0639591
198	0x3f76e4c5	0.96442825
199	0x3f8274bb	1.0191873
200	0x3f78389d	0.96961385
201	0x3f766ebd	0.96262723
202	0x3f81ab2e	1.0130365
203	0x3f83b613	1.028994
204	0x3f87407c	1.0566554
205	0x3f7b07b8	0.9805865
206	0x3f5c5dc9	0.86080605
207	0x3f817497	1.0113705
208	0x3f70745d	0.93927556
209	0x3f83311d	1.0249363
210	0x3f80b415	1.0054957
211	0x3f774fdc	0.9660623
212	0x3f77ebe0	0.9684429
213	0x3f82bb7d	1.0213467
214	0x3f7636f7	0.9617762
215	0x3f755995	0.95839816
216	0x3f848a2e	1.0354669

encoder.obs_encoder.0.bias f4 [217]
0	0xbd7d1dd5	-0.06179603
1	0xbc56f31b	-0.013119484
2	0x3b0a7c76	0.0021131313
3	0xba87cd08	-0.0010360787
4	0xbc5ddc94	-0.013541359
5	0xbcc41a9f	-0.023938475
6	0xbc8d7277	-0.017266495
7	0xbcdcabd9	-0.026937412
8	0xbd2bf77e	-0.041984074
9	0x3cded908	0.027203098
10	0xbb8cdef4	-0.004299039
11	0x3c887063	0.016655153
12	0x3c1517ac	0.009099882
13	0xbc70f6f8	-0.014707319
14	0xbc93989b	-0.018017104
15	0xbca44b56	-0.020055454
16	0x3cb3f233	0.021966076
17	0x3b19bc0a	0.0023458027
18	0x3cab0da4	0.020880528
19	0x3c7fc222	0.01561025
20	0x3b4096ab	0.002938668
21	0x3cc7d988	0.02439572
22	0xbc8a07b7	-0.016849382
23	0x3a8169c9	0.0009873445
24	0x3cc38d82	0.023871187
25	0xbc1c7448	-0.009549208
26	0x3cb3b5b8	0.021937236
27	0xbc444f29	-0.011981764
28	0x3bf5a3eb	0.007496347
29	0x3d1f169a	0.038839914
30	0x3c6673c2	0.014065685
31	0x3bbd12fe	0.0057700863
32	0x3caaa9ad	0.02083286
33	0xbcac37d8	-0.021022722
34	0xbad5eade	-0.0016320606
35	0xbbf7bc4d	-0.007560289
36	0x3c89089a	0.016727734
37	0x3b6a0c84	0.0035713026
38	0xbbf3e18f	-0.00744266
39	0x3ccc28b1	0.024921747
40	0xbb7e13a2	-0.0038769026
41	0xbc88c5bf	-0.016695855
42	0xbcccce85	-0.02500082
43	0x3ccfc327	0.02536161
44	0xbc0f4d75	-0.008746495
45	0x3b49d33a	0.0030796067
46	0x3cbfb8c2	0.02340353
47	0x3c540cb4	0.012942482
48	0xbc816314	-0.015794314
49	0xbab6c9d5	-0.0013945649
50	0xbcbe4c20	-0.023229659
51	0x3beb46b4	0.0071800593
52	0xbb6e244a	-0.0036337548
53	0x3cbf9152	0.023384724
54	0x3cbd2acf	0.023091702
55	0xbc95cf3d	-0.018287295
56	0xbc69728d	-0.014248502
57	0xbb21e31f	-0.0024702025
58	0xb9beaa68	-0.00036366587
59	0x3b8cf330	0.004301451
60	0xbc32d1cb	-0.010914276
61	0x3cb0bc93	0.021574294
62	0xbbcf112a	-0.006319185
63	0xbcdc28ff	-0.026875017
64	0xbcb66f24	-0.022269793
65	0x3c545817	0.012960455
66	0x3c80f434	0.015741445
67	0xbb50a577	-0.0031836906
68	0x3bc82a8e	0.0061085885
69	0x3b28325c	0.0025664782
70	0xbd4586f1	-0.048224393
71	0xbc02bf85	-0.007980232
72	0xbc082ab0	-0.008310959
73	0xbbc7c5ff	-0.006096601
74	0xbd2538e9	-0.040337477
75	0x3c2fc205	0.01072741
76	0xbcc8c922	-0.02450997
77	0xbd0c10dd	-0.03419577
78	0xbb249945	-0.002511577
79	0x3cf0b44b	0.029382845
80	0xbb52de4f	-0.0032175963
81	0x3c3a36c0	0.0113655925
82	0xbb28149a	-0.0025647045
83	0xbcc450a7	-0.02396424
84	0xbca9444d	-0.020662451
85	0xbce84a31	-0.02835569
86	0xbbe56a5b	-0.007001204
87	0x3c9810ce	0.0185627
88	0x3c13cea8	0.009021439
89	0x3cade8c7	0.021229161
90	0xbca939e0	-0.02065748
91	0xbcb28d13	-0.021795785
92	0xbccba1b3	-0.024857378
93	0x3d43937c	0.047748074
94	0x3c5de418	0.013543151
95	0x3c8136eb	0.015773257
96	0x3c146a5c	0.009058561
97	0x3c888759	0.016666101
98	0xbd1c3f17	-0.038146105
99	0xbc6a2b97	-0.014292619
100	0x3c8b3a2b	0.01699551
101	0x3c75be33	0.01499896
102	0x3c7f37c1	0.015577258
103	0x3d066df9	0.03281972
104	0xbccc1ae6	-0.02491517
105	0xbc0bd93c	-0.008535679
106	0xbc3fcdf2	-0.011706816
107	0x3c9334d7	0.017969532
108	0x3c4952be	0.012287794
109	0x3c8d339c	0.017236523
110	0x3d12ceb8	0.035841674
111	0xbb39dd3a	-0.002836062
112	0xbcb8f36c	-0.02257701
113	0x3bd1da8e	0.0064042276
114	0xbbb5f59f	-0.005552962
115	0xbbdf6823	-0.006817834
116	0x3c511a99	0.012762689
117	0x3ca5e0e6	0.020248841
118	0xbcce54ab	-0.025186857
119	0xbc694ff3	-0.014240253
120	0xbb5df173	-0.0033865839
121	0xbc2ca74b	-0.010537933
122	0xbc20d54b	-0.009816478
123	0x3d017f1e	0.03161537
124	0xbc6adca1	-0.014334829
125	0x3c93c78c	0.018039487
126	0xbb118adb	-0.0022208008
127	0xbc446011	-0.011985795
128	0x3c4a4fe9	0.012348154
129	0xbc9a0ddc	-0.018805437
130	0xbcb20683	-0.02173162
131	0xbcdcf24b	-0.026971003
132	0xbce230d3	-0.027611172
133	0x3c6e23a9	0.014534869
134	0x3cc200fd	0.023682112
135	0x3c6145ec	0.013749581
136	0x3d1ee2f8	0.038790673
137	0xbd0037d1	-0.03130323
138	0xbcf17e6f	-0.029479234
139	0xbc3a7e35	-0.011382629
140	0xb91971a8	-0.00014633557
141	0xbcd2e544	-0.025744088
142	0xbc872771	-0.0164983
143	0x3c978734	0.018497087
144	0x3c19a5e0	0.009377927
145	0xbbbdd897	-0.005793642
146	0xb9910edf	-0.00027667635
147	0x3cd43954	0.025906242
148	0xbcae9193	-0.02130965
149	0x3ca3b017	0.019981427
150	0xb8e1a00a	-0.00010758646
151	0xbbd7de15	-0.0065877535
152	0xbc8f3b6b	-0.017484387
153	0x3af403bf	0.0018616839
154	0x3c01447f	0.007889866
155	0xbc2007b8	-0.009767465
156	0x3c1adc24	0.0094519
157	0x3cea7a83	0.028622871
158	0xbd5aa182	-0.053376682
159	0xbc6a18f5	-0.014288177
160	0xbc14b8ed	-0.009077293
161	0x3cd97513	0.026545083
162	0x3c14f677	0.009091965
163	0x3d125554	0.035725906
164	0x3c4d0173	0.012512553
165	0xbd03d065	-0.032181162
166	0xbccad085	-0.024757633
167	0xbbb06eef	-0.005384318
168	0x3cb75f02	0.02238417
169	0x3d3c715c	0.046006545
170	0x3ad5d5f8	0.0016314378
171	0x3bdd94eb	0.006762137
172	0xbbed65ce	-0.007244802
173	0xbd00c74c	-0.031440064
174	0xbd2b1c7b	-0.041775208
175	0x3cb539b7	0.022122247
176	0x3ca656d2	0.020305071
177	0x3d2852c4	0.041094556
178	0x3b9920c8	0.0046730973
179	0xbd85f3ee	-0.065406665
180	0xbc8d7716	-0.017268699
181	0xbbe7dc32	-0.00707581
182	0x3cdc62f4	0.026902653
183	0xbb9c7e5d	-0.004775806
184	0xbaa2ee42	-0.0012430626
185	0x3d0de14d	0.03463869
186	0xbb9cd4ce	-0.0047861105
187	0x388db989	6.7579625e-05
188	0x3c666757	0.014062724
189	0x3c643998	0.013929747
190	0xbaa04ea7	-0.0012230471
191	0x3c3f71d3	0.011684853
192	0xbbd5dbc3	-0.006526442
193	0xbd1a95c1	-0.037740473
194	0xbc5bded2	-0.013419824
195	0xbbac1d94	-0.0052525494
196	0x3cb8915b	0.022530248
197	0x3ba2b6e2	0.004965649
198	0x3d0389d8	0.03211388
199	0x3c649506	0.013951546
200	0xbcecbcfc	-0.028898709
201	0xbd49b101	-0.04924107
202	0xbc5be566	-0.013421392
203	0x3ca7d0d2	0.020485315
204	0x3b77def4	0.00378221
205	0x3ce805eb	0.028323134
206	0x3b095189	0.002095314
207	0x39e80e32	0.00044261065
208	0xbcba8406	-0.022768032
209	0x3a5a0c47	0.00083178695
210	0x3c99843b	0.01873981
211	0x3c1c6147	0.009544677
212	0x3c5ed4d6	0.013600549
213	0xbc4d9959	-0.012548768
214	0xbcc423d8	-0.023942873
215	0xbcac4b7a	-0.021032084
216	0xbca40208	-0.0200205

encoder.obs_encoder.1.weight f4 [64, 217]
0	0x3dd48fe6	0.10379009
1	0x3d928737	0.071546964
2	0xbd05dcf9	-0.03268144
3	0x3d8fc94d	0.07020817
4	0x3d3167e8	0.043311983
5	0x3d608a29	0.05481926
6	0x3e5fddfe	0.21862027
7	0x3d751d80	0.059842587
8	0x3b32c62d	0.0027278767
9	0x3debf9ed	0.11522279
10	0x3c84a013	0.01618961
11	0xbd35fe68	-0.044432074
12	0xbd874ae8	-0.06606084
13	0x3dad1c36	0.084526464
14	0xbd99391a	-0.074815944
15	0x3cc82098	0.024429604
16	0x3dce621d	0.100773074
17	0xbda2c50b	-0.07947739
18	0x3c1a5665	0.009420012
19	0xbdef08bf	-0.1167159
20	0x3d10cea6	0.035353325
21	0x3dc60afd	0.096700646
22	0x3dccc301	0.099981315
23	0x3d4888fd	0.048958767
24	0xbdc7d891	-0.09758104
25	0xbc4ccb26	-0.012499606
26	0xbc8fabc8	-0.017537966
27	0x3e194332	0.14967039
28	0x3cfd1ede	0.030898508
29	0x3d996387	0.074896865
30	0xbe299035	-0.16558917
31	0x3e000e41	0.12505437
32	0x3dcb260c	0.09919366
33	0x3d91abbe	0.07112835
34	0xbdc7dbcb	-0.09758719
35	0x3bb5dcc7	0.0055500004
36	0xbe738ecd	-0.23784943
37	0xbcd28fc7	-0.025703324
38	0xbd4fec26	-0.050762318
39	0xbc121004	-0.008914951
40	0xbb8ac1d0	-0.00423453
41	0x3dd0f52a	0.10203011
42	0x3de2e9a8	0.11079723
43	0xbddeb3bd	-0.10874126
44	0xbd833067	-0.064057164
45	0x3a26c237	0.0006361338
46	0x3d970e93	0.07375827
47	0x3d8c6e7b	0.0685701
48	0x3db71b33	0.08940735
49	0x3d26e1fa	0.04074285
50	0x3e03d82a	0.12875429
51	0xbd99a92d	-0.07502971
52	0xbc30fcff	-0.0108025065
53	0xbd2c1e28	-0.042020947
54	0x3c10d942	0.008840861
55	0x3cfc4821	0.030796112
56	0xbc9c1d3b	-0.019056907
57	0xbddb4e3b	-0.10708281
58	0xbe1f1906	-0.1553689
59	0x3e4f3c8a	0.20237938
60	0xbd84d7a4	-0.06486443
61	0xbda2a844	-0.0794225
62	0x3de7c330	0.11316526
63	0x3df01913	0.117235325
64	0x3c026389	0.007958301
65	0xbd55597b	-0.05208729
66	0xbc29ffca	-0.010375926
67	0x3d72f004	0.059310928
68	0x3e8106fc	0.2520064
69	0x3cf016dd	0.029307777
70	0xbdb07339	-0.08615727
71	0xbe1fb1db	-0.1559519
72	0xbe0e0fc0	-0.13873196
73	0x3d69df52	0.05709774
74	0x3dcf86ec	0.10133156
75	0x3c511029	0.012760201
76	0x3d4d0093	0.050049376
77	0xbd96b05f	-0.07357859
78	0xbe634d6c	-0.22197503
79	0x3db1bdb6	0.086787626
80	0x3e1af97b	0.15134232
81	0xbd28edbb	-0.041242342
82	0x3cb54c05	0.022130975
83	0x3d51b45a	0.051197387
84	0x3df273df	0.11838507
85	0xbe1543c6	-0.14576635
86	0x3dc1cfb9	0.09463448
87	0x3e3958c2	0.18100265
88	0x3e4ac510	0.19801736
89	0x3bedda74	0.0072587077
90	0x3d8e65b5	0.06952993
91	0x3d4f0d5b	0.050549846
92	0xbe03bde1	-0.12865402
93	0x3d7f401d	0.062317003
94	0x3d11384b	0.035454076
95	0xbcf5dedd	-0.030013496
96	0xbdfabb2d	-0.12242732
97	0x3ccbfb72	0.024900172
98	0x3df21aaa	0.11821492
99	0x3d1ee50e	0.038792662
100	0xbe24d3ab	-0.1609637
101	0xbc5c647b	-0.013451691
102	0xbdd27dda	-0.102779105
103	0xbd371754	-0.04469998
104	0x3d23a323	0.0399505
105	0xbe45c6a7	-0.19314061
106	0xbde1a6ab	-0.110181175
107	0x3e1df521	0.1542554
108	0xbd045b32	-0.032313533
109	0x3b3979c4	0.0028301338
110	0xbb6614e2	-0.0035107662
111	0x3bf35b59	0.007426661
112	0x3d054248	0.032533914
113	0xbde4e362	-0.11176182
114	0x3c6854df	0.014180391
115	0xbe0fd0df	-0.14044522
116	0xbc80ba02	-0.015713695
117	0x3b8c76e8	0.0042866357
118	0x3d025a38	0.03182432
119	0x3dcf8773	0.10133257
120	0x3e0087b1	0.12551762
121	0x3db5bdea	0.08874114
122	0x3d7ed797	0.06221732
123	0x3eb1897e	0.3467521
124	0x3e17520f	0.14777397
125	0x3e0cf451	0.13765074
126	0x3ea1c130	0.31592703
127	0x3c95ee9d	0.018302256
128	0x3d124313	0.0357085
129	0x3eb0e97f	0.34553143
130	0xbd5138e5	-0.05107965
131	0x3c574d2b	0.013140957
132	0x3e0d13d5	0.13777097
133	0xbd3b5088	-0.045731097
134	0x3d7394ab	0.059467953
135	0xbc6e03b2	-0.014527248
136	0xbd0cf245	-0.034410734
137	0xbd5e0dab	-0.054212254
138	0x3d719633	0.05898113
139	0x3b9f9b20	0.0048707873
140	0x3e0e9b90	0.1392653
141	0x3dad7af8	0.0847072
142	0x3de8c60c	0.113658994
143	0xbcf39c17	-0.029737515
144	0xbe087a8e	-0.13328001
145	0x3dcde9cd	0.100543596
146	0x3de165fc	0.1100578
147	0xbdb62c7d	-0.08895204
148	0x3cb9a5b0	0.022662014
149	0xbd7de0bd	-0.061981905
150	0xbd9f1e5d	-0.07769463
151	0x3a527402	0.0008028151
152	0x3d73a56f	0.05948394
153	0xbddab9cf	-0.106799714
154	0xbe31cf75	-0.17364295
155	0xbe2a2e5c	-0.16619247
156	0xbdb3f533	-0.087870024
157	0x3d32f25d	0.043688167
158	0xbda5a010	-0.0808717
159	0x3dc36f23	0.09542682
160	0x3d56009e	0.052246682
161	0xbe180ce2	-0.14848664
162	0xbc489bff	-0.012244224
163	0xbdda0f04	-0.10647395
164	0xbc0404da	-0.008057797
165	0x3d3e9247	0.04652622
166	0xbdabc95b	-0.08388015
167	0xbdc01ed4	-0.0938088
168	0x3e2cbbce	0.16868517
169	0xbcf775c2	-0.030207518
170	0x3dd2866d	0.10279546
171	0x3d25b97a	0.040460087
172	0xbd93d124	-0.07217625
173	0x3e08cb6a	0.13358846
174	0x3bbf5ba2	0.005839781
175	0xbe329aa2	-0.174418
176	0xbc8c4325	-0.01712186
177	0xbdac627d	-0.08417223
178	0xbd765361	-0.06013811
179	0xbe02998e	-0.12753889
180	0x3ca14a39	0.019688712
181	0x3d20a9e0	0.039224505
182	0x3d59b7ef	0.05315393
183	0xbcc155cd	-0.023600483
184	0x3db076bc	0.08616397
185	0xbddd2ce5	-0.107995786
186	0x3de9e4ec	0.114206165
187	0x3d9b29ed	0.07576356
188	0x3dabc7d3	0.08387723
189	0x3e0ae595	0.13564141
190	0x3e0ddd25	0.13853891
191	0xbbb8b7eb	-0.005637159
192	0x3e08a5f9	0.13344564
193	0xbc9df664	-0.019282527
194	0xbdbf9695	-0.09354893
195	0xbe159aa4	-0.14609772
196	0xbd9c7e84	-0.076413184
197	0xbdae4cee	-0.08510767
198	0x3df5d518	0.12003535
199	0xbe2d3da4	-0.16918045
200	0x3d7f0c62	0.06226767
201	0xbc40902a	-0.011753121
202	0x3cb91a2b	0.022595486
203	0xbd5d6b07	-0.054057147
204	0x3d229dd2	0.03970129
205	0x3e3a6d3f	0.18205737
206	0xbd9fbbb2	-0.07799472
207	0x3ca687ff	0.02032852
208	0x3c4221b6	0.011848858
209	0xbdba6163	-0.09100606
210	0xbd0fca7f	-0.035105225
211	0xbcd2a3e0	-0.025712907
212	0xbe20e05f	-0.15710591
213	0xbcfee98e	-0.031117227
214	0xbe78949a	-0.24275437
215	0xbd002a1e	-0.031290166
216	0xbe30519d	-0.17218633
217	0xbc958863	-0.01825351
218	0xbd2c4b32	-0.0420639
219	0xbdab3bf4	-0.083610445
220	0x3d8dedb1	0.06930102
221	0xbdf8fd9c	-0.12157747
222	0x3dd13256	0.10214679
223	0x3c5171ac	0.012783449
224	0xbc4656bc	-0.01210564
225	0xbe1314d6	-0.14363417
226	0xbdcb69a0	-0.09932256
227	0xbddb6c99	-0.10714073
228	0x3e0cdc49	0.13755907
229	0x3dc5675d	0.096388556
230	0xbe383b53	-0.1799138
231	0xbbcfe533	-0.0063444613
232	0xbe09048d	-0.13380642
233	0xbe9351bd	-0.287733
234	0x3c4c7617	0.012479327
235	0x3e091b78	0.13389385
236	0xbcb658c9	-0.022259133
237	0xbd7f1696	-0.0622774
238	0xbe641832	-0.22274855
239	0x3e15ff0f	0.14648078
240	0xbc9527fb	-0.01820754
241	0xbcecd02b	-0.028907856
242	0x3d156c32	0.036480136
243	0x3c989ecc	0.018630408
244	0xbdeea5f2	-0.11652745
245	0xbdc09e47	-0.09405189
246	0x3e4680b7	0.19385038
247	0xbdf169a2	-0.11787726
248	0x3d8d4c09	0.06899268
249	0x3d0ce606	0.034399055
250	0x3d990077	0.07470792
251	0x3e17a0be	0.14807412
252	0x3d77501e	0.06037914
253	0xbe351f9e	-0.17687842
254	0xbd127e34	-0.035764888
255	0xbc3cf03d	-0.011531887

encoder.obs_encoder.1.bias f4 [64]
0	0x3988b44c	0.00026074273
1	0xbbf72c16	-0.0075430973
2	0x3b6ea34f	0.0036413257
3	0x3c4430a7	0.01197449
4	0x3ce5d9da	0.028057981
5	0x3bcc2612	0.0062301243
6	0x3bd8f340	0.0066207945
7	0x3cf0fb57	0.029416723
8	0x3cb492ff	0.02204275
9	0x3cb0b47d	0.021570439
10	0x3c9f5f29	0.019454556
11	0x3bc4d8c3	0.0060072853
12	0xbc4b25be	-0.012399135
13	0xbc753d52	-0.014968233
14	0x3cf202cb	0.029542347
15	0x3bb29501	0.0054498916
16	0x3b8c97fe	0.00429058
17	0x3bf6a96e	0.007527522
18	0x3cdd6701	0.027026655
19	0xbbc13f4f	-0.0058974396
20	0xbb126d66	-0.0022343039
21	0x3bf426af	0.0074509005
22	0xbaa84b83	-0.0012839887
23	0xbc82972c	-0.015941225
24	0xbc2ead9e	-0.010661511
25	0xbcc34b34	-0.02383957
26	0xba8de664	-0.0010826108
27	0x3ce4d1eb	0.027932128
28	0xba8c3ab8	-0.0010698652
29	0x3cea386f	0.028591363
30	0xbc1fb29b	-0.009747173
31	0xbaf5bc6b	-0.001874817
32	0x3ba4ee37	0.0050332802
33	0x3ca056f6	0.019572716
34	0x3cd04bdf	0.025426803
35	0x3cff3652	0.031153832
36	0x3d2b7573	0.041860055
37	0xbb14e29d	-0.002271808
38	0xbd164e26	-0.036695622
39	0x3bc23af4	0.005927438
40	0x3caadaa0	0.020856202
41	0x3ab68343	0.0013924617
42	0x3c0c926b	0.008579831
43	0xbc353ec8	-0.0110623315
44	0x3bceeef6	0.0063151075
45	0x3b60dccb	0.003431129
46	0x3c8d8894	0.01727704
47	0xbc016ec6	-0.007899946
48	0xbcacb4af	-0.02108225
49	0x3cabb7f9	0.020961748
50	0x3ca0b244	0.019616254
51	0x3bcbcfbb	0.0062198318
52	0x3ca7147a	0.020395506
53	0x3c92aac3	0.017903691
54	0x3cd143e4	0.025545068
55	0xbbca57dc	-0.0061750244
56	0x3c819250	0.015816838
57	0xbd0a315e	-0.033738486
58	0xbc883176	-0.016625147
59	0x3cc94024	0.024566717
60	0xbc340215	-0.0109868245
61	0x3c0e83a2	0.008698376
62	0xbb0c25d5	-0.0021384854
63	0xbc8bb40f	-0.017053632

encoder.ln.weight f4 [64]
0	0x3f744d92	0.9543086
1	0x3f77da8d	0.9681786
2	0x3f6f1e5a	0.9340569
3	0x3f86f887	1.0544595
4	0x3f814875	1.0100237
5	0x3f7ad7d7	0.97985595
6	0x3f84c88c	1.0373702
7	0x3f893d5e	1.0721853
8	0x3f77467a	0.96591914
9	0x3f851b4a	1.0398953
10	0x3f73db8a	0.95256865
11	0x3f78bb2d	0.9716061
12	0x3f7f6f69	0.99779373
13	0x3f829218	1.0200834
14	0x3f81d72c	1.014379
15	0x3f7413da	0.9534279
16	0x3f71eaf3	0.9449913
17	0x3f7f53ae	0.9973706
18	0x3f82e3b3	1.0225738
19	0x3f7dc17f	0.99123377
20	0x3f833c94	1.0252862
21	0x3f721850	0.9456835
22	0x3f74a6c5	0.9556697
23	0x3f84baea	1.0369542
24	0x3f8388d0	1.0276127
25	0x3f802716	1.0011928
26	0x3f83b881	1.0290681
27	0x3f7de11e	0.99171627
28	0x3f7a07b4	0.97668004
29	0x3f8afd1f	1.0858496
30	0x3f7c3e53	0.985326
31	0x3f857943	1.0427631
32	0x3f7db920	0.99110603
33	0x3f806197	1.0029782
34	0x3f76aa86	0.9635395
35	0x3f821553	1.0162758
36	0x3f7267f5	0.94689876
37	0x3f742aea	0.9537798
38	0x3f7ba7da	0.98302996
39	0x3f812da6	1.0092056
40	0x3f844a25	1.0335127
41	0x3f84757b	1.0348352
42	0x3f6fdb4b	0.9369399
43	0x3f8101c0	1.0078659
44	0x3f82ea2b	1.0227712
45	0x3f82a56f	1.0206736
46	0x3f7cf757	0.9881491
47	0x3f792d1f	0.97334474
48	0x3f8402b2	1.0313323
49	0x3f84a750	1.036356
50	0x3f821cf7	1.0165089
51	0x3f819422	1.0123332
52	0x3f7381a6	0.951197
53	0x3f826e41	1.0189897
54	0x3f84c176	1.037154
55	0x3f7f8872	0.99817574
56	0x3f84f14c	1.0386138
57	0x3f7b2780	0.9810715
58	0x3f7cc999	0.98745114
59	0x3f804a17	1.002261
60	0x3f71eef0	0.94505215
61	0x3f7ea772	0.9947425
62	0x3f82b4d5	1.0211436
63	0x3f7f5cb6	0.9975084

encoder.ln.bias f4 [64]
0	0xbc3af5af	-0.011411115
1	0xbc337fac	-0.010955732
2	0x3bd834cd	0.006598091
3	0xbbf37e1f	-0.0074308063
4	0x3c5ab9a1	0.013349921
5	0x3bf94fd7	0.0076083946
6	0xbcb3012d	-0.021851147
7	0x3c24f53a	0.010068232
8	0xbb39a40a	-0.0028326535
9	0x3c14269a	0.009042406
10	0x3cbfac56	0.023397606
11	0xbaf0a013	-0.0018358253
12	0xbc889321	-0.016671719
13	0xbc52b635	-0.012860824
14	0x3c8a13d6	0.016855162
15	0x3b4d0b8d	0.0031287402
16	0x39cd5266	0.0003916204
17	0xbc89dc71	-0.016828747
18	0xbc04d1ef	-0.008106693
19	0x3c3a2316	0.011360904
20	0xbc37db22	-0.011221679
21	0x3b890426	0.0041814027
22	0x3b96ca2d	0.004601738
23	0xbcf85328	-0.03031309
24	0xbc9a0297	-0.018800063
25	0xbb90d356	-0.0044197245
26	0xbc8107b6	-0.015750747
27	0x3c980f5d	0.018562013
28	0x3a977897	0.0011556324
29	0x3ce14e6c	0.027503215
30	0x3b79bc70	0.0038106702
31	0xbc700341	-0.014649213
32	0x3cb7b2d9	0.022424148
33	0x3c77cdf7	0.015124789
34	0x3b226c60	0.0024783835
35	0x3c33cad5	0.010973652
36	0x3d6d6f92	0.05796773
37	0xbb979563	-0.0046259626
38	0x3ab8edce	0.0014108957
39	0x3c4033fc	0.011731144
40	0x3b82fdec	0.003997555
41	0x3b2897a1	0.0025725143
42	0x3cce5ede	0.02519172
43	0xbb9db811	-0.004813202
44	0xbcdd6045	-0.027023444
45	0x3c11c7b3	0.00889771
46	0x3c98c8ce	0.018650439
47	0xbc8541a4	-0.016266651
48	0xbcc0bf06	-0.023528587
49	0x3bccb35b	0.006246967
50	0x3bc15409	0.0058999103
51	0x3a8a6e60	0.0010561459
52	0xbc037c86	-0.008025294
53	0x3c5e0f63	0.013553473
54	0x3c240fc3	0.0100135235
55	0xbc843e4e	-0.01614299
56	0x3c9f245f	0.019426523
57	0x3c7e8284	0.015534047
58	0x3c6faad1	0.014628128
59	0x3c8c4325	0.01712186
60	0x3c89e40f	0.01683238
61	0xbb56aa3e	-0.003275528
62	0xbc8b7ade	-0.017026361
63	0xbc84e62f	-0.016223041

encoder.blocks.0.ln1.weight f4 [64]
0	0x3f76d5fb	0.9642026
1	0x3f8110f0	1.0083294
2	0x3f72011a	0.9453293
3	0x3f84ba9a	1.0369446
4	0x3f7cb77a	0.98717463
5	0x3f805085	1.0024573
6	0x3f838147	1.0273827
7	0x3f841398	1.031848
8	0x3f70fc27	0.94134754
9	0x3f874f62	1.0571101
10	0x3f7887c7	0.9708218
11	0x3f6eff8d	0.9335869
12	0x3f80cd2d	1.0062615
13	0x3f823ea4	1.0175366
14	0x3f7f8e0b	0.99826115
15	0x3f7a293e	0.9771918
16	0x3f7052ae	0.9387616
17	0x3f8108ab	1.008077
18	0x3f82874e	1.0197542
19	0x3f7bc306	0.9834446
20	0x3f800e13	1.0004295
21	0x3f750045	0.95703536
22	0x3f6e48c9	0.9307981
23	0x3f8580f3	1.0429977
24	0x3f8590f5	1.0434862
25	0x3f800c2e	1.0003717
26	0x3f84a6fb	1.0363458
27	0x3f715395	0.9426816
28	0x3f7792d5	0.9670842
29	0x3f89f141	1.077675
30	0x3f7c1cfe	0.9848174
31	0x3f850350	1.0391636
32	0x3f799bf9	0.9750362
33	0x3f81a108	1.0127268
34	0x3f755bc8	0.9584317
35	0x3f8621f1	1.0479108
36	0x3f6e5a68	0.931067
37	0x3f7b6915	0.9820722
38	0x3f7c80cf	0.98634046
39	0x3f827841	1.0192949
40	0x3f85830d	1.0430619
41	0x3f87f5da	1.0621903
42	0x3f74e5b5	0.95663005
43	0x3f805d4e	1.0028474
44	0x3f8314b8	1.0240698
45	0x3f834af4	1.0257249
46	0x3f80a53a	1.0050423
47	0x3f6ebc25	0.93255836
48	0x3f860e80	1.0473175
49	0x3f83037d	1.023544
50	0x3f8128d6	1.0090587
51	0x3f821a0f	1.0164202
52	0x3f7c703d	0.9860876
53	0x3f7946fe	0.9737395
54	0x3f8369cb	1.026666
55	0x3f82e3ad	1.0225731
56	0x3f8363db	1.0264848
57	0x3f771034	0.965091
58	0x3f7b88d5	0.98255664
59	0x3f7c62d2	0.9858829
60	0x3f75be55	0.9599355
61	0x3f7e5485	0.99347717
62	0x3f832210	1.024477
63	0x3f813d8c	1.0096908

encoder.blocks.0.ln1.bias f4 [64]
0	0xbc05651e	-0.008141784
1	0xbb9bdc6f	-0.0047565023
2	0x3c71d8a7	0.014761127
3	0xbcb3f2eb	-0.021966418
4	0x3c1c7b4d	0.009550882
5	0x3bc732e3	0.006079064
6	0xbc9cad0e	-0.019125488
7	0x3b616446	0.0034392043
8	0x3b1f5138	0.0024309885
9	0x3c00438d	0.007828605
10	0x3cdc5501	0.026896002
11	0x3ca458f1	0.020061942
12	0xbc5a3d8a	-0.013320336
13	0xbc634bb7	-0.013873032
14	0x3c747198	0.014919661
15	0x3c685c8b	0.01418222
16	0xbb490438	-0.003067268
17	0xbc49bf83	-0.012313726
18	0xbbad1aa2	-0.005282716
19	0x3cabb053	0.020958101
20	0xbb81d0ab	-0.0039616427
21	0xbb0225e8	-0.001985902
22	0x3c687474	0.014187921
23	0xbcfd4344	-0.030915864
24	0xbd019652	-0.031637497
25	0xbbc8f863	-0.0061331256
26	0xbc2505a2	-0.010072144
27	0x3cb307d8	0.021854326
28	0xbbb2e7a8	-0.0054597445
29	0x3d0c0069	0.03418008
30	0xbb801bdd	-0.0039095716
31	0xbc8b1506	-0.016977798
32	0x3cbb18ad	0.022838915
33	0x3d10bb6f	0.035335
34	0x3be5b054	0.0070095453
35	0x3c314ac0	0.010821044
36	0x3d8c37c3	0.06846573
37	0xbbc96206	-0.0061457185
38	0xbaaac3d8	-0.0013028337
39	0x3c97984e	0.018505242
40	0x3b575240	0.0032855421
41	0xbcd5014c	-0.026001595
42	0x3cc4b30e	0.024011161
43	0xba6d219c	-0.00090458407
44	0xbce81c18	-0.028333709
45	0x3c1e8909	0.009676226
46	0x3cd77213	0.026299512
47	0xbbeef2a8	-0.0072921105
48	0xbc87a606	-0.016558658
49	0xbaa3f0d9	-0.0012507691
50	0x38c0b3ad	9.188741e-05
51	0xbbb0b7fa	-0.0053930255
52	0xbc2a883a	-0.0104084555
53	0x3c2209a4	0.009889994
54	0x3c303b4d	0.010756326
55	0xbc2e6966	-0.010645246
56	0x3c9a9948	0.018871918
57	0x3cecbdfa	0.028899182
58	0x3c9e7eff	0.019347666
59	0x3c790db3	0.01520102
60	0x3c8f3f48	0.01748623
61	0xbb6587fd	-0.0035023682
62	0xbc63af58	-0.013896786
63	0xbc50e621	-0.0127501795

encoder.blocks.0.ln2.weight f4 [64]
0	0x3f755e6c	0.958472
1	0x3f7e8ab4	0.99430394
2	0x3f7b44c1	0.98151785
3	0x3f861fcb	1.0478452
4	0x3f7e4a3d	0.9933203
5	0x3f7d9e0b	0.9906928
6	0x3f7dd93d	0.99159604
7	0x3f82aaaa	1.0208333
8	0x3f7a0834	0.97668767
9	0x3f88eeb4	1.0697846
10	0x3f76b716	0.96373117
11	0x3f7864eb	0.9702899
12	0x3f80c558	1.0060225
13	0x3f83106a	1.0239384
14	0x3f824992	1.0178702
15	0x3f7bc5e9	0.9834886
16	0x3f6ecea2	0.93284047
17	0x3f81ae4a	1.0131314
18	0x3f81fb78	1.0154867
19	0x3f7eb275	0.99491054
20	0x3f7e1677	0.9925303
21	0x3f789cbe	0.9711417
22	0x3f75efe8	0.9606919
23	0x3f86170e	1.0475786
24	0x3f8113f1	1.0084211
25	0x3f8008ca	1.0002682
26	0x3f850335	1.0391604
27	0x3f73c5e3	0.95223826
28	0x3f799a51	0.97501093
29	0x3f86c6e3	1.0529445
30	0x3f77f380	0.96855927
31	0x3f8209d9	1.0159255
32	0x3f7c64a6	0.9859108
33	0x3f8403cc	1.0313659
34	0x3f704c60	0.9386654
35	0x3f84bd35	1.0370241
36	0x3f7d244b	0.98883504
37	0x3f793e0a	0.9736029
38	0x3f7a9d79	0.97896534
39	0x3f88d2bf	1.0689315
40	0x3f8773ef	1.0582255
41	0x3f895431	1.0728818
42	0x3f79d125	0.97584754
43	0x3f80cdc3	1.0062793
44	0x3f83c8f4	1.0295701
45	0x3f825630	1.0182552
46	0x3f808f9b	1.0043825
47	0x3f7105af	0.941493
48	0x3f84d329	1.0376941
49	0x3f80e0fc	1.006866
50	0x3f812508	1.0089426
51	0x3f88c0f6	1.0683887
52	0x3f7c3d5f	0.98531145
53	0x3f737e70	0.95114803
54	0x3f815434	1.0103822
55	0x3f77d235	0.96805125
56	0x3f8157e4	1.0104947
57	0x3f7f87e4	0.9981673
58	0x3f7a1bd2	0.976987
59	0x3f803bf1	1.0018293
60	0x3f756624	0.9585898
61	0x3f7e1c79	0.99262196
62	0x3f88371f	1.0641822
63	0x3f81550e	1.0104082

encoder.blocks.0.ln2.bias f4 [64]
0	0x3ad57707	0.0016286083
1	0x3b3850a3	0.0028124235
2	0x3cbb8f29	0.022895413
3	0xbd120f2e	-0.035659008
4	0x3be8ccd0	0.0071044937
5	0xbaedc44d	-0.0018140167
6	0xbca3dc47	-0.020002497
7	0x3b655e9c	0.0034999019
8	0xbc97de95	-0.018538753
9	0x3cb16c80	0.021658182
10	0x3c215f59	0.009849393
11	0xbb1ccc1b	-0.0023925367
12	0xbb672ab2	-0.003527325
13	0xbabc41de	-0.0014362892
14	0x3c4660de	0.012108056
15	0x3cf59e76	0.029982787
16	0xbc7035cc	-0.014661264
17	0xbbc2c8ce	-0.005944348
18	0xbc3449c8	-0.011003919
19	0x3a3e9453	0.0007270027
20	0xbcb16a23	-0.021657055
21	0x3c741c18	0.014899276
22	0xbb772954	-0.0037713842
23	0xbd148dda	-0.036268093
24	0xbcab83aa	-0.020936806
25	0xbc1e41ab	-0.009659211
26	0x3ade3a27	0.0016954587
27	0x3c06f280	0.008236527
28	0xbbde3e7a	-0.00678235
29	0x3c8867b9	0.016651021
30	0x3c01a6dd	0.007913318
31	0xbc0a5c32	-0.008444833
32	0x3c433123	0.011913571
33	0x3d390f09	0.045180354
34	0x3ad88b4b	0.0016521005
35	0x3c7f3179	0.01557576
36	0x3d2b4574	0.041814283
37	0xbc008a27	-0.007845438
38	0x3a77c7d5	0.00094520795
39	0x3b3b0f11	0.0028542916
40	0x3c1aa4b7	0.009438685
41	0xbce375a8	-0.027766064
42	0x3d038998	0.03211364
43	0x3b815a8d	0.003947562
44	0xbc9fae50	-0.019492298
45	0x3c0f3558	0.0087407455
46	0x3c94fc41	0.01818669
47	0xbc378ba1	-0.011202724
48	0xbc100081	-0.008789183
49	0x3911dd63	0.0001391075
50	0xbc5e56bb	-0.013570483
51	0xbc21e0d7	-0.009880266
52	0xbbc84744	-0.006112011
53	0x3c2f408b	0.010696541
54	0x3b51e3a3	0.0032026551
55	0x3bb1ced9	0.0054262695
56	0x3c97f91b	0.0185514
57	0xbb242d1b	-0.00250513
58	0x3cba1f36	0.02271996
59	0x3bf6ad97	0.0075280177
60	0x3c7e973a	0.015538985
61	0x3a1c4359	0.00059609633
62	0xbd1313d2	-0.035907574
63	0xbb099768	-0.0020994786

encoder.blocks.0.attn.mask f4 [1, 1, 12, 12]
0	0x3f800000	1.0
1	0x00000000	0.0
2	0x00000000	0.0
3	0x00000000	0.0
4	0x00000000	0.0
5	0x00000000	0.0
6	0x00000000	0.0
7	0x00000000	0.0
8	0x00000000	0.0
9	0x00000000	0.0
10	0x00000000	0.0
11	0x00000000	0.0
12	0x3f800000	1.0
13	0x3f800000	1.0
14	0x00000000	0.0
15	0x00000000	0.0
16	0x00000000	0.0
17	0x00000000	0.0
18	0x00000000	0.0
19	0x00000000	0.0
20	0x00000000	0.0
21	0x00000000	0.0
22	0x00000000	0.0
23	0x00000000	0.0
24	0x3f800000	1.0
25	0x3f800000	1.0
26	0x3f800000	1.0
27	0x00000000	0.0
28	0x00000000	0.0
29	0x00000000	0.0
30	0x00000000	0.0
31	0x00000000	0.0
32	0x00000000	0.0
33	0x00000000	0.0
34	0x00000000	0.0
35	0x00000000	0.0
36	0x3f800000	1.0
37	0x3f800000	1.0
38	0x3f800000	1.0
39	0x3f800000	1.0
40	0x00000000	0.0
41	0x00000000	0.0
42	0x00000000	0.0
43	0x00000000	0.0
44	0x00000000	0.0
45	0x00000000	0.0
46	0x00000000	0.0
47	0x00000000	0.0
48	0x3f800000	1.0
49	0x3f800000	1.0
50	0x3f800000	1.0
51	0x3f800000	1.0
52	0x3f800000	1.0
53	0x00000000	0.0
54	0x00000000	0.0
55	0x00000000	0.0
56	0x00000000	0.0
57	0x00000000	0.0
58	0x00000000	0.0
59	0x00000000	0.0
60	0x3f800000	1.0
61	0x3f800000	1.0
62	0x3f800000	1.0
63	0x3f800000	1.0
64	0x3f800000	1.0
65	0x3f800000	1.0
66	0x00000000	0.0
67	0x00000000	0.0
68	0x00000000	0.0
69	0x00000000	0.0
70	0x00000000	0.0
71	0x00000000	0.0
72	0x3f800000	1.0
73	0x3f800000	1.0
74	0x3f800000	1.0
75	0x3f800000	1.0
76	0x3f800000	1.0
77	0x3f800000	1.0
78	0x3f800000	1.0
79	0x00000000	0.0
80	0x00000000	0.0
81	0x00000000	0.0
82	0x00000000	0.0
83	0x00000000	0.0
84	0x3f800000	1.0
85	0x3f800000	1.0
86	0x3f800000	1.0
87	0x3f800000	1.0
88	0x3f800000	1.0
89	0x3f800000	1.0
90	0x3f800000	1.0
91	0x3f800000	1.0
92	0x00000000	0.0
93	0x00000000	0.0
94	0x00000000	0.0
95	0x00000000	0.0
96	0x3f800000	1.0
97	0x3f800000	1.0
98	0x3f800000	1.0
99	0x3f800000	1.0
100	0x3f800000	1.0
101	0x3f800000	1.0
102	0x3f800000	1.0
103	0x3f800000	1.0
104	0x3f800000	1.0
105	0x00000000	0.0
106	0x00000000	0.0
107	0x00000000	0.0
108	0x3f800000	1.0
109	0x3f800000	1.0
110	0x3f800000	1.0
111	0x3f800000	1.0
112	0x3f800000	1.0
113	0x3f800000	1.0
114	0x3f800000	1.0
115	0x3f800000	1.0
116	0x3f800000	1.0
117	0x3f800000	1.0
118	0x00000000	0.0
119	0x00000000	0.0
120	0x3f800000	1.0
121	0x3f800000	1.0
122	0x3f800000	1.0
123	0x3f800000	1.0
124	0x3f800000	1.0
125	0x3f800000	1.0
126	0x3f800000	1.0
127	0x3f800000	1.0
128	0x3f800000	1.0
129	0x3f800000	1.0
130	0x3f800000	1.0
131	0x00000000	0.0
132	0x3f800000	1.0
133	0x3f800000	1.0
134	0x3f800000	1.0
135	0x3f800000	1.0
136	0x3f800000	1.0
137	0x3f800000	1.0
138	0x3f800000	1.0
139	0x3f800000	1.0
140	0x3f800000	1.0
141	0x3f800000	1.0
142	0x3f800000	1.0
143	0x3f800000	1.0

encoder.blocks.0.attn.key.weight f4 [64, 64]
0	0xbd773ccb	-0.06036071
1	0xbca6baba	-0.02035271
2	0xbcb6f02c	-0.02233132
3	0x3d7ba4c8	0.061436445
4	0x3d6688cc	0.056282803
5	0x3d756dee	0.05991929
6	0x3ce749b3	0.028233385
7	0xbd66e530	-0.056370914
8	0xbd94e4dd	-0.07270215
9	0xbc60a798	-0.013711832
10	0xbd560c4f	-0.052257832
11	0x3d4db2f0	0.050219476
12	0xba380ff2	-0.0007021419
13	0xbdafe1a7	-0.08587962
14	0xbc89d113	-0.016823327
15	0x3c8f38f2	0.017483208
16	0x3c2bfc32	0.01049714
17	0x3da2d040	0.07949877
18	0x3d9bb8a5	0.076035775
19	0x3ce146b5	0.027499536
20	0x3cb0cf2e	0.021583166
21	0xbcbd5148	-0.023110047
22	0x3da5a498	0.080880344
23	0x3c9d2dcd	0.019186879
24	0x3d6de72f	0.058081802
25	0x3d134fb9	0.0359647
26	0xbcf08df5	-0.029364565
27	0xbe358c08	-0.17729199
28	0xbd3a56b5	-0.045492847
29	0xbdb823a7	-0.08991175
30	0x3d691f3b	0.05691455
31	0xbdbf76c6	-0.09348826
32	0x3d058e53	0.032606434
33	0xbdb626cd	-0.088941194
34	0x3d5cd2bb	0.053911906
35	0xbcf6ec3f	-0.030141948
36	0x3cb94cd3	0.02261964
37	0x3be3d028	0.0069523044
38	0x3ccc085e	0.024906334
39	0x3d1e3b7e	0.038630955
40	0xbdb5bb22	-0.088735834
41	0x3e0eb832	0.13937452
42	0xbbd90218	-0.006622564
43	0x3dfcf42b	0.12351259
44	0x3da30dc3	0.07961609
45	0x3c32c4a9	0.010911145
46	0x3d2cdea2	0.042204507
47	0x3df15672	0.11784066
48	0x3cc029f1	0.0234575
49	0x3bc289b7	0.005936827
50	0x3c483c05	0.012221341
51	0x3dbccd40	0.09218836
52	0xbd6d6fd8	-0.05796799
53	0x39f82ce7	0.000473357
54	0xbd5c24f0	-0.053746164
55	0xbbe4cef8	-0.0069826804
56	0xbc9d3372	-0.01918957
57	0x3d352c62	0.04423178
58	0x3cc01445	0.023447165
59	0xbd0eae51	-0.03483421
60	0x3dc69e2e	0.09698139
61	0xbddb65e3	-0.10712793
62	0xbd111b9a	-0.035426714
63	0x3dad930f	0.08475315
64	0x3c0ebaa5	0.008711492
65	0x3c0ae235	0.0084767835
66	0x3caae7a2	0.020862404
67	0xbc83aebb	-0.016074529
68	0x3d26d0d8	0.040726513
69	0x3c8cc227	0.017182423
70	0x3991c612	0.0002780413
71	0xbd38e635	-0.045141418
72	0x3c47f156	0.012203535
73	0x3c92f8bb	0.01794087
74	0x3d5a35f3	0.053274106
75	0xbc8c8357	-0.017152471
76	0xbdf544ac	-0.11975989
77	0x3cd00a79	0.025395619
78	0xba6d55e0	-0.0009053629
79	0x3d8550d4	0.06509557
80	0x3c81b21c	0.015832
81	0xbd39d337	-0.045367446
82	0xbcf087b2	-0.02936158
83	0xbcb35064	-0.02188892
84	0xbc98e94d	-0.018665934
85	0x3d2eeca6	0.042706154
86	0xbdb0874f	-0.08619558
87	0xbca1929a	-0.019723225
88	0xbca52d05	-0.020163069
89	0xbc9c164a	-0.019053597
90	0x3e05060d	0.1299059
91	0x3de8e7a5	0.11372308
92	0x3db2a342	0.08722545
93	0xbcd36d28	-0.025808886
94	0x3ca05f45	0.019576678
95	0x3d821d14	0.063532025
96	0x3c9e55fc	0.01932811
97	0x3d5ae514	0.053441122
98	0xbccc5355	-0.02494208
99	0x3d523db0	0.05132836
100	0xbc7fb810	-0.015607849
101	0xbcc5b380	-0.024133444
102	0xbc70a8c3	-0.014688673
103	0xbd355a45	-0.04427554
104	0x3df32a59	0.118733115
105	0xbd079ab8	-0.033106536
106	0xbc8e03d3	-0.017335808
107	0xbda9443e	-0.08264969
108	0xbd75f106	-0.06004431
109	0xbd138f80	-0.036025524
110	0x3d0dd873	0.03463025
111	0xbb0d7433	-0.0021584153
112	0xbd0fbdec	-0.035093233
113	0x3c1cfaaf	0.009581252
114	0xbdcffe52	-0.101559296
115	0xbcefb10f	-0.029259233
116	0xbbe7fc6e	-0.0070796525
117	0x3d3d813f	0.046265837
118	0xbd43ba4b	-0.047785085
119	0xbc1b1719	-0.009465956
120	0xbc609cee	-0.01370929
121	0xbb1089a9	-0.0022054708
122	0xbc75a539	-0.014993005
123	0xbd0ec2c1	-0.0348537
124	0xbca309ad	-0.019902075
125	0x3d0fc039	0.035095427
126	0x3c61386b	0.013746361
127	0xbd83e8ff	-0.06440925
128	0xbc91658b	-0.017748615
129	0x3a47a6d2	0.0007616106
130	0xbd04d652	-0.032430954
131	0x3c246ff5	0.010036458
132	0xbd2b2a51	-0.041788403
133	0xbcc9cf0f	-0.024634866
134	0xbc12fcf7	-0.008971444
135	0x3d2b923d	0.04188751
136	0x3c07f9e6	0.0082993265
137	0x3c13b0cb	0.009014319
138	0xbd01f80d	-0.0317307
139	0xbbedc8aa	-0.007256587
140	0x3dc679d9	0.09691209
141	0xbbdc3e81	-0.0067213182
142	0x3b0633bb	0.002047761
143	0xbd8c6501	-0.068552025
144	0xbc7e3582	-0.015515687
145	0x3d06c558	0.032903045
146	0x3c87e75e	0.016589817
147	0x3c3f3860	0.011671156
148	0x3ac1781b	0.0014760526
149	0xbd07568a	-0.033041514
150	0x3d20afb0	0.03923005
151	0x3c5fa254	0.013649542
152	0x3b9fea9b	0.004880262
153	0x3c17245b	0.009224976
154	0xbdc919a6	-0.09819345
155	0xbd0f9f3d	-0.03506397
156	0xbda4b3e7	-0.08042126
157	0x3d434e7c	0.04768227
158	0xbd072d42	-0.033002146
159	0xbce19624	-0.027537413
160	0xbd01e5d5	-0.031713326
161	0xbd223554	-0.03960164
162	0xba6d7ee0	-0.00090597384
163	0xbce63600	-0.028101921
164	0x3c1a4fe8	0.009418465
165	0x3c3a612e	0.0113757085
166	0x3bf824b1	0.0075727333
167	0x3d021049	0.031753812
168	0xbdc8cb44	-0.09804395
169	0x3cb2d9fb	0.021832457
170	0x3bdfa66c	0.006825259
171	0x3d5ef138	0.054429263
172	0x3d13fc4a	0.036129273
173	0x3d0d5721	0.03450692
174	0xbd19645c	-0.037449226
175	0xbc683e05	-0.014174943
176	0x3c963eff	0.018340586
177	0x3c81540a	0.015787143
178	0x3e01454b	0.1262409
179	0x38a8bf82	8.0465354e-05
180	0x3adc4ae0	0.0016806982
181	0xbd0bb567	-0.034108546
182	0x3d75c54c	0.06000261
183	0x3c88f24a	0.016717095
184	0x3c80b60f	0.015711812
185	0xbb6b9a50	-0.0035950132
186	0x3c0bde98	0.008536957
187	0x3ce19aaa	0.02753957
188	0x3c1176d0	0.008878425
189	0xbc07f0f5	-0.008297195
190	0xbc4a7353	-0.012356597
191	0x3d337d19	0.043820474
192	0x3c816da5	0.015799353
193	0xbc8ad1c3	-0.016945725
194	0x3cb0059a	0.021487046
195	0xbc689976	-0.014196744
196	0xbd923eec	-0.07140908
197	0xbd034326	-0.03204646
198	0xbd2036b9	-0.039114688
199	0x3cf0a5f7	0.029376013
200	0xbc6d7586	-0.014493352
201	0xbc2569bb	-0.010096009
202	0x3cc67ed8	0.024230406
203	0xbd25be76	-0.04046484
204	0x3d07c153	0.033143353
205	0x3d30be2f	0.043150123
206	0xbc3524b0	-0.01105611
207	0xbbaff360	-0.0053695887
208	0xbd6926e5	-0.05692186
209	0xbd3125b3	-0.043248843
210	0xbc0d7d01	-0.00863576
211	0xbc616930	-0.013757989
212	0xbd89d447	-0.06729942
213	0xbbe7716e	-0.0070630824
214	0xbdb2947c	-0.087197274
215	0xbc0e304a	-0.008678505
216	0xbd4e7ea6	-0.05041375
217	0xbca1afc3	-0.01973713
218	0x3cd3354c	0.02578225
219	0x3dba302a	0.09091218
220	0xbcf5a821	-0.029987397
221	0x3e02f107	0.12787257
222	0xbd8e8a27	-0.06959944
223	0x3d8dd751	0.06925834
224	0xbd0645b0	-0.032781303
225	0x3d261b93	0.04055364
226	0xbcf9edea	-0.030508954
227	0xbb9754ed	-0.0046182782
228	0xbc92d139	-0.01792203
229	0xb9dcb701	-0.00042098018
230	0xbc3cb367	-0.011517382
231	0x3bd69ae8	0.006549228
232	0x3d6afeb0	0.057371795
233	0xbd8fcd20	-0.07021546
234	0x3c6cef98	0.0144614205
235	0xbd942011	-0.07232679
236	0xbca04a3e	-0.019566651
237	0x3c86ebbb	0.016469827
238	0xbc9e2e3e	-0.01930916
239	0xbdaa9684	-0.0832949
240	0xbc9a3590	-0.018824369
241	0x3cd5542e	0.026041117
242	0x3d67d48b	0.05659918
243	0xbd5c0209	-0.05371288
244	0xb91a0205	-0.00014687337
245	0x3cb14e13	0.021643674
246	0x3de00ba0	0.10939717
247	0x3a3c4cce	0.00071830756
248	0x3d2bcb1e	0.041941755
249	0xbcd1b14d	-0.025597239
250	0xbc14de16	-0.009086153
251	0x3ca2c6db	0.019870212
252	0x3bc4a556	0.006001155
253	0x3d6b3579	0.057424042
254	0x3c4171d1	0.011806921
255	0xbd63effe	-0.055648796

encoder.blocks.0.attn.key.bias f4 [64]
0	0x3205b4a5	7.782693e-09
1	0xb28d9026	-1.6480111e-08
2	0x3252c7a5	1.2269003e-08
3	0xb2e1fe75	-2.6309161e-08
4	0x332ac5ee	3.9761225e-08
5	0xb185ec68	-3.8976857e-09
6	0xb34dc185	-4.7906287e-08
7	0xb2211c6a	-9.377894e-09
8	0x30c0ab27	1.4018483e-09
9	0xb15754b2	-3.1334761e-09
10	0x31300514	2.5614257e-09
11	0x31a6cca7	4.854502e-09
12	0x31fd23e0	7.3673476e-09
13	0x315e24f4	3.2326257e-09
14	0xb2a593bc	-1.927571e-08
15	0xb2896492	-1.5994633e-08
16	0xb28a24ff	-1.6082138e-08
17	0x32ae4e00	2.0291736e-08
18	0x3310e964	3.373988e-08
19	0xb2c0890a	-2.241406e-08
20	0x3354ffbc	4.9592686e-08
21	0x32c179e9	2.2523595e-08
22	0xb2afb3a4	-2.0454372e-08
23	0xb24b8ffe	-1.1848895e-08
24	0x31411f00	2.8102818e-09
25	0xb2dd17d6	-2.5738625e-08
26	0xb2e4eb9e	-2.664984e-08
27	0xb351c4db	-4.8840644e-08
28	0xb1061742	-1.9512787e-09
29	0xb2a5333c	-1.9231827e-08
30	0xb38778aa	-6.308376e-08
31	0x32e0b671	2.6159997e-08
32	0x31257ff3	2.408339e-09
33	0x31a65f29	4.8420543e-09
34	0x3224825d	9.575698e-09
35	0xb2d34ff7	-2.4599997e-08
36	0x32a0341a	1.8650145e-08
37	0x334d6835	4.7825058e-08
38	0xb2818815	-1.507946e-08
39	0xb2eb2d9d	-2.7378343e-08
40	0x323b2ab9	1.0894547e-08
41	0x30a8104c	1.2228241e-09
42	0x31efc0e2	6.9777437e-09
43	0x321e911f	9.229807e-09
44	0xb22b74a4	-9.980031e-09
45	0xb2d81c9d	-2.5158721e-08
46	0xb10fa772	-2.090442e-09
47	0x300845cc	4.95757e-10
48	0xb0ebf4e3	-1.7168101e-09
49	0xb210adfd	-8.4214635e-09
50	0xb261b026	-1.3136775e-08
51	0xb2b01f24	-2.0503258e-08
52	0xb3454b38	-4.5936048e-08
53	0x332d7560	4.0386453e-08
54	0x32447fa4	1.1437724e-08
55	0xb281dd32	-1.5118164e-08
56	0xb174c9e8	-3.5621444e-09
57	0xb20032c0	-7.46212e-09
58	0xb12b8a49	-2.496238e-09
59	0x332d3ade	4.033324e-08
60	0xb1c68009	-5.7771143e-09
61	0x3082ed90	9.526264e-10
62	0xb28eeca9	-1.6638596e-08
63	0xb1c8a31c	-5.8393095e-09
